// Verification failed, printing generic form
#map0 = affine_map<(d0) -> (d0)>
#map1 = affine_map<() -> (0)>
#map2 = affine_map<() -> (33554432)>
#map3 = affine_map<() -> (16384)>
#map4 = affine_map<() -> (32768)>
#map5 = affine_map<(d0, d1, d2) -> (d0, d1, d2)>
#map6 = affine_map<() -> (8192)>
#map7 = affine_map<() -> (72)>
#map8 = affine_map<() -> (4)>
#map9 = affine_map<(d0, d1) -> (d0, d1)>
#map10 = affine_map<() -> (64)>
#map11 = affine_map<() -> (32)>
#map12 = affine_map<() -> (16)>
#map13 = affine_map<() -> (128)>
#map14 = affine_map<() -> (1)>
#map15 = affine_map<() -> (2)>
#map16 = affine_map<() -> (3)>
#map17 = affine_map<() -> (5)>
"builtin.module"() ({
  "func.func"() ({
  ^bb0(%arg0: memref<33554432xi32>, %arg1: memref<10xi64>):
    %0 = "arith.constant"() {value = 0 : index} : () -> index
    %1 = "arith.constant"() {value = 0 : index} : () -> index
    %2 = "arith.constant"() {value = 0 : index} : () -> index
    %3 = "arith.constant"() {value = 0 : index} : () -> index
    %4 = "arith.constant"() {value = 0 : index} : () -> index
    %5 = "arith.constant"() {value = 0 : index} : () -> index
    %6 = "arith.constant"() {value = 0 : index} : () -> index
    %7 = "arith.constant"() {value = 0 : index} : () -> index
    %8 = "arith.constant"() {value = 0 : index} : () -> index
    %9 = "arith.constant"() {value = 0 : index} : () -> index
    %10 = "arith.constant"() {value = 0 : index} : () -> index
    %11 = "arith.constant"() {value = 0 : index} : () -> index
    %12 = "arith.constant"() {value = 0 : index} : () -> index
    %13 = "arith.constant"() {value = 0 : index} : () -> index
    %14 = "arith.constant"() {value = 0 : index} : () -> index
    %15 = "arith.constant"() {value = 0 : index} : () -> index
    %16 = "arith.constant"() {value = 0 : index} : () -> index
    %17 = "arith.constant"() {value = 0 : index} : () -> index
    %18 = "arith.constant"() {value = 0 : index} : () -> index
    %19 = "arith.constant"() {value = 0 : index} : () -> index
    %20 = "arith.constant"() {value = 0 : index} : () -> index
    %21 = "arith.constant"() {value = 0 : index} : () -> index
    %22 = "arith.constant"() {value = 0 : index} : () -> index
    %23 = "arith.constant"() {value = 0 : index} : () -> index
    %24 = "arith.constant"() {value = 0 : index} : () -> index
    %25 = "arith.constant"() {value = 0 : index} : () -> index
    %26 = "arith.constant"() {value = 0 : index} : () -> index
    %27 = "arith.constant"() {value = 0 : index} : () -> index
    %28 = "arith.constant"() {value = 0 : index} : () -> index
    %29 = "arith.constant"() {value = 0 : index} : () -> index
    %30 = "arith.constant"() {value = 0 : index} : () -> index
    %31 = "arith.constant"() {value = 0 : index} : () -> index
    %32 = "arith.constant"() {value = 0 : index} : () -> index
    %33 = "arith.constant"() {value = 0 : index} : () -> index
    %34 = "memref.alloc"() {name = "SPAD.alloc_c", operand_segment_sizes = dense<0> : vector<2xi32>, unsigned} : () -> memref<33554432xi32>
    "affine.for"() ({
    ^bb0(%arg2: index):
      %461 = "arith.constant"() {unsigned, value = 0 : i32} : () -> i32
      "affine.store"(%461, %34, %arg2) {map = #map0, to = "SPAD.alloc_c"} : (i32, memref<33554432xi32>, index) -> ()
      "affine.yield"() : () -> ()
    }) {loop_name = "i0", lower_bound = #map1, op_name = "SPAD.alloc_c", step = 1 : i32, upper_bound = #map2} : () -> ()
    %35 = "memref.alloc"() {name = "minstq.alloc_c", operand_segment_sizes = dense<0> : vector<2xi32>, unsigned} : () -> memref<16384xi64>
    "affine.for"() ({
    ^bb0(%arg2: index):
      %461 = "arith.constant"() {unsigned, value = 0 : i64} : () -> i64
      "affine.store"(%461, %35, %arg2) {map = #map0, to = "minstq.alloc_c"} : (i64, memref<16384xi64>, index) -> ()
      "affine.yield"() : () -> ()
    }) {loop_name = "i0", lower_bound = #map1, op_name = "minstq.alloc_c", step = 1 : i32, upper_bound = #map3} : () -> ()
    %36 = "memref.alloc"() {name = "flags_msyncc", operand_segment_sizes = dense<0> : vector<2xi32>, unsigned} : () -> memref<1xi1>
    %37 = "arith.constant"() {value = 0 : index} : () -> index
    %38 = "arith.constant"() {unsigned, value = false} : () -> i1
    "affine.store"(%38, %36) {map = #map1, to = "flags_msyncc", unsigned} : (i1, memref<1xi1>) -> ()
    %39 = "memref.alloc"() {name = "flags_active", operand_segment_sizes = dense<0> : vector<2xi32>, unsigned} : () -> memref<1xi1>
    %40 = "arith.constant"() {value = 0 : index} : () -> index
    %41 = "arith.constant"() {unsigned, value = false} : () -> i1
    "affine.store"(%41, %39) {map = #map1, to = "flags_active", unsigned} : (i1, memref<1xi1>) -> ()
    %42 = "memref.alloc"() {name = "flags_halt", operand_segment_sizes = dense<0> : vector<2xi32>, unsigned} : () -> memref<1xi1>
    %43 = "arith.constant"() {value = 0 : index} : () -> index
    %44 = "arith.constant"() {unsigned, value = false} : () -> i1
    "affine.store"(%44, %42) {map = #map1, to = "flags_halt", unsigned} : (i1, memref<1xi1>) -> ()
    %45 = "memref.alloc"() {name = "flags_stall", operand_segment_sizes = dense<0> : vector<2xi32>, unsigned} : () -> memref<1xi1>
    %46 = "arith.constant"() {value = 0 : index} : () -> index
    %47 = "arith.constant"() {unsigned, value = false} : () -> i1
    "affine.store"(%47, %45) {map = #map1, to = "flags_stall", unsigned} : (i1, memref<1xi1>) -> ()
    %48 = "memref.alloc"() {name = "flags_stalled", operand_segment_sizes = dense<0> : vector<2xi32>, unsigned} : () -> memref<1xi1>
    %49 = "arith.constant"() {value = 0 : index} : () -> index
    %50 = "arith.constant"() {unsigned, value = false} : () -> i1
    "affine.store"(%50, %48) {map = #map1, to = "flags_stalled", unsigned} : (i1, memref<1xi1>) -> ()
    %51 = "memref.alloc"() {name = "flags_break", operand_segment_sizes = dense<0> : vector<2xi32>, unsigned} : () -> memref<1xi1>
    %52 = "arith.constant"() {value = 0 : index} : () -> index
    %53 = "arith.constant"() {unsigned, value = false} : () -> i1
    "affine.store"(%53, %51) {map = #map1, to = "flags_break", unsigned} : (i1, memref<1xi1>) -> ()
    %54 = "memref.alloc"() {name = "count_stop", operand_segment_sizes = dense<0> : vector<2xi32>, unsigned} : () -> memref<1xi1>
    %55 = "arith.constant"() {value = 0 : index} : () -> index
    %56 = "arith.constant"() {unsigned, value = false} : () -> i1
    "affine.store"(%56, %54) {map = #map1, to = "count_stop", unsigned} : (i1, memref<1xi1>) -> ()
    %57 = "memref.alloc"() {name = "addr_stop", operand_segment_sizes = dense<0> : vector<2xi32>, unsigned} : () -> memref<1xi1>
    %58 = "arith.constant"() {value = 0 : index} : () -> index
    %59 = "arith.constant"() {unsigned, value = false} : () -> i1
    "affine.store"(%59, %57) {map = #map1, to = "addr_stop", unsigned} : (i1, memref<1xi1>) -> ()
    %60 = "memref.alloc"() {name = "inst_addr", operand_segment_sizes = dense<0> : vector<2xi32>, unsigned} : () -> memref<1xi32>
    %61 = "arith.constant"() {value = 0 : index} : () -> index
    %62 = "arith.constant"() {unsigned, value = 0 : i32} : () -> i32
    "affine.store"(%62, %60) {map = #map1, to = "inst_addr", unsigned} : (i32, memref<1xi32>) -> ()
    %63 = "memref.alloc"() {name = "inst_naddr", operand_segment_sizes = dense<0> : vector<2xi32>, unsigned} : () -> memref<1xi32>
    %64 = "arith.constant"() {value = 0 : index} : () -> index
    %65 = "arith.constant"() {unsigned, value = 0 : i32} : () -> i32
    "affine.store"(%65, %63) {map = #map1, to = "inst_naddr", unsigned} : (i32, memref<1xi32>) -> ()
    %66 = "memref.alloc"() {name = "latency_count", operand_segment_sizes = dense<0> : vector<2xi32>, unsigned} : () -> memref<1xi32>
    %67 = "arith.constant"() {value = 0 : index} : () -> index
    %68 = "arith.constant"() {unsigned, value = 0 : i32} : () -> i32
    "affine.store"(%68, %66) {map = #map1, to = "latency_count", unsigned} : (i32, memref<1xi32>) -> ()
    %69 = "memref.alloc"() {name = "latstalled", operand_segment_sizes = dense<0> : vector<2xi32>, unsigned} : () -> memref<1xi1>
    %70 = "arith.constant"() {value = 0 : index} : () -> index
    %71 = "arith.constant"() {unsigned, value = false} : () -> i1
    "affine.store"(%71, %69) {map = #map1, to = "latstalled", unsigned} : (i1, memref<1xi1>) -> ()
    %72 = "memref.alloc"() {name = "tele_inst_count", operand_segment_sizes = dense<0> : vector<2xi32>, unsigned} : () -> memref<1xi32>
    %73 = "arith.constant"() {value = 0 : index} : () -> index
    %74 = "arith.constant"() {unsigned, value = 0 : i32} : () -> i32
    "affine.store"(%74, %72) {map = #map1, to = "tele_inst_count", unsigned} : (i32, memref<1xi32>) -> ()
    %75 = "memref.alloc"() {name = "tele_stall_count", operand_segment_sizes = dense<0> : vector<2xi32>, unsigned} : () -> memref<1xi32>
    %76 = "arith.constant"() {value = 0 : index} : () -> index
    %77 = "arith.constant"() {unsigned, value = 0 : i32} : () -> i32
    "affine.store"(%77, %75) {map = #map1, to = "tele_stall_count", unsigned} : (i32, memref<1xi32>) -> ()
    %78 = "memref.alloc"() {name = "tele_latstall_count", operand_segment_sizes = dense<0> : vector<2xi32>, unsigned} : () -> memref<1xi32>
    %79 = "arith.constant"() {value = 0 : index} : () -> index
    %80 = "arith.constant"() {unsigned, value = 0 : i32} : () -> i32
    "affine.store"(%80, %78) {map = #map1, to = "tele_latstall_count", unsigned} : (i32, memref<1xi32>) -> ()
    %81 = "memref.alloc"() {name = "xinstq.alloc_c", operand_segment_sizes = dense<0> : vector<2xi32>, unsigned} : () -> memref<32768xi128>
    "affine.for"() ({
    ^bb0(%arg2: index):
      %461 = "arith.constant"() {unsigned, value = 0 : i128} : () -> i128
      "affine.store"(%461, %81, %arg2) {map = #map0, to = "xinstq.alloc_c"} : (i128, memref<32768xi128>, index) -> ()
      "affine.yield"() : () -> ()
    }) {loop_name = "i0", lower_bound = #map1, op_name = "xinstq.alloc_c", step = 1 : i32, upper_bound = #map4} : () -> ()
    %82 = "memref.alloc"() {name = "xinstq_bundles", operand_segment_sizes = dense<0> : vector<2xi32>, unsigned} : () -> memref<1xi32>
    %83 = "arith.constant"() {value = 0 : index} : () -> index
    %84 = "arith.constant"() {unsigned, value = 0 : i32} : () -> i32
    "affine.store"(%84, %82) {map = #map1, to = "xinstq_bundles", unsigned} : (i32, memref<1xi32>) -> ()
    %85 = "memref.alloc"() {name = "cinstq.alloc_c", operand_segment_sizes = dense<0> : vector<2xi32>, unsigned} : () -> memref<16384xi64>
    "affine.for"() ({
    ^bb0(%arg2: index):
      %461 = "arith.constant"() {unsigned, value = 0 : i64} : () -> i64
      "affine.store"(%461, %85, %arg2) {map = #map0, to = "cinstq.alloc_c"} : (i64, memref<16384xi64>, index) -> ()
      "affine.yield"() : () -> ()
    }) {loop_name = "i0", lower_bound = #map1, op_name = "cinstq.alloc_c", step = 1 : i32, upper_bound = #map3} : () -> ()
    %86 = "memref.alloc"() {name = "nop_count", operand_segment_sizes = dense<0> : vector<2xi32>, unsigned} : () -> memref<1xi32>
    %87 = "arith.constant"() {value = 0 : index} : () -> index
    %88 = "arith.constant"() {unsigned, value = 0 : i32} : () -> i32
    "affine.store"(%88, %86) {map = #map1, to = "nop_count", unsigned} : (i32, memref<1xi32>) -> ()
    %89 = "memref.alloc"() {name = "csyncm", operand_segment_sizes = dense<0> : vector<2xi32>, unsigned} : () -> memref<1xi1>
    %90 = "arith.constant"() {value = 0 : index} : () -> index
    %91 = "arith.constant"() {unsigned, value = false} : () -> i1
    "affine.store"(%91, %89) {map = #map1, to = "csyncm", unsigned} : (i1, memref<1xi1>) -> ()
    %92 = "memref.alloc"() {name = "cstore_cycle", operand_segment_sizes = dense<0> : vector<2xi32>, unsigned} : () -> memref<1xi3>
    %93 = "arith.constant"() {value = 0 : index} : () -> index
    %94 = "arith.constant"() {unsigned, value = 0 : i3} : () -> i3
    "affine.store"(%94, %92) {map = #map1, to = "cstore_cycle", unsigned} : (i3, memref<1xi3>) -> ()
    %95 = "memref.alloc"() {name = "cstore_valid", operand_segment_sizes = dense<0> : vector<2xi32>, unsigned} : () -> memref<1xi1>
    %96 = "arith.constant"() {value = 0 : index} : () -> index
    %97 = "arith.constant"() {unsigned, value = false} : () -> i1
    "affine.store"(%97, %95) {map = #map1, to = "cstore_valid", unsigned} : (i1, memref<1xi1>) -> ()
    %98 = "memref.alloc"() {name = "cstore_spadaddr", operand_segment_sizes = dense<0> : vector<2xi32>, unsigned} : () -> memref<1xi32>
    %99 = "arith.constant"() {value = 0 : index} : () -> index
    %100 = "arith.constant"() {unsigned, value = 0 : i32} : () -> i32
    "affine.store"(%100, %98) {map = #map1, to = "cstore_spadaddr", unsigned} : (i32, memref<1xi32>) -> ()
    %101 = "memref.alloc"() {name = "flags_active", operand_segment_sizes = dense<0> : vector<2xi32>, unsigned} : () -> memref<1xi1>
    %102 = "arith.constant"() {value = 0 : index} : () -> index
    %103 = "arith.constant"() {unsigned, value = false} : () -> i1
    "affine.store"(%103, %101) {map = #map1, to = "flags_active", unsigned} : (i1, memref<1xi1>) -> ()
    %104 = "memref.alloc"() {name = "flags_halt", operand_segment_sizes = dense<0> : vector<2xi32>, unsigned} : () -> memref<1xi1>
    %105 = "arith.constant"() {value = 0 : index} : () -> index
    %106 = "arith.constant"() {unsigned, value = false} : () -> i1
    "affine.store"(%106, %104) {map = #map1, to = "flags_halt", unsigned} : (i1, memref<1xi1>) -> ()
    %107 = "memref.alloc"() {name = "flags_stall", operand_segment_sizes = dense<0> : vector<2xi32>, unsigned} : () -> memref<1xi1>
    %108 = "arith.constant"() {value = 0 : index} : () -> index
    %109 = "arith.constant"() {unsigned, value = false} : () -> i1
    "affine.store"(%109, %107) {map = #map1, to = "flags_stall", unsigned} : (i1, memref<1xi1>) -> ()
    %110 = "memref.alloc"() {name = "flags_stalled", operand_segment_sizes = dense<0> : vector<2xi32>, unsigned} : () -> memref<1xi1>
    %111 = "arith.constant"() {value = 0 : index} : () -> index
    %112 = "arith.constant"() {unsigned, value = false} : () -> i1
    "affine.store"(%112, %110) {map = #map1, to = "flags_stalled", unsigned} : (i1, memref<1xi1>) -> ()
    %113 = "memref.alloc"() {name = "flags_break", operand_segment_sizes = dense<0> : vector<2xi32>, unsigned} : () -> memref<1xi1>
    %114 = "arith.constant"() {value = 0 : index} : () -> index
    %115 = "arith.constant"() {unsigned, value = false} : () -> i1
    "affine.store"(%115, %113) {map = #map1, to = "flags_break", unsigned} : (i1, memref<1xi1>) -> ()
    %116 = "memref.alloc"() {name = "count_stop", operand_segment_sizes = dense<0> : vector<2xi32>, unsigned} : () -> memref<1xi1>
    %117 = "arith.constant"() {value = 0 : index} : () -> index
    %118 = "arith.constant"() {unsigned, value = false} : () -> i1
    "affine.store"(%118, %116) {map = #map1, to = "count_stop", unsigned} : (i1, memref<1xi1>) -> ()
    %119 = "memref.alloc"() {name = "addr_stop", operand_segment_sizes = dense<0> : vector<2xi32>, unsigned} : () -> memref<1xi1>
    %120 = "arith.constant"() {value = 0 : index} : () -> index
    %121 = "arith.constant"() {unsigned, value = false} : () -> i1
    "affine.store"(%121, %119) {map = #map1, to = "addr_stop", unsigned} : (i1, memref<1xi1>) -> ()
    %122 = "memref.alloc"() {name = "inst_addr", operand_segment_sizes = dense<0> : vector<2xi32>, unsigned} : () -> memref<1xi32>
    %123 = "arith.constant"() {value = 0 : index} : () -> index
    %124 = "arith.constant"() {unsigned, value = 0 : i32} : () -> i32
    "affine.store"(%124, %122) {map = #map1, to = "inst_addr", unsigned} : (i32, memref<1xi32>) -> ()
    %125 = "memref.alloc"() {name = "inst_naddr", operand_segment_sizes = dense<0> : vector<2xi32>, unsigned} : () -> memref<1xi32>
    %126 = "arith.constant"() {value = 0 : index} : () -> index
    %127 = "arith.constant"() {unsigned, value = 0 : i32} : () -> i32
    "affine.store"(%127, %125) {map = #map1, to = "inst_naddr", unsigned} : (i32, memref<1xi32>) -> ()
    %128 = "memref.alloc"() {name = "latency_count", operand_segment_sizes = dense<0> : vector<2xi32>, unsigned} : () -> memref<1xi32>
    %129 = "arith.constant"() {value = 0 : index} : () -> index
    %130 = "arith.constant"() {unsigned, value = 0 : i32} : () -> i32
    "affine.store"(%130, %128) {map = #map1, to = "latency_count", unsigned} : (i32, memref<1xi32>) -> ()
    %131 = "memref.alloc"() {name = "latstalled", operand_segment_sizes = dense<0> : vector<2xi32>, unsigned} : () -> memref<1xi1>
    %132 = "arith.constant"() {value = 0 : index} : () -> index
    %133 = "arith.constant"() {unsigned, value = false} : () -> i1
    "affine.store"(%133, %131) {map = #map1, to = "latstalled", unsigned} : (i1, memref<1xi1>) -> ()
    %134 = "memref.alloc"() {name = "tele_inst_count", operand_segment_sizes = dense<0> : vector<2xi32>, unsigned} : () -> memref<1xi32>
    %135 = "arith.constant"() {value = 0 : index} : () -> index
    %136 = "arith.constant"() {unsigned, value = 0 : i32} : () -> i32
    "affine.store"(%136, %134) {map = #map1, to = "tele_inst_count", unsigned} : (i32, memref<1xi32>) -> ()
    %137 = "memref.alloc"() {name = "tele_stall_count", operand_segment_sizes = dense<0> : vector<2xi32>, unsigned} : () -> memref<1xi32>
    %138 = "arith.constant"() {value = 0 : index} : () -> index
    %139 = "arith.constant"() {unsigned, value = 0 : i32} : () -> i32
    "affine.store"(%139, %137) {map = #map1, to = "tele_stall_count", unsigned} : (i32, memref<1xi32>) -> ()
    %140 = "memref.alloc"() {name = "tele_latstall_count", operand_segment_sizes = dense<0> : vector<2xi32>, unsigned} : () -> memref<1xi32>
    %141 = "arith.constant"() {value = 0 : index} : () -> index
    %142 = "arith.constant"() {unsigned, value = 0 : i32} : () -> i32
    "affine.store"(%142, %140) {map = #map1, to = "tele_latstall_count", unsigned} : (i32, memref<1xi32>) -> ()
    %143 = "memref.alloc"() {name = "RF.alloc_c", operand_segment_sizes = dense<0> : vector<2xi32>, unsigned} : () -> memref<4x72x8192xi32>
    "affine.for"() ({
    ^bb0(%arg2: index):
      "affine.for"() ({
      ^bb0(%arg3: index):
        "affine.for"() ({
        ^bb0(%arg4: index):
          %461 = "arith.constant"() {unsigned, value = 0 : i32} : () -> i32
          "affine.store"(%461, %143, %arg2, %arg3, %arg4) {map = #map5, to = "RF.alloc_c"} : (i32, memref<4x72x8192xi32>, index, index, index) -> ()
          "affine.yield"() : () -> ()
        }) {loop_name = "i2", lower_bound = #map1, step = 1 : i32, upper_bound = #map6} : () -> ()
        "affine.yield"() : () -> ()
      }) {loop_name = "i1", lower_bound = #map1, step = 1 : i32, upper_bound = #map7} : () -> ()
      "affine.yield"() : () -> ()
    }) {loop_name = "i0", lower_bound = #map1, op_name = "RF.alloc_c", step = 1 : i32, upper_bound = #map8} : () -> ()
    %144 = "memref.alloc"() {name = "twpwrs.alloc_c", operand_segment_sizes = dense<0> : vector<2xi32>, unsigned} : () -> memref<32x64xi32>
    "affine.for"() ({
    ^bb0(%arg2: index):
      "affine.for"() ({
      ^bb0(%arg3: index):
        %461 = "arith.constant"() {unsigned, value = 0 : i32} : () -> i32
        "affine.store"(%461, %144, %arg2, %arg3) {map = #map9, to = "twpwrs.alloc_c"} : (i32, memref<32x64xi32>, index, index) -> ()
        "affine.yield"() : () -> ()
      }) {loop_name = "i1", lower_bound = #map1, step = 1 : i32, upper_bound = #map10} : () -> ()
      "affine.yield"() : () -> ()
    }) {loop_name = "i0", lower_bound = #map1, op_name = "twpwrs.alloc_c", step = 1 : i32, upper_bound = #map11} : () -> ()
    %145 = "memref.alloc"() {name = "mone.alloc_c", operand_segment_sizes = dense<0> : vector<2xi32>, unsigned} : () -> memref<64xi32>
    "affine.for"() ({
    ^bb0(%arg2: index):
      %461 = "arith.constant"() {unsigned, value = 0 : i32} : () -> i32
      "affine.store"(%461, %145, %arg2) {map = #map0, to = "mone.alloc_c"} : (i32, memref<64xi32>, index) -> ()
      "affine.yield"() : () -> ()
    }) {loop_name = "i0", lower_bound = #map1, op_name = "mone.alloc_c", step = 1 : i32, upper_bound = #map10} : () -> ()
    %146 = "memref.alloc"() {name = "nop_count", operand_segment_sizes = dense<0> : vector<2xi32>, unsigned} : () -> memref<1xi32>
    %147 = "arith.constant"() {value = 0 : index} : () -> index
    %148 = "arith.constant"() {unsigned, value = 0 : i32} : () -> i32
    "affine.store"(%148, %146) {map = #map1, to = "nop_count", unsigned} : (i32, memref<1xi32>) -> ()
    %149 = "memref.alloc"() {name = "flag_ntt", operand_segment_sizes = dense<0> : vector<2xi32>, unsigned} : () -> memref<1xi1>
    %150 = "arith.constant"() {value = 0 : index} : () -> index
    %151 = "arith.constant"() {unsigned, value = false} : () -> i1
    "affine.store"(%151, %149) {map = #map1, to = "flag_ntt", unsigned} : (i1, memref<1xi1>) -> ()
    %152 = "memref.alloc"() {name = "flag_intt", operand_segment_sizes = dense<0> : vector<2xi32>, unsigned} : () -> memref<1xi1>
    %153 = "arith.constant"() {value = 0 : index} : () -> index
    %154 = "arith.constant"() {unsigned, value = false} : () -> i1
    "affine.store"(%154, %152) {map = #map1, to = "flag_intt", unsigned} : (i1, memref<1xi1>) -> ()
    %155 = "memref.alloc"() {name = "ntt_intt_top_addr", operand_segment_sizes = dense<0> : vector<2xi32>, unsigned} : () -> memref<1xi9>
    %156 = "arith.constant"() {value = 0 : index} : () -> index
    %157 = "arith.constant"() {unsigned, value = 0 : i9} : () -> i9
    "affine.store"(%157, %155) {map = #map1, to = "ntt_intt_top_addr", unsigned} : (i9, memref<1xi9>) -> ()
    %158 = "memref.alloc"() {name = "ntt_intt_bot_addr", operand_segment_sizes = dense<0> : vector<2xi32>, unsigned} : () -> memref<1xi9>
    %159 = "arith.constant"() {value = 0 : index} : () -> index
    %160 = "arith.constant"() {unsigned, value = 0 : i9} : () -> i9
    "affine.store"(%160, %158) {map = #map1, to = "ntt_intt_bot_addr", unsigned} : (i9, memref<1xi9>) -> ()
    %161 = "memref.alloc"() {name = "instq.alloc_c", operand_segment_sizes = dense<0> : vector<2xi32>, unsigned} : () -> memref<16xi128>
    "affine.for"() ({
    ^bb0(%arg2: index):
      %461 = "arith.constant"() {unsigned, value = 0 : i128} : () -> i128
      "affine.store"(%461, %161, %arg2) {map = #map0, to = "instq.alloc_c"} : (i128, memref<16xi128>, index) -> ()
      "affine.yield"() : () -> ()
    }) {loop_name = "i0", lower_bound = #map1, op_name = "instq.alloc_c", step = 1 : i32, upper_bound = #map12} : () -> ()
    %162 = "memref.alloc"() {name = "nttdataintop.alloc_c", operand_segment_sizes = dense<0> : vector<2xi32>, unsigned} : () -> memref<8192xi32>
    "affine.for"() ({
    ^bb0(%arg2: index):
      %461 = "arith.constant"() {unsigned, value = 0 : i32} : () -> i32
      "affine.store"(%461, %162, %arg2) {map = #map0, to = "nttdataintop.alloc_c"} : (i32, memref<8192xi32>, index) -> ()
      "affine.yield"() : () -> ()
    }) {loop_name = "i0", lower_bound = #map1, op_name = "nttdataintop.alloc_c", step = 1 : i32, upper_bound = #map6} : () -> ()
    %163 = "memref.alloc"() {name = "nttdatainbot.alloc_c", operand_segment_sizes = dense<0> : vector<2xi32>, unsigned} : () -> memref<8192xi32>
    "affine.for"() ({
    ^bb0(%arg2: index):
      %461 = "arith.constant"() {unsigned, value = 0 : i32} : () -> i32
      "affine.store"(%461, %163, %arg2) {map = #map0, to = "nttdatainbot.alloc_c"} : (i32, memref<8192xi32>, index) -> ()
      "affine.yield"() : () -> ()
    }) {loop_name = "i0", lower_bound = #map1, op_name = "nttdatainbot.alloc_c", step = 1 : i32, upper_bound = #map6} : () -> ()
    %164 = "memref.alloc"() {name = "nttdataouttop.alloc_c", operand_segment_sizes = dense<0> : vector<2xi32>, unsigned} : () -> memref<8192xi32>
    "affine.for"() ({
    ^bb0(%arg2: index):
      %461 = "arith.constant"() {unsigned, value = 0 : i32} : () -> i32
      "affine.store"(%461, %164, %arg2) {map = #map0, to = "nttdataouttop.alloc_c"} : (i32, memref<8192xi32>, index) -> ()
      "affine.yield"() : () -> ()
    }) {loop_name = "i0", lower_bound = #map1, op_name = "nttdataouttop.alloc_c", step = 1 : i32, upper_bound = #map6} : () -> ()
    %165 = "memref.alloc"() {name = "nttdataoutbot.alloc_c", operand_segment_sizes = dense<0> : vector<2xi32>, unsigned} : () -> memref<8192xi32>
    "affine.for"() ({
    ^bb0(%arg2: index):
      %461 = "arith.constant"() {unsigned, value = 0 : i32} : () -> i32
      "affine.store"(%461, %165, %arg2) {map = #map0, to = "nttdataoutbot.alloc_c"} : (i32, memref<8192xi32>, index) -> ()
      "affine.yield"() : () -> ()
    }) {loop_name = "i0", lower_bound = #map1, op_name = "nttdataoutbot.alloc_c", step = 1 : i32, upper_bound = #map6} : () -> ()
    %166 = "memref.alloc"() {name = "inttdataintop.alloc_c", operand_segment_sizes = dense<0> : vector<2xi32>, unsigned} : () -> memref<8192xi32>
    "affine.for"() ({
    ^bb0(%arg2: index):
      %461 = "arith.constant"() {unsigned, value = 0 : i32} : () -> i32
      "affine.store"(%461, %166, %arg2) {map = #map0, to = "inttdataintop.alloc_c"} : (i32, memref<8192xi32>, index) -> ()
      "affine.yield"() : () -> ()
    }) {loop_name = "i0", lower_bound = #map1, op_name = "inttdataintop.alloc_c", step = 1 : i32, upper_bound = #map6} : () -> ()
    %167 = "memref.alloc"() {name = "inttdatainbot.alloc_c", operand_segment_sizes = dense<0> : vector<2xi32>, unsigned} : () -> memref<8192xi32>
    "affine.for"() ({
    ^bb0(%arg2: index):
      %461 = "arith.constant"() {unsigned, value = 0 : i32} : () -> i32
      "affine.store"(%461, %167, %arg2) {map = #map0, to = "inttdatainbot.alloc_c"} : (i32, memref<8192xi32>, index) -> ()
      "affine.yield"() : () -> ()
    }) {loop_name = "i0", lower_bound = #map1, op_name = "inttdatainbot.alloc_c", step = 1 : i32, upper_bound = #map6} : () -> ()
    %168 = "memref.alloc"() {name = "inttdataouttop.alloc_c", operand_segment_sizes = dense<0> : vector<2xi32>, unsigned} : () -> memref<8192xi32>
    "affine.for"() ({
    ^bb0(%arg2: index):
      %461 = "arith.constant"() {unsigned, value = 0 : i32} : () -> i32
      "affine.store"(%461, %168, %arg2) {map = #map0, to = "inttdataouttop.alloc_c"} : (i32, memref<8192xi32>, index) -> ()
      "affine.yield"() : () -> ()
    }) {loop_name = "i0", lower_bound = #map1, op_name = "inttdataouttop.alloc_c", step = 1 : i32, upper_bound = #map6} : () -> ()
    %169 = "memref.alloc"() {name = "inttdataoutbot.alloc_c", operand_segment_sizes = dense<0> : vector<2xi32>, unsigned} : () -> memref<8192xi32>
    "affine.for"() ({
    ^bb0(%arg2: index):
      %461 = "arith.constant"() {unsigned, value = 0 : i32} : () -> i32
      "affine.store"(%461, %169, %arg2) {map = #map0, to = "inttdataoutbot.alloc_c"} : (i32, memref<8192xi32>, index) -> ()
      "affine.yield"() : () -> ()
    }) {loop_name = "i0", lower_bound = #map1, op_name = "inttdataoutbot.alloc_c", step = 1 : i32, upper_bound = #map6} : () -> ()
    %170 = "memref.alloc"() {name = "ntt_ain.alloc_c", operand_segment_sizes = dense<0> : vector<2xi32>, unsigned} : () -> memref<8192xi32>
    "affine.for"() ({
    ^bb0(%arg2: index):
      %461 = "arith.constant"() {unsigned, value = 0 : i32} : () -> i32
      "affine.store"(%461, %170, %arg2) {map = #map0, to = "ntt_ain.alloc_c"} : (i32, memref<8192xi32>, index) -> ()
      "affine.yield"() : () -> ()
    }) {loop_name = "i0", lower_bound = #map1, op_name = "ntt_ain.alloc_c", step = 1 : i32, upper_bound = #map6} : () -> ()
    %171 = "memref.alloc"() {name = "ntt_bin.alloc_c", operand_segment_sizes = dense<0> : vector<2xi32>, unsigned} : () -> memref<8192xi32>
    "affine.for"() ({
    ^bb0(%arg2: index):
      %461 = "arith.constant"() {unsigned, value = 0 : i32} : () -> i32
      "affine.store"(%461, %171, %arg2) {map = #map0, to = "ntt_bin.alloc_c"} : (i32, memref<8192xi32>, index) -> ()
      "affine.yield"() : () -> ()
    }) {loop_name = "i0", lower_bound = #map1, op_name = "ntt_bin.alloc_c", step = 1 : i32, upper_bound = #map6} : () -> ()
    %172 = "memref.alloc"() {name = "ntt_win.alloc_c", operand_segment_sizes = dense<0> : vector<2xi32>, unsigned} : () -> memref<8192xi32>
    "affine.for"() ({
    ^bb0(%arg2: index):
      %461 = "arith.constant"() {unsigned, value = 0 : i32} : () -> i32
      "affine.store"(%461, %172, %arg2) {map = #map0, to = "ntt_win.alloc_c"} : (i32, memref<8192xi32>, index) -> ()
      "affine.yield"() : () -> ()
    }) {loop_name = "i0", lower_bound = #map1, op_name = "ntt_win.alloc_c", step = 1 : i32, upper_bound = #map6} : () -> ()
    %173 = "memref.alloc"() {name = "mone_val", operand_segment_sizes = dense<0> : vector<2xi32>, unsigned} : () -> memref<1xi32>
    %174 = "arith.constant"() {value = 0 : index} : () -> index
    %175 = "arith.constant"() {unsigned, value = 0 : i32} : () -> i32
    "affine.store"(%175, %173) {map = #map1, to = "mone_val", unsigned} : (i32, memref<1xi32>) -> ()
    %176 = "memref.alloc"() {name = "uc_start_delay", operand_segment_sizes = dense<0> : vector<2xi32>, unsigned} : () -> memref<1xi4>
    %177 = "arith.constant"() {value = 0 : index} : () -> index
    %178 = "arith.constant"() {unsigned, value = 0 : i4} : () -> i4
    "affine.store"(%178, %176) {map = #map1, to = "uc_start_delay", unsigned} : (i4, memref<1xi4>) -> ()
    %179 = "memref.alloc"() {name = "flags_active", operand_segment_sizes = dense<0> : vector<2xi32>, unsigned} : () -> memref<1xi1>
    %180 = "arith.constant"() {value = 0 : index} : () -> index
    %181 = "arith.constant"() {unsigned, value = false} : () -> i1
    "affine.store"(%181, %179) {map = #map1, to = "flags_active", unsigned} : (i1, memref<1xi1>) -> ()
    %182 = "memref.alloc"() {name = "flags_halt", operand_segment_sizes = dense<0> : vector<2xi32>, unsigned} : () -> memref<1xi1>
    %183 = "arith.constant"() {value = 0 : index} : () -> index
    %184 = "arith.constant"() {unsigned, value = false} : () -> i1
    "affine.store"(%184, %182) {map = #map1, to = "flags_halt", unsigned} : (i1, memref<1xi1>) -> ()
    %185 = "memref.alloc"() {name = "flags_stall", operand_segment_sizes = dense<0> : vector<2xi32>, unsigned} : () -> memref<1xi1>
    %186 = "arith.constant"() {value = 0 : index} : () -> index
    %187 = "arith.constant"() {unsigned, value = false} : () -> i1
    "affine.store"(%187, %185) {map = #map1, to = "flags_stall", unsigned} : (i1, memref<1xi1>) -> ()
    %188 = "memref.alloc"() {name = "flags_stalled", operand_segment_sizes = dense<0> : vector<2xi32>, unsigned} : () -> memref<1xi1>
    %189 = "arith.constant"() {value = 0 : index} : () -> index
    %190 = "arith.constant"() {unsigned, value = false} : () -> i1
    "affine.store"(%190, %188) {map = #map1, to = "flags_stalled", unsigned} : (i1, memref<1xi1>) -> ()
    %191 = "memref.alloc"() {name = "flags_break", operand_segment_sizes = dense<0> : vector<2xi32>, unsigned} : () -> memref<1xi1>
    %192 = "arith.constant"() {value = 0 : index} : () -> index
    %193 = "arith.constant"() {unsigned, value = false} : () -> i1
    "affine.store"(%193, %191) {map = #map1, to = "flags_break", unsigned} : (i1, memref<1xi1>) -> ()
    %194 = "memref.alloc"() {name = "count_stop", operand_segment_sizes = dense<0> : vector<2xi32>, unsigned} : () -> memref<1xi1>
    %195 = "arith.constant"() {value = 0 : index} : () -> index
    %196 = "arith.constant"() {unsigned, value = false} : () -> i1
    "affine.store"(%196, %194) {map = #map1, to = "count_stop", unsigned} : (i1, memref<1xi1>) -> ()
    %197 = "memref.alloc"() {name = "addr_stop", operand_segment_sizes = dense<0> : vector<2xi32>, unsigned} : () -> memref<1xi1>
    %198 = "arith.constant"() {value = 0 : index} : () -> index
    %199 = "arith.constant"() {unsigned, value = false} : () -> i1
    "affine.store"(%199, %197) {map = #map1, to = "addr_stop", unsigned} : (i1, memref<1xi1>) -> ()
    %200 = "memref.alloc"() {name = "inst_addr", operand_segment_sizes = dense<0> : vector<2xi32>, unsigned} : () -> memref<1xi5>
    %201 = "arith.constant"() {value = 0 : index} : () -> index
    %202 = "arith.constant"() {unsigned, value = 0 : i5} : () -> i5
    "affine.store"(%202, %200) {map = #map1, to = "inst_addr", unsigned} : (i5, memref<1xi5>) -> ()
    %203 = "memref.alloc"() {name = "inst_naddr", operand_segment_sizes = dense<0> : vector<2xi32>, unsigned} : () -> memref<1xi5>
    %204 = "arith.constant"() {value = 0 : index} : () -> index
    %205 = "arith.constant"() {unsigned, value = 0 : i5} : () -> i5
    "affine.store"(%205, %203) {map = #map1, to = "inst_naddr", unsigned} : (i5, memref<1xi5>) -> ()
    %206 = "memref.alloc"() {name = "latency_count", operand_segment_sizes = dense<0> : vector<2xi32>, unsigned} : () -> memref<1xi32>
    %207 = "arith.constant"() {value = 0 : index} : () -> index
    %208 = "arith.constant"() {unsigned, value = 0 : i32} : () -> i32
    "affine.store"(%208, %206) {map = #map1, to = "latency_count", unsigned} : (i32, memref<1xi32>) -> ()
    %209 = "memref.alloc"() {name = "latstalled", operand_segment_sizes = dense<0> : vector<2xi32>, unsigned} : () -> memref<1xi1>
    %210 = "arith.constant"() {value = 0 : index} : () -> index
    %211 = "arith.constant"() {unsigned, value = false} : () -> i1
    "affine.store"(%211, %209) {map = #map1, to = "latstalled", unsigned} : (i1, memref<1xi1>) -> ()
    %212 = "memref.alloc"() {name = "tele_inst_count", operand_segment_sizes = dense<0> : vector<2xi32>, unsigned} : () -> memref<1xi32>
    %213 = "arith.constant"() {value = 0 : index} : () -> index
    %214 = "arith.constant"() {unsigned, value = 0 : i32} : () -> i32
    "affine.store"(%214, %212) {map = #map1, to = "tele_inst_count", unsigned} : (i32, memref<1xi32>) -> ()
    %215 = "memref.alloc"() {name = "tele_stall_count", operand_segment_sizes = dense<0> : vector<2xi32>, unsigned} : () -> memref<1xi32>
    %216 = "arith.constant"() {value = 0 : index} : () -> index
    %217 = "arith.constant"() {unsigned, value = 0 : i32} : () -> i32
    "affine.store"(%217, %215) {map = #map1, to = "tele_stall_count", unsigned} : (i32, memref<1xi32>) -> ()
    %218 = "memref.alloc"() {name = "tele_latstall_count", operand_segment_sizes = dense<0> : vector<2xi32>, unsigned} : () -> memref<1xi32>
    %219 = "arith.constant"() {value = 0 : index} : () -> index
    %220 = "arith.constant"() {unsigned, value = 0 : i32} : () -> i32
    "affine.store"(%220, %218) {map = #map1, to = "tele_latstall_count", unsigned} : (i32, memref<1xi32>) -> ()
    %221 = "memref.alloc"() {name = "flags_active", operand_segment_sizes = dense<0> : vector<2xi32>, unsigned} : () -> memref<1xi1>
    %222 = "arith.constant"() {value = 0 : index} : () -> index
    %223 = "arith.constant"() {unsigned, value = false} : () -> i1
    "affine.store"(%223, %221) {map = #map1, to = "flags_active", unsigned} : (i1, memref<1xi1>) -> ()
    %224 = "memref.alloc"() {name = "flags_halt", operand_segment_sizes = dense<0> : vector<2xi32>, unsigned} : () -> memref<1xi1>
    %225 = "arith.constant"() {value = 0 : index} : () -> index
    %226 = "arith.constant"() {unsigned, value = false} : () -> i1
    "affine.store"(%226, %224) {map = #map1, to = "flags_halt", unsigned} : (i1, memref<1xi1>) -> ()
    %227 = "memref.alloc"() {name = "flags_stall", operand_segment_sizes = dense<0> : vector<2xi32>, unsigned} : () -> memref<1xi1>
    %228 = "arith.constant"() {value = 0 : index} : () -> index
    %229 = "arith.constant"() {unsigned, value = false} : () -> i1
    "affine.store"(%229, %227) {map = #map1, to = "flags_stall", unsigned} : (i1, memref<1xi1>) -> ()
    %230 = "memref.alloc"() {name = "flags_stalled", operand_segment_sizes = dense<0> : vector<2xi32>, unsigned} : () -> memref<1xi1>
    %231 = "arith.constant"() {value = 0 : index} : () -> index
    %232 = "arith.constant"() {unsigned, value = false} : () -> i1
    "affine.store"(%232, %230) {map = #map1, to = "flags_stalled", unsigned} : (i1, memref<1xi1>) -> ()
    %233 = "memref.alloc"() {name = "flags_break", operand_segment_sizes = dense<0> : vector<2xi32>, unsigned} : () -> memref<1xi1>
    %234 = "arith.constant"() {value = 0 : index} : () -> index
    %235 = "arith.constant"() {unsigned, value = false} : () -> i1
    "affine.store"(%235, %233) {map = #map1, to = "flags_break", unsigned} : (i1, memref<1xi1>) -> ()
    %236 = "memref.alloc"() {name = "count_stop", operand_segment_sizes = dense<0> : vector<2xi32>, unsigned} : () -> memref<1xi1>
    %237 = "arith.constant"() {value = 0 : index} : () -> index
    %238 = "arith.constant"() {unsigned, value = false} : () -> i1
    "affine.store"(%238, %236) {map = #map1, to = "count_stop", unsigned} : (i1, memref<1xi1>) -> ()
    %239 = "memref.alloc"() {name = "addr_stop", operand_segment_sizes = dense<0> : vector<2xi32>, unsigned} : () -> memref<1xi1>
    %240 = "arith.constant"() {value = 0 : index} : () -> index
    %241 = "arith.constant"() {unsigned, value = false} : () -> i1
    "affine.store"(%241, %239) {map = #map1, to = "addr_stop", unsigned} : (i1, memref<1xi1>) -> ()
    %242 = "memref.alloc"() {name = "inst_addr", operand_segment_sizes = dense<0> : vector<2xi32>, unsigned} : () -> memref<1xi32>
    %243 = "arith.constant"() {value = 0 : index} : () -> index
    %244 = "arith.constant"() {unsigned, value = 0 : i32} : () -> i32
    "affine.store"(%244, %242) {map = #map1, to = "inst_addr", unsigned} : (i32, memref<1xi32>) -> ()
    %245 = "memref.alloc"() {name = "inst_naddr", operand_segment_sizes = dense<0> : vector<2xi32>, unsigned} : () -> memref<1xi32>
    %246 = "arith.constant"() {value = 0 : index} : () -> index
    %247 = "arith.constant"() {unsigned, value = 0 : i32} : () -> i32
    "affine.store"(%247, %245) {map = #map1, to = "inst_naddr", unsigned} : (i32, memref<1xi32>) -> ()
    %248 = "memref.alloc"() {name = "latency_count", operand_segment_sizes = dense<0> : vector<2xi32>, unsigned} : () -> memref<1xi32>
    %249 = "arith.constant"() {value = 0 : index} : () -> index
    %250 = "arith.constant"() {unsigned, value = 0 : i32} : () -> i32
    "affine.store"(%250, %248) {map = #map1, to = "latency_count", unsigned} : (i32, memref<1xi32>) -> ()
    %251 = "memref.alloc"() {name = "latstalled", operand_segment_sizes = dense<0> : vector<2xi32>, unsigned} : () -> memref<1xi1>
    %252 = "arith.constant"() {value = 0 : index} : () -> index
    %253 = "arith.constant"() {unsigned, value = false} : () -> i1
    "affine.store"(%253, %251) {map = #map1, to = "latstalled", unsigned} : (i1, memref<1xi1>) -> ()
    %254 = "memref.alloc"() {name = "tele_inst_count", operand_segment_sizes = dense<0> : vector<2xi32>, unsigned} : () -> memref<1xi32>
    %255 = "arith.constant"() {value = 0 : index} : () -> index
    %256 = "arith.constant"() {unsigned, value = 0 : i32} : () -> i32
    "affine.store"(%256, %254) {map = #map1, to = "tele_inst_count", unsigned} : (i32, memref<1xi32>) -> ()
    %257 = "memref.alloc"() {name = "tele_stall_count", operand_segment_sizes = dense<0> : vector<2xi32>, unsigned} : () -> memref<1xi32>
    %258 = "arith.constant"() {value = 0 : index} : () -> index
    %259 = "arith.constant"() {unsigned, value = 0 : i32} : () -> i32
    "affine.store"(%259, %257) {map = #map1, to = "tele_stall_count", unsigned} : (i32, memref<1xi32>) -> ()
    %260 = "memref.alloc"() {name = "tele_latstall_count", operand_segment_sizes = dense<0> : vector<2xi32>, unsigned} : () -> memref<1xi32>
    %261 = "arith.constant"() {value = 0 : index} : () -> index
    %262 = "arith.constant"() {unsigned, value = 0 : i32} : () -> i32
    "affine.store"(%262, %260) {map = #map1, to = "tele_latstall_count", unsigned} : (i32, memref<1xi32>) -> ()
    %263 = "arith.constant"() {value = 0 : i32} : () -> i32
    "hcl.print"(%263) {format = "FIX ME : binding minstq as hbm for now ...\0A", signedness = "_"} : (i32) -> ()
    %264 = "arith.constant"() {value = 0 : i32} : () -> i32
    "hcl.print"(%264) {format = "FIX ME : binding cinstq as hbm for now ...\0A", signedness = "_"} : (i32) -> ()
    %265 = "memref.alloc"() {name = "sys_steps", operand_segment_sizes = dense<0> : vector<2xi32>, unsigned} : () -> memref<1xi32>
    %266 = "arith.constant"() {value = 0 : index} : () -> index
    %267 = "arith.constant"() {unsigned, value = 1 : i32} : () -> i32
    "affine.store"(%267, %265) {map = #map1, to = "sys_steps", unsigned} : (i32, memref<1xi32>) -> ()
    %268 = "memref.alloc"() {name = "sys_done", operand_segment_sizes = dense<0> : vector<2xi32>, unsigned} : () -> memref<1xi1>
    %269 = "arith.constant"() {value = 0 : index} : () -> index
    %270 = "arith.constant"() {unsigned, value = false} : () -> i1
    "affine.store"(%270, %268) {map = #map1, to = "sys_done", unsigned} : (i1, memref<1xi1>) -> ()
    %271 = "arith.constant"() {value = 0 : index} : () -> index
    %272 = "arith.constant"() {value = 0 : i32} : () -> i32
    %273 = "arith.trunci"(%272) {unsigned} : (i32) -> i1
    "affine.store"(%273, %36) {map = #map1, to = "flags_msyncc", unsigned} : (i1, memref<1xi1>) -> ()
    %274 = "arith.constant"() {value = 0 : index} : () -> index
    %275 = "arith.constant"() {value = 0 : i32} : () -> i32
    %276 = "arith.trunci"(%275) {unsigned} : (i32) -> i1
    "affine.store"(%276, %39) {map = #map1, to = "flags_active", unsigned} : (i1, memref<1xi1>) -> ()
    %277 = "arith.constant"() {value = 0 : index} : () -> index
    %278 = "arith.constant"() {value = 0 : i32} : () -> i32
    %279 = "arith.trunci"(%278) {unsigned} : (i32) -> i1
    "affine.store"(%279, %42) {map = #map1, to = "flags_halt", unsigned} : (i1, memref<1xi1>) -> ()
    %280 = "arith.constant"() {value = 0 : index} : () -> index
    %281 = "arith.constant"() {value = 0 : i32} : () -> i32
    %282 = "arith.trunci"(%281) {unsigned} : (i32) -> i1
    "affine.store"(%282, %45) {map = #map1, to = "flags_stall", unsigned} : (i1, memref<1xi1>) -> ()
    %283 = "arith.constant"() {value = 0 : index} : () -> index
    %284 = "arith.constant"() {value = 0 : i32} : () -> i32
    %285 = "arith.trunci"(%284) {unsigned} : (i32) -> i1
    "affine.store"(%285, %48) {map = #map1, to = "flags_stalled", unsigned} : (i1, memref<1xi1>) -> ()
    %286 = "arith.constant"() {value = 0 : index} : () -> index
    %287 = "arith.constant"() {value = 0 : i32} : () -> i32
    %288 = "arith.trunci"(%287) {unsigned} : (i32) -> i1
    "affine.store"(%288, %51) {map = #map1, to = "flags_break", unsigned} : (i1, memref<1xi1>) -> ()
    %289 = "arith.constant"() {value = 0 : index} : () -> index
    %290 = "arith.constant"() {value = 0 : i32} : () -> i32
    %291 = "arith.trunci"(%290) {unsigned} : (i32) -> i1
    "affine.store"(%291, %54) {map = #map1, to = "count_stop", unsigned} : (i1, memref<1xi1>) -> ()
    %292 = "arith.constant"() {value = 0 : index} : () -> index
    %293 = "arith.constant"() {value = 0 : i32} : () -> i32
    %294 = "arith.trunci"(%293) {unsigned} : (i32) -> i1
    "affine.store"(%294, %57) {map = #map1, to = "addr_stop", unsigned} : (i1, memref<1xi1>) -> ()
    %295 = "arith.constant"() {value = 0 : index} : () -> index
    %296 = "arith.constant"() {value = 0 : i32} : () -> i32
    "affine.store"(%296, %60) {map = #map1, to = "inst_addr", unsigned} : (i32, memref<1xi32>) -> ()
    %297 = "arith.constant"() {value = 0 : index} : () -> index
    %298 = "arith.constant"() {value = 0 : i32} : () -> i32
    "affine.store"(%298, %63) {map = #map1, to = "inst_naddr", unsigned} : (i32, memref<1xi32>) -> ()
    %299 = "arith.constant"() {value = 0 : index} : () -> index
    %300 = "arith.constant"() {value = 0 : i32} : () -> i32
    "affine.store"(%300, %66) {map = #map1, to = "latency_count", unsigned} : (i32, memref<1xi32>) -> ()
    %301 = "arith.constant"() {value = 0 : index} : () -> index
    %302 = "arith.constant"() {value = 0 : i32} : () -> i32
    %303 = "arith.trunci"(%302) {unsigned} : (i32) -> i1
    "affine.store"(%303, %69) {map = #map1, to = "latstalled", unsigned} : (i1, memref<1xi1>) -> ()
    %304 = "arith.constant"() {value = 0 : index} : () -> index
    %305 = "arith.constant"() {value = 0 : i32} : () -> i32
    "affine.store"(%305, %72) {map = #map1, to = "tele_inst_count", unsigned} : (i32, memref<1xi32>) -> ()
    %306 = "arith.constant"() {value = 0 : index} : () -> index
    %307 = "arith.constant"() {value = 0 : i32} : () -> i32
    "affine.store"(%307, %75) {map = #map1, to = "tele_stall_count", unsigned} : (i32, memref<1xi32>) -> ()
    %308 = "arith.constant"() {value = 0 : index} : () -> index
    %309 = "arith.constant"() {value = 0 : i32} : () -> i32
    "affine.store"(%309, %78) {map = #map1, to = "tele_latstall_count", unsigned} : (i32, memref<1xi32>) -> ()
    %310 = "arith.constant"() {value = 0 : index} : () -> index
    %311 = "arith.constant"() {value = 0 : i32} : () -> i32
    "affine.store"(%311, %86) {map = #map1, to = "nop_count", unsigned} : (i32, memref<1xi32>) -> ()
    %312 = "arith.constant"() {value = 0 : index} : () -> index
    %313 = "arith.constant"() {value = 0 : i32} : () -> i32
    %314 = "arith.trunci"(%313) {unsigned} : (i32) -> i1
    "affine.store"(%314, %89) {map = #map1, to = "csyncm", unsigned} : (i1, memref<1xi1>) -> ()
    %315 = "arith.constant"() {value = 0 : index} : () -> index
    %316 = "arith.constant"() {value = 0 : i32} : () -> i32
    %317 = "arith.trunci"(%316) {unsigned} : (i32) -> i3
    "affine.store"(%317, %92) {map = #map1, to = "cstore_cycle", unsigned} : (i3, memref<1xi3>) -> ()
    %318 = "arith.constant"() {value = 0 : index} : () -> index
    %319 = "arith.constant"() {value = 0 : i32} : () -> i32
    %320 = "arith.trunci"(%319) {unsigned} : (i32) -> i1
    "affine.store"(%320, %95) {map = #map1, to = "cstore_valid", unsigned} : (i1, memref<1xi1>) -> ()
    %321 = "arith.constant"() {value = 0 : index} : () -> index
    %322 = "arith.constant"() {value = 0 : i32} : () -> i32
    "affine.store"(%322, %98) {map = #map1, to = "cstore_spadaddr", unsigned} : (i32, memref<1xi32>) -> ()
    %323 = "arith.constant"() {value = 0 : index} : () -> index
    %324 = "arith.constant"() {value = 0 : i32} : () -> i32
    "affine.store"(%324, %82) {map = #map1, to = "xinstq_bundles", unsigned} : (i32, memref<1xi32>) -> ()
    %325 = "arith.constant"() {value = 0 : index} : () -> index
    %326 = "arith.constant"() {value = 0 : i32} : () -> i32
    %327 = "arith.trunci"(%326) {unsigned} : (i32) -> i1
    "affine.store"(%327, %101) {map = #map1, to = "flags_active", unsigned} : (i1, memref<1xi1>) -> ()
    %328 = "arith.constant"() {value = 0 : index} : () -> index
    %329 = "arith.constant"() {value = 0 : i32} : () -> i32
    %330 = "arith.trunci"(%329) {unsigned} : (i32) -> i1
    "affine.store"(%330, %104) {map = #map1, to = "flags_halt", unsigned} : (i1, memref<1xi1>) -> ()
    %331 = "arith.constant"() {value = 0 : index} : () -> index
    %332 = "arith.constant"() {value = 0 : i32} : () -> i32
    %333 = "arith.trunci"(%332) {unsigned} : (i32) -> i1
    "affine.store"(%333, %107) {map = #map1, to = "flags_stall", unsigned} : (i1, memref<1xi1>) -> ()
    %334 = "arith.constant"() {value = 0 : index} : () -> index
    %335 = "arith.constant"() {value = 0 : i32} : () -> i32
    %336 = "arith.trunci"(%335) {unsigned} : (i32) -> i1
    "affine.store"(%336, %110) {map = #map1, to = "flags_stalled", unsigned} : (i1, memref<1xi1>) -> ()
    %337 = "arith.constant"() {value = 0 : index} : () -> index
    %338 = "arith.constant"() {value = 0 : i32} : () -> i32
    %339 = "arith.trunci"(%338) {unsigned} : (i32) -> i1
    "affine.store"(%339, %113) {map = #map1, to = "flags_break", unsigned} : (i1, memref<1xi1>) -> ()
    %340 = "arith.constant"() {value = 0 : index} : () -> index
    %341 = "arith.constant"() {value = 0 : i32} : () -> i32
    %342 = "arith.trunci"(%341) {unsigned} : (i32) -> i1
    "affine.store"(%342, %116) {map = #map1, to = "count_stop", unsigned} : (i1, memref<1xi1>) -> ()
    %343 = "arith.constant"() {value = 0 : index} : () -> index
    %344 = "arith.constant"() {value = 0 : i32} : () -> i32
    %345 = "arith.trunci"(%344) {unsigned} : (i32) -> i1
    "affine.store"(%345, %119) {map = #map1, to = "addr_stop", unsigned} : (i1, memref<1xi1>) -> ()
    %346 = "arith.constant"() {value = 0 : index} : () -> index
    %347 = "arith.constant"() {value = 0 : i32} : () -> i32
    "affine.store"(%347, %122) {map = #map1, to = "inst_addr", unsigned} : (i32, memref<1xi32>) -> ()
    %348 = "arith.constant"() {value = 0 : index} : () -> index
    %349 = "arith.constant"() {value = 0 : i32} : () -> i32
    "affine.store"(%349, %125) {map = #map1, to = "inst_naddr", unsigned} : (i32, memref<1xi32>) -> ()
    %350 = "arith.constant"() {value = 0 : index} : () -> index
    %351 = "arith.constant"() {value = 0 : i32} : () -> i32
    "affine.store"(%351, %128) {map = #map1, to = "latency_count", unsigned} : (i32, memref<1xi32>) -> ()
    %352 = "arith.constant"() {value = 0 : index} : () -> index
    %353 = "arith.constant"() {value = 0 : i32} : () -> i32
    %354 = "arith.trunci"(%353) {unsigned} : (i32) -> i1
    "affine.store"(%354, %131) {map = #map1, to = "latstalled", unsigned} : (i1, memref<1xi1>) -> ()
    %355 = "arith.constant"() {value = 0 : index} : () -> index
    %356 = "arith.constant"() {value = 0 : i32} : () -> i32
    "affine.store"(%356, %134) {map = #map1, to = "tele_inst_count", unsigned} : (i32, memref<1xi32>) -> ()
    %357 = "arith.constant"() {value = 0 : index} : () -> index
    %358 = "arith.constant"() {value = 0 : i32} : () -> i32
    "affine.store"(%358, %137) {map = #map1, to = "tele_stall_count", unsigned} : (i32, memref<1xi32>) -> ()
    %359 = "arith.constant"() {value = 0 : index} : () -> index
    %360 = "arith.constant"() {value = 0 : i32} : () -> i32
    "affine.store"(%360, %140) {map = #map1, to = "tele_latstall_count", unsigned} : (i32, memref<1xi32>) -> ()
    %361 = "arith.constant"() {value = 0 : index} : () -> index
    %362 = "arith.constant"() {value = 0 : i32} : () -> i32
    "affine.store"(%362, %146) {map = #map1, to = "nop_count", unsigned} : (i32, memref<1xi32>) -> ()
    %363 = "arith.constant"() {value = 0 : index} : () -> index
    %364 = "arith.constant"() {value = 0 : i32} : () -> i32
    %365 = "arith.trunci"(%364) {unsigned} : (i32) -> i1
    "affine.store"(%365, %149) {map = #map1, to = "flag_ntt", unsigned} : (i1, memref<1xi1>) -> ()
    %366 = "arith.constant"() {value = 0 : index} : () -> index
    %367 = "arith.constant"() {value = 0 : i32} : () -> i32
    %368 = "arith.trunci"(%367) {unsigned} : (i32) -> i1
    "affine.store"(%368, %152) {map = #map1, to = "flag_intt", unsigned} : (i1, memref<1xi1>) -> ()
    %369 = "arith.constant"() {value = 0 : index} : () -> index
    %370 = "arith.constant"() {value = 0 : i32} : () -> i32
    %371 = "arith.trunci"(%370) {unsigned} : (i32) -> i9
    "affine.store"(%371, %155) {map = #map1, to = "ntt_intt_top_addr", unsigned} : (i9, memref<1xi9>) -> ()
    %372 = "arith.constant"() {value = 0 : index} : () -> index
    %373 = "arith.constant"() {value = 0 : i32} : () -> i32
    %374 = "arith.trunci"(%373) {unsigned} : (i32) -> i9
    "affine.store"(%374, %158) {map = #map1, to = "ntt_intt_bot_addr", unsigned} : (i9, memref<1xi9>) -> ()
    %375 = "arith.constant"() {value = 0 : index} : () -> index
    %376 = "arith.constant"() {value = 0 : i32} : () -> i32
    %377 = "arith.trunci"(%376) {unsigned} : (i32) -> i4
    "affine.store"(%377, %176) {map = #map1, to = "uc_start_delay", unsigned} : (i4, memref<1xi4>) -> ()
    %378 = "arith.constant"() {value = 0 : index} : () -> index
    %379 = "arith.constant"() {value = 0 : i32} : () -> i32
    %380 = "arith.trunci"(%379) {unsigned} : (i32) -> i1
    "affine.store"(%380, %179) {map = #map1, to = "flags_active", unsigned} : (i1, memref<1xi1>) -> ()
    %381 = "arith.constant"() {value = 0 : index} : () -> index
    %382 = "arith.constant"() {value = 0 : i32} : () -> i32
    %383 = "arith.trunci"(%382) {unsigned} : (i32) -> i1
    "affine.store"(%383, %182) {map = #map1, to = "flags_halt", unsigned} : (i1, memref<1xi1>) -> ()
    %384 = "arith.constant"() {value = 0 : index} : () -> index
    %385 = "arith.constant"() {value = 0 : i32} : () -> i32
    %386 = "arith.trunci"(%385) {unsigned} : (i32) -> i1
    "affine.store"(%386, %185) {map = #map1, to = "flags_stall", unsigned} : (i1, memref<1xi1>) -> ()
    %387 = "arith.constant"() {value = 0 : index} : () -> index
    %388 = "arith.constant"() {value = 0 : i32} : () -> i32
    %389 = "arith.trunci"(%388) {unsigned} : (i32) -> i1
    "affine.store"(%389, %188) {map = #map1, to = "flags_stalled", unsigned} : (i1, memref<1xi1>) -> ()
    %390 = "arith.constant"() {value = 0 : index} : () -> index
    %391 = "arith.constant"() {value = 0 : i32} : () -> i32
    %392 = "arith.trunci"(%391) {unsigned} : (i32) -> i1
    "affine.store"(%392, %191) {map = #map1, to = "flags_break", unsigned} : (i1, memref<1xi1>) -> ()
    %393 = "arith.constant"() {value = 0 : index} : () -> index
    %394 = "arith.constant"() {value = 0 : i32} : () -> i32
    %395 = "arith.trunci"(%394) {unsigned} : (i32) -> i1
    "affine.store"(%395, %194) {map = #map1, to = "count_stop", unsigned} : (i1, memref<1xi1>) -> ()
    %396 = "arith.constant"() {value = 0 : index} : () -> index
    %397 = "arith.constant"() {value = 0 : i32} : () -> i32
    %398 = "arith.trunci"(%397) {unsigned} : (i32) -> i1
    "affine.store"(%398, %197) {map = #map1, to = "addr_stop", unsigned} : (i1, memref<1xi1>) -> ()
    %399 = "arith.constant"() {value = 0 : index} : () -> index
    %400 = "arith.constant"() {value = 0 : i32} : () -> i32
    %401 = "arith.trunci"(%400) {unsigned} : (i32) -> i5
    "affine.store"(%401, %200) {map = #map1, to = "inst_addr", unsigned} : (i5, memref<1xi5>) -> ()
    %402 = "arith.constant"() {value = 0 : index} : () -> index
    %403 = "arith.constant"() {value = 0 : i32} : () -> i32
    %404 = "arith.trunci"(%403) {unsigned} : (i32) -> i5
    "affine.store"(%404, %203) {map = #map1, to = "inst_naddr", unsigned} : (i5, memref<1xi5>) -> ()
    %405 = "arith.constant"() {value = 0 : index} : () -> index
    %406 = "arith.constant"() {value = 0 : i32} : () -> i32
    "affine.store"(%406, %206) {map = #map1, to = "latency_count", unsigned} : (i32, memref<1xi32>) -> ()
    %407 = "arith.constant"() {value = 0 : index} : () -> index
    %408 = "arith.constant"() {value = 0 : i32} : () -> i32
    %409 = "arith.trunci"(%408) {unsigned} : (i32) -> i1
    "affine.store"(%409, %209) {map = #map1, to = "latstalled", unsigned} : (i1, memref<1xi1>) -> ()
    %410 = "arith.constant"() {value = 0 : index} : () -> index
    %411 = "arith.constant"() {value = 0 : i32} : () -> i32
    "affine.store"(%411, %212) {map = #map1, to = "tele_inst_count", unsigned} : (i32, memref<1xi32>) -> ()
    %412 = "arith.constant"() {value = 0 : index} : () -> index
    %413 = "arith.constant"() {value = 0 : i32} : () -> i32
    "affine.store"(%413, %215) {map = #map1, to = "tele_stall_count", unsigned} : (i32, memref<1xi32>) -> ()
    %414 = "arith.constant"() {value = 0 : index} : () -> index
    %415 = "arith.constant"() {value = 0 : i32} : () -> i32
    "affine.store"(%415, %218) {map = #map1, to = "tele_latstall_count", unsigned} : (i32, memref<1xi32>) -> ()
    %416 = "arith.constant"() {value = 0 : index} : () -> index
    %417 = "arith.constant"() {value = 0 : i32} : () -> i32
    %418 = "arith.trunci"(%417) {unsigned} : (i32) -> i1
    "affine.store"(%418, %221) {map = #map1, to = "flags_active", unsigned} : (i1, memref<1xi1>) -> ()
    %419 = "arith.constant"() {value = 0 : index} : () -> index
    %420 = "arith.constant"() {value = 0 : i32} : () -> i32
    %421 = "arith.trunci"(%420) {unsigned} : (i32) -> i1
    "affine.store"(%421, %224) {map = #map1, to = "flags_halt", unsigned} : (i1, memref<1xi1>) -> ()
    %422 = "arith.constant"() {value = 0 : index} : () -> index
    %423 = "arith.constant"() {value = 0 : i32} : () -> i32
    %424 = "arith.trunci"(%423) {unsigned} : (i32) -> i1
    "affine.store"(%424, %227) {map = #map1, to = "flags_stall", unsigned} : (i1, memref<1xi1>) -> ()
    %425 = "arith.constant"() {value = 0 : index} : () -> index
    %426 = "arith.constant"() {value = 0 : i32} : () -> i32
    %427 = "arith.trunci"(%426) {unsigned} : (i32) -> i1
    "affine.store"(%427, %230) {map = #map1, to = "flags_stalled", unsigned} : (i1, memref<1xi1>) -> ()
    %428 = "arith.constant"() {value = 0 : index} : () -> index
    %429 = "arith.constant"() {value = 0 : i32} : () -> i32
    %430 = "arith.trunci"(%429) {unsigned} : (i32) -> i1
    "affine.store"(%430, %233) {map = #map1, to = "flags_break", unsigned} : (i1, memref<1xi1>) -> ()
    %431 = "arith.constant"() {value = 0 : index} : () -> index
    %432 = "arith.constant"() {value = 0 : i32} : () -> i32
    %433 = "arith.trunci"(%432) {unsigned} : (i32) -> i1
    "affine.store"(%433, %236) {map = #map1, to = "count_stop", unsigned} : (i1, memref<1xi1>) -> ()
    %434 = "arith.constant"() {value = 0 : index} : () -> index
    %435 = "arith.constant"() {value = 0 : i32} : () -> i32
    %436 = "arith.trunci"(%435) {unsigned} : (i32) -> i1
    "affine.store"(%436, %239) {map = #map1, to = "addr_stop", unsigned} : (i1, memref<1xi1>) -> ()
    %437 = "arith.constant"() {value = 0 : index} : () -> index
    %438 = "arith.constant"() {value = 0 : i32} : () -> i32
    "affine.store"(%438, %242) {map = #map1, to = "inst_addr", unsigned} : (i32, memref<1xi32>) -> ()
    %439 = "arith.constant"() {value = 0 : index} : () -> index
    %440 = "arith.constant"() {value = 0 : i32} : () -> i32
    "affine.store"(%440, %245) {map = #map1, to = "inst_naddr", unsigned} : (i32, memref<1xi32>) -> ()
    %441 = "arith.constant"() {value = 0 : index} : () -> index
    %442 = "arith.constant"() {value = 0 : i32} : () -> i32
    "affine.store"(%442, %248) {map = #map1, to = "latency_count", unsigned} : (i32, memref<1xi32>) -> ()
    %443 = "arith.constant"() {value = 0 : index} : () -> index
    %444 = "arith.constant"() {value = 0 : i32} : () -> i32
    %445 = "arith.trunci"(%444) {unsigned} : (i32) -> i1
    "affine.store"(%445, %251) {map = #map1, to = "latstalled", unsigned} : (i1, memref<1xi1>) -> ()
    %446 = "arith.constant"() {value = 0 : index} : () -> index
    %447 = "arith.constant"() {value = 0 : i32} : () -> i32
    "affine.store"(%447, %254) {map = #map1, to = "tele_inst_count", unsigned} : (i32, memref<1xi32>) -> ()
    %448 = "arith.constant"() {value = 0 : index} : () -> index
    %449 = "arith.constant"() {value = 0 : i32} : () -> i32
    "affine.store"(%449, %257) {map = #map1, to = "tele_stall_count", unsigned} : (i32, memref<1xi32>) -> ()
    %450 = "arith.constant"() {value = 0 : index} : () -> index
    %451 = "arith.constant"() {value = 0 : i32} : () -> i32
    "affine.store"(%451, %260) {map = #map1, to = "tele_latstall_count", unsigned} : (i32, memref<1xi32>) -> ()
    "scf.while"() ({
      %461 = "affine.load"(%268) {from = "sys_done", map = #map1, moved, unsigned} : (memref<1xi1>) -> i1
      %462 = "arith.extui"(%461) {moved} : (i1) -> i32
      %463 = "arith.constant"() {moved, value = 0 : i32} : () -> i32
      %464 = "arith.cmpi"(%462, %463) {moved, predicate = 0 : i64} : (i32, i32) -> i1
      "scf.condition"(%464) : (i1) -> ()
    }, {
      %461 = "affine.load"(%149) {from = "flag_ntt", map = #map1, moved, unsigned} : (memref<1xi1>) -> i1
      %462 = "arith.constant"() {moved, value = 0 : i32} : () -> i32
      %463 = "arith.extui"(%461) {moved} : (i1) -> i32
      %464 = "arith.cmpi"(%463, %462) {moved, predicate = 1 : i64} : (i32, i32) -> i1
      "scf.if"(%464) ({
        %690 = "affine.load"(%155) {from = "ntt_intt_top_addr", map = #map1, unsigned} : (memref<1xi9>) -> i9
        %691 = "memref.alloc"() {name = "rfaddr", operand_segment_sizes = dense<0> : vector<2xi32>} : () -> memref<1x!hcl.struct<i7, i2>>
        %692 = "arith.constant"() {value = 0 : index} : () -> index
        %693 = "hcl.int_to_struct"(%690) {unsigned} : (i9) -> !hcl.struct<i7, i2>
        "affine.store"(%693, %691) {map = #map1, to = "rfaddr"} : (!hcl.struct<i7, i2>, memref<1x!hcl.struct<i7, i2>>) -> ()
        %694 = "affine.load"(%691) {from = "rfaddr", map = #map1} : (memref<1x!hcl.struct<i7, i2>>) -> !hcl.struct<i7, i2>
        %695 = "hcl.struct_get"(%694) {index = 1 : i64, unsigned} : (!hcl.struct<i7, i2>) -> i2
        %696 = "hcl.struct_get"(%694) {index = 0 : i64, unsigned} : (!hcl.struct<i7, i2>) -> i7
        %697 = "memref.alloc"() {name = "bv", operand_segment_sizes = dense<0> : vector<2xi32>, unsigned} : () -> memref<1xi3>
        %698 = "arith.constant"() {value = 0 : index} : () -> index
        %699 = "arith.extui"(%695) {unsigned} : (i2) -> i3
        "affine.store"(%699, %697) {map = #map1, to = "bv", unsigned} : (i3, memref<1xi3>) -> ()
        %700 = "affine.load"(%697) {from = "bv", map = #map1, unsigned} : (memref<1xi3>) -> i3
        %701 = "memref.alloc"() {name = "rv", operand_segment_sizes = dense<0> : vector<2xi32>, unsigned} : () -> memref<1xi8>
        %702 = "arith.constant"() {value = 0 : index} : () -> index
        %703 = "arith.extui"(%696) {unsigned} : (i7) -> i8
        "affine.store"(%703, %701) {map = #map1, to = "rv", unsigned} : (i8, memref<1xi8>) -> ()
        %704 = "affine.load"(%701) {from = "rv", map = #map1, unsigned} : (memref<1xi8>) -> i8
        %705 = "memref.alloc"() {name = "count", operand_segment_sizes = dense<0> : vector<2xi32>, unsigned} : () -> memref<1xi32>
        %706 = "arith.constant"() {value = 0 : index} : () -> index
        %707 = "arith.constant"() {unsigned, value = 8192 : i32} : () -> i32
        "affine.store"(%707, %705) {map = #map1, to = "count", unsigned} : (i32, memref<1xi32>) -> ()
        %708 = "memref.alloc"() {name = "src_addr", operand_segment_sizes = dense<0> : vector<2xi32>, unsigned} : () -> memref<1xi32>
        %709 = "arith.constant"() {value = 0 : index} : () -> index
        %710 = "arith.constant"() {unsigned, value = 0 : i32} : () -> i32
        "affine.store"(%710, %708) {map = #map1, to = "src_addr", unsigned} : (i32, memref<1xi32>) -> ()
        %711 = "memref.alloc"() {name = "dst_addr", operand_segment_sizes = dense<0> : vector<2xi32>, unsigned} : () -> memref<1xi32>
        %712 = "arith.constant"() {value = 0 : index} : () -> index
        %713 = "arith.constant"() {unsigned, value = 0 : i32} : () -> i32
        "affine.store"(%713, %711) {map = #map1, to = "dst_addr", unsigned} : (i32, memref<1xi32>) -> ()
        %714 = "affine.load"(%708) {from = "src_addr", map = #map1, unsigned} : (memref<1xi32>) -> i32
        %715 = "affine.load"(%705) {from = "count", map = #map1, unsigned} : (memref<1xi32>) -> i32
        %716 = "memref.alloc"() {name = "_addr", operand_segment_sizes = dense<0> : vector<2xi32>, unsigned} : () -> memref<1xi32>
        %717 = "arith.constant"() {value = 0 : index} : () -> index
        "affine.store"(%714, %716) {map = #map1, to = "_addr", unsigned} : (i32, memref<1xi32>) -> ()
        %718 = "affine.load"(%716) {from = "_addr", map = #map1, unsigned} : (memref<1xi32>) -> i32
        %719 = "arith.addi"(%718, %715) {unsigned} : (i32, i32) -> i32
        %720 = "arith.constant"() {value = 8192 : i32} : () -> i32
        %721 = "arith.cmpi"(%719, %720) {predicate = 3 : i64} : (i32, i32) -> i1
        %722 = "affine.load"(%716) {from = "_addr", map = #map1, unsigned} : (memref<1xi32>) -> i32
        %723 = "affine.load"(%716) {from = "_addr", map = #map1, unsigned} : (memref<1xi32>) -> i32
        %724 = "arith.addi"(%723, %715) {unsigned} : (i32, i32) -> i32
        %725 = "memref.alloc"() {name = "assert_cond", operand_segment_sizes = dense<0> : vector<2xi32>, unsigned} : () -> memref<1xi1>
        %726 = "arith.constant"() {value = 0 : index} : () -> index
        "affine.store"(%721, %725) {map = #map1, to = "assert_cond", unsigned} : (i1, memref<1xi1>) -> ()
        %727 = "affine.load"(%725) {from = "assert_cond", map = #map1, moved, unsigned} : (memref<1xi1>) -> i1
        %728 = "arith.constant"() {moved, value = 0 : i32} : () -> i32
        %729 = "arith.extui"(%727) {moved} : (i1) -> i32
        %730 = "arith.cmpi"(%729, %728) {moved, predicate = 0 : i64} : (i32, i32) -> i1
        "scf.if"(%730) ({
          "hcl.print"(%722, %724) {format = "\0A\0AAssertion failed {schedule.py:156,schedule.py:66,soc.py:60,hcl_ext.py:859,hcl_ext.py:849,tile.py:184,tile.py:409,mem.py:172,mem.py:106,hcl_ext.py:723}: nttdataintop Mem.copyto exceeds memory size: addr=%d+size=%d > 8192\0A\0A", signedness = "uu"} : (i32, i32) -> ()
          "scf.while"() ({
            %799 = "affine.load"(%725) {from = "assert_cond", map = #map1, moved, unsigned} : (memref<1xi1>) -> i1
            %800 = "arith.extui"(%799) {moved} : (i1) -> i32
            %801 = "arith.constant"() {moved, value = 0 : i32} : () -> i32
            %802 = "arith.cmpi"(%800, %801) {moved, predicate = 0 : i64} : (i32, i32) -> i1
            "scf.condition"(%802) : (i1) -> ()
          }, {
            %799 = "arith.constant"() {value = 0 : index} : () -> index
            %800 = "arith.constant"() {value = 0 : i32} : () -> i32
            %801 = "arith.trunci"(%800) {unsigned} : (i32) -> i1
            "affine.store"(%801, %725) {map = #map1, to = "assert_cond", unsigned} : (i1, memref<1xi1>) -> ()
            "scf.yield"() : () -> ()
          }) : () -> ()
          "scf.yield"() : () -> ()
        }, {
        }) : (i1) -> ()
        %731 = "affine.load"(%711) {from = "dst_addr", map = #map1, unsigned} : (memref<1xi32>) -> i32
        %732 = "affine.load"(%708) {from = "src_addr", map = #map1, unsigned} : (memref<1xi32>) -> i32
        %733 = "affine.load"(%705) {from = "count", map = #map1, unsigned} : (memref<1xi32>) -> i32
        %734 = "memref.alloc"() {name = "copyN", operand_segment_sizes = dense<0> : vector<2xi32>, unsigned} : () -> memref<1xi1>
        %735 = "hcl.create_op_handle"() {op_name = "copyN"} : () -> !hcl.OpHandle
        %736 = "hcl.create_loop_handle"(%735) {loop_name = "i"} : (!hcl.OpHandle) -> !hcl.LoopHandle
        %737 = "arith.constant"() {value = 0 : i32} : () -> i32
        %738 = "arith.index_cast"(%737) : (i32) -> index
        %739 = "arith.index_cast"(%733) : (i32) -> index
        %740 = "arith.constant"() {value = 1 : i32} : () -> i32
        %741 = "arith.index_cast"(%740) : (i32) -> index
        "scf.for"(%738, %739, %741) ({
        ^bb0(%arg2: index):
          %799 = "arith.index_cast"(%732) : (i32) -> index
          %800 = "arith.addi"(%799, %arg2) : (index, index) -> index
          %801 = "memref.load"(%162, %800) {from = "nttdataintop.alloc_c", unsigned} : (memref<8192xi32>, index) -> i32
          %802 = "arith.index_cast"(%731) : (i32) -> index
          %803 = "arith.addi"(%802, %arg2) : (index, index) -> index
          %804 = "arith.index_cast"(%700) : (i3) -> index
          %805 = "arith.index_cast"(%704) : (i8) -> index
          "memref.store"(%801, %143, %804, %805, %803) {to = "RF.alloc_c", unsigned} : (i32, memref<4x72x8192xi32>, index, index, index) -> ()
          "scf.yield"() : () -> ()
        }) {loop_name = "i", op_name = "copyN"} : (index, index, index) -> ()
        %742 = "memref.alloc"() {name = "copyN", operand_segment_sizes = dense<0> : vector<2xi32>, unsigned} : () -> memref<1xi1>
        %743 = "affine.load"(%158) {from = "ntt_intt_bot_addr", map = #map1, unsigned} : (memref<1xi9>) -> i9
        %744 = "memref.alloc"() {name = "rfaddr", operand_segment_sizes = dense<0> : vector<2xi32>} : () -> memref<1x!hcl.struct<i7, i2>>
        %745 = "arith.constant"() {value = 0 : index} : () -> index
        %746 = "hcl.int_to_struct"(%743) {unsigned} : (i9) -> !hcl.struct<i7, i2>
        "affine.store"(%746, %744) {map = #map1, to = "rfaddr"} : (!hcl.struct<i7, i2>, memref<1x!hcl.struct<i7, i2>>) -> ()
        %747 = "affine.load"(%744) {from = "rfaddr", map = #map1} : (memref<1x!hcl.struct<i7, i2>>) -> !hcl.struct<i7, i2>
        %748 = "hcl.struct_get"(%747) {index = 1 : i64, unsigned} : (!hcl.struct<i7, i2>) -> i2
        %749 = "hcl.struct_get"(%747) {index = 0 : i64, unsigned} : (!hcl.struct<i7, i2>) -> i7
        %750 = "memref.alloc"() {name = "bv", operand_segment_sizes = dense<0> : vector<2xi32>, unsigned} : () -> memref<1xi3>
        %751 = "arith.constant"() {value = 0 : index} : () -> index
        %752 = "arith.extui"(%748) {unsigned} : (i2) -> i3
        "affine.store"(%752, %750) {map = #map1, to = "bv", unsigned} : (i3, memref<1xi3>) -> ()
        %753 = "affine.load"(%750) {from = "bv", map = #map1, unsigned} : (memref<1xi3>) -> i3
        %754 = "memref.alloc"() {name = "rv", operand_segment_sizes = dense<0> : vector<2xi32>, unsigned} : () -> memref<1xi8>
        %755 = "arith.constant"() {value = 0 : index} : () -> index
        %756 = "arith.extui"(%749) {unsigned} : (i7) -> i8
        "affine.store"(%756, %754) {map = #map1, to = "rv", unsigned} : (i8, memref<1xi8>) -> ()
        %757 = "affine.load"(%754) {from = "rv", map = #map1, unsigned} : (memref<1xi8>) -> i8
        %758 = "memref.alloc"() {name = "count", operand_segment_sizes = dense<0> : vector<2xi32>, unsigned} : () -> memref<1xi32>
        %759 = "arith.constant"() {value = 0 : index} : () -> index
        %760 = "arith.constant"() {unsigned, value = 8192 : i32} : () -> i32
        "affine.store"(%760, %758) {map = #map1, to = "count", unsigned} : (i32, memref<1xi32>) -> ()
        %761 = "memref.alloc"() {name = "src_addr", operand_segment_sizes = dense<0> : vector<2xi32>, unsigned} : () -> memref<1xi32>
        %762 = "arith.constant"() {value = 0 : index} : () -> index
        %763 = "arith.constant"() {unsigned, value = 0 : i32} : () -> i32
        "affine.store"(%763, %761) {map = #map1, to = "src_addr", unsigned} : (i32, memref<1xi32>) -> ()
        %764 = "memref.alloc"() {name = "dst_addr", operand_segment_sizes = dense<0> : vector<2xi32>, unsigned} : () -> memref<1xi32>
        %765 = "arith.constant"() {value = 0 : index} : () -> index
        %766 = "arith.constant"() {unsigned, value = 0 : i32} : () -> i32
        "affine.store"(%766, %764) {map = #map1, to = "dst_addr", unsigned} : (i32, memref<1xi32>) -> ()
        %767 = "affine.load"(%761) {from = "src_addr", map = #map1, unsigned} : (memref<1xi32>) -> i32
        %768 = "affine.load"(%758) {from = "count", map = #map1, unsigned} : (memref<1xi32>) -> i32
        %769 = "memref.alloc"() {name = "_addr", operand_segment_sizes = dense<0> : vector<2xi32>, unsigned} : () -> memref<1xi32>
        %770 = "arith.constant"() {value = 0 : index} : () -> index
        "affine.store"(%767, %769) {map = #map1, to = "_addr", unsigned} : (i32, memref<1xi32>) -> ()
        %771 = "affine.load"(%769) {from = "_addr", map = #map1, unsigned} : (memref<1xi32>) -> i32
        %772 = "arith.addi"(%771, %768) {unsigned} : (i32, i32) -> i32
        %773 = "arith.constant"() {value = 8192 : i32} : () -> i32
        %774 = "arith.cmpi"(%772, %773) {predicate = 3 : i64} : (i32, i32) -> i1
        %775 = "affine.load"(%769) {from = "_addr", map = #map1, unsigned} : (memref<1xi32>) -> i32
        %776 = "affine.load"(%769) {from = "_addr", map = #map1, unsigned} : (memref<1xi32>) -> i32
        %777 = "arith.addi"(%776, %768) {unsigned} : (i32, i32) -> i32
        %778 = "memref.alloc"() {name = "assert_cond", operand_segment_sizes = dense<0> : vector<2xi32>, unsigned} : () -> memref<1xi1>
        %779 = "arith.constant"() {value = 0 : index} : () -> index
        "affine.store"(%774, %778) {map = #map1, to = "assert_cond", unsigned} : (i1, memref<1xi1>) -> ()
        %780 = "affine.load"(%778) {from = "assert_cond", map = #map1, moved, unsigned} : (memref<1xi1>) -> i1
        %781 = "arith.constant"() {moved, value = 0 : i32} : () -> i32
        %782 = "arith.extui"(%780) {moved} : (i1) -> i32
        %783 = "arith.cmpi"(%782, %781) {moved, predicate = 0 : i64} : (i32, i32) -> i1
        "scf.if"(%783) ({
          "hcl.print"(%775, %777) {format = "\0A\0AAssertion failed {schedule.py:156,schedule.py:66,soc.py:60,hcl_ext.py:859,hcl_ext.py:849,tile.py:184,tile.py:411,mem.py:172,mem.py:106,hcl_ext.py:723}: nttdatainbot Mem.copyto exceeds memory size: addr=%d+size=%d > 8192\0A\0A", signedness = "uu"} : (i32, i32) -> ()
          "scf.while"() ({
            %799 = "affine.load"(%778) {from = "assert_cond", map = #map1, moved, unsigned} : (memref<1xi1>) -> i1
            %800 = "arith.extui"(%799) {moved} : (i1) -> i32
            %801 = "arith.constant"() {moved, value = 0 : i32} : () -> i32
            %802 = "arith.cmpi"(%800, %801) {moved, predicate = 0 : i64} : (i32, i32) -> i1
            "scf.condition"(%802) : (i1) -> ()
          }, {
            %799 = "arith.constant"() {value = 0 : index} : () -> index
            %800 = "arith.constant"() {value = 0 : i32} : () -> i32
            %801 = "arith.trunci"(%800) {unsigned} : (i32) -> i1
            "affine.store"(%801, %778) {map = #map1, to = "assert_cond", unsigned} : (i1, memref<1xi1>) -> ()
            "scf.yield"() : () -> ()
          }) : () -> ()
          "scf.yield"() : () -> ()
        }, {
        }) : (i1) -> ()
        %784 = "affine.load"(%764) {from = "dst_addr", map = #map1, unsigned} : (memref<1xi32>) -> i32
        %785 = "affine.load"(%761) {from = "src_addr", map = #map1, unsigned} : (memref<1xi32>) -> i32
        %786 = "affine.load"(%758) {from = "count", map = #map1, unsigned} : (memref<1xi32>) -> i32
        %787 = "memref.alloc"() {name = "copyN", operand_segment_sizes = dense<0> : vector<2xi32>, unsigned} : () -> memref<1xi1>
        %788 = "hcl.create_op_handle"() {op_name = "copyN"} : () -> !hcl.OpHandle
        %789 = "hcl.create_loop_handle"(%788) {loop_name = "i"} : (!hcl.OpHandle) -> !hcl.LoopHandle
        %790 = "arith.constant"() {value = 0 : i32} : () -> i32
        %791 = "arith.index_cast"(%790) : (i32) -> index
        %792 = "arith.index_cast"(%786) : (i32) -> index
        %793 = "arith.constant"() {value = 1 : i32} : () -> i32
        %794 = "arith.index_cast"(%793) : (i32) -> index
        "scf.for"(%791, %792, %794) ({
        ^bb0(%arg2: index):
          %799 = "arith.index_cast"(%785) : (i32) -> index
          %800 = "arith.addi"(%799, %arg2) : (index, index) -> index
          %801 = "memref.load"(%163, %800) {from = "nttdatainbot.alloc_c", unsigned} : (memref<8192xi32>, index) -> i32
          %802 = "arith.index_cast"(%784) : (i32) -> index
          %803 = "arith.addi"(%802, %arg2) : (index, index) -> index
          %804 = "arith.index_cast"(%753) : (i3) -> index
          %805 = "arith.index_cast"(%757) : (i8) -> index
          "memref.store"(%801, %143, %804, %805, %803) {to = "RF.alloc_c", unsigned} : (i32, memref<4x72x8192xi32>, index, index, index) -> ()
          "scf.yield"() : () -> ()
        }) {loop_name = "i", op_name = "copyN"} : (index, index, index) -> ()
        %795 = "memref.alloc"() {name = "copyN", operand_segment_sizes = dense<0> : vector<2xi32>, unsigned} : () -> memref<1xi1>
        %796 = "arith.constant"() {value = 0 : index} : () -> index
        %797 = "arith.constant"() {value = 0 : i32} : () -> i32
        %798 = "arith.trunci"(%797) {unsigned} : (i32) -> i1
        "affine.store"(%798, %149) {map = #map1, to = "flag_ntt", unsigned} : (i1, memref<1xi1>) -> ()
        "scf.yield"() : () -> ()
      }, {
      }) : (i1) -> ()
      %465 = "affine.load"(%152) {from = "flag_intt", map = #map1, moved, unsigned} : (memref<1xi1>) -> i1
      %466 = "arith.constant"() {moved, value = 0 : i32} : () -> i32
      %467 = "arith.extui"(%465) {moved} : (i1) -> i32
      %468 = "arith.cmpi"(%467, %466) {moved, predicate = 1 : i64} : (i32, i32) -> i1
      "scf.if"(%468) ({
        %690 = "affine.load"(%155) {from = "ntt_intt_top_addr", map = #map1, unsigned} : (memref<1xi9>) -> i9
        %691 = "memref.alloc"() {name = "rfaddr", operand_segment_sizes = dense<0> : vector<2xi32>} : () -> memref<1x!hcl.struct<i7, i2>>
        %692 = "arith.constant"() {value = 0 : index} : () -> index
        %693 = "hcl.int_to_struct"(%690) {unsigned} : (i9) -> !hcl.struct<i7, i2>
        "affine.store"(%693, %691) {map = #map1, to = "rfaddr"} : (!hcl.struct<i7, i2>, memref<1x!hcl.struct<i7, i2>>) -> ()
        %694 = "affine.load"(%691) {from = "rfaddr", map = #map1} : (memref<1x!hcl.struct<i7, i2>>) -> !hcl.struct<i7, i2>
        %695 = "hcl.struct_get"(%694) {index = 1 : i64, unsigned} : (!hcl.struct<i7, i2>) -> i2
        %696 = "hcl.struct_get"(%694) {index = 0 : i64, unsigned} : (!hcl.struct<i7, i2>) -> i7
        %697 = "memref.alloc"() {name = "bv", operand_segment_sizes = dense<0> : vector<2xi32>, unsigned} : () -> memref<1xi3>
        %698 = "arith.constant"() {value = 0 : index} : () -> index
        %699 = "arith.extui"(%695) {unsigned} : (i2) -> i3
        "affine.store"(%699, %697) {map = #map1, to = "bv", unsigned} : (i3, memref<1xi3>) -> ()
        %700 = "affine.load"(%697) {from = "bv", map = #map1, unsigned} : (memref<1xi3>) -> i3
        %701 = "memref.alloc"() {name = "rv", operand_segment_sizes = dense<0> : vector<2xi32>, unsigned} : () -> memref<1xi8>
        %702 = "arith.constant"() {value = 0 : index} : () -> index
        %703 = "arith.extui"(%696) {unsigned} : (i7) -> i8
        "affine.store"(%703, %701) {map = #map1, to = "rv", unsigned} : (i8, memref<1xi8>) -> ()
        %704 = "affine.load"(%701) {from = "rv", map = #map1, unsigned} : (memref<1xi8>) -> i8
        %705 = "memref.alloc"() {name = "count", operand_segment_sizes = dense<0> : vector<2xi32>, unsigned} : () -> memref<1xi32>
        %706 = "arith.constant"() {value = 0 : index} : () -> index
        %707 = "arith.constant"() {unsigned, value = 8192 : i32} : () -> i32
        "affine.store"(%707, %705) {map = #map1, to = "count", unsigned} : (i32, memref<1xi32>) -> ()
        %708 = "memref.alloc"() {name = "src_addr", operand_segment_sizes = dense<0> : vector<2xi32>, unsigned} : () -> memref<1xi32>
        %709 = "arith.constant"() {value = 0 : index} : () -> index
        %710 = "arith.constant"() {unsigned, value = 0 : i32} : () -> i32
        "affine.store"(%710, %708) {map = #map1, to = "src_addr", unsigned} : (i32, memref<1xi32>) -> ()
        %711 = "memref.alloc"() {name = "dst_addr", operand_segment_sizes = dense<0> : vector<2xi32>, unsigned} : () -> memref<1xi32>
        %712 = "arith.constant"() {value = 0 : index} : () -> index
        %713 = "arith.constant"() {unsigned, value = 0 : i32} : () -> i32
        "affine.store"(%713, %711) {map = #map1, to = "dst_addr", unsigned} : (i32, memref<1xi32>) -> ()
        %714 = "affine.load"(%708) {from = "src_addr", map = #map1, unsigned} : (memref<1xi32>) -> i32
        %715 = "affine.load"(%705) {from = "count", map = #map1, unsigned} : (memref<1xi32>) -> i32
        %716 = "memref.alloc"() {name = "_addr", operand_segment_sizes = dense<0> : vector<2xi32>, unsigned} : () -> memref<1xi32>
        %717 = "arith.constant"() {value = 0 : index} : () -> index
        "affine.store"(%714, %716) {map = #map1, to = "_addr", unsigned} : (i32, memref<1xi32>) -> ()
        %718 = "affine.load"(%716) {from = "_addr", map = #map1, unsigned} : (memref<1xi32>) -> i32
        %719 = "arith.addi"(%718, %715) {unsigned} : (i32, i32) -> i32
        %720 = "arith.constant"() {value = 8192 : i32} : () -> i32
        %721 = "arith.cmpi"(%719, %720) {predicate = 3 : i64} : (i32, i32) -> i1
        %722 = "affine.load"(%716) {from = "_addr", map = #map1, unsigned} : (memref<1xi32>) -> i32
        %723 = "affine.load"(%716) {from = "_addr", map = #map1, unsigned} : (memref<1xi32>) -> i32
        %724 = "arith.addi"(%723, %715) {unsigned} : (i32, i32) -> i32
        %725 = "memref.alloc"() {name = "assert_cond", operand_segment_sizes = dense<0> : vector<2xi32>, unsigned} : () -> memref<1xi1>
        %726 = "arith.constant"() {value = 0 : index} : () -> index
        "affine.store"(%721, %725) {map = #map1, to = "assert_cond", unsigned} : (i1, memref<1xi1>) -> ()
        %727 = "affine.load"(%725) {from = "assert_cond", map = #map1, moved, unsigned} : (memref<1xi1>) -> i1
        %728 = "arith.constant"() {moved, value = 0 : i32} : () -> i32
        %729 = "arith.extui"(%727) {moved} : (i1) -> i32
        %730 = "arith.cmpi"(%729, %728) {moved, predicate = 0 : i64} : (i32, i32) -> i1
        "scf.if"(%730) ({
          "hcl.print"(%722, %724) {format = "\0A\0AAssertion failed {schedule.py:156,schedule.py:66,soc.py:60,hcl_ext.py:859,hcl_ext.py:849,tile.py:184,tile.py:420,mem.py:172,mem.py:106,hcl_ext.py:723}: inttdataintop Mem.copyto exceeds memory size: addr=%d+size=%d > 8192\0A\0A", signedness = "uu"} : (i32, i32) -> ()
          "scf.while"() ({
            %799 = "affine.load"(%725) {from = "assert_cond", map = #map1, moved, unsigned} : (memref<1xi1>) -> i1
            %800 = "arith.extui"(%799) {moved} : (i1) -> i32
            %801 = "arith.constant"() {moved, value = 0 : i32} : () -> i32
            %802 = "arith.cmpi"(%800, %801) {moved, predicate = 0 : i64} : (i32, i32) -> i1
            "scf.condition"(%802) : (i1) -> ()
          }, {
            %799 = "arith.constant"() {value = 0 : index} : () -> index
            %800 = "arith.constant"() {value = 0 : i32} : () -> i32
            %801 = "arith.trunci"(%800) {unsigned} : (i32) -> i1
            "affine.store"(%801, %725) {map = #map1, to = "assert_cond", unsigned} : (i1, memref<1xi1>) -> ()
            "scf.yield"() : () -> ()
          }) : () -> ()
          "scf.yield"() : () -> ()
        }, {
        }) : (i1) -> ()
        %731 = "affine.load"(%711) {from = "dst_addr", map = #map1, unsigned} : (memref<1xi32>) -> i32
        %732 = "affine.load"(%708) {from = "src_addr", map = #map1, unsigned} : (memref<1xi32>) -> i32
        %733 = "affine.load"(%705) {from = "count", map = #map1, unsigned} : (memref<1xi32>) -> i32
        %734 = "memref.alloc"() {name = "copyN", operand_segment_sizes = dense<0> : vector<2xi32>, unsigned} : () -> memref<1xi1>
        %735 = "hcl.create_op_handle"() {op_name = "copyN"} : () -> !hcl.OpHandle
        %736 = "hcl.create_loop_handle"(%735) {loop_name = "i"} : (!hcl.OpHandle) -> !hcl.LoopHandle
        %737 = "arith.constant"() {value = 0 : i32} : () -> i32
        %738 = "arith.index_cast"(%737) : (i32) -> index
        %739 = "arith.index_cast"(%733) : (i32) -> index
        %740 = "arith.constant"() {value = 1 : i32} : () -> i32
        %741 = "arith.index_cast"(%740) : (i32) -> index
        "scf.for"(%738, %739, %741) ({
        ^bb0(%arg2: index):
          %799 = "arith.index_cast"(%732) : (i32) -> index
          %800 = "arith.addi"(%799, %arg2) : (index, index) -> index
          %801 = "memref.load"(%166, %800) {from = "inttdataintop.alloc_c", unsigned} : (memref<8192xi32>, index) -> i32
          %802 = "arith.index_cast"(%731) : (i32) -> index
          %803 = "arith.addi"(%802, %arg2) : (index, index) -> index
          %804 = "arith.index_cast"(%700) : (i3) -> index
          %805 = "arith.index_cast"(%704) : (i8) -> index
          "memref.store"(%801, %143, %804, %805, %803) {to = "RF.alloc_c", unsigned} : (i32, memref<4x72x8192xi32>, index, index, index) -> ()
          "scf.yield"() : () -> ()
        }) {loop_name = "i", op_name = "copyN"} : (index, index, index) -> ()
        %742 = "memref.alloc"() {name = "copyN", operand_segment_sizes = dense<0> : vector<2xi32>, unsigned} : () -> memref<1xi1>
        %743 = "affine.load"(%158) {from = "ntt_intt_bot_addr", map = #map1, unsigned} : (memref<1xi9>) -> i9
        %744 = "memref.alloc"() {name = "rfaddr", operand_segment_sizes = dense<0> : vector<2xi32>} : () -> memref<1x!hcl.struct<i7, i2>>
        %745 = "arith.constant"() {value = 0 : index} : () -> index
        %746 = "hcl.int_to_struct"(%743) {unsigned} : (i9) -> !hcl.struct<i7, i2>
        "affine.store"(%746, %744) {map = #map1, to = "rfaddr"} : (!hcl.struct<i7, i2>, memref<1x!hcl.struct<i7, i2>>) -> ()
        %747 = "affine.load"(%744) {from = "rfaddr", map = #map1} : (memref<1x!hcl.struct<i7, i2>>) -> !hcl.struct<i7, i2>
        %748 = "hcl.struct_get"(%747) {index = 1 : i64, unsigned} : (!hcl.struct<i7, i2>) -> i2
        %749 = "hcl.struct_get"(%747) {index = 0 : i64, unsigned} : (!hcl.struct<i7, i2>) -> i7
        %750 = "memref.alloc"() {name = "bv", operand_segment_sizes = dense<0> : vector<2xi32>, unsigned} : () -> memref<1xi3>
        %751 = "arith.constant"() {value = 0 : index} : () -> index
        %752 = "arith.extui"(%748) {unsigned} : (i2) -> i3
        "affine.store"(%752, %750) {map = #map1, to = "bv", unsigned} : (i3, memref<1xi3>) -> ()
        %753 = "affine.load"(%750) {from = "bv", map = #map1, unsigned} : (memref<1xi3>) -> i3
        %754 = "memref.alloc"() {name = "rv", operand_segment_sizes = dense<0> : vector<2xi32>, unsigned} : () -> memref<1xi8>
        %755 = "arith.constant"() {value = 0 : index} : () -> index
        %756 = "arith.extui"(%749) {unsigned} : (i7) -> i8
        "affine.store"(%756, %754) {map = #map1, to = "rv", unsigned} : (i8, memref<1xi8>) -> ()
        %757 = "affine.load"(%754) {from = "rv", map = #map1, unsigned} : (memref<1xi8>) -> i8
        %758 = "memref.alloc"() {name = "count", operand_segment_sizes = dense<0> : vector<2xi32>, unsigned} : () -> memref<1xi32>
        %759 = "arith.constant"() {value = 0 : index} : () -> index
        %760 = "arith.constant"() {unsigned, value = 8192 : i32} : () -> i32
        "affine.store"(%760, %758) {map = #map1, to = "count", unsigned} : (i32, memref<1xi32>) -> ()
        %761 = "memref.alloc"() {name = "src_addr", operand_segment_sizes = dense<0> : vector<2xi32>, unsigned} : () -> memref<1xi32>
        %762 = "arith.constant"() {value = 0 : index} : () -> index
        %763 = "arith.constant"() {unsigned, value = 0 : i32} : () -> i32
        "affine.store"(%763, %761) {map = #map1, to = "src_addr", unsigned} : (i32, memref<1xi32>) -> ()
        %764 = "memref.alloc"() {name = "dst_addr", operand_segment_sizes = dense<0> : vector<2xi32>, unsigned} : () -> memref<1xi32>
        %765 = "arith.constant"() {value = 0 : index} : () -> index
        %766 = "arith.constant"() {unsigned, value = 0 : i32} : () -> i32
        "affine.store"(%766, %764) {map = #map1, to = "dst_addr", unsigned} : (i32, memref<1xi32>) -> ()
        %767 = "affine.load"(%761) {from = "src_addr", map = #map1, unsigned} : (memref<1xi32>) -> i32
        %768 = "affine.load"(%758) {from = "count", map = #map1, unsigned} : (memref<1xi32>) -> i32
        %769 = "memref.alloc"() {name = "_addr", operand_segment_sizes = dense<0> : vector<2xi32>, unsigned} : () -> memref<1xi32>
        %770 = "arith.constant"() {value = 0 : index} : () -> index
        "affine.store"(%767, %769) {map = #map1, to = "_addr", unsigned} : (i32, memref<1xi32>) -> ()
        %771 = "affine.load"(%769) {from = "_addr", map = #map1, unsigned} : (memref<1xi32>) -> i32
        %772 = "arith.addi"(%771, %768) {unsigned} : (i32, i32) -> i32
        %773 = "arith.constant"() {value = 8192 : i32} : () -> i32
        %774 = "arith.cmpi"(%772, %773) {predicate = 3 : i64} : (i32, i32) -> i1
        %775 = "affine.load"(%769) {from = "_addr", map = #map1, unsigned} : (memref<1xi32>) -> i32
        %776 = "affine.load"(%769) {from = "_addr", map = #map1, unsigned} : (memref<1xi32>) -> i32
        %777 = "arith.addi"(%776, %768) {unsigned} : (i32, i32) -> i32
        %778 = "memref.alloc"() {name = "assert_cond", operand_segment_sizes = dense<0> : vector<2xi32>, unsigned} : () -> memref<1xi1>
        %779 = "arith.constant"() {value = 0 : index} : () -> index
        "affine.store"(%774, %778) {map = #map1, to = "assert_cond", unsigned} : (i1, memref<1xi1>) -> ()
        %780 = "affine.load"(%778) {from = "assert_cond", map = #map1, moved, unsigned} : (memref<1xi1>) -> i1
        %781 = "arith.constant"() {moved, value = 0 : i32} : () -> i32
        %782 = "arith.extui"(%780) {moved} : (i1) -> i32
        %783 = "arith.cmpi"(%782, %781) {moved, predicate = 0 : i64} : (i32, i32) -> i1
        "scf.if"(%783) ({
          "hcl.print"(%775, %777) {format = "\0A\0AAssertion failed {schedule.py:156,schedule.py:66,soc.py:60,hcl_ext.py:859,hcl_ext.py:849,tile.py:184,tile.py:422,mem.py:172,mem.py:106,hcl_ext.py:723}: inttdatainbot Mem.copyto exceeds memory size: addr=%d+size=%d > 8192\0A\0A", signedness = "uu"} : (i32, i32) -> ()
          "scf.while"() ({
            %799 = "affine.load"(%778) {from = "assert_cond", map = #map1, moved, unsigned} : (memref<1xi1>) -> i1
            %800 = "arith.extui"(%799) {moved} : (i1) -> i32
            %801 = "arith.constant"() {moved, value = 0 : i32} : () -> i32
            %802 = "arith.cmpi"(%800, %801) {moved, predicate = 0 : i64} : (i32, i32) -> i1
            "scf.condition"(%802) : (i1) -> ()
          }, {
            %799 = "arith.constant"() {value = 0 : index} : () -> index
            %800 = "arith.constant"() {value = 0 : i32} : () -> i32
            %801 = "arith.trunci"(%800) {unsigned} : (i32) -> i1
            "affine.store"(%801, %778) {map = #map1, to = "assert_cond", unsigned} : (i1, memref<1xi1>) -> ()
            "scf.yield"() : () -> ()
          }) : () -> ()
          "scf.yield"() : () -> ()
        }, {
        }) : (i1) -> ()
        %784 = "affine.load"(%764) {from = "dst_addr", map = #map1, unsigned} : (memref<1xi32>) -> i32
        %785 = "affine.load"(%761) {from = "src_addr", map = #map1, unsigned} : (memref<1xi32>) -> i32
        %786 = "affine.load"(%758) {from = "count", map = #map1, unsigned} : (memref<1xi32>) -> i32
        %787 = "memref.alloc"() {name = "copyN", operand_segment_sizes = dense<0> : vector<2xi32>, unsigned} : () -> memref<1xi1>
        %788 = "hcl.create_op_handle"() {op_name = "copyN"} : () -> !hcl.OpHandle
        %789 = "hcl.create_loop_handle"(%788) {loop_name = "i"} : (!hcl.OpHandle) -> !hcl.LoopHandle
        %790 = "arith.constant"() {value = 0 : i32} : () -> i32
        %791 = "arith.index_cast"(%790) : (i32) -> index
        %792 = "arith.index_cast"(%786) : (i32) -> index
        %793 = "arith.constant"() {value = 1 : i32} : () -> i32
        %794 = "arith.index_cast"(%793) : (i32) -> index
        "scf.for"(%791, %792, %794) ({
        ^bb0(%arg2: index):
          %799 = "arith.index_cast"(%785) : (i32) -> index
          %800 = "arith.addi"(%799, %arg2) : (index, index) -> index
          %801 = "memref.load"(%167, %800) {from = "inttdatainbot.alloc_c", unsigned} : (memref<8192xi32>, index) -> i32
          %802 = "arith.index_cast"(%784) : (i32) -> index
          %803 = "arith.addi"(%802, %arg2) : (index, index) -> index
          %804 = "arith.index_cast"(%753) : (i3) -> index
          %805 = "arith.index_cast"(%757) : (i8) -> index
          "memref.store"(%801, %143, %804, %805, %803) {to = "RF.alloc_c", unsigned} : (i32, memref<4x72x8192xi32>, index, index, index) -> ()
          "scf.yield"() : () -> ()
        }) {loop_name = "i", op_name = "copyN"} : (index, index, index) -> ()
        %795 = "memref.alloc"() {name = "copyN", operand_segment_sizes = dense<0> : vector<2xi32>, unsigned} : () -> memref<1xi1>
        %796 = "arith.constant"() {value = 0 : index} : () -> index
        %797 = "arith.constant"() {value = 0 : i32} : () -> i32
        %798 = "arith.trunci"(%797) {unsigned} : (i32) -> i1
        "affine.store"(%798, %152) {map = #map1, to = "flag_intt", unsigned} : (i1, memref<1xi1>) -> ()
        "scf.yield"() : () -> ()
      }, {
      }) : (i1) -> ()
      %469 = "affine.load"(%221) {from = "flags_active", map = #map1, unsigned} : (memref<1xi1>) -> i1
      %470 = "affine.load"(%224) {from = "flags_halt", map = #map1, moved, unsigned} : (memref<1xi1>) -> i1
      %471 = "memref.alloc"() {name = "or_tmp", operand_segment_sizes = dense<0> : vector<2xi32>, unsigned} : () -> memref<1xi1>
      %472 = "arith.constant"() {value = 0 : index} : () -> index
      %473 = "arith.constant"() {unsigned, value = false} : () -> i1
      "affine.store"(%473, %471) {map = #map1, to = "or_tmp", unsigned} : (i1, memref<1xi1>) -> ()
      %474 = "arith.constant"() {value = 0 : index} : () -> index
      "affine.store"(%469, %471) {map = #map1, to = "or_tmp", unsigned} : (i1, memref<1xi1>) -> ()
      %475 = "arith.constant"() {moved, value = 0 : i32} : () -> i32
      %476 = "arith.extui"(%470) {moved} : (i1) -> i32
      %477 = "arith.cmpi"(%476, %475) {moved, predicate = 1 : i64} : (i32, i32) -> i1
      "scf.if"(%477) ({
        %690 = "arith.constant"() {value = 0 : index} : () -> index
        %691 = "arith.constant"() {value = 1 : i32} : () -> i32
        %692 = "arith.trunci"(%691) {unsigned} : (i32) -> i1
        "affine.store"(%692, %471) {map = #map1, to = "or_tmp", unsigned} : (i1, memref<1xi1>) -> ()
        "scf.yield"() : () -> ()
      }, {
      }) : (i1) -> ()
      %478 = "affine.load"(%471) {from = "or_tmp", map = #map1, moved, unsigned} : (memref<1xi1>) -> i1
      %479 = "arith.constant"() {moved, value = 0 : i32} : () -> i32
      %480 = "arith.extui"(%478) {moved} : (i1) -> i32
      %481 = "arith.cmpi"(%480, %479) {moved, predicate = 1 : i64} : (i32, i32) -> i1
      %482 = "arith.constant"() {moved, value = 0 : i32} : () -> i32
      %483 = "arith.extui"(%481) {moved} : (i1) -> i32
      %484 = "arith.cmpi"(%483, %482) {moved, predicate = 0 : i64} : (i32, i32) -> i1
      %485 = "affine.load"(%221) {from = "flags_active", map = #map1, moved, unsigned} : (memref<1xi1>) -> i1
      %486 = "arith.extui"(%485) {moved} : (i1) -> i32
      %487 = "arith.constant"() {moved, value = 0 : i32} : () -> i32
      %488 = "arith.cmpi"(%486, %487) {moved, predicate = 0 : i64} : (i32, i32) -> i1
      "scf.if"(%484) ({
        %690 = "memref.alloc"() {name = "read_addr", operand_segment_sizes = dense<0> : vector<2xi32>, unsigned} : () -> memref<1xi32>
        %691 = "arith.constant"() {value = 0 : index} : () -> index
        %692 = "arith.constant"() {unsigned, value = 0 : i32} : () -> i32
        "affine.store"(%692, %690) {map = #map1, to = "read_addr", unsigned} : (i32, memref<1xi32>) -> ()
        %693 = "affine.load"(%690) {from = "read_addr", map = #map1, unsigned} : (memref<1xi32>) -> i32
        %694 = "memref.alloc"() {name = "_addr", operand_segment_sizes = dense<0> : vector<2xi32>, unsigned} : () -> memref<1xi32>
        %695 = "arith.constant"() {value = 0 : index} : () -> index
        "affine.store"(%693, %694) {map = #map1, to = "_addr", unsigned} : (i32, memref<1xi32>) -> ()
        %696 = "affine.load"(%694) {from = "_addr", map = #map1, unsigned} : (memref<1xi32>) -> i32
        %697 = "arith.constant"() {value = 1 : i32} : () -> i32
        %698 = "arith.addi"(%696, %697) : (i32, i32) -> i32
        %699 = "arith.constant"() {value = 10 : i32} : () -> i32
        %700 = "arith.cmpi"(%698, %699) {predicate = 3 : i64} : (i32, i32) -> i1
        %701 = "affine.load"(%694) {from = "_addr", map = #map1, unsigned} : (memref<1xi32>) -> i32
        %702 = "affine.load"(%694) {from = "_addr", map = #map1, unsigned} : (memref<1xi32>) -> i32
        %703 = "arith.constant"() {value = 1 : i32} : () -> i32
        %704 = "arith.addi"(%702, %703) : (i32, i32) -> i32
        %705 = "memref.alloc"() {name = "assert_cond", operand_segment_sizes = dense<0> : vector<2xi32>, unsigned} : () -> memref<1xi1>
        %706 = "arith.constant"() {value = 0 : index} : () -> index
        "affine.store"(%700, %705) {map = #map1, to = "assert_cond", unsigned} : (i1, memref<1xi1>) -> ()
        %707 = "affine.load"(%705) {from = "assert_cond", map = #map1, moved, unsigned} : (memref<1xi1>) -> i1
        %708 = "arith.constant"() {moved, value = 0 : i32} : () -> i32
        %709 = "arith.extui"(%707) {moved} : (i1) -> i32
        %710 = "arith.cmpi"(%709, %708) {moved, predicate = 0 : i64} : (i32, i32) -> i1
        "scf.if"(%710) ({
          "hcl.print"(%701, %704) {format = "\0A\0AAssertion failed {schedule.py:66,soc.py:60,hcl_ext.py:859,hcl_ext.py:849,heracles_soc.py:61,proc.py:91,mem.py:113,mem.py:135,mem.py:106,hcl_ext.py:723}: Sysreg Mem.read exceeds memory size: addr=%d+size=%d > 10\0A\0A", signedness = "u_"} : (i32, i32) -> ()
          "scf.while"() ({
            %764 = "affine.load"(%705) {from = "assert_cond", map = #map1, moved, unsigned} : (memref<1xi1>) -> i1
            %765 = "arith.extui"(%764) {moved} : (i1) -> i32
            %766 = "arith.constant"() {moved, value = 0 : i32} : () -> i32
            %767 = "arith.cmpi"(%765, %766) {moved, predicate = 0 : i64} : (i32, i32) -> i1
            "scf.condition"(%767) : (i1) -> ()
          }, {
            %764 = "arith.constant"() {value = 0 : index} : () -> index
            %765 = "arith.constant"() {value = 0 : i32} : () -> i32
            %766 = "arith.trunci"(%765) {unsigned} : (i32) -> i1
            "affine.store"(%766, %705) {map = #map1, to = "assert_cond", unsigned} : (i1, memref<1xi1>) -> ()
            "scf.yield"() : () -> ()
          }) : () -> ()
          "scf.yield"() : () -> ()
        }, {
        }) : (i1) -> ()
        %711 = "memref.alloc"() {name = "Mem.read_c", operand_segment_sizes = dense<0> : vector<2xi32>, unsigned} : () -> memref<1xi64>
        %712 = "hcl.create_op_handle"() {op_name = "Mem.read_c"} : () -> !hcl.OpHandle
        %713 = "hcl.create_loop_handle"(%712) {loop_name = "i"} : (!hcl.OpHandle) -> !hcl.LoopHandle
        %714 = "affine.load"(%690) {from = "read_addr", map = #map1, unsigned} : (memref<1xi32>) -> i32
        %715 = "arith.index_cast"(%714) : (i32) -> index
        %716 = "arith.addi"(%715, %33) : (index, index) -> index
        %717 = "memref.load"(%arg1, %716) {from = "sysreg", unsigned} : (memref<10xi64>, index) -> i64
        "affine.store"(%717, %711, %33) {map = #map0, to = "Mem.read_c"} : (i64, memref<1xi64>, index) -> ()
        %718 = "affine.load"(%711) {from = "Mem.read_c", map = #map1, unsigned} : (memref<1xi64>) -> i64
        %719 = "affine.load"(%221) {from = "flags_active", map = #map1, unsigned} : (memref<1xi1>) -> i1
        %720 = "arith.constant"() {value = 0 : i32} : () -> i32
        %721 = "arith.extui"(%719) : (i1) -> i32
        %722 = "arith.cmpi"(%721, %720) {predicate = 0 : i64} : (i32, i32) -> i1
        %723 = "memref.alloc"() {name = "assert_cond", operand_segment_sizes = dense<0> : vector<2xi32>, unsigned} : () -> memref<1xi1>
        %724 = "arith.constant"() {value = 0 : index} : () -> index
        "affine.store"(%722, %723) {map = #map1, to = "assert_cond", unsigned} : (i1, memref<1xi1>) -> ()
        %725 = "affine.load"(%723) {from = "assert_cond", map = #map1, moved, unsigned} : (memref<1xi1>) -> i1
        %726 = "arith.constant"() {moved, value = 0 : i32} : () -> i32
        %727 = "arith.extui"(%725) {moved} : (i1) -> i32
        %728 = "arith.cmpi"(%727, %726) {moved, predicate = 0 : i64} : (i32, i32) -> i1
        "scf.if"(%728) ({
          %764 = "arith.constant"() {value = 0 : i32} : () -> i32
          "hcl.print"(%764) {format = "\0A\0AAssertion failed {schedule.py:168,schedule.py:156,schedule.py:66,soc.py:60,hcl_ext.py:859,hcl_ext.py:849,heracles_soc.py:61,proc.py:91,uController.py:263,hcl_ext.py:723}: proc.UC: uController already/still active?\0A\0A", signedness = "_"} : (i32) -> ()
          "scf.while"() ({
            %765 = "affine.load"(%723) {from = "assert_cond", map = #map1, moved, unsigned} : (memref<1xi1>) -> i1
            %766 = "arith.extui"(%765) {moved} : (i1) -> i32
            %767 = "arith.constant"() {moved, value = 0 : i32} : () -> i32
            %768 = "arith.cmpi"(%766, %767) {moved, predicate = 0 : i64} : (i32, i32) -> i1
            "scf.condition"(%768) : (i1) -> ()
          }, {
            %765 = "arith.constant"() {value = 0 : index} : () -> index
            %766 = "arith.constant"() {value = 0 : i32} : () -> i32
            %767 = "arith.trunci"(%766) {unsigned} : (i32) -> i1
            "affine.store"(%767, %723) {map = #map1, to = "assert_cond", unsigned} : (i1, memref<1xi1>) -> ()
            "scf.yield"() : () -> ()
          }) : () -> ()
          "scf.yield"() : () -> ()
        }, {
        }) : (i1) -> ()
        %729 = "arith.constant"() {value = 0 : index} : () -> index
        %730 = "arith.constant"() {value = 0 : i32} : () -> i32
        %731 = "arith.trunci"(%730) {unsigned} : (i32) -> i1
        "affine.store"(%731, %221) {map = #map1, to = "flags_active", unsigned} : (i1, memref<1xi1>) -> ()
        %732 = "arith.constant"() {value = 0 : index} : () -> index
        %733 = "arith.constant"() {value = 0 : i32} : () -> i32
        %734 = "arith.trunci"(%733) {unsigned} : (i32) -> i1
        "affine.store"(%734, %224) {map = #map1, to = "flags_halt", unsigned} : (i1, memref<1xi1>) -> ()
        %735 = "arith.constant"() {value = 0 : index} : () -> index
        %736 = "arith.constant"() {value = 0 : i32} : () -> i32
        %737 = "arith.trunci"(%736) {unsigned} : (i32) -> i1
        "affine.store"(%737, %227) {map = #map1, to = "flags_stall", unsigned} : (i1, memref<1xi1>) -> ()
        %738 = "arith.constant"() {value = 0 : index} : () -> index
        %739 = "arith.constant"() {value = 0 : i32} : () -> i32
        %740 = "arith.trunci"(%739) {unsigned} : (i32) -> i1
        "affine.store"(%740, %230) {map = #map1, to = "flags_stalled", unsigned} : (i1, memref<1xi1>) -> ()
        %741 = "arith.constant"() {value = 0 : index} : () -> index
        %742 = "arith.constant"() {value = 0 : i32} : () -> i32
        %743 = "arith.trunci"(%742) {unsigned} : (i32) -> i1
        "affine.store"(%743, %233) {map = #map1, to = "flags_break", unsigned} : (i1, memref<1xi1>) -> ()
        %744 = "arith.constant"() {value = 0 : index} : () -> index
        %745 = "arith.constant"() {value = 0 : i32} : () -> i32
        %746 = "arith.trunci"(%745) {unsigned} : (i32) -> i1
        "affine.store"(%746, %236) {map = #map1, to = "count_stop", unsigned} : (i1, memref<1xi1>) -> ()
        %747 = "arith.constant"() {value = 0 : index} : () -> index
        %748 = "arith.constant"() {value = 0 : i32} : () -> i32
        %749 = "arith.trunci"(%748) {unsigned} : (i32) -> i1
        "affine.store"(%749, %239) {map = #map1, to = "addr_stop", unsigned} : (i1, memref<1xi1>) -> ()
        %750 = "arith.constant"() {value = 0 : index} : () -> index
        %751 = "arith.constant"() {value = 0 : i32} : () -> i32
        "affine.store"(%751, %242) {map = #map1, to = "inst_addr", unsigned} : (i32, memref<1xi32>) -> ()
        %752 = "arith.constant"() {value = 0 : index} : () -> index
        %753 = "arith.constant"() {value = 0 : i32} : () -> i32
        "affine.store"(%753, %245) {map = #map1, to = "inst_naddr", unsigned} : (i32, memref<1xi32>) -> ()
        %754 = "arith.constant"() {value = 0 : index} : () -> index
        %755 = "arith.constant"() {value = 0 : i32} : () -> i32
        "affine.store"(%755, %248) {map = #map1, to = "latency_count", unsigned} : (i32, memref<1xi32>) -> ()
        %756 = "arith.constant"() {value = 0 : index} : () -> index
        %757 = "arith.constant"() {value = 0 : i32} : () -> i32
        %758 = "arith.trunci"(%757) {unsigned} : (i32) -> i1
        "affine.store"(%758, %251) {map = #map1, to = "latstalled", unsigned} : (i1, memref<1xi1>) -> ()
        %759 = "arith.constant"() {value = 0 : index} : () -> index
        %760 = "arith.trunci"(%718) {unsigned} : (i64) -> i32
        "affine.store"(%760, %242) {map = #map1, to = "inst_addr", unsigned} : (i32, memref<1xi32>) -> ()
        %761 = "arith.constant"() {value = 0 : index} : () -> index
        %762 = "arith.constant"() {value = 1 : i32} : () -> i32
        %763 = "arith.trunci"(%762) {unsigned} : (i32) -> i1
        "affine.store"(%763, %221) {map = #map1, to = "flags_active", unsigned} : (i1, memref<1xi1>) -> ()
        "scf.yield"() : () -> ()
      }, {
        "scf.if"(%488) ({
          %690 = "arith.constant"() {value = 0 : index} : () -> index
          %691 = "arith.constant"() {value = 1 : i32} : () -> i32
          %692 = "arith.trunci"(%691) {unsigned} : (i32) -> i1
          "affine.store"(%692, %268) {map = #map1, to = "sys_done", unsigned} : (i1, memref<1xi1>) -> ()
          "scf.yield"() : () -> ()
        }, {
        }) : (i1) -> ()
        "scf.yield"() : () -> ()
      }) : (i1) -> ()
      %489 = "arith.constant"() {value = 0 : index} : () -> index
      %490 = "arith.constant"() {value = 0 : i32} : () -> i32
      %491 = "arith.trunci"(%490) {unsigned} : (i32) -> i1
      "affine.store"(%491, %45) {map = #map1, to = "flags_stall", unsigned} : (i1, memref<1xi1>) -> ()
      %492 = "arith.constant"() {value = 0 : index} : () -> index
      %493 = "arith.constant"() {value = 0 : i32} : () -> i32
      %494 = "arith.trunci"(%493) {unsigned} : (i32) -> i1
      "affine.store"(%494, %51) {map = #map1, to = "flags_break", unsigned} : (i1, memref<1xi1>) -> ()
      %495 = "arith.constant"() {value = 0 : index} : () -> index
      %496 = "arith.constant"() {value = 0 : i32} : () -> i32
      %497 = "arith.trunci"(%496) {unsigned} : (i32) -> i1
      "affine.store"(%497, %54) {map = #map1, to = "count_stop", unsigned} : (i1, memref<1xi1>) -> ()
      %498 = "arith.constant"() {value = 0 : index} : () -> index
      %499 = "arith.constant"() {value = 0 : i32} : () -> i32
      %500 = "arith.trunci"(%499) {unsigned} : (i32) -> i1
      "affine.store"(%500, %57) {map = #map1, to = "addr_stop", unsigned} : (i1, memref<1xi1>) -> ()
      %501 = "memref.alloc"() {name = "while_cont", operand_segment_sizes = dense<0> : vector<2xi32>, unsigned} : () -> memref<1xi1>
      %502 = "arith.constant"() {value = 0 : index} : () -> index
      %503 = "arith.constant"() {unsigned, value = true} : () -> i1
      "affine.store"(%503, %501) {map = #map1, to = "while_cont", unsigned} : (i1, memref<1xi1>) -> ()
      %504 = "affine.load"(%39) {from = "flags_active", map = #map1, moved, unsigned} : (memref<1xi1>) -> i1
      %505 = "arith.constant"() {moved, value = 0 : i32} : () -> i32
      %506 = "arith.extui"(%504) {moved} : (i1) -> i32
      %507 = "arith.cmpi"(%506, %505) {moved, predicate = 1 : i64} : (i32, i32) -> i1
      %508 = "affine.load"(%51) {from = "flags_break", map = #map1, moved, unsigned} : (memref<1xi1>) -> i1
      %509 = "arith.constant"() {moved, value = 0 : i32} : () -> i32
      %510 = "arith.extui"(%508) {moved} : (i1) -> i32
      %511 = "arith.cmpi"(%510, %509) {moved, predicate = 0 : i64} : (i32, i32) -> i1
      %512 = "arith.constant"() {value = 0 : index} : () -> index
      %513 = "arith.constant"() {value = 1 : i32} : () -> i32
      %514 = "arith.trunci"(%513) {unsigned} : (i32) -> i1
      "affine.store"(%514, %501) {map = #map1, to = "while_cont", unsigned} : (i1, memref<1xi1>) -> ()
      %515 = "arith.constant"() {moved, value = 0 : i32} : () -> i32
      %516 = "arith.extui"(%507) {moved} : (i1) -> i32
      %517 = "arith.cmpi"(%516, %515) {moved, predicate = 0 : i64} : (i32, i32) -> i1
      "scf.if"(%517) ({
        %690 = "arith.constant"() {value = 0 : index} : () -> index
        %691 = "arith.constant"() {value = 0 : i32} : () -> i32
        %692 = "arith.trunci"(%691) {unsigned} : (i32) -> i1
        "affine.store"(%692, %501) {map = #map1, to = "while_cont", unsigned} : (i1, memref<1xi1>) -> ()
        "scf.yield"() : () -> ()
      }, {
      }) : (i1) -> ()
      %518 = "arith.constant"() {moved, value = 0 : i32} : () -> i32
      %519 = "arith.extui"(%511) {moved} : (i1) -> i32
      %520 = "arith.cmpi"(%519, %518) {moved, predicate = 0 : i64} : (i32, i32) -> i1
      "scf.if"(%520) ({
        %690 = "arith.constant"() {value = 0 : index} : () -> index
        %691 = "arith.constant"() {value = 0 : i32} : () -> i32
        %692 = "arith.trunci"(%691) {unsigned} : (i32) -> i1
        "affine.store"(%692, %501) {map = #map1, to = "while_cont", unsigned} : (i1, memref<1xi1>) -> ()
        "scf.yield"() : () -> ()
      }, {
      }) : (i1) -> ()
      %521 = "affine.load"(%501) {from = "while_cont", map = #map1, unsigned} : (memref<1xi1>) -> i1
      %522 = "arith.constant"() {value = 0 : i32} : () -> i32
      %523 = "arith.extui"(%521) : (i1) -> i32
      %524 = "arith.cmpi"(%523, %522) {predicate = 1 : i64} : (i32, i32) -> i1
      "scf.while"() ({
        %690 = "affine.load"(%501) {from = "while_cont", map = #map1, moved, unsigned} : (memref<1xi1>) -> i1
        %691 = "arith.extui"(%690) {moved} : (i1) -> i32
        %692 = "arith.constant"() {moved, value = 0 : i32} : () -> i32
        %693 = "arith.cmpi"(%691, %692) {moved, predicate = 1 : i64} : (i32, i32) -> i1
        "scf.condition"(%693) : (i1) -> ()
      }, {
        %690 = "affine.load"(%69) {from = "latstalled", map = #map1, unsigned} : (memref<1xi1>) -> i1
        %691 = "arith.constant"() {value = 1 : i32} : () -> i32
        %692 = "arith.extui"(%690) : (i1) -> i32
        %693 = "arith.cmpi"(%692, %691) {predicate = 0 : i64} : (i32, i32) -> i1
        %694 = "affine.load"(%66) {from = "latency_count", map = #map1, moved, unsigned} : (memref<1xi32>) -> i32
        %695 = "arith.constant"() {moved, value = 0 : i32} : () -> i32
        %696 = "arith.cmpi"(%694, %695) {moved, predicate = 0 : i64} : (i32, i32) -> i1
        %697 = "memref.alloc"() {name = "or_tmp", operand_segment_sizes = dense<0> : vector<2xi32>, unsigned} : () -> memref<1xi1>
        %698 = "arith.constant"() {value = 0 : index} : () -> index
        %699 = "arith.constant"() {unsigned, value = false} : () -> i1
        "affine.store"(%699, %697) {map = #map1, to = "or_tmp", unsigned} : (i1, memref<1xi1>) -> ()
        %700 = "arith.constant"() {value = 0 : index} : () -> index
        "affine.store"(%693, %697) {map = #map1, to = "or_tmp", unsigned} : (i1, memref<1xi1>) -> ()
        %701 = "arith.constant"() {moved, value = 0 : i32} : () -> i32
        %702 = "arith.extui"(%696) {moved} : (i1) -> i32
        %703 = "arith.cmpi"(%702, %701) {moved, predicate = 1 : i64} : (i32, i32) -> i1
        "scf.if"(%703) ({
          %741 = "arith.constant"() {value = 0 : index} : () -> index
          %742 = "arith.constant"() {value = 1 : i32} : () -> i32
          %743 = "arith.trunci"(%742) {unsigned} : (i32) -> i1
          "affine.store"(%743, %697) {map = #map1, to = "or_tmp", unsigned} : (i1, memref<1xi1>) -> ()
          "scf.yield"() : () -> ()
        }, {
        }) : (i1) -> ()
        %704 = "affine.load"(%697) {from = "or_tmp", map = #map1, unsigned} : (memref<1xi1>) -> i1
        %705 = "arith.constant"() {value = 0 : i32} : () -> i32
        %706 = "arith.extui"(%704) : (i1) -> i32
        %707 = "arith.cmpi"(%706, %705) {predicate = 1 : i64} : (i32, i32) -> i1
        %708 = "arith.constant"() {value = 0 : i32} : () -> i32
        %709 = "arith.extui"(%707) : (i1) -> i32
        %710 = "arith.cmpi"(%709, %708) {predicate = 1 : i64} : (i32, i32) -> i1
        %711 = "memref.alloc"() {name = "assert_cond", operand_segment_sizes = dense<0> : vector<2xi32>, unsigned} : () -> memref<1xi1>
        %712 = "arith.constant"() {value = 0 : index} : () -> index
        "affine.store"(%710, %711) {map = #map1, to = "assert_cond", unsigned} : (i1, memref<1xi1>) -> ()
        %713 = "affine.load"(%711) {from = "assert_cond", map = #map1, moved, unsigned} : (memref<1xi1>) -> i1
        %714 = "arith.constant"() {moved, value = 0 : i32} : () -> i32
        %715 = "arith.extui"(%713) {moved} : (i1) -> i32
        %716 = "arith.cmpi"(%715, %714) {moved, predicate = 0 : i64} : (i32, i32) -> i1
        "scf.if"(%716) ({
          %741 = "arith.constant"() {value = 0 : i32} : () -> i32
          "hcl.print"(%741) {format = "\0A\0AAssertion failed {hcl_ext.py:401,schedule.py:168,schedule.py:156,schedule.py:66,soc.py:60,hcl_ext.py:859,hcl_ext.py:849,mfetch.py:106,uController.py:153,hcl_ext.py:723}: \0A\0A", signedness = "_"} : (i32) -> ()
          "scf.while"() ({
            %742 = "affine.load"(%711) {from = "assert_cond", map = #map1, moved, unsigned} : (memref<1xi1>) -> i1
            %743 = "arith.extui"(%742) {moved} : (i1) -> i32
            %744 = "arith.constant"() {moved, value = 0 : i32} : () -> i32
            %745 = "arith.cmpi"(%743, %744) {moved, predicate = 0 : i64} : (i32, i32) -> i1
            "scf.condition"(%745) : (i1) -> ()
          }, {
            %742 = "arith.constant"() {value = 0 : index} : () -> index
            %743 = "arith.constant"() {value = 0 : i32} : () -> i32
            %744 = "arith.trunci"(%743) {unsigned} : (i32) -> i1
            "affine.store"(%744, %711) {map = #map1, to = "assert_cond", unsigned} : (i1, memref<1xi1>) -> ()
            "scf.yield"() : () -> ()
          }) : () -> ()
          "scf.yield"() : () -> ()
        }, {
        }) : (i1) -> ()
        %717 = "affine.load"(%66) {from = "latency_count", map = #map1, moved, unsigned} : (memref<1xi32>) -> i32
        %718 = "arith.constant"() {moved, value = 0 : i32} : () -> i32
        %719 = "arith.cmpi"(%717, %718) {moved, predicate = 0 : i64} : (i32, i32) -> i1
        "scf.if"(%719) ({
          %741 = "affine.load"(%60) {from = "inst_addr", map = #map1, unsigned} : (memref<1xi32>) -> i32
          %742 = "memref.alloc"() {name = "_cur_address", operand_segment_sizes = dense<0> : vector<2xi32>, unsigned} : () -> memref<1xi32>
          %743 = "arith.constant"() {value = 0 : index} : () -> index
          "affine.store"(%741, %742) {map = #map1, to = "_cur_address", unsigned} : (i32, memref<1xi32>) -> ()
          %744 = "affine.load"(%60) {from = "inst_addr", map = #map1, unsigned} : (memref<1xi32>) -> i32
          %745 = "arith.constant"() {value = 2 : i32} : () -> i32
          %746 = "arith.addi"(%744, %745) : (i32, i32) -> i32
          %747 = "arith.constant"() {value = 0 : index} : () -> index
          "affine.store"(%746, %63) {map = #map1, to = "inst_naddr", unsigned} : (i32, memref<1xi32>) -> ()
          %748 = "memref.alloc"() {name = "inst", operand_segment_sizes = dense<0> : vector<2xi32>, unsigned} : () -> memref<1xi64>
          %749 = "arith.constant"() {value = 0 : index} : () -> index
          %750 = "arith.constant"() {unsigned, value = 0 : i64} : () -> i64
          "affine.store"(%750, %748) {map = #map1, to = "inst", unsigned} : (i64, memref<1xi64>) -> ()
          %751 = "affine.load"(%748) {from = "inst", map = #map1, unsigned} : (memref<1xi64>) -> i64
          %752 = "arith.constant"() {value = 32 : i32} : () -> i32
          %753 = "arith.extsi"(%752) {unsigned} : (i32) -> i64
          %754 = "arith.extui"(%751) : (i64) -> i128
          %755 = "arith.extui"(%753) : (i64) -> i128
          %756 = "arith.shli"(%754, %755) : (i128, i128) -> i128
          %757 = "affine.load"(%60) {from = "inst_addr", map = #map1, unsigned} : (memref<1xi32>) -> i32
          %758 = "arith.constant"() {value = 0 : i32} : () -> i32
          %759 = "arith.addi"(%757, %758) : (i32, i32) -> i32
          %760 = "memref.alloc"() {name = "read_addr", operand_segment_sizes = dense<0> : vector<2xi32>} : () -> memref<1xi32>
          %761 = "arith.constant"() {value = 0 : index} : () -> index
          "affine.store"(%759, %760) {map = #map1, to = "read_addr"} : (i32, memref<1xi32>) -> ()
          %762 = "affine.load"(%760) {from = "read_addr", map = #map1} : (memref<1xi32>) -> i32
          %763 = "memref.alloc"() {name = "_addr", operand_segment_sizes = dense<0> : vector<2xi32>} : () -> memref<1xi32>
          %764 = "arith.constant"() {value = 0 : index} : () -> index
          "affine.store"(%762, %763) {map = #map1, to = "_addr"} : (i32, memref<1xi32>) -> ()
          %765 = "affine.load"(%763) {from = "_addr", map = #map1} : (memref<1xi32>) -> i32
          %766 = "arith.constant"() {value = 1 : i32} : () -> i32
          %767 = "arith.addi"(%765, %766) : (i32, i32) -> i32
          %768 = "arith.constant"() {value = 33554432 : i32} : () -> i32
          %769 = "arith.cmpi"(%767, %768) {predicate = 3 : i64} : (i32, i32) -> i1
          %770 = "affine.load"(%763) {from = "_addr", map = #map1} : (memref<1xi32>) -> i32
          %771 = "affine.load"(%763) {from = "_addr", map = #map1} : (memref<1xi32>) -> i32
          %772 = "arith.constant"() {value = 1 : i32} : () -> i32
          %773 = "arith.addi"(%771, %772) : (i32, i32) -> i32
          %774 = "memref.alloc"() {name = "assert_cond", operand_segment_sizes = dense<0> : vector<2xi32>, unsigned} : () -> memref<1xi1>
          %775 = "arith.constant"() {value = 0 : index} : () -> index
          "affine.store"(%769, %774) {map = #map1, to = "assert_cond", unsigned} : (i1, memref<1xi1>) -> ()
          %776 = "affine.load"(%774) {from = "assert_cond", map = #map1, moved, unsigned} : (memref<1xi1>) -> i1
          %777 = "arith.constant"() {moved, value = 0 : i32} : () -> i32
          %778 = "arith.extui"(%776) {moved} : (i1) -> i32
          %779 = "arith.cmpi"(%778, %777) {moved, predicate = 0 : i64} : (i32, i32) -> i1
          "scf.if"(%779) ({
            "hcl.print"(%770, %773) {format = "\0A\0AAssertion failed {soc.py:60,hcl_ext.py:859,hcl_ext.py:849,mfetch.py:106,uController.py:157,instruction.py:244,mem.py:113,mem.py:135,mem.py:106,hcl_ext.py:723}: HBM Mem.read exceeds memory size: addr=%d+size=%d > 33554432\0A\0A", signedness = "__"} : (i32, i32) -> ()
            "scf.while"() ({
              %872 = "affine.load"(%774) {from = "assert_cond", map = #map1, moved, unsigned} : (memref<1xi1>) -> i1
              %873 = "arith.extui"(%872) {moved} : (i1) -> i32
              %874 = "arith.constant"() {moved, value = 0 : i32} : () -> i32
              %875 = "arith.cmpi"(%873, %874) {moved, predicate = 0 : i64} : (i32, i32) -> i1
              "scf.condition"(%875) : (i1) -> ()
            }, {
              %872 = "arith.constant"() {value = 0 : index} : () -> index
              %873 = "arith.constant"() {value = 0 : i32} : () -> i32
              %874 = "arith.trunci"(%873) {unsigned} : (i32) -> i1
              "affine.store"(%874, %774) {map = #map1, to = "assert_cond", unsigned} : (i1, memref<1xi1>) -> ()
              "scf.yield"() : () -> ()
            }) : () -> ()
            "scf.yield"() : () -> ()
          }, {
          }) : (i1) -> ()
          %780 = "memref.alloc"() {name = "Mem.read_c", operand_segment_sizes = dense<0> : vector<2xi32>, unsigned} : () -> memref<1xi32>
          %781 = "hcl.create_op_handle"() {op_name = "Mem.read_c"} : () -> !hcl.OpHandle
          %782 = "hcl.create_loop_handle"(%781) {loop_name = "i"} : (!hcl.OpHandle) -> !hcl.LoopHandle
          %783 = "affine.load"(%760) {from = "read_addr", map = #map1} : (memref<1xi32>) -> i32
          %784 = "arith.index_cast"(%783) : (i32) -> index
          %785 = "arith.addi"(%784, %32) : (index, index) -> index
          %786 = "memref.load"(%arg0, %785) {from = "hbm", unsigned} : (memref<33554432xi32>, index) -> i32
          "affine.store"(%786, %780, %32) {map = #map0, to = "Mem.read_c"} : (i32, memref<1xi32>, index) -> ()
          %787 = "affine.load"(%780) {from = "Mem.read_c", map = #map1, unsigned} : (memref<1xi32>) -> i32
          %788 = "arith.extui"(%787) : (i32) -> i128
          %789 = "arith.ori"(%756, %788) : (i128, i128) -> i128
          %790 = "arith.constant"() {value = 0 : index} : () -> index
          %791 = "arith.trunci"(%789) {unsigned} : (i128) -> i64
          "affine.store"(%791, %748) {map = #map1, to = "inst", unsigned} : (i64, memref<1xi64>) -> ()
          %792 = "affine.load"(%748) {from = "inst", map = #map1, unsigned} : (memref<1xi64>) -> i64
          %793 = "arith.constant"() {value = 32 : i32} : () -> i32
          %794 = "arith.extsi"(%793) {unsigned} : (i32) -> i64
          %795 = "arith.extui"(%792) : (i64) -> i128
          %796 = "arith.extui"(%794) : (i64) -> i128
          %797 = "arith.shli"(%795, %796) : (i128, i128) -> i128
          %798 = "affine.load"(%60) {from = "inst_addr", map = #map1, unsigned} : (memref<1xi32>) -> i32
          %799 = "arith.constant"() {value = 1 : i32} : () -> i32
          %800 = "arith.addi"(%798, %799) : (i32, i32) -> i32
          %801 = "memref.alloc"() {name = "read_addr", operand_segment_sizes = dense<0> : vector<2xi32>} : () -> memref<1xi32>
          %802 = "arith.constant"() {value = 0 : index} : () -> index
          "affine.store"(%800, %801) {map = #map1, to = "read_addr"} : (i32, memref<1xi32>) -> ()
          %803 = "affine.load"(%801) {from = "read_addr", map = #map1} : (memref<1xi32>) -> i32
          %804 = "memref.alloc"() {name = "_addr", operand_segment_sizes = dense<0> : vector<2xi32>} : () -> memref<1xi32>
          %805 = "arith.constant"() {value = 0 : index} : () -> index
          "affine.store"(%803, %804) {map = #map1, to = "_addr"} : (i32, memref<1xi32>) -> ()
          %806 = "affine.load"(%804) {from = "_addr", map = #map1} : (memref<1xi32>) -> i32
          %807 = "arith.constant"() {value = 1 : i32} : () -> i32
          %808 = "arith.addi"(%806, %807) : (i32, i32) -> i32
          %809 = "arith.constant"() {value = 33554432 : i32} : () -> i32
          %810 = "arith.cmpi"(%808, %809) {predicate = 3 : i64} : (i32, i32) -> i1
          %811 = "affine.load"(%804) {from = "_addr", map = #map1} : (memref<1xi32>) -> i32
          %812 = "affine.load"(%804) {from = "_addr", map = #map1} : (memref<1xi32>) -> i32
          %813 = "arith.constant"() {value = 1 : i32} : () -> i32
          %814 = "arith.addi"(%812, %813) : (i32, i32) -> i32
          %815 = "memref.alloc"() {name = "assert_cond", operand_segment_sizes = dense<0> : vector<2xi32>, unsigned} : () -> memref<1xi1>
          %816 = "arith.constant"() {value = 0 : index} : () -> index
          "affine.store"(%810, %815) {map = #map1, to = "assert_cond", unsigned} : (i1, memref<1xi1>) -> ()
          %817 = "affine.load"(%815) {from = "assert_cond", map = #map1, moved, unsigned} : (memref<1xi1>) -> i1
          %818 = "arith.constant"() {moved, value = 0 : i32} : () -> i32
          %819 = "arith.extui"(%817) {moved} : (i1) -> i32
          %820 = "arith.cmpi"(%819, %818) {moved, predicate = 0 : i64} : (i32, i32) -> i1
          "scf.if"(%820) ({
            "hcl.print"(%811, %814) {format = "\0A\0AAssertion failed {soc.py:60,hcl_ext.py:859,hcl_ext.py:849,mfetch.py:106,uController.py:157,instruction.py:244,mem.py:113,mem.py:135,mem.py:106,hcl_ext.py:723}: HBM Mem.read exceeds memory size: addr=%d+size=%d > 33554432\0A\0A", signedness = "__"} : (i32, i32) -> ()
            "scf.while"() ({
              %872 = "affine.load"(%815) {from = "assert_cond", map = #map1, moved, unsigned} : (memref<1xi1>) -> i1
              %873 = "arith.extui"(%872) {moved} : (i1) -> i32
              %874 = "arith.constant"() {moved, value = 0 : i32} : () -> i32
              %875 = "arith.cmpi"(%873, %874) {moved, predicate = 0 : i64} : (i32, i32) -> i1
              "scf.condition"(%875) : (i1) -> ()
            }, {
              %872 = "arith.constant"() {value = 0 : index} : () -> index
              %873 = "arith.constant"() {value = 0 : i32} : () -> i32
              %874 = "arith.trunci"(%873) {unsigned} : (i32) -> i1
              "affine.store"(%874, %815) {map = #map1, to = "assert_cond", unsigned} : (i1, memref<1xi1>) -> ()
              "scf.yield"() : () -> ()
            }) : () -> ()
            "scf.yield"() : () -> ()
          }, {
          }) : (i1) -> ()
          %821 = "memref.alloc"() {name = "Mem.read_c", operand_segment_sizes = dense<0> : vector<2xi32>, unsigned} : () -> memref<1xi32>
          %822 = "hcl.create_op_handle"() {op_name = "Mem.read_c"} : () -> !hcl.OpHandle
          %823 = "hcl.create_loop_handle"(%822) {loop_name = "i"} : (!hcl.OpHandle) -> !hcl.LoopHandle
          %824 = "affine.load"(%801) {from = "read_addr", map = #map1} : (memref<1xi32>) -> i32
          %825 = "arith.index_cast"(%824) : (i32) -> index
          %826 = "arith.addi"(%825, %31) : (index, index) -> index
          %827 = "memref.load"(%arg0, %826) {from = "hbm", unsigned} : (memref<33554432xi32>, index) -> i32
          "affine.store"(%827, %821, %31) {map = #map0, to = "Mem.read_c"} : (i32, memref<1xi32>, index) -> ()
          %828 = "affine.load"(%821) {from = "Mem.read_c", map = #map1, unsigned} : (memref<1xi32>) -> i32
          %829 = "arith.extui"(%828) : (i32) -> i128
          %830 = "arith.ori"(%797, %829) : (i128, i128) -> i128
          %831 = "arith.constant"() {value = 0 : index} : () -> index
          %832 = "arith.trunci"(%830) {unsigned} : (i128) -> i64
          "affine.store"(%832, %748) {map = #map1, to = "inst", unsigned} : (i64, memref<1xi64>) -> ()
          %833 = "affine.load"(%748) {from = "inst", map = #map1, unsigned} : (memref<1xi64>) -> i64
          %834 = "memref.alloc"() {name = "inst_lat", operand_segment_sizes = dense<0> : vector<2xi32>, unsigned} : () -> memref<1xi32>
          %835 = "arith.constant"() {value = 0 : index} : () -> index
          %836 = "arith.constant"() {unsigned, value = 0 : i32} : () -> i32
          "affine.store"(%836, %834) {map = #map1, to = "inst_lat", unsigned} : (i32, memref<1xi32>) -> ()
          %837 = "memref.alloc"() {name = "decode_inst", operand_segment_sizes = dense<0> : vector<2xi32>, unsigned} : () -> memref<1xi64>
          %838 = "arith.constant"() {value = 0 : index} : () -> index
          "affine.store"(%833, %837) {map = #map1, to = "decode_inst", unsigned} : (i64, memref<1xi64>) -> ()
          %839 = "memref.alloc"() {name = "inst_id", operand_segment_sizes = dense<0> : vector<2xi32>, unsigned} : () -> memref<1xi16>
          %840 = "arith.constant"() {value = 0 : index} : () -> index
          %841 = "arith.constant"() {unsigned, value = 0 : i16} : () -> i16
          "affine.store"(%841, %839) {map = #map1, to = "inst_id", unsigned} : (i16, memref<1xi16>) -> ()
          %842 = "affine.load"(%837) {from = "decode_inst", map = #map1, unsigned} : (memref<1xi64>) -> i64
          %843 = "memref.alloc"() {name = "dec_inst_mload", operand_segment_sizes = dense<0> : vector<2xi32>} : () -> memref<1x!hcl.struct<i3, i11, i21, i29>>
          %844 = "arith.constant"() {value = 0 : index} : () -> index
          %845 = "hcl.int_to_struct"(%842) {unsigned} : (i64) -> !hcl.struct<i3, i11, i21, i29>
          "affine.store"(%845, %843) {map = #map1, to = "dec_inst_mload"} : (!hcl.struct<i3, i11, i21, i29>, memref<1x!hcl.struct<i3, i11, i21, i29>>) -> ()
          %846 = "affine.load"(%843) {from = "dec_inst_mload", map = #map1, moved} : (memref<1x!hcl.struct<i3, i11, i21, i29>>) -> !hcl.struct<i3, i11, i21, i29>
          %847 = "hcl.struct_get"(%846) {index = 0 : i64, moved, unsigned} : (!hcl.struct<i3, i11, i21, i29>) -> i3
          %848 = "arith.constant"() {moved, value = 0 : i32} : () -> i32
          %849 = "arith.trunci"(%848) {moved, unsigned} : (i32) -> i3
          %850 = "arith.cmpi"(%847, %849) {moved, predicate = 0 : i64} : (i3, i3) -> i1
          "scf.if"(%850) ({
            %872 = "arith.constant"() {value = 0 : index} : () -> index
            %873 = "arith.constant"() {value = 0 : i32} : () -> i32
            %874 = "arith.trunci"(%873) {unsigned} : (i32) -> i16
            "affine.store"(%874, %839) {map = #map1, to = "inst_id", unsigned} : (i16, memref<1xi16>) -> ()
            %875 = "arith.constant"() {value = 0 : index} : () -> index
            %876 = "arith.constant"() {value = 1 : i32} : () -> i32
            "affine.store"(%876, %834) {map = #map1, to = "inst_lat", unsigned} : (i32, memref<1xi32>) -> ()
            "scf.yield"() : () -> ()
          }, {
            %872 = "affine.load"(%837) {from = "decode_inst", map = #map1, unsigned} : (memref<1xi64>) -> i64
            %873 = "memref.alloc"() {name = "dec_inst_mstore", operand_segment_sizes = dense<0> : vector<2xi32>} : () -> memref<1x!hcl.struct<i3, i11, i21, i29>>
            %874 = "arith.constant"() {value = 0 : index} : () -> index
            %875 = "hcl.int_to_struct"(%872) {unsigned} : (i64) -> !hcl.struct<i3, i11, i21, i29>
            "affine.store"(%875, %873) {map = #map1, to = "dec_inst_mstore"} : (!hcl.struct<i3, i11, i21, i29>, memref<1x!hcl.struct<i3, i11, i21, i29>>) -> ()
            %876 = "affine.load"(%873) {from = "dec_inst_mstore", map = #map1, moved} : (memref<1x!hcl.struct<i3, i11, i21, i29>>) -> !hcl.struct<i3, i11, i21, i29>
            %877 = "hcl.struct_get"(%876) {index = 0 : i64, moved, unsigned} : (!hcl.struct<i3, i11, i21, i29>) -> i3
            %878 = "arith.constant"() {moved, value = 1 : i32} : () -> i32
            %879 = "arith.trunci"(%878) {moved, unsigned} : (i32) -> i3
            %880 = "arith.cmpi"(%877, %879) {moved, predicate = 0 : i64} : (i3, i3) -> i1
            "scf.if"(%880) ({
              %881 = "arith.constant"() {value = 0 : index} : () -> index
              %882 = "arith.constant"() {value = 1 : i32} : () -> i32
              %883 = "arith.trunci"(%882) {unsigned} : (i32) -> i16
              "affine.store"(%883, %839) {map = #map1, to = "inst_id", unsigned} : (i16, memref<1xi16>) -> ()
              %884 = "arith.constant"() {value = 0 : index} : () -> index
              %885 = "arith.constant"() {value = 1 : i32} : () -> i32
              "affine.store"(%885, %834) {map = #map1, to = "inst_lat", unsigned} : (i32, memref<1xi32>) -> ()
              "scf.yield"() : () -> ()
            }, {
              %881 = "affine.load"(%837) {from = "decode_inst", map = #map1, unsigned} : (memref<1xi64>) -> i64
              %882 = "memref.alloc"() {name = "dec_inst_msyncc", operand_segment_sizes = dense<0> : vector<2xi32>} : () -> memref<1x!hcl.struct<i3, i32, i15, i14>>
              %883 = "arith.constant"() {value = 0 : index} : () -> index
              %884 = "hcl.int_to_struct"(%881) {unsigned} : (i64) -> !hcl.struct<i3, i32, i15, i14>
              "affine.store"(%884, %882) {map = #map1, to = "dec_inst_msyncc"} : (!hcl.struct<i3, i32, i15, i14>, memref<1x!hcl.struct<i3, i32, i15, i14>>) -> ()
              %885 = "affine.load"(%882) {from = "dec_inst_msyncc", map = #map1, moved} : (memref<1x!hcl.struct<i3, i32, i15, i14>>) -> !hcl.struct<i3, i32, i15, i14>
              %886 = "hcl.struct_get"(%885) {index = 0 : i64, moved, unsigned} : (!hcl.struct<i3, i32, i15, i14>) -> i3
              %887 = "arith.constant"() {moved, value = 2 : i32} : () -> i32
              %888 = "arith.trunci"(%887) {moved, unsigned} : (i32) -> i3
              %889 = "arith.cmpi"(%886, %888) {moved, predicate = 0 : i64} : (i3, i3) -> i1
              "scf.if"(%889) ({
                %890 = "arith.constant"() {value = 0 : index} : () -> index
                %891 = "arith.constant"() {value = 2 : i32} : () -> i32
                %892 = "arith.trunci"(%891) {unsigned} : (i32) -> i16
                "affine.store"(%892, %839) {map = #map1, to = "inst_id", unsigned} : (i16, memref<1xi16>) -> ()
                %893 = "arith.constant"() {value = 0 : index} : () -> index
                %894 = "arith.constant"() {value = 1 : i32} : () -> i32
                "affine.store"(%894, %834) {map = #map1, to = "inst_lat", unsigned} : (i32, memref<1xi32>) -> ()
                "scf.yield"() : () -> ()
              }, {
                %890 = "affine.load"(%837) {from = "decode_inst", map = #map1, unsigned} : (memref<1xi64>) -> i64
                %891 = "memref.alloc"() {name = "dec_inst_mexit", operand_segment_sizes = dense<0> : vector<2xi32>} : () -> memref<1x!hcl.struct<i3, i61>>
                %892 = "arith.constant"() {value = 0 : index} : () -> index
                %893 = "hcl.int_to_struct"(%890) {unsigned} : (i64) -> !hcl.struct<i3, i61>
                "affine.store"(%893, %891) {map = #map1, to = "dec_inst_mexit"} : (!hcl.struct<i3, i61>, memref<1x!hcl.struct<i3, i61>>) -> ()
                %894 = "affine.load"(%891) {from = "dec_inst_mexit", map = #map1, moved} : (memref<1x!hcl.struct<i3, i61>>) -> !hcl.struct<i3, i61>
                %895 = "hcl.struct_get"(%894) {index = 0 : i64, moved, unsigned} : (!hcl.struct<i3, i61>) -> i3
                %896 = "arith.constant"() {moved, value = 3 : i32} : () -> i32
                %897 = "arith.trunci"(%896) {moved, unsigned} : (i32) -> i3
                %898 = "arith.cmpi"(%895, %897) {moved, predicate = 0 : i64} : (i3, i3) -> i1
                "scf.if"(%898) ({
                  %899 = "arith.constant"() {value = 0 : index} : () -> index
                  %900 = "arith.constant"() {value = 3 : i32} : () -> i32
                  %901 = "arith.trunci"(%900) {unsigned} : (i32) -> i16
                  "affine.store"(%901, %839) {map = #map1, to = "inst_id", unsigned} : (i16, memref<1xi16>) -> ()
                  %902 = "arith.constant"() {value = 0 : index} : () -> index
                  %903 = "arith.constant"() {value = 1 : i32} : () -> i32
                  "affine.store"(%903, %834) {map = #map1, to = "inst_lat", unsigned} : (i32, memref<1xi32>) -> ()
                  "scf.yield"() : () -> ()
                }, {
                  %899 = "affine.load"(%837) {from = "decode_inst", map = #map1, unsigned} : (memref<1xi64>) -> i64
                  %900 = "affine.load"(%742) {from = "_cur_address", map = #map1, unsigned} : (memref<1xi32>) -> i32
                  %901 = "memref.alloc"() {name = "assert_cond", operand_segment_sizes = dense<0> : vector<2xi32>, unsigned} : () -> memref<1xi1>
                  %902 = "arith.constant"() {value = 0 : index} : () -> index
                  %903 = "arith.constant"() {unsigned, value = false} : () -> i1
                  "affine.store"(%903, %901) {map = #map1, to = "assert_cond", unsigned} : (i1, memref<1xi1>) -> ()
                  %904 = "affine.load"(%901) {from = "assert_cond", map = #map1, moved, unsigned} : (memref<1xi1>) -> i1
                  %905 = "arith.constant"() {moved, value = 0 : i32} : () -> i32
                  %906 = "arith.extui"(%904) {moved} : (i1) -> i32
                  %907 = "arith.cmpi"(%906, %905) {moved, predicate = 0 : i64} : (i32, i32) -> i1
                  "scf.if"(%907) ({
                    "hcl.print"(%899, %900) {format = "\0A\0AAssertion failed {hcl_ext.py:849,mfetch.py:106,uController.py:162,instruction.py:296,instruction.py:294,instruction.py:265,hcl_ext.py:723}: \0A\0Ace0.mf.UC.decode Invalid instruction (%d) at address %d\0A\0A\0A", signedness = "uu"} : (i64, i32) -> ()
                    "scf.while"() ({
                      %911 = "affine.load"(%901) {from = "assert_cond", map = #map1, moved, unsigned} : (memref<1xi1>) -> i1
                      %912 = "arith.extui"(%911) {moved} : (i1) -> i32
                      %913 = "arith.constant"() {moved, value = 0 : i32} : () -> i32
                      %914 = "arith.cmpi"(%912, %913) {moved, predicate = 0 : i64} : (i32, i32) -> i1
                      "scf.condition"(%914) : (i1) -> ()
                    }, {
                      %911 = "arith.constant"() {value = 0 : index} : () -> index
                      %912 = "arith.constant"() {value = 0 : i32} : () -> i32
                      %913 = "arith.trunci"(%912) {unsigned} : (i32) -> i1
                      "affine.store"(%913, %901) {map = #map1, to = "assert_cond", unsigned} : (i1, memref<1xi1>) -> ()
                      "scf.yield"() : () -> ()
                    }) : () -> ()
                    "scf.yield"() : () -> ()
                  }, {
                  }) : (i1) -> ()
                  %908 = "arith.constant"() {value = 0 : index} : () -> index
                  %909 = "arith.constant"() {value = 4 : i32} : () -> i32
                  %910 = "arith.trunci"(%909) {unsigned} : (i32) -> i16
                  "affine.store"(%910, %839) {map = #map1, to = "inst_id", unsigned} : (i16, memref<1xi16>) -> ()
                  "scf.yield"() : () -> ()
                }) : (i1) -> ()
                "scf.yield"() : () -> ()
              }) : (i1) -> ()
              "scf.yield"() : () -> ()
            }) : (i1) -> ()
            "scf.yield"() : () -> ()
          }) : (i1) -> ()
          %851 = "affine.load"(%834) {from = "inst_lat", map = #map1, unsigned} : (memref<1xi32>) -> i32
          %852 = "arith.constant"() {value = 1 : i32} : () -> i32
          %853 = "arith.cmpi"(%851, %852) {predicate = 3 : i64} : (i32, i32) -> i1
          %854 = "affine.load"(%69) {from = "latstalled", map = #map1, moved, unsigned} : (memref<1xi1>) -> i1
          %855 = "arith.constant"() {moved, value = 1 : i32} : () -> i32
          %856 = "arith.extui"(%854) {moved} : (i1) -> i32
          %857 = "arith.cmpi"(%856, %855) {moved, predicate = 0 : i64} : (i32, i32) -> i1
          %858 = "memref.alloc"() {name = "or_tmp", operand_segment_sizes = dense<0> : vector<2xi32>, unsigned} : () -> memref<1xi1>
          %859 = "arith.constant"() {value = 0 : index} : () -> index
          %860 = "arith.constant"() {unsigned, value = false} : () -> i1
          "affine.store"(%860, %858) {map = #map1, to = "or_tmp", unsigned} : (i1, memref<1xi1>) -> ()
          %861 = "arith.constant"() {value = 0 : index} : () -> index
          "affine.store"(%853, %858) {map = #map1, to = "or_tmp", unsigned} : (i1, memref<1xi1>) -> ()
          %862 = "arith.constant"() {moved, value = 0 : i32} : () -> i32
          %863 = "arith.extui"(%857) {moved} : (i1) -> i32
          %864 = "arith.cmpi"(%863, %862) {moved, predicate = 1 : i64} : (i32, i32) -> i1
          "scf.if"(%864) ({
            %872 = "arith.constant"() {value = 0 : index} : () -> index
            %873 = "arith.constant"() {value = 1 : i32} : () -> i32
            %874 = "arith.trunci"(%873) {unsigned} : (i32) -> i1
            "affine.store"(%874, %858) {map = #map1, to = "or_tmp", unsigned} : (i1, memref<1xi1>) -> ()
            "scf.yield"() : () -> ()
          }, {
          }) : (i1) -> ()
          %865 = "affine.load"(%858) {from = "or_tmp", map = #map1, moved, unsigned} : (memref<1xi1>) -> i1
          %866 = "arith.constant"() {moved, value = 0 : i32} : () -> i32
          %867 = "arith.extui"(%865) {moved} : (i1) -> i32
          %868 = "arith.cmpi"(%867, %866) {moved, predicate = 1 : i64} : (i32, i32) -> i1
          %869 = "arith.constant"() {moved, value = 0 : i32} : () -> i32
          %870 = "arith.extui"(%868) {moved} : (i1) -> i32
          %871 = "arith.cmpi"(%870, %869) {moved, predicate = 1 : i64} : (i32, i32) -> i1
          "scf.if"(%871) ({
            %872 = "memref.alloc"() {name = "execute_inst", operand_segment_sizes = dense<0> : vector<2xi32>, unsigned} : () -> memref<1xi64>
            %873 = "arith.constant"() {value = 0 : index} : () -> index
            "affine.store"(%833, %872) {map = #map1, to = "execute_inst", unsigned} : (i64, memref<1xi64>) -> ()
            %874 = "affine.load"(%839) {from = "inst_id", map = #map1, moved, unsigned} : (memref<1xi16>) -> i16
            %875 = "arith.constant"() {moved, value = 0 : i32} : () -> i32
            %876 = "arith.extui"(%874) {moved} : (i16) -> i32
            %877 = "arith.cmpi"(%876, %875) {moved, predicate = 0 : i64} : (i32, i32) -> i1
            "scf.if"(%877) ({
              %888 = "affine.load"(%872) {from = "execute_inst", map = #map1, unsigned} : (memref<1xi64>) -> i64
              %889 = "memref.alloc"() {name = "exe_inst_ce0.mf.UC_mload", operand_segment_sizes = dense<0> : vector<2xi32>} : () -> memref<1x!hcl.struct<i3, i11, i21, i29>>
              %890 = "arith.constant"() {value = 0 : index} : () -> index
              %891 = "hcl.int_to_struct"(%888) {unsigned} : (i64) -> !hcl.struct<i3, i11, i21, i29>
              "affine.store"(%891, %889) {map = #map1, to = "exe_inst_ce0.mf.UC_mload"} : (!hcl.struct<i3, i11, i21, i29>, memref<1x!hcl.struct<i3, i11, i21, i29>>) -> ()
              %892 = "affine.load"(%889) {from = "exe_inst_ce0.mf.UC_mload", map = #map1} : (memref<1x!hcl.struct<i3, i11, i21, i29>>) -> !hcl.struct<i3, i11, i21, i29>
              %893 = "hcl.struct_get"(%892) {index = 1 : i64, unsigned} : (!hcl.struct<i3, i11, i21, i29>) -> i11
              %894 = "memref.alloc"() {name = "sa", operand_segment_sizes = dense<0> : vector<2xi32>, unsigned} : () -> memref<1xi32>
              %895 = "arith.constant"() {value = 0 : index} : () -> index
              %896 = "arith.extui"(%893) {unsigned} : (i11) -> i32
              "affine.store"(%896, %894) {map = #map1, to = "sa", unsigned} : (i32, memref<1xi32>) -> ()
              %897 = "affine.load"(%894) {from = "sa", map = #map1, unsigned} : (memref<1xi32>) -> i32
              %898 = "arith.constant"() {value = 13 : i32} : () -> i32
              %899 = "arith.extui"(%897) : (i32) -> i64
              %900 = "arith.extui"(%898) : (i32) -> i64
              %901 = "arith.shli"(%899, %900) : (i64, i64) -> i64
              %902 = "arith.constant"() {value = 0 : index} : () -> index
              %903 = "arith.trunci"(%901) {unsigned} : (i64) -> i32
              "affine.store"(%903, %894) {map = #map1, to = "sa", unsigned} : (i32, memref<1xi32>) -> ()
              %904 = "hcl.struct_get"(%892) {index = 2 : i64, unsigned} : (!hcl.struct<i3, i11, i21, i29>) -> i21
              %905 = "memref.alloc"() {name = "ha", operand_segment_sizes = dense<0> : vector<2xi32>, unsigned} : () -> memref<1xi32>
              %906 = "arith.constant"() {value = 0 : index} : () -> index
              %907 = "arith.extui"(%904) {unsigned} : (i21) -> i32
              "affine.store"(%907, %905) {map = #map1, to = "ha", unsigned} : (i32, memref<1xi32>) -> ()
              %908 = "affine.load"(%905) {from = "ha", map = #map1, unsigned} : (memref<1xi32>) -> i32
              %909 = "arith.constant"() {value = 13 : i32} : () -> i32
              %910 = "arith.extui"(%908) : (i32) -> i64
              %911 = "arith.extui"(%909) : (i32) -> i64
              %912 = "arith.shli"(%910, %911) : (i64, i64) -> i64
              %913 = "arith.constant"() {value = 0 : index} : () -> index
              %914 = "arith.trunci"(%912) {unsigned} : (i64) -> i32
              "affine.store"(%914, %905) {map = #map1, to = "ha", unsigned} : (i32, memref<1xi32>) -> ()
              %915 = "memref.alloc"() {name = "count", operand_segment_sizes = dense<0> : vector<2xi32>, unsigned} : () -> memref<1xi32>
              %916 = "arith.constant"() {value = 0 : index} : () -> index
              %917 = "arith.constant"() {unsigned, value = 8192 : i32} : () -> i32
              "affine.store"(%917, %915) {map = #map1, to = "count", unsigned} : (i32, memref<1xi32>) -> ()
              %918 = "memref.alloc"() {name = "src_addr", operand_segment_sizes = dense<0> : vector<2xi32>, unsigned} : () -> memref<1xi32>
              %919 = "arith.constant"() {value = 0 : index} : () -> index
              "affine.store"(%905, %918) {map = #map1, to = "src_addr", unsigned} : (memref<1xi32>, memref<1xi32>) -> ()
              %920 = "memref.alloc"() {name = "dst_addr", operand_segment_sizes = dense<0> : vector<2xi32>, unsigned} : () -> memref<1xi32>
              %921 = "arith.constant"() {value = 0 : index} : () -> index
              "affine.store"(%894, %920) {map = #map1, to = "dst_addr", unsigned} : (memref<1xi32>, memref<1xi32>) -> ()
              %922 = "affine.load"(%918) {from = "src_addr", map = #map1, unsigned} : (memref<1xi32>) -> i32
              %923 = "affine.load"(%915) {from = "count", map = #map1, unsigned} : (memref<1xi32>) -> i32
              %924 = "memref.alloc"() {name = "_addr", operand_segment_sizes = dense<0> : vector<2xi32>, unsigned} : () -> memref<1xi32>
              %925 = "arith.constant"() {value = 0 : index} : () -> index
              "affine.store"(%922, %924) {map = #map1, to = "_addr", unsigned} : (i32, memref<1xi32>) -> ()
              %926 = "affine.load"(%924) {from = "_addr", map = #map1, unsigned} : (memref<1xi32>) -> i32
              %927 = "arith.addi"(%926, %923) {unsigned} : (i32, i32) -> i32
              %928 = "arith.constant"() {value = 33554432 : i32} : () -> i32
              %929 = "arith.cmpi"(%927, %928) {predicate = 3 : i64} : (i32, i32) -> i1
              %930 = "affine.load"(%924) {from = "_addr", map = #map1, unsigned} : (memref<1xi32>) -> i32
              %931 = "affine.load"(%924) {from = "_addr", map = #map1, unsigned} : (memref<1xi32>) -> i32
              %932 = "arith.addi"(%931, %923) {unsigned} : (i32, i32) -> i32
              %933 = "memref.alloc"() {name = "assert_cond", operand_segment_sizes = dense<0> : vector<2xi32>, unsigned} : () -> memref<1xi1>
              %934 = "arith.constant"() {value = 0 : index} : () -> index
              "affine.store"(%929, %933) {map = #map1, to = "assert_cond", unsigned} : (i1, memref<1xi1>) -> ()
              %935 = "affine.load"(%933) {from = "assert_cond", map = #map1, moved, unsigned} : (memref<1xi1>) -> i1
              %936 = "arith.constant"() {moved, value = 0 : i32} : () -> i32
              %937 = "arith.extui"(%935) {moved} : (i1) -> i32
              %938 = "arith.cmpi"(%937, %936) {moved, predicate = 0 : i64} : (i32, i32) -> i1
              "scf.if"(%938) ({
                "hcl.print"(%930, %932) {format = "\0A\0AAssertion failed {hcl_ext.py:859,hcl_ext.py:849,mfetch.py:106,uController.py:172,instruction.py:321,instruction.py:318,mfetch.py:136,mem.py:172,mem.py:106,hcl_ext.py:723}: HBM Mem.copyto exceeds memory size: addr=%d+size=%d > 33554432\0A\0A", signedness = "uu"} : (i32, i32) -> ()
                "scf.while"() ({
                  %951 = "affine.load"(%933) {from = "assert_cond", map = #map1, moved, unsigned} : (memref<1xi1>) -> i1
                  %952 = "arith.extui"(%951) {moved} : (i1) -> i32
                  %953 = "arith.constant"() {moved, value = 0 : i32} : () -> i32
                  %954 = "arith.cmpi"(%952, %953) {moved, predicate = 0 : i64} : (i32, i32) -> i1
                  "scf.condition"(%954) : (i1) -> ()
                }, {
                  %951 = "arith.constant"() {value = 0 : index} : () -> index
                  %952 = "arith.constant"() {value = 0 : i32} : () -> i32
                  %953 = "arith.trunci"(%952) {unsigned} : (i32) -> i1
                  "affine.store"(%953, %933) {map = #map1, to = "assert_cond", unsigned} : (i1, memref<1xi1>) -> ()
                  "scf.yield"() : () -> ()
                }) : () -> ()
                "scf.yield"() : () -> ()
              }, {
              }) : (i1) -> ()
              %939 = "affine.load"(%920) {from = "dst_addr", map = #map1, unsigned} : (memref<1xi32>) -> i32
              %940 = "affine.load"(%918) {from = "src_addr", map = #map1, unsigned} : (memref<1xi32>) -> i32
              %941 = "affine.load"(%915) {from = "count", map = #map1, unsigned} : (memref<1xi32>) -> i32
              %942 = "memref.alloc"() {name = "copyN", operand_segment_sizes = dense<0> : vector<2xi32>, unsigned} : () -> memref<1xi1>
              %943 = "hcl.create_op_handle"() {op_name = "copyN"} : () -> !hcl.OpHandle
              %944 = "hcl.create_loop_handle"(%943) {loop_name = "i"} : (!hcl.OpHandle) -> !hcl.LoopHandle
              %945 = "arith.constant"() {value = 0 : i32} : () -> i32
              %946 = "arith.index_cast"(%945) : (i32) -> index
              %947 = "arith.index_cast"(%941) : (i32) -> index
              %948 = "arith.constant"() {value = 1 : i32} : () -> i32
              %949 = "arith.index_cast"(%948) : (i32) -> index
              "scf.for"(%946, %947, %949) ({
              ^bb0(%arg2: index):
                %951 = "arith.index_cast"(%940) : (i32) -> index
                %952 = "arith.addi"(%951, %arg2) : (index, index) -> index
                %953 = "memref.load"(%arg0, %952) {from = "hbm", unsigned} : (memref<33554432xi32>, index) -> i32
                %954 = "arith.index_cast"(%939) : (i32) -> index
                %955 = "arith.addi"(%954, %arg2) : (index, index) -> index
                "memref.store"(%953, %34, %955) {to = "SPAD.alloc_c", unsigned} : (i32, memref<33554432xi32>, index) -> ()
                "scf.yield"() : () -> ()
              }) {loop_name = "i", op_name = "copyN"} : (index, index, index) -> ()
              %950 = "memref.alloc"() {name = "copyN", operand_segment_sizes = dense<0> : vector<2xi32>, unsigned} : () -> memref<1xi1>
              "scf.yield"() : () -> ()
            }, {
              %888 = "affine.load"(%839) {from = "inst_id", map = #map1, moved, unsigned} : (memref<1xi16>) -> i16
              %889 = "arith.constant"() {moved, value = 1 : i32} : () -> i32
              %890 = "arith.extui"(%888) {moved} : (i16) -> i32
              %891 = "arith.cmpi"(%890, %889) {moved, predicate = 0 : i64} : (i32, i32) -> i1
              "scf.if"(%891) ({
                %892 = "affine.load"(%872) {from = "execute_inst", map = #map1, unsigned} : (memref<1xi64>) -> i64
                %893 = "memref.alloc"() {name = "exe_inst_ce0.mf.UC_mstore", operand_segment_sizes = dense<0> : vector<2xi32>} : () -> memref<1x!hcl.struct<i3, i11, i21, i29>>
                %894 = "arith.constant"() {value = 0 : index} : () -> index
                %895 = "hcl.int_to_struct"(%892) {unsigned} : (i64) -> !hcl.struct<i3, i11, i21, i29>
                "affine.store"(%895, %893) {map = #map1, to = "exe_inst_ce0.mf.UC_mstore"} : (!hcl.struct<i3, i11, i21, i29>, memref<1x!hcl.struct<i3, i11, i21, i29>>) -> ()
                %896 = "affine.load"(%893) {from = "exe_inst_ce0.mf.UC_mstore", map = #map1} : (memref<1x!hcl.struct<i3, i11, i21, i29>>) -> !hcl.struct<i3, i11, i21, i29>
                %897 = "hcl.struct_get"(%896) {index = 1 : i64, unsigned} : (!hcl.struct<i3, i11, i21, i29>) -> i11
                %898 = "memref.alloc"() {name = "sa", operand_segment_sizes = dense<0> : vector<2xi32>, unsigned} : () -> memref<1xi32>
                %899 = "arith.constant"() {value = 0 : index} : () -> index
                %900 = "arith.extui"(%897) {unsigned} : (i11) -> i32
                "affine.store"(%900, %898) {map = #map1, to = "sa", unsigned} : (i32, memref<1xi32>) -> ()
                %901 = "affine.load"(%898) {from = "sa", map = #map1, unsigned} : (memref<1xi32>) -> i32
                %902 = "arith.constant"() {value = 13 : i32} : () -> i32
                %903 = "arith.extui"(%901) : (i32) -> i64
                %904 = "arith.extui"(%902) : (i32) -> i64
                %905 = "arith.shli"(%903, %904) : (i64, i64) -> i64
                %906 = "arith.constant"() {value = 0 : index} : () -> index
                %907 = "arith.trunci"(%905) {unsigned} : (i64) -> i32
…
            %738 = "arith.extui"(%736) {moved} : (i1) -> i32
            %739 = "arith.cmpi"(%738, %737) {moved, predicate = 0 : i64} : (i32, i32) -> i1
            "scf.if"(%739) ({
              "hcl.print"(%730, %733) {format = "\0A\0AAssertion failed {operation.py:346,tensor.py:39,tensor.py:47,tensor.py:232,cetiles.py:112,cetiles.py:110,mem.py:113,mem.py:135,mem.py:106,hcl_ext.py:723}: nttdataoutbot Mem.read exceeds memory size: addr=%d+size=%d > 8192\0A\0A", signedness = "u_"} : (i32, i32) -> ()
              "scf.while"() ({
                %772 = "affine.load"(%734) {from = "assert_cond", map = #map1, moved, unsigned} : (memref<1xi1>) -> i1
                %773 = "arith.extui"(%772) {moved} : (i1) -> i32
                %774 = "arith.constant"() {moved, value = 0 : i32} : () -> i32
                %775 = "arith.cmpi"(%773, %774) {moved, predicate = 0 : i64} : (i32, i32) -> i1
                "scf.condition"(%775) : (i1) -> ()
              }, {
                %772 = "arith.constant"() {value = 0 : index} : () -> index
                %773 = "arith.constant"() {value = 0 : i32} : () -> i32
                %774 = "arith.trunci"(%773) {unsigned} : (i32) -> i1
                "affine.store"(%774, %734) {map = #map1, to = "assert_cond", unsigned} : (i1, memref<1xi1>) -> ()
                "scf.yield"() : () -> ()
              }) : () -> ()
              "scf.yield"() : () -> ()
            }, {
            }) : (i1) -> ()
            %740 = "memref.alloc"() {name = "Mem.read_c", operand_segment_sizes = dense<0> : vector<2xi32>, unsigned} : () -> memref<1xi32>
            %741 = "hcl.create_op_handle"() {op_name = "Mem.read_c"} : () -> !hcl.OpHandle
            %742 = "hcl.create_loop_handle"(%741) {loop_name = "i"} : (!hcl.OpHandle) -> !hcl.LoopHandle
            %743 = "affine.load"(%719) {from = "read_addr", map = #map1, unsigned} : (memref<1xi32>) -> i32
            %744 = "arith.index_cast"(%743) : (i32) -> index
            %745 = "arith.addi"(%744, %4) : (index, index) -> index
            %746 = "memref.load"(%165, %745) {from = "nttdataoutbot.alloc_c", unsigned} : (memref<8192xi32>, index) -> i32
            "affine.store"(%746, %740, %4) {map = #map0, to = "Mem.read_c"} : (i32, memref<1xi32>, index) -> ()
            %747 = "affine.load"(%740) {from = "Mem.read_c", map = #map1, unsigned} : (memref<1xi32>) -> i32
            %748 = "arith.addi"(%717, %arg3) : (index, index) -> index
            %749 = "memref.alloc"() {name = "write_addr", operand_segment_sizes = dense<0> : vector<2xi32>, unsigned} : () -> memref<1xi32>
            %750 = "arith.constant"() {value = 0 : index} : () -> index
            %751 = "arith.index_cast"(%748) {unsigned} : (index) -> i32
            "affine.store"(%751, %749) {map = #map1, to = "write_addr", unsigned} : (i32, memref<1xi32>) -> ()
            %752 = "affine.load"(%749) {from = "write_addr", map = #map1, unsigned} : (memref<1xi32>) -> i32
            %753 = "memref.alloc"() {name = "_addr", operand_segment_sizes = dense<0> : vector<2xi32>, unsigned} : () -> memref<1xi32>
            %754 = "arith.constant"() {value = 0 : index} : () -> index
            "affine.store"(%752, %753) {map = #map1, to = "_addr", unsigned} : (i32, memref<1xi32>) -> ()
            %755 = "affine.load"(%753) {from = "_addr", map = #map1, unsigned} : (memref<1xi32>) -> i32
            %756 = "arith.constant"() {value = 1 : i32} : () -> i32
            %757 = "arith.addi"(%755, %756) : (i32, i32) -> i32
            %758 = "arith.constant"() {value = 8192 : i32} : () -> i32
            %759 = "arith.cmpi"(%757, %758) {predicate = 3 : i64} : (i32, i32) -> i1
            %760 = "affine.load"(%753) {from = "_addr", map = #map1, unsigned} : (memref<1xi32>) -> i32
            %761 = "affine.load"(%753) {from = "_addr", map = #map1, unsigned} : (memref<1xi32>) -> i32
            %762 = "arith.constant"() {value = 1 : i32} : () -> i32
            %763 = "arith.addi"(%761, %762) : (i32, i32) -> i32
            %764 = "memref.alloc"() {name = "assert_cond", operand_segment_sizes = dense<0> : vector<2xi32>, unsigned} : () -> memref<1xi1>
            %765 = "arith.constant"() {value = 0 : index} : () -> index
            "affine.store"(%759, %764) {map = #map1, to = "assert_cond", unsigned} : (i1, memref<1xi1>) -> ()
            %766 = "affine.load"(%764) {from = "assert_cond", map = #map1, moved, unsigned} : (memref<1xi1>) -> i1
            %767 = "arith.constant"() {moved, value = 0 : i32} : () -> i32
            %768 = "arith.extui"(%766) {moved} : (i1) -> i32
            %769 = "arith.cmpi"(%768, %767) {moved, predicate = 0 : i64} : (i32, i32) -> i1
            "scf.if"(%769) ({
              "hcl.print"(%760, %763) {format = "\0A\0AAssertion failed {operation.py:346,tensor.py:39,tensor.py:47,tensor.py:232,cetiles.py:112,cetiles.py:110,mem.py:116,mem.py:142,mem.py:106,hcl_ext.py:723}: nttdatainbot Mem.write exceeds memory size: addr=%d+size=%d > 8192\0A\0A", signedness = "u_"} : (i32, i32) -> ()
              "scf.while"() ({
                %772 = "affine.load"(%764) {from = "assert_cond", map = #map1, moved, unsigned} : (memref<1xi1>) -> i1
                %773 = "arith.extui"(%772) {moved} : (i1) -> i32
                %774 = "arith.constant"() {moved, value = 0 : i32} : () -> i32
                %775 = "arith.cmpi"(%773, %774) {moved, predicate = 0 : i64} : (i32, i32) -> i1
                "scf.condition"(%775) : (i1) -> ()
              }, {
                %772 = "arith.constant"() {value = 0 : index} : () -> index
                %773 = "arith.constant"() {value = 0 : i32} : () -> i32
                %774 = "arith.trunci"(%773) {unsigned} : (i32) -> i1
                "affine.store"(%774, %764) {map = #map1, to = "assert_cond", unsigned} : (i1, memref<1xi1>) -> ()
                "scf.yield"() : () -> ()
              }) : () -> ()
              "scf.yield"() : () -> ()
            }, {
            }) : (i1) -> ()
            %770 = "affine.load"(%749) {from = "write_addr", map = #map1, unsigned} : (memref<1xi32>) -> i32
            %771 = "arith.index_cast"(%770) : (i32) -> index
            "memref.store"(%747, %163, %771) {to = "nttdatainbot.alloc_c", unsigned} : (i32, memref<8192xi32>, index) -> ()
            "affine.yield"() : () -> ()
          }) {loop_name = "j", lower_bound = #map1, op_name = "ot64", step = 1 : i32, upper_bound = #map10} : () -> ()
          %711 = "memref.alloc"() {name = "ot64", operand_segment_sizes = dense<0> : vector<2xi32>, unsigned} : () -> memref<1xi1>
          "affine.yield"() : () -> ()
        }) {loop_name = "i", lower_bound = #map1, op_name = "ntt_out_swizzle_ob", step = 1 : i32, upper_bound = #map10} : () -> ()
        %697 = "memref.alloc"() {name = "ntt_out_swizzle_ob", operand_segment_sizes = dense<0> : vector<2xi32>, unsigned} : () -> memref<1xi1>
        "scf.yield"() : () -> ()
      }, {
        "scf.if"(%675) ({
          %690 = "memref.alloc"() {name = "intt_out_swizzle", operand_segment_sizes = dense<0> : vector<2xi32>, unsigned} : () -> memref<1xi1>
          %691 = "hcl.create_op_handle"() {op_name = "intt_out_swizzle"} : () -> !hcl.OpHandle
          %692 = "hcl.create_loop_handle"(%691) {loop_name = "i"} : (!hcl.OpHandle) -> !hcl.LoopHandle
          "affine.for"() ({
          ^bb0(%arg2: index):
            %694 = "arith.constant"() {value = 64 : i32} : () -> i32
            %695 = "arith.index_cast"(%694) : (i32) -> index
            %696 = "arith.muli"(%arg2, %695) : (index, index) -> index
            %697 = "memref.alloc"() {name = "nttin_even_odd_arf", operand_segment_sizes = dense<0> : vector<2xi32>, unsigned} : () -> memref<1xi1>
            %698 = "hcl.create_op_handle"() {op_name = "nttin_even_odd_arf"} : () -> !hcl.OpHandle
            %699 = "hcl.create_loop_handle"(%698) {loop_name = "j"} : (!hcl.OpHandle) -> !hcl.LoopHandle
            "affine.for"() ({
            ^bb0(%arg3: index):
              %705 = "arith.constant"() {value = 0 : i32} : () -> i32
              %706 = "arith.index_cast"(%705) : (i32) -> index
              %707 = "arith.addi"(%696, %706) : (index, index) -> index
              %708 = "arith.addi"(%707, %arg3) : (index, index) -> index
              %709 = "memref.alloc"() {name = "read_addr", operand_segment_sizes = dense<0> : vector<2xi32>, unsigned} : () -> memref<1xi32>
              %710 = "arith.constant"() {value = 0 : index} : () -> index
              %711 = "arith.index_cast"(%708) {unsigned} : (index) -> i32
              "affine.store"(%711, %709) {map = #map1, to = "read_addr", unsigned} : (i32, memref<1xi32>) -> ()
              %712 = "affine.load"(%709) {from = "read_addr", map = #map1, unsigned} : (memref<1xi32>) -> i32
              %713 = "memref.alloc"() {name = "_addr", operand_segment_sizes = dense<0> : vector<2xi32>, unsigned} : () -> memref<1xi32>
              %714 = "arith.constant"() {value = 0 : index} : () -> index
              "affine.store"(%712, %713) {map = #map1, to = "_addr", unsigned} : (i32, memref<1xi32>) -> ()
              %715 = "affine.load"(%713) {from = "_addr", map = #map1, unsigned} : (memref<1xi32>) -> i32
              %716 = "arith.constant"() {value = 1 : i32} : () -> i32
              %717 = "arith.addi"(%715, %716) : (i32, i32) -> i32
              %718 = "arith.constant"() {value = 8192 : i32} : () -> i32
              %719 = "arith.cmpi"(%717, %718) {predicate = 3 : i64} : (i32, i32) -> i1
              %720 = "affine.load"(%713) {from = "_addr", map = #map1, unsigned} : (memref<1xi32>) -> i32
              %721 = "affine.load"(%713) {from = "_addr", map = #map1, unsigned} : (memref<1xi32>) -> i32
              %722 = "arith.constant"() {value = 1 : i32} : () -> i32
              %723 = "arith.addi"(%721, %722) : (i32, i32) -> i32
              %724 = "memref.alloc"() {name = "assert_cond", operand_segment_sizes = dense<0> : vector<2xi32>, unsigned} : () -> memref<1xi1>
              %725 = "arith.constant"() {value = 0 : index} : () -> index
              "affine.store"(%719, %724) {map = #map1, to = "assert_cond", unsigned} : (i1, memref<1xi1>) -> ()
              %726 = "affine.load"(%724) {from = "assert_cond", map = #map1, moved, unsigned} : (memref<1xi1>) -> i1
              %727 = "arith.constant"() {moved, value = 0 : i32} : () -> i32
              %728 = "arith.extui"(%726) {moved} : (i1) -> i32
              %729 = "arith.cmpi"(%728, %727) {moved, predicate = 0 : i64} : (i32, i32) -> i1
              "scf.if"(%729) ({
                "hcl.print"(%720, %723) {format = "\0A\0AAssertion failed {operation.py:346,tensor.py:39,tensor.py:47,tensor.py:232,cetiles.py:135,cetiles.py:133,mem.py:113,mem.py:135,mem.py:106,hcl_ext.py:723}: inttdataouttop Mem.read exceeds memory size: addr=%d+size=%d > 8192\0A\0A", signedness = "u_"} : (i32, i32) -> ()
                "scf.while"() ({
                  %828 = "affine.load"(%724) {from = "assert_cond", map = #map1, moved, unsigned} : (memref<1xi1>) -> i1
                  %829 = "arith.extui"(%828) {moved} : (i1) -> i32
                  %830 = "arith.constant"() {moved, value = 0 : i32} : () -> i32
                  %831 = "arith.cmpi"(%829, %830) {moved, predicate = 0 : i64} : (i32, i32) -> i1
                  "scf.condition"(%831) : (i1) -> ()
                }, {
                  %828 = "arith.constant"() {value = 0 : index} : () -> index
                  %829 = "arith.constant"() {value = 0 : i32} : () -> i32
                  %830 = "arith.trunci"(%829) {unsigned} : (i32) -> i1
                  "affine.store"(%830, %724) {map = #map1, to = "assert_cond", unsigned} : (i1, memref<1xi1>) -> ()
                  "scf.yield"() : () -> ()
                }) : () -> ()
                "scf.yield"() : () -> ()
              }, {
              }) : (i1) -> ()
              %730 = "memref.alloc"() {name = "Mem.read_c", operand_segment_sizes = dense<0> : vector<2xi32>, unsigned} : () -> memref<1xi32>
              %731 = "hcl.create_op_handle"() {op_name = "Mem.read_c"} : () -> !hcl.OpHandle
              %732 = "hcl.create_loop_handle"(%731) {loop_name = "i"} : (!hcl.OpHandle) -> !hcl.LoopHandle
              %733 = "affine.load"(%709) {from = "read_addr", map = #map1, unsigned} : (memref<1xi32>) -> i32
              %734 = "arith.index_cast"(%733) : (i32) -> index
              %735 = "arith.addi"(%734, %3) : (index, index) -> index
              %736 = "memref.load"(%168, %735) {from = "inttdataouttop.alloc_c", unsigned} : (memref<8192xi32>, index) -> i32
              "affine.store"(%736, %730, %3) {map = #map0, to = "Mem.read_c"} : (i32, memref<1xi32>, index) -> ()
              %737 = "affine.load"(%730) {from = "Mem.read_c", map = #map1, unsigned} : (memref<1xi32>) -> i32
              %738 = "arith.constant"() {value = 2 : i32} : () -> i32
              %739 = "arith.index_cast"(%738) : (i32) -> index
              %740 = "arith.muli"(%739, %arg3) : (index, index) -> index
              %741 = "arith.addi"(%696, %740) : (index, index) -> index
              %742 = "memref.alloc"() {name = "write_addr", operand_segment_sizes = dense<0> : vector<2xi32>, unsigned} : () -> memref<1xi32>
              %743 = "arith.constant"() {value = 0 : index} : () -> index
              %744 = "arith.index_cast"(%741) {unsigned} : (index) -> i32
              "affine.store"(%744, %742) {map = #map1, to = "write_addr", unsigned} : (i32, memref<1xi32>) -> ()
              %745 = "affine.load"(%742) {from = "write_addr", map = #map1, unsigned} : (memref<1xi32>) -> i32
              %746 = "memref.alloc"() {name = "_addr", operand_segment_sizes = dense<0> : vector<2xi32>, unsigned} : () -> memref<1xi32>
              %747 = "arith.constant"() {value = 0 : index} : () -> index
              "affine.store"(%745, %746) {map = #map1, to = "_addr", unsigned} : (i32, memref<1xi32>) -> ()
              %748 = "affine.load"(%746) {from = "_addr", map = #map1, unsigned} : (memref<1xi32>) -> i32
              %749 = "arith.constant"() {value = 1 : i32} : () -> i32
              %750 = "arith.addi"(%748, %749) : (i32, i32) -> i32
              %751 = "arith.constant"() {value = 8192 : i32} : () -> i32
              %752 = "arith.cmpi"(%750, %751) {predicate = 3 : i64} : (i32, i32) -> i1
              %753 = "affine.load"(%746) {from = "_addr", map = #map1, unsigned} : (memref<1xi32>) -> i32
              %754 = "affine.load"(%746) {from = "_addr", map = #map1, unsigned} : (memref<1xi32>) -> i32
              %755 = "arith.constant"() {value = 1 : i32} : () -> i32
              %756 = "arith.addi"(%754, %755) : (i32, i32) -> i32
              %757 = "memref.alloc"() {name = "assert_cond", operand_segment_sizes = dense<0> : vector<2xi32>, unsigned} : () -> memref<1xi1>
              %758 = "arith.constant"() {value = 0 : index} : () -> index
              "affine.store"(%752, %757) {map = #map1, to = "assert_cond", unsigned} : (i1, memref<1xi1>) -> ()
              %759 = "affine.load"(%757) {from = "assert_cond", map = #map1, moved, unsigned} : (memref<1xi1>) -> i1
              %760 = "arith.constant"() {moved, value = 0 : i32} : () -> i32
              %761 = "arith.extui"(%759) {moved} : (i1) -> i32
              %762 = "arith.cmpi"(%761, %760) {moved, predicate = 0 : i64} : (i32, i32) -> i1
              "scf.if"(%762) ({
                "hcl.print"(%753, %756) {format = "\0A\0AAssertion failed {operation.py:346,tensor.py:39,tensor.py:47,tensor.py:232,cetiles.py:135,cetiles.py:133,mem.py:116,mem.py:142,mem.py:106,hcl_ext.py:723}: inttdataintop Mem.write exceeds memory size: addr=%d+size=%d > 8192\0A\0A", signedness = "u_"} : (i32, i32) -> ()
                "scf.while"() ({
                  %828 = "affine.load"(%757) {from = "assert_cond", map = #map1, moved, unsigned} : (memref<1xi1>) -> i1
                  %829 = "arith.extui"(%828) {moved} : (i1) -> i32
                  %830 = "arith.constant"() {moved, value = 0 : i32} : () -> i32
                  %831 = "arith.cmpi"(%829, %830) {moved, predicate = 0 : i64} : (i32, i32) -> i1
                  "scf.condition"(%831) : (i1) -> ()
                }, {
                  %828 = "arith.constant"() {value = 0 : index} : () -> index
                  %829 = "arith.constant"() {value = 0 : i32} : () -> i32
                  %830 = "arith.trunci"(%829) {unsigned} : (i32) -> i1
                  "affine.store"(%830, %757) {map = #map1, to = "assert_cond", unsigned} : (i1, memref<1xi1>) -> ()
                  "scf.yield"() : () -> ()
                }) : () -> ()
                "scf.yield"() : () -> ()
              }, {
              }) : (i1) -> ()
              %763 = "affine.load"(%742) {from = "write_addr", map = #map1, unsigned} : (memref<1xi32>) -> i32
              %764 = "arith.index_cast"(%763) : (i32) -> index
              "memref.store"(%737, %166, %764) {to = "inttdataintop.alloc_c", unsigned} : (i32, memref<8192xi32>, index) -> ()
              %765 = "arith.constant"() {value = 0 : i32} : () -> i32
              %766 = "arith.index_cast"(%765) : (i32) -> index
              %767 = "arith.addi"(%696, %766) : (index, index) -> index
              %768 = "arith.addi"(%767, %arg3) : (index, index) -> index
              %769 = "memref.alloc"() {name = "read_addr", operand_segment_sizes = dense<0> : vector<2xi32>, unsigned} : () -> memref<1xi32>
              %770 = "arith.constant"() {value = 0 : index} : () -> index
              %771 = "arith.index_cast"(%768) {unsigned} : (index) -> i32
              "affine.store"(%771, %769) {map = #map1, to = "read_addr", unsigned} : (i32, memref<1xi32>) -> ()
              %772 = "affine.load"(%769) {from = "read_addr", map = #map1, unsigned} : (memref<1xi32>) -> i32
              %773 = "memref.alloc"() {name = "_addr", operand_segment_sizes = dense<0> : vector<2xi32>, unsigned} : () -> memref<1xi32>
              %774 = "arith.constant"() {value = 0 : index} : () -> index
              "affine.store"(%772, %773) {map = #map1, to = "_addr", unsigned} : (i32, memref<1xi32>) -> ()
              %775 = "affine.load"(%773) {from = "_addr", map = #map1, unsigned} : (memref<1xi32>) -> i32
              %776 = "arith.constant"() {value = 1 : i32} : () -> i32
              %777 = "arith.addi"(%775, %776) : (i32, i32) -> i32
              %778 = "arith.constant"() {value = 8192 : i32} : () -> i32
              %779 = "arith.cmpi"(%777, %778) {predicate = 3 : i64} : (i32, i32) -> i1
              %780 = "affine.load"(%773) {from = "_addr", map = #map1, unsigned} : (memref<1xi32>) -> i32
              %781 = "affine.load"(%773) {from = "_addr", map = #map1, unsigned} : (memref<1xi32>) -> i32
              %782 = "arith.constant"() {value = 1 : i32} : () -> i32
              %783 = "arith.addi"(%781, %782) : (i32, i32) -> i32
              %784 = "memref.alloc"() {name = "assert_cond", operand_segment_sizes = dense<0> : vector<2xi32>, unsigned} : () -> memref<1xi1>
              %785 = "arith.constant"() {value = 0 : index} : () -> index
              "affine.store"(%779, %784) {map = #map1, to = "assert_cond", unsigned} : (i1, memref<1xi1>) -> ()
              %786 = "affine.load"(%784) {from = "assert_cond", map = #map1, moved, unsigned} : (memref<1xi1>) -> i1
              %787 = "arith.constant"() {moved, value = 0 : i32} : () -> i32
              %788 = "arith.extui"(%786) {moved} : (i1) -> i32
              %789 = "arith.cmpi"(%788, %787) {moved, predicate = 0 : i64} : (i32, i32) -> i1
              "scf.if"(%789) ({
                "hcl.print"(%780, %783) {format = "\0A\0AAssertion failed {operation.py:346,tensor.py:39,tensor.py:47,tensor.py:232,cetiles.py:135,cetiles.py:134,mem.py:113,mem.py:135,mem.py:106,hcl_ext.py:723}: inttdataoutbot Mem.read exceeds memory size: addr=%d+size=%d > 8192\0A\0A", signedness = "u_"} : (i32, i32) -> ()
                "scf.while"() ({
                  %828 = "affine.load"(%784) {from = "assert_cond", map = #map1, moved, unsigned} : (memref<1xi1>) -> i1
                  %829 = "arith.extui"(%828) {moved} : (i1) -> i32
                  %830 = "arith.constant"() {moved, value = 0 : i32} : () -> i32
                  %831 = "arith.cmpi"(%829, %830) {moved, predicate = 0 : i64} : (i32, i32) -> i1
                  "scf.condition"(%831) : (i1) -> ()
                }, {
                  %828 = "arith.constant"() {value = 0 : index} : () -> index
                  %829 = "arith.constant"() {value = 0 : i32} : () -> i32
                  %830 = "arith.trunci"(%829) {unsigned} : (i32) -> i1
                  "affine.store"(%830, %784) {map = #map1, to = "assert_cond", unsigned} : (i1, memref<1xi1>) -> ()
                  "scf.yield"() : () -> ()
                }) : () -> ()
                "scf.yield"() : () -> ()
              }, {
              }) : (i1) -> ()
              %790 = "memref.alloc"() {name = "Mem.read_c", operand_segment_sizes = dense<0> : vector<2xi32>, unsigned} : () -> memref<1xi32>
              %791 = "hcl.create_op_handle"() {op_name = "Mem.read_c"} : () -> !hcl.OpHandle
              %792 = "hcl.create_loop_handle"(%791) {loop_name = "i"} : (!hcl.OpHandle) -> !hcl.LoopHandle
              %793 = "affine.load"(%769) {from = "read_addr", map = #map1, unsigned} : (memref<1xi32>) -> i32
              %794 = "arith.index_cast"(%793) : (i32) -> index
              %795 = "arith.addi"(%794, %2) : (index, index) -> index
              %796 = "memref.load"(%169, %795) {from = "inttdataoutbot.alloc_c", unsigned} : (memref<8192xi32>, index) -> i32
              "affine.store"(%796, %790, %2) {map = #map0, to = "Mem.read_c"} : (i32, memref<1xi32>, index) -> ()
              %797 = "affine.load"(%790) {from = "Mem.read_c", map = #map1, unsigned} : (memref<1xi32>) -> i32
              %798 = "arith.constant"() {value = 2 : i32} : () -> i32
              %799 = "arith.index_cast"(%798) : (i32) -> index
              %800 = "arith.muli"(%799, %arg3) : (index, index) -> index
              %801 = "arith.addi"(%696, %800) : (index, index) -> index
              %802 = "arith.constant"() {value = 1 : i32} : () -> i32
              %803 = "arith.index_cast"(%802) : (i32) -> index
              %804 = "arith.addi"(%801, %803) : (index, index) -> index
              %805 = "memref.alloc"() {name = "write_addr", operand_segment_sizes = dense<0> : vector<2xi32>, unsigned} : () -> memref<1xi32>
              %806 = "arith.constant"() {value = 0 : index} : () -> index
              %807 = "arith.index_cast"(%804) {unsigned} : (index) -> i32
              "affine.store"(%807, %805) {map = #map1, to = "write_addr", unsigned} : (i32, memref<1xi32>) -> ()
              %808 = "affine.load"(%805) {from = "write_addr", map = #map1, unsigned} : (memref<1xi32>) -> i32
              %809 = "memref.alloc"() {name = "_addr", operand_segment_sizes = dense<0> : vector<2xi32>, unsigned} : () -> memref<1xi32>
              %810 = "arith.constant"() {value = 0 : index} : () -> index
              "affine.store"(%808, %809) {map = #map1, to = "_addr", unsigned} : (i32, memref<1xi32>) -> ()
              %811 = "affine.load"(%809) {from = "_addr", map = #map1, unsigned} : (memref<1xi32>) -> i32
              %812 = "arith.constant"() {value = 1 : i32} : () -> i32
              %813 = "arith.addi"(%811, %812) : (i32, i32) -> i32
              %814 = "arith.constant"() {value = 8192 : i32} : () -> i32
              %815 = "arith.cmpi"(%813, %814) {predicate = 3 : i64} : (i32, i32) -> i1
              %816 = "affine.load"(%809) {from = "_addr", map = #map1, unsigned} : (memref<1xi32>) -> i32
              %817 = "affine.load"(%809) {from = "_addr", map = #map1, unsigned} : (memref<1xi32>) -> i32
              %818 = "arith.constant"() {value = 1 : i32} : () -> i32
              %819 = "arith.addi"(%817, %818) : (i32, i32) -> i32
              %820 = "memref.alloc"() {name = "assert_cond", operand_segment_sizes = dense<0> : vector<2xi32>, unsigned} : () -> memref<1xi1>
              %821 = "arith.constant"() {value = 0 : index} : () -> index
              "affine.store"(%815, %820) {map = #map1, to = "assert_cond", unsigned} : (i1, memref<1xi1>) -> ()
              %822 = "affine.load"(%820) {from = "assert_cond", map = #map1, moved, unsigned} : (memref<1xi1>) -> i1
              %823 = "arith.constant"() {moved, value = 0 : i32} : () -> i32
              %824 = "arith.extui"(%822) {moved} : (i1) -> i32
              %825 = "arith.cmpi"(%824, %823) {moved, predicate = 0 : i64} : (i32, i32) -> i1
              "scf.if"(%825) ({
                "hcl.print"(%816, %819) {format = "\0A\0AAssertion failed {operation.py:346,tensor.py:39,tensor.py:47,tensor.py:232,cetiles.py:135,cetiles.py:134,mem.py:116,mem.py:142,mem.py:106,hcl_ext.py:723}: inttdataintop Mem.write exceeds memory size: addr=%d+size=%d > 8192\0A\0A", signedness = "u_"} : (i32, i32) -> ()
                "scf.while"() ({
                  %828 = "affine.load"(%820) {from = "assert_cond", map = #map1, moved, unsigned} : (memref<1xi1>) -> i1
                  %829 = "arith.extui"(%828) {moved} : (i1) -> i32
                  %830 = "arith.constant"() {moved, value = 0 : i32} : () -> i32
                  %831 = "arith.cmpi"(%829, %830) {moved, predicate = 0 : i64} : (i32, i32) -> i1
                  "scf.condition"(%831) : (i1) -> ()
                }, {
                  %828 = "arith.constant"() {value = 0 : index} : () -> index
                  %829 = "arith.constant"() {value = 0 : i32} : () -> i32
                  %830 = "arith.trunci"(%829) {unsigned} : (i32) -> i1
                  "affine.store"(%830, %820) {map = #map1, to = "assert_cond", unsigned} : (i1, memref<1xi1>) -> ()
                  "scf.yield"() : () -> ()
                }) : () -> ()
                "scf.yield"() : () -> ()
              }, {
              }) : (i1) -> ()
              %826 = "affine.load"(%805) {from = "write_addr", map = #map1, unsigned} : (memref<1xi32>) -> i32
              %827 = "arith.index_cast"(%826) : (i32) -> index
              "memref.store"(%797, %166, %827) {to = "inttdataintop.alloc_c", unsigned} : (i32, memref<8192xi32>, index) -> ()
              "affine.yield"() : () -> ()
            }) {loop_name = "j", lower_bound = #map1, op_name = "nttin_even_odd_arf", step = 1 : i32, upper_bound = #map11} : () -> ()
            %700 = "memref.alloc"() {name = "nttin_even_odd_arf", operand_segment_sizes = dense<0> : vector<2xi32>, unsigned} : () -> memref<1xi1>
            %701 = "memref.alloc"() {name = "nttin_even_odd_brf", operand_segment_sizes = dense<0> : vector<2xi32>, unsigned} : () -> memref<1xi1>
            %702 = "hcl.create_op_handle"() {op_name = "nttin_even_odd_brf"} : () -> !hcl.OpHandle
            %703 = "hcl.create_loop_handle"(%702) {loop_name = "j"} : (!hcl.OpHandle) -> !hcl.LoopHandle
            "affine.for"() ({
            ^bb0(%arg3: index):
              %705 = "arith.constant"() {value = 32 : i32} : () -> i32
              %706 = "arith.index_cast"(%705) : (i32) -> index
              %707 = "arith.addi"(%696, %706) : (index, index) -> index
              %708 = "arith.addi"(%707, %arg3) : (index, index) -> index
              %709 = "memref.alloc"() {name = "read_addr", operand_segment_sizes = dense<0> : vector<2xi32>, unsigned} : () -> memref<1xi32>
              %710 = "arith.constant"() {value = 0 : index} : () -> index
              %711 = "arith.index_cast"(%708) {unsigned} : (index) -> i32
              "affine.store"(%711, %709) {map = #map1, to = "read_addr", unsigned} : (i32, memref<1xi32>) -> ()
              %712 = "affine.load"(%709) {from = "read_addr", map = #map1, unsigned} : (memref<1xi32>) -> i32
              %713 = "memref.alloc"() {name = "_addr", operand_segment_sizes = dense<0> : vector<2xi32>, unsigned} : () -> memref<1xi32>
              %714 = "arith.constant"() {value = 0 : index} : () -> index
              "affine.store"(%712, %713) {map = #map1, to = "_addr", unsigned} : (i32, memref<1xi32>) -> ()
              %715 = "affine.load"(%713) {from = "_addr", map = #map1, unsigned} : (memref<1xi32>) -> i32
              %716 = "arith.constant"() {value = 1 : i32} : () -> i32
              %717 = "arith.addi"(%715, %716) : (i32, i32) -> i32
              %718 = "arith.constant"() {value = 8192 : i32} : () -> i32
              %719 = "arith.cmpi"(%717, %718) {predicate = 3 : i64} : (i32, i32) -> i1
              %720 = "affine.load"(%713) {from = "_addr", map = #map1, unsigned} : (memref<1xi32>) -> i32
              %721 = "affine.load"(%713) {from = "_addr", map = #map1, unsigned} : (memref<1xi32>) -> i32
              %722 = "arith.constant"() {value = 1 : i32} : () -> i32
              %723 = "arith.addi"(%721, %722) : (i32, i32) -> i32
              %724 = "memref.alloc"() {name = "assert_cond", operand_segment_sizes = dense<0> : vector<2xi32>, unsigned} : () -> memref<1xi1>
              %725 = "arith.constant"() {value = 0 : index} : () -> index
              "affine.store"(%719, %724) {map = #map1, to = "assert_cond", unsigned} : (i1, memref<1xi1>) -> ()
              %726 = "affine.load"(%724) {from = "assert_cond", map = #map1, moved, unsigned} : (memref<1xi1>) -> i1
              %727 = "arith.constant"() {moved, value = 0 : i32} : () -> i32
              %728 = "arith.extui"(%726) {moved} : (i1) -> i32
              %729 = "arith.cmpi"(%728, %727) {moved, predicate = 0 : i64} : (i32, i32) -> i1
              "scf.if"(%729) ({
                "hcl.print"(%720, %723) {format = "\0A\0AAssertion failed {operation.py:346,tensor.py:39,tensor.py:47,tensor.py:232,cetiles.py:136,cetiles.py:133,mem.py:113,mem.py:135,mem.py:106,hcl_ext.py:723}: inttdataouttop Mem.read exceeds memory size: addr=%d+size=%d > 8192\0A\0A", signedness = "u_"} : (i32, i32) -> ()
                "scf.while"() ({
                  %828 = "affine.load"(%724) {from = "assert_cond", map = #map1, moved, unsigned} : (memref<1xi1>) -> i1
                  %829 = "arith.extui"(%828) {moved} : (i1) -> i32
                  %830 = "arith.constant"() {moved, value = 0 : i32} : () -> i32
                  %831 = "arith.cmpi"(%829, %830) {moved, predicate = 0 : i64} : (i32, i32) -> i1
                  "scf.condition"(%831) : (i1) -> ()
                }, {
                  %828 = "arith.constant"() {value = 0 : index} : () -> index
                  %829 = "arith.constant"() {value = 0 : i32} : () -> i32
                  %830 = "arith.trunci"(%829) {unsigned} : (i32) -> i1
                  "affine.store"(%830, %724) {map = #map1, to = "assert_cond", unsigned} : (i1, memref<1xi1>) -> ()
                  "scf.yield"() : () -> ()
                }) : () -> ()
                "scf.yield"() : () -> ()
              }, {
              }) : (i1) -> ()
              %730 = "memref.alloc"() {name = "Mem.read_c", operand_segment_sizes = dense<0> : vector<2xi32>, unsigned} : () -> memref<1xi32>
              %731 = "hcl.create_op_handle"() {op_name = "Mem.read_c"} : () -> !hcl.OpHandle
              %732 = "hcl.create_loop_handle"(%731) {loop_name = "i"} : (!hcl.OpHandle) -> !hcl.LoopHandle
              %733 = "affine.load"(%709) {from = "read_addr", map = #map1, unsigned} : (memref<1xi32>) -> i32
              %734 = "arith.index_cast"(%733) : (i32) -> index
              %735 = "arith.addi"(%734, %1) : (index, index) -> index
              %736 = "memref.load"(%168, %735) {from = "inttdataouttop.alloc_c", unsigned} : (memref<8192xi32>, index) -> i32
              "affine.store"(%736, %730, %1) {map = #map0, to = "Mem.read_c"} : (i32, memref<1xi32>, index) -> ()
              %737 = "affine.load"(%730) {from = "Mem.read_c", map = #map1, unsigned} : (memref<1xi32>) -> i32
              %738 = "arith.constant"() {value = 2 : i32} : () -> i32
              %739 = "arith.index_cast"(%738) : (i32) -> index
              %740 = "arith.muli"(%739, %arg3) : (index, index) -> index
              %741 = "arith.addi"(%696, %740) : (index, index) -> index
              %742 = "memref.alloc"() {name = "write_addr", operand_segment_sizes = dense<0> : vector<2xi32>, unsigned} : () -> memref<1xi32>
              %743 = "arith.constant"() {value = 0 : index} : () -> index
              %744 = "arith.index_cast"(%741) {unsigned} : (index) -> i32
              "affine.store"(%744, %742) {map = #map1, to = "write_addr", unsigned} : (i32, memref<1xi32>) -> ()
              %745 = "affine.load"(%742) {from = "write_addr", map = #map1, unsigned} : (memref<1xi32>) -> i32
              %746 = "memref.alloc"() {name = "_addr", operand_segment_sizes = dense<0> : vector<2xi32>, unsigned} : () -> memref<1xi32>
              %747 = "arith.constant"() {value = 0 : index} : () -> index
              "affine.store"(%745, %746) {map = #map1, to = "_addr", unsigned} : (i32, memref<1xi32>) -> ()
              %748 = "affine.load"(%746) {from = "_addr", map = #map1, unsigned} : (memref<1xi32>) -> i32
              %749 = "arith.constant"() {value = 1 : i32} : () -> i32
              %750 = "arith.addi"(%748, %749) : (i32, i32) -> i32
              %751 = "arith.constant"() {value = 8192 : i32} : () -> i32
              %752 = "arith.cmpi"(%750, %751) {predicate = 3 : i64} : (i32, i32) -> i1
              %753 = "affine.load"(%746) {from = "_addr", map = #map1, unsigned} : (memref<1xi32>) -> i32
              %754 = "affine.load"(%746) {from = "_addr", map = #map1, unsigned} : (memref<1xi32>) -> i32
              %755 = "arith.constant"() {value = 1 : i32} : () -> i32
              %756 = "arith.addi"(%754, %755) : (i32, i32) -> i32
              %757 = "memref.alloc"() {name = "assert_cond", operand_segment_sizes = dense<0> : vector<2xi32>, unsigned} : () -> memref<1xi1>
              %758 = "arith.constant"() {value = 0 : index} : () -> index
              "affine.store"(%752, %757) {map = #map1, to = "assert_cond", unsigned} : (i1, memref<1xi1>) -> ()
              %759 = "affine.load"(%757) {from = "assert_cond", map = #map1, moved, unsigned} : (memref<1xi1>) -> i1
              %760 = "arith.constant"() {moved, value = 0 : i32} : () -> i32
              %761 = "arith.extui"(%759) {moved} : (i1) -> i32
              %762 = "arith.cmpi"(%761, %760) {moved, predicate = 0 : i64} : (i32, i32) -> i1
              "scf.if"(%762) ({
                "hcl.print"(%753, %756) {format = "\0A\0AAssertion failed {operation.py:346,tensor.py:39,tensor.py:47,tensor.py:232,cetiles.py:136,cetiles.py:133,mem.py:116,mem.py:142,mem.py:106,hcl_ext.py:723}: inttdatainbot Mem.write exceeds memory size: addr=%d+size=%d > 8192\0A\0A", signedness = "u_"} : (i32, i32) -> ()
                "scf.while"() ({
                  %828 = "affine.load"(%757) {from = "assert_cond", map = #map1, moved, unsigned} : (memref<1xi1>) -> i1
                  %829 = "arith.extui"(%828) {moved} : (i1) -> i32
                  %830 = "arith.constant"() {moved, value = 0 : i32} : () -> i32
                  %831 = "arith.cmpi"(%829, %830) {moved, predicate = 0 : i64} : (i32, i32) -> i1
                  "scf.condition"(%831) : (i1) -> ()
                }, {
                  %828 = "arith.constant"() {value = 0 : index} : () -> index
                  %829 = "arith.constant"() {value = 0 : i32} : () -> i32
                  %830 = "arith.trunci"(%829) {unsigned} : (i32) -> i1
                  "affine.store"(%830, %757) {map = #map1, to = "assert_cond", unsigned} : (i1, memref<1xi1>) -> ()
                  "scf.yield"() : () -> ()
                }) : () -> ()
                "scf.yield"() : () -> ()
              }, {
              }) : (i1) -> ()
              %763 = "affine.load"(%742) {from = "write_addr", map = #map1, unsigned} : (memref<1xi32>) -> i32
              %764 = "arith.index_cast"(%763) : (i32) -> index
              "memref.store"(%737, %167, %764) {to = "inttdatainbot.alloc_c", unsigned} : (i32, memref<8192xi32>, index) -> ()
              %765 = "arith.constant"() {value = 32 : i32} : () -> i32
              %766 = "arith.index_cast"(%765) : (i32) -> index
              %767 = "arith.addi"(%696, %766) : (index, index) -> index
              %768 = "arith.addi"(%767, %arg3) : (index, index) -> index
              %769 = "memref.alloc"() {name = "read_addr", operand_segment_sizes = dense<0> : vector<2xi32>, unsigned} : () -> memref<1xi32>
              %770 = "arith.constant"() {value = 0 : index} : () -> index
              %771 = "arith.index_cast"(%768) {unsigned} : (index) -> i32
              "affine.store"(%771, %769) {map = #map1, to = "read_addr", unsigned} : (i32, memref<1xi32>) -> ()
              %772 = "affine.load"(%769) {from = "read_addr", map = #map1, unsigned} : (memref<1xi32>) -> i32
              %773 = "memref.alloc"() {name = "_addr", operand_segment_sizes = dense<0> : vector<2xi32>, unsigned} : () -> memref<1xi32>
              %774 = "arith.constant"() {value = 0 : index} : () -> index
              "affine.store"(%772, %773) {map = #map1, to = "_addr", unsigned} : (i32, memref<1xi32>) -> ()
              %775 = "affine.load"(%773) {from = "_addr", map = #map1, unsigned} : (memref<1xi32>) -> i32
              %776 = "arith.constant"() {value = 1 : i32} : () -> i32
              %777 = "arith.addi"(%775, %776) : (i32, i32) -> i32
              %778 = "arith.constant"() {value = 8192 : i32} : () -> i32
              %779 = "arith.cmpi"(%777, %778) {predicate = 3 : i64} : (i32, i32) -> i1
              %780 = "affine.load"(%773) {from = "_addr", map = #map1, unsigned} : (memref<1xi32>) -> i32
              %781 = "affine.load"(%773) {from = "_addr", map = #map1, unsigned} : (memref<1xi32>) -> i32
              %782 = "arith.constant"() {value = 1 : i32} : () -> i32
              %783 = "arith.addi"(%781, %782) : (i32, i32) -> i32
              %784 = "memref.alloc"() {name = "assert_cond", operand_segment_sizes = dense<0> : vector<2xi32>, unsigned} : () -> memref<1xi1>
              %785 = "arith.constant"() {value = 0 : index} : () -> index
              "affine.store"(%779, %784) {map = #map1, to = "assert_cond", unsigned} : (i1, memref<1xi1>) -> ()
              %786 = "affine.load"(%784) {from = "assert_cond", map = #map1, moved, unsigned} : (memref<1xi1>) -> i1
              %787 = "arith.constant"() {moved, value = 0 : i32} : () -> i32
              %788 = "arith.extui"(%786) {moved} : (i1) -> i32
              %789 = "arith.cmpi"(%788, %787) {moved, predicate = 0 : i64} : (i32, i32) -> i1
              "scf.if"(%789) ({
                "hcl.print"(%780, %783) {format = "\0A\0AAssertion failed {operation.py:346,tensor.py:39,tensor.py:47,tensor.py:232,cetiles.py:136,cetiles.py:134,mem.py:113,mem.py:135,mem.py:106,hcl_ext.py:723}: inttdataoutbot Mem.read exceeds memory size: addr=%d+size=%d > 8192\0A\0A", signedness = "u_"} : (i32, i32) -> ()
                "scf.while"() ({
                  %828 = "affine.load"(%784) {from = "assert_cond", map = #map1, moved, unsigned} : (memref<1xi1>) -> i1
                  %829 = "arith.extui"(%828) {moved} : (i1) -> i32
                  %830 = "arith.constant"() {moved, value = 0 : i32} : () -> i32
                  %831 = "arith.cmpi"(%829, %830) {moved, predicate = 0 : i64} : (i32, i32) -> i1
                  "scf.condition"(%831) : (i1) -> ()
                }, {
                  %828 = "arith.constant"() {value = 0 : index} : () -> index
                  %829 = "arith.constant"() {value = 0 : i32} : () -> i32
                  %830 = "arith.trunci"(%829) {unsigned} : (i32) -> i1
                  "affine.store"(%830, %784) {map = #map1, to = "assert_cond", unsigned} : (i1, memref<1xi1>) -> ()
                  "scf.yield"() : () -> ()
                }) : () -> ()
                "scf.yield"() : () -> ()
              }, {
              }) : (i1) -> ()
              %790 = "memref.alloc"() {name = "Mem.read_c", operand_segment_sizes = dense<0> : vector<2xi32>, unsigned} : () -> memref<1xi32>
              %791 = "hcl.create_op_handle"() {op_name = "Mem.read_c"} : () -> !hcl.OpHandle
              %792 = "hcl.create_loop_handle"(%791) {loop_name = "i"} : (!hcl.OpHandle) -> !hcl.LoopHandle
              %793 = "affine.load"(%769) {from = "read_addr", map = #map1, unsigned} : (memref<1xi32>) -> i32
              %794 = "arith.index_cast"(%793) : (i32) -> index
              %795 = "arith.addi"(%794, %0) : (index, index) -> index
              %796 = "memref.load"(%169, %795) {from = "inttdataoutbot.alloc_c", unsigned} : (memref<8192xi32>, index) -> i32
              "affine.store"(%796, %790, %0) {map = #map0, to = "Mem.read_c"} : (i32, memref<1xi32>, index) -> ()
              %797 = "affine.load"(%790) {from = "Mem.read_c", map = #map1, unsigned} : (memref<1xi32>) -> i32
              %798 = "arith.constant"() {value = 2 : i32} : () -> i32
              %799 = "arith.index_cast"(%798) : (i32) -> index
              %800 = "arith.muli"(%799, %arg3) : (index, index) -> index
              %801 = "arith.addi"(%696, %800) : (index, index) -> index
              %802 = "arith.constant"() {value = 1 : i32} : () -> i32
              %803 = "arith.index_cast"(%802) : (i32) -> index
              %804 = "arith.addi"(%801, %803) : (index, index) -> index
              %805 = "memref.alloc"() {name = "write_addr", operand_segment_sizes = dense<0> : vector<2xi32>, unsigned} : () -> memref<1xi32>
              %806 = "arith.constant"() {value = 0 : index} : () -> index
              %807 = "arith.index_cast"(%804) {unsigned} : (index) -> i32
              "affine.store"(%807, %805) {map = #map1, to = "write_addr", unsigned} : (i32, memref<1xi32>) -> ()
              %808 = "affine.load"(%805) {from = "write_addr", map = #map1, unsigned} : (memref<1xi32>) -> i32
              %809 = "memref.alloc"() {name = "_addr", operand_segment_sizes = dense<0> : vector<2xi32>, unsigned} : () -> memref<1xi32>
              %810 = "arith.constant"() {value = 0 : index} : () -> index
              "affine.store"(%808, %809) {map = #map1, to = "_addr", unsigned} : (i32, memref<1xi32>) -> ()
              %811 = "affine.load"(%809) {from = "_addr", map = #map1, unsigned} : (memref<1xi32>) -> i32
              %812 = "arith.constant"() {value = 1 : i32} : () -> i32
              %813 = "arith.addi"(%811, %812) : (i32, i32) -> i32
              %814 = "arith.constant"() {value = 8192 : i32} : () -> i32
              %815 = "arith.cmpi"(%813, %814) {predicate = 3 : i64} : (i32, i32) -> i1
              %816 = "affine.load"(%809) {from = "_addr", map = #map1, unsigned} : (memref<1xi32>) -> i32
              %817 = "affine.load"(%809) {from = "_addr", map = #map1, unsigned} : (memref<1xi32>) -> i32
              %818 = "arith.constant"() {value = 1 : i32} : () -> i32
              %819 = "arith.addi"(%817, %818) : (i32, i32) -> i32
              %820 = "memref.alloc"() {name = "assert_cond", operand_segment_sizes = dense<0> : vector<2xi32>, unsigned} : () -> memref<1xi1>
              %821 = "arith.constant"() {value = 0 : index} : () -> index
              "affine.store"(%815, %820) {map = #map1, to = "assert_cond", unsigned} : (i1, memref<1xi1>) -> ()
              %822 = "affine.load"(%820) {from = "assert_cond", map = #map1, moved, unsigned} : (memref<1xi1>) -> i1
              %823 = "arith.constant"() {moved, value = 0 : i32} : () -> i32
              %824 = "arith.extui"(%822) {moved} : (i1) -> i32
              %825 = "arith.cmpi"(%824, %823) {moved, predicate = 0 : i64} : (i32, i32) -> i1
              "scf.if"(%825) ({
                "hcl.print"(%816, %819) {format = "\0A\0AAssertion failed {operation.py:346,tensor.py:39,tensor.py:47,tensor.py:232,cetiles.py:136,cetiles.py:134,mem.py:116,mem.py:142,mem.py:106,hcl_ext.py:723}: inttdatainbot Mem.write exceeds memory size: addr=%d+size=%d > 8192\0A\0A", signedness = "u_"} : (i32, i32) -> ()
                "scf.while"() ({
                  %828 = "affine.load"(%820) {from = "assert_cond", map = #map1, moved, unsigned} : (memref<1xi1>) -> i1
                  %829 = "arith.extui"(%828) {moved} : (i1) -> i32
                  %830 = "arith.constant"() {moved, value = 0 : i32} : () -> i32
                  %831 = "arith.cmpi"(%829, %830) {moved, predicate = 0 : i64} : (i32, i32) -> i1
                  "scf.condition"(%831) : (i1) -> ()
                }, {
                  %828 = "arith.constant"() {value = 0 : index} : () -> index
                  %829 = "arith.constant"() {value = 0 : i32} : () -> i32
                  %830 = "arith.trunci"(%829) {unsigned} : (i32) -> i1
                  "affine.store"(%830, %820) {map = #map1, to = "assert_cond", unsigned} : (i1, memref<1xi1>) -> ()
                  "scf.yield"() : () -> ()
                }) : () -> ()
                "scf.yield"() : () -> ()
              }, {
              }) : (i1) -> ()
              %826 = "affine.load"(%805) {from = "write_addr", map = #map1, unsigned} : (memref<1xi32>) -> i32
              %827 = "arith.index_cast"(%826) : (i32) -> index
              "memref.store"(%797, %167, %827) {to = "inttdatainbot.alloc_c", unsigned} : (i32, memref<8192xi32>, index) -> ()
              "affine.yield"() : () -> ()
            }) {loop_name = "j", lower_bound = #map1, op_name = "nttin_even_odd_brf", step = 1 : i32, upper_bound = #map11} : () -> ()
            %704 = "memref.alloc"() {name = "nttin_even_odd_brf", operand_segment_sizes = dense<0> : vector<2xi32>, unsigned} : () -> memref<1xi1>
            "affine.yield"() : () -> ()
          }) {loop_name = "i", lower_bound = #map1, op_name = "intt_out_swizzle", step = 1 : i32, upper_bound = #map13} : () -> ()
          %693 = "memref.alloc"() {name = "intt_out_swizzle", operand_segment_sizes = dense<0> : vector<2xi32>, unsigned} : () -> memref<1xi1>
          "scf.yield"() : () -> ()
        }, {
        }) : (i1) -> ()
        "scf.yield"() : () -> ()
      }) : (i1) -> ()
      %676 = "affine.load"(%265) {from = "sys_steps", map = #map1, unsigned} : (memref<1xi32>) -> i32
      %677 = "arith.constant"() {value = 1 : i32} : () -> i32
      %678 = "arith.addi"(%676, %677) : (i32, i32) -> i32
      %679 = "arith.constant"() {value = 0 : index} : () -> index
      "affine.store"(%678, %265) {map = #map1, to = "sys_steps", unsigned} : (i32, memref<1xi32>) -> ()
      %680 = "affine.load"(%265) {from = "sys_steps", map = #map1, unsigned} : (memref<1xi32>) -> i32
      %681 = "arith.constant"() {value = 100000 : i32} : () -> i32
      %682 = "arith.cmpi"(%680, %681) {predicate = 2 : i64} : (i32, i32) -> i1
      %683 = "affine.load"(%265) {from = "sys_steps", map = #map1, unsigned} : (memref<1xi32>) -> i32
      %684 = "memref.alloc"() {name = "assert_cond", operand_segment_sizes = dense<0> : vector<2xi32>, unsigned} : () -> memref<1xi1>
      %685 = "arith.constant"() {value = 0 : index} : () -> index
      "affine.store"(%682, %684) {map = #map1, to = "assert_cond", unsigned} : (i1, memref<1xi1>) -> ()
      %686 = "affine.load"(%684) {from = "assert_cond", map = #map1, moved, unsigned} : (memref<1xi1>) -> i1
      %687 = "arith.constant"() {moved, value = 0 : i32} : () -> i32
      %688 = "arith.extui"(%686) {moved} : (i1) -> i32
      %689 = "arith.cmpi"(%688, %687) {moved, predicate = 0 : i64} : (i32, i32) -> i1
      "scf.if"(%689) ({
        "hcl.print"(%683) {format = "\0A\0AAssertion failed {top.py:58,soc.py:132,soc.py:62,hcl_ext.py:401,schedule.py:168,schedule.py:156,schedule.py:66,soc.py:60,hcl_ext.py:862,hcl_ext.py:723}: Reached max step=%d ... aborting\0A\0A", signedness = "u"} : (i32) -> ()
        "scf.while"() ({
          %690 = "affine.load"(%684) {from = "assert_cond", map = #map1, moved, unsigned} : (memref<1xi1>) -> i1
          %691 = "arith.extui"(%690) {moved} : (i1) -> i32
          %692 = "arith.constant"() {moved, value = 0 : i32} : () -> i32
          %693 = "arith.cmpi"(%691, %692) {moved, predicate = 0 : i64} : (i32, i32) -> i1
          "scf.condition"(%693) : (i1) -> ()
        }, {
          %690 = "arith.constant"() {value = 0 : index} : () -> index
          %691 = "arith.constant"() {value = 0 : i32} : () -> i32
          %692 = "arith.trunci"(%691) {unsigned} : (i32) -> i1
          "affine.store"(%692, %684) {map = #map1, to = "assert_cond", unsigned} : (i1, memref<1xi1>) -> ()
          "scf.yield"() : () -> ()
        }) : () -> ()
        "scf.yield"() : () -> ()
      }, {
      }) : (i1) -> ()
      "scf.yield"() : () -> ()
    }) : () -> ()
    %452 = "affine.load"(%72) {from = "tele_inst_count", map = #map1, unsigned} : (memref<1xi32>) -> i32
    %453 = "affine.load"(%75) {from = "tele_stall_count", map = #map1, unsigned} : (memref<1xi32>) -> i32
    "hcl.print"(%452, %453) {format = "ce0.mf uC instructions=%d stalls=%d\0A", signedness = "uu"} : (i32, i32) -> ()
    %454 = "affine.load"(%134) {from = "tele_inst_count", map = #map1, unsigned} : (memref<1xi32>) -> i32
    %455 = "affine.load"(%137) {from = "tele_stall_count", map = #map1, unsigned} : (memref<1xi32>) -> i32
    "hcl.print"(%454, %455) {format = "ce0.cf uC instructions=%d stalls=%d\0A", signedness = "uu"} : (i32, i32) -> ()
    %456 = "affine.load"(%212) {from = "tele_inst_count", map = #map1, unsigned} : (memref<1xi32>) -> i32
    %457 = "affine.load"(%215) {from = "tele_stall_count", map = #map1, unsigned} : (memref<1xi32>) -> i32
    "hcl.print"(%456, %457) {format = "ce0.cetiles.Mtile uC instructions=%d stalls=%d\0A", signedness = "uu"} : (i32, i32) -> ()
    %458 = "affine.load"(%254) {from = "tele_inst_count", map = #map1, unsigned} : (memref<1xi32>) -> i32
    %459 = "affine.load"(%257) {from = "tele_stall_count", map = #map1, unsigned} : (memref<1xi32>) -> i32
    "hcl.print"(%458, %459) {format = "proc uC instructions=%d stalls=%d\0A", signedness = "uu"} : (i32, i32) -> ()
    %460 = "affine.load"(%265) {from = "sys_steps", map = #map1, unsigned} : (memref<1xi32>) -> i32
    "hcl.print"(%460) {format = "Total steps: %d\0A", signedness = "u"} : (i32) -> ()
    "func.return"() : () -> ()
  }) {bit, function_type = (memref<33554432xi32>, memref<10xi64>) -> (), itypes = "uu", otypes = "", sym_name = "top"} : () -> ()
}) : () -> ()

