#set0 = affine_set<(d0, d1) : (d0 - 1 >= 0, -d0 + 32 >= 0, d1 - 1 >= 0, -d1 + 32 >= 0)>
#set1 = affine_set<(d0, d1, d2, d3) : (d0 + d1 - 1 >= 0, -(d0 + d1) + 32 >= 0, d2 + d3 - 1 >= 0, -(d2 + d3) + 32 >= 0)>
#set2 = affine_set<(d0, d1) : (d0 - 1 >= 0, -d0 + 16 >= 0, d1 - 1 >= 0, -d1 + 16 >= 0)>
#set3 = affine_set<(d0, d1, d2, d3) : (d0 + d1 - 1 >= 0, -(d0 + d1) + 16 >= 0, d2 + d3 - 1 >= 0, -(d2 + d3) + 16 >= 0)>
#set4 = affine_set<(d0, d1) : (d0 - 1 >= 0, -d0 + 8 >= 0, d1 - 1 >= 0, -d1 + 8 >= 0)>
#set5 = affine_set<(d0, d1, d2, d3) : (d0 + d1 - 1 >= 0, -(d0 + d1) + 8 >= 0, d2 + d3 - 1 >= 0, -(d2 + d3) + 8 >= 0)>
module {
  func.func @top(%arg0: memref<1x6x32x32xi16>, %arg1: memref<16x6x3x3xi16>, %arg2: memref<16xf32>, %arg3: memref<16xf32>, %arg4: memref<16xf32>, %arg5: memref<16xf32>, %arg6: memref<16xf32>, %arg7: memref<16xf32>, %arg8: memref<16xf32>, %arg9: memref<16xf32>, %arg10: memref<16x1x3x3xi16>, %arg11: memref<16xf32>, %arg12: memref<16xf32>, %arg13: memref<16xf32>, %arg14: memref<16x1x3x3xi16>, %arg15: memref<16xf32>, %arg16: memref<16xf32>, %arg17: memref<16xf32>, %arg18: memref<16xf32>, %arg19: memref<16xf32>, %arg20: memref<16xf32>, %arg21: memref<16xf32>, %arg22: memref<16xf32>, %arg23: memref<16xf32>, %arg24: memref<16xf32>, %arg25: memref<16xf32>, %arg26: memref<16xf32>, %arg27: memref<16xf32>, %arg28: memref<16x1x3x3xi16>, %arg29: memref<16xf32>, %arg30: memref<16xf32>, %arg31: memref<16xf32>, %arg32: memref<16x1x3x3xi16>, %arg33: memref<16xf32>, %arg34: memref<16xf32>, %arg35: memref<16xf32>, %arg36: memref<16xf32>, %arg37: memref<16xf32>, %arg38: memref<16xf32>, %arg39: memref<16xf32>, %arg40: memref<16xf32>, %arg41: memref<16xf32>, %arg42: memref<16xf32>, %arg43: memref<16xf32>, %arg44: memref<16xf32>, %arg45: memref<16xf32>, %arg46: memref<16x1x3x3xi16>, %arg47: memref<16xf32>, %arg48: memref<16xf32>, %arg49: memref<16xf32>, %arg50: memref<16x1x3x3xi16>, %arg51: memref<16xf32>, %arg52: memref<16xf32>, %arg53: memref<16xf32>, %arg54: memref<16xf32>, %arg55: memref<16xf32>, %arg56: memref<16xf32>, %arg57: memref<16xf32>, %arg58: memref<32xf32>, %arg59: memref<32xf32>, %arg60: memref<32xf32>, %arg61: memref<32xf32>, %arg62: memref<32xf32>, %arg63: memref<32xf32>, %arg64: memref<32x1x3x3xi16>, %arg65: memref<32xf32>, %arg66: memref<32xf32>, %arg67: memref<32xf32>, %arg68: memref<32x2x3x3xi16>, %arg69: memref<32xf32>, %arg70: memref<32xf32>, %arg71: memref<32xf32>, %arg72: memref<32xf32>, %arg73: memref<32xf32>, %arg74: memref<32xf32>, %arg75: memref<32xf32>, %arg76: memref<32xf32>, %arg77: memref<32xf32>, %arg78: memref<32xf32>, %arg79: memref<32xf32>, %arg80: memref<32xf32>, %arg81: memref<32xf32>, %arg82: memref<32x2x3x3xi16>, %arg83: memref<32xf32>, %arg84: memref<32xf32>, %arg85: memref<32xf32>, %arg86: memref<32x2x3x3xi16>, %arg87: memref<32xf32>, %arg88: memref<32xf32>, %arg89: memref<32xf32>, %arg90: memref<32xf32>, %arg91: memref<32xf32>, %arg92: memref<32xf32>, %arg93: memref<32xf32>, %arg94: memref<32xf32>, %arg95: memref<32xf32>, %arg96: memref<32xf32>, %arg97: memref<32xf32>, %arg98: memref<32xf32>, %arg99: memref<32xf32>, %arg100: memref<32x2x3x3xi16>, %arg101: memref<32xf32>, %arg102: memref<32xf32>, %arg103: memref<32xf32>, %arg104: memref<32x2x3x3xi16>, %arg105: memref<32xf32>, %arg106: memref<32xf32>, %arg107: memref<32xf32>, %arg108: memref<32xf32>, %arg109: memref<32xf32>, %arg110: memref<32xf32>, %arg111: memref<32xf32>, %arg112: memref<64xf32>, %arg113: memref<64xf32>, %arg114: memref<64xf32>, %arg115: memref<64xf32>, %arg116: memref<64xf32>, %arg117: memref<64xf32>, %arg118: memref<64x2x3x3xi16>, %arg119: memref<64xf32>, %arg120: memref<64xf32>, %arg121: memref<64xf32>, %arg122: memref<64x4x3x3xi16>, %arg123: memref<64xf32>, %arg124: memref<64xf32>, %arg125: memref<64xf32>, %arg126: memref<64xf32>, %arg127: memref<64xf32>, %arg128: memref<64xf32>, %arg129: memref<64xf32>, %arg130: memref<64xf32>, %arg131: memref<64xf32>, %arg132: memref<64xf32>, %arg133: memref<64xf32>, %arg134: memref<64xf32>, %arg135: memref<64xf32>, %arg136: memref<64x4x3x3xi16>, %arg137: memref<64xf32>, %arg138: memref<64xf32>, %arg139: memref<64xf32>, %arg140: memref<64x4x3x3xi16>, %arg141: memref<64xf32>, %arg142: memref<64xf32>, %arg143: memref<64xf32>, %arg144: memref<64xf32>, %arg145: memref<64xf32>, %arg146: memref<64xf32>, %arg147: memref<64xf32>, %arg148: memref<64xf32>, %arg149: memref<64xf32>, %arg150: memref<64xf32>, %arg151: memref<64xf32>, %arg152: memref<64xf32>, %arg153: memref<64xf32>, %arg154: memref<64x4x3x3xi16>, %arg155: memref<64xf32>, %arg156: memref<64xf32>, %arg157: memref<64xf32>, %arg158: memref<64x4x3x3xi16>, %arg159: memref<64xf32>, %arg160: memref<64xf32>, %arg161: memref<64xf32>, %arg162: memref<64xf32>, %arg163: memref<64xf32>, %arg164: memref<64xf32>, %arg165: memref<64xf32>, %arg166: memref<10x64xf32>, %arg167: memref<10xf32>) -> memref<1x10xf32> attributes {bit, itypes = "uu________u___u_____________u___u_____________u___u_____________u___u_____________u___u_____________u___u_____________u___u_____________u___u_____________u___u_________", otypes = "_"} {
    %0 = memref.alloc() {name = "x_truncate", unsigned} : memref<1x6x32x32xi16>
    %1 = hcl.create_op_handle "x_truncate"
    %2 = hcl.create_loop_handle %1, "i0"
    %3 = hcl.create_loop_handle %1, "i1"
    %4 = hcl.create_loop_handle %1, "i2"
    %5 = hcl.create_loop_handle %1, "i3"
    affine.for %arg168 = 0 to 1 {
      affine.for %arg169 = 0 to 6 {
        affine.for %arg170 = 0 to 32 {
          affine.for %arg171 = 0 to 32 {
            %1581 = affine.load %arg0[%arg168, %arg169, %arg170, %arg171] {from = "input_image", unsigned} : memref<1x6x32x32xi16>
            affine.store %1581, %0[%arg168, %arg169, %arg170, %arg171] {to = "x_truncate"} : memref<1x6x32x32xi16>
          } {loop_name = "i3"}
        } {loop_name = "i2"}
      } {loop_name = "i1"}
    } {loop_name = "i0", op_name = "x_truncate"}
    %6 = memref.alloc() {name = "x_truncate1", unsigned} : memref<1x6x32x32xi16>
    %7 = hcl.create_op_handle "x_truncate1"
    %8 = hcl.create_loop_handle %7, "i0"
    %9 = hcl.create_loop_handle %7, "i1"
    %10 = hcl.create_loop_handle %7, "i2"
    %11 = hcl.create_loop_handle %7, "i3"
    affine.for %arg168 = 0 to 1 {
      affine.for %arg169 = 0 to 6 {
        affine.for %arg170 = 0 to 32 {
          affine.for %arg171 = 0 to 32 {
            %1581 = affine.load %arg0[%arg168, %arg169, %arg170, %arg171] {from = "input_image", unsigned} : memref<1x6x32x32xi16>
            affine.store %1581, %6[%arg168, %arg169, %arg170, %arg171] {to = "x_truncate1"} : memref<1x6x32x32xi16>
          } {loop_name = "i3"}
        } {loop_name = "i2"}
      } {loop_name = "i1"}
    } {loop_name = "i0", op_name = "x_truncate1"}
    %12 = memref.alloc() {name = "conv1_out_msb_pad", unsigned} : memref<1x6x34x34xi16>
    %13 = hcl.create_op_handle "conv1_out_msb_pad"
    %14 = hcl.create_loop_handle %13, "ii"
    %15 = hcl.create_loop_handle %13, "cc"
    %16 = hcl.create_loop_handle %13, "hh"
    %17 = hcl.create_loop_handle %13, "ww"
    affine.for %arg168 = 0 to 1 {
      affine.for %arg169 = 0 to 6 {
        affine.for %arg170 = 0 to 34 {
          affine.for %arg171 = 0 to 34 {
            %1581 = affine.if #set0(%arg171, %arg170) -> i16 {
              %1582 = affine.load %0[%arg168, %arg169, %arg170 - 1, %arg171 - 1] {from = "x_truncate", unsigned} : memref<1x6x32x32xi16>
              affine.yield %1582 : i16
            } else {
              %c0_i32 = arith.constant 0 : i32
              %1582 = arith.trunci %c0_i32 {unsigned} : i32 to i16
              affine.yield %1582 : i16
            } {unsigned}
            affine.store %1581, %12[%arg168, %arg169, %arg170, %arg171] {to = "conv1_out_msb_pad"} : memref<1x6x34x34xi16>
          } {loop_name = "ww"}
        } {loop_name = "hh"}
      } {loop_name = "cc"}
    } {loop_name = "ii", op_name = "conv1_out_msb_pad"}
    %18 = memref.alloc() {name = "conv1_out_msb"} : memref<1x16x32x32xi16>
    %19 = hcl.create_op_handle "conv1_out_msb"
    %20 = hcl.create_loop_handle %19, "nn"
    %21 = hcl.create_loop_handle %19, "ff"
    %22 = hcl.create_loop_handle %19, "yy"
    %23 = hcl.create_loop_handle %19, "xx"
    %24 = hcl.create_loop_handle %19, "conv1_out_msb_rc"
    %25 = hcl.create_loop_handle %19, "conv1_out_msb_rx"
    %26 = hcl.create_loop_handle %19, "conv1_out_msb_ry"
    affine.for %arg168 = 0 to 1 {
      affine.for %arg169 = 0 to 16 {
        affine.for %arg170 = 0 to 32 {
          affine.for %arg171 = 0 to 32 {
            %1581 = memref.alloc() {name = "sum_rv"} : memref<1xi16>
            %c0 = arith.constant 0 : index
            %c0_i16 = arith.constant 0 : i16
            affine.store %c0_i16, %1581[%c0] {to = "sum_rv"} : memref<1xi16>
            affine.for %arg172 = 0 to 6 {
              affine.for %arg173 = 0 to 3 {
                affine.for %arg174 = 0 to 3 {
                  %1583 = affine.if #set1(%arg171, %arg174, %arg170, %arg173) -> i16 {
                    %c16_i32 = arith.constant 16 : i32
                    %1586 = arith.extsi %c16_i32 : i32 to i128
                    %1587 = affine.load %12[%arg168, %arg172, %arg170 + %arg173, %arg171 + %arg174] {from = "conv1_out_msb_pad", unsigned} : memref<1x6x34x34xi16>
                    %1588 = affine.load %arg1[%arg169, %arg172, %arg173, %arg174] {from = "conv1_weight", unsigned} : memref<16x6x3x3xi16>
                    %1589 = arith.xori %1587, %1588 {unsigned} : i16
                    %c1_i32 = arith.constant 1 : i32
                    %1590 = arith.trunci %c1_i32 {unsigned} : i32 to i16
                    %1591 = arith.shrui %1589, %1590 {unsigned} : i16
                    %c6148914691236517205_i64 = arith.constant 6148914691236517205 : i64
                    %1592 = arith.trunci %c6148914691236517205_i64 {unsigned} : i64 to i16
                    %1593 = arith.andi %1591, %1592 {unsigned} : i16
                    %1594 = arith.subi %1589, %1593 {unsigned} : i16
                    %c3689348814741910323_i64 = arith.constant 3689348814741910323 : i64
                    %1595 = arith.trunci %c3689348814741910323_i64 {unsigned} : i64 to i16
                    %1596 = arith.andi %1594, %1595 {unsigned} : i16
                    %c2_i32 = arith.constant 2 : i32
                    %1597 = arith.trunci %c2_i32 {unsigned} : i32 to i16
                    %1598 = arith.shrui %1594, %1597 {unsigned} : i16
                    %c3689348814741910323_i64_1 = arith.constant 3689348814741910323 : i64
                    %1599 = arith.trunci %c3689348814741910323_i64_1 {unsigned} : i64 to i16
                    %1600 = arith.andi %1598, %1599 {unsigned} : i16
                    %1601 = arith.addi %1596, %1600 {unsigned} : i16
                    %c4_i32 = arith.constant 4 : i32
                    %1602 = arith.trunci %c4_i32 {unsigned} : i32 to i16
                    %1603 = arith.shrui %1601, %1602 {unsigned} : i16
                    %1604 = arith.addi %1601, %1603 {unsigned} : i16
                    %c1085102592571150095_i64 = arith.constant 1085102592571150095 : i64
                    %1605 = arith.trunci %c1085102592571150095_i64 {unsigned} : i64 to i16
                    %1606 = arith.andi %1604, %1605 {unsigned} : i16
                    %1607 = arith.extui %1606 : i16 to i64
                    %c72340172838076673_i64 = arith.constant 72340172838076673 : i64
                    %1608 = arith.muli %1607, %c72340172838076673_i64 : i64
                    %c56_i32 = arith.constant 56 : i32
                    %1609 = arith.extsi %c56_i32 : i32 to i64
                    %1610 = arith.shrui %1608, %1609 : i64
                    %1611 = arith.extsi %1610 : i64 to i128
                    %c1_i32_2 = arith.constant 1 : i32
                    %1612 = arith.extsi %c1_i32_2 : i32 to i64
                    %1613 = arith.extsi %1612 : i64 to i128
                    %1614 = arith.shli %1611, %1613 : i128
                    %1615 = arith.subi %1586, %1614 : i128
                    %1616 = arith.trunci %1615 : i128 to i16
                    affine.yield %1616 : i16
                  } else {
                    %c0_i32 = arith.constant 0 : i32
                    %1586 = arith.trunci %c0_i32 : i32 to i16
                    affine.yield %1586 : i16
                  }
                  %1584 = affine.load %1581[%c0] {from = "sum_rv"} : memref<1xi16>
                  %1585 = arith.addi %1583, %1584 : i16
                  affine.store %1585, %1581[%c0] {to = "sum_rv"} : memref<1xi16>
                } {loop_name = "conv1_out_msb_rx", reduction}
              } {loop_name = "conv1_out_msb_ry", reduction}
            } {loop_name = "conv1_out_msb_rc", reduction}
            %c0_0 = arith.constant 0 : index
            %1582 = affine.load %1581[%c0_0] {from = "sum_rv"} : memref<1xi16>
            affine.store %1582, %18[%arg168, %arg169, %arg170, %arg171] {to = "conv1_out_msb"} : memref<1x16x32x32xi16>
          } {loop_name = "xx"}
        } {loop_name = "yy"}
      } {loop_name = "ff"}
    } {loop_name = "nn", op_name = "conv1_out_msb"}
    %27 = memref.alloc() {name = "conv1_out_lsb_pad", unsigned} : memref<1x6x34x34xi16>
    %28 = hcl.create_op_handle "conv1_out_lsb_pad"
    %29 = hcl.create_loop_handle %28, "ii"
    %30 = hcl.create_loop_handle %28, "cc"
    %31 = hcl.create_loop_handle %28, "hh"
    %32 = hcl.create_loop_handle %28, "ww"
    affine.for %arg168 = 0 to 1 {
      affine.for %arg169 = 0 to 6 {
        affine.for %arg170 = 0 to 34 {
          affine.for %arg171 = 0 to 34 {
            %1581 = affine.if #set0(%arg171, %arg170) -> i16 {
              %1582 = affine.load %6[%arg168, %arg169, %arg170 - 1, %arg171 - 1] {from = "x_truncate1", unsigned} : memref<1x6x32x32xi16>
              affine.yield %1582 : i16
            } else {
              %c0_i32 = arith.constant 0 : i32
              %1582 = arith.trunci %c0_i32 {unsigned} : i32 to i16
              affine.yield %1582 : i16
            } {unsigned}
            affine.store %1581, %27[%arg168, %arg169, %arg170, %arg171] {to = "conv1_out_lsb_pad"} : memref<1x6x34x34xi16>
          } {loop_name = "ww"}
        } {loop_name = "hh"}
      } {loop_name = "cc"}
    } {loop_name = "ii", op_name = "conv1_out_lsb_pad"}
    %33 = memref.alloc() {name = "conv1_out_lsb"} : memref<1x16x32x32xi16>
    %34 = hcl.create_op_handle "conv1_out_lsb"
    %35 = hcl.create_loop_handle %34, "nn"
    %36 = hcl.create_loop_handle %34, "ff"
    %37 = hcl.create_loop_handle %34, "yy"
    %38 = hcl.create_loop_handle %34, "xx"
    %39 = hcl.create_loop_handle %34, "conv1_out_lsb_rc"
    %40 = hcl.create_loop_handle %34, "conv1_out_lsb_rx"
    %41 = hcl.create_loop_handle %34, "conv1_out_lsb_ry"
    affine.for %arg168 = 0 to 1 {
      affine.for %arg169 = 0 to 16 {
        affine.for %arg170 = 0 to 32 {
          affine.for %arg171 = 0 to 32 {
            %1581 = memref.alloc() {name = "sum_rv"} : memref<1xi16>
            %c0 = arith.constant 0 : index
            %c0_i16 = arith.constant 0 : i16
            affine.store %c0_i16, %1581[%c0] {to = "sum_rv"} : memref<1xi16>
            affine.for %arg172 = 0 to 6 {
              affine.for %arg173 = 0 to 3 {
                affine.for %arg174 = 0 to 3 {
                  %1583 = affine.if #set1(%arg171, %arg174, %arg170, %arg173) -> i16 {
                    %c16_i32 = arith.constant 16 : i32
                    %1586 = arith.extsi %c16_i32 : i32 to i128
                    %1587 = affine.load %27[%arg168, %arg172, %arg170 + %arg173, %arg171 + %arg174] {from = "conv1_out_lsb_pad", unsigned} : memref<1x6x34x34xi16>
                    %1588 = affine.load %arg1[%arg169, %arg172, %arg173, %arg174] {from = "conv1_weight", unsigned} : memref<16x6x3x3xi16>
                    %1589 = arith.xori %1587, %1588 {unsigned} : i16
                    %c1_i32 = arith.constant 1 : i32
                    %1590 = arith.trunci %c1_i32 {unsigned} : i32 to i16
                    %1591 = arith.shrui %1589, %1590 {unsigned} : i16
                    %c6148914691236517205_i64 = arith.constant 6148914691236517205 : i64
                    %1592 = arith.trunci %c6148914691236517205_i64 {unsigned} : i64 to i16
                    %1593 = arith.andi %1591, %1592 {unsigned} : i16
                    %1594 = arith.subi %1589, %1593 {unsigned} : i16
                    %c3689348814741910323_i64 = arith.constant 3689348814741910323 : i64
                    %1595 = arith.trunci %c3689348814741910323_i64 {unsigned} : i64 to i16
                    %1596 = arith.andi %1594, %1595 {unsigned} : i16
                    %c2_i32 = arith.constant 2 : i32
                    %1597 = arith.trunci %c2_i32 {unsigned} : i32 to i16
                    %1598 = arith.shrui %1594, %1597 {unsigned} : i16
                    %c3689348814741910323_i64_1 = arith.constant 3689348814741910323 : i64
                    %1599 = arith.trunci %c3689348814741910323_i64_1 {unsigned} : i64 to i16
                    %1600 = arith.andi %1598, %1599 {unsigned} : i16
                    %1601 = arith.addi %1596, %1600 {unsigned} : i16
                    %c4_i32 = arith.constant 4 : i32
                    %1602 = arith.trunci %c4_i32 {unsigned} : i32 to i16
                    %1603 = arith.shrui %1601, %1602 {unsigned} : i16
                    %1604 = arith.addi %1601, %1603 {unsigned} : i16
                    %c1085102592571150095_i64 = arith.constant 1085102592571150095 : i64
                    %1605 = arith.trunci %c1085102592571150095_i64 {unsigned} : i64 to i16
                    %1606 = arith.andi %1604, %1605 {unsigned} : i16
                    %1607 = arith.extui %1606 : i16 to i64
                    %c72340172838076673_i64 = arith.constant 72340172838076673 : i64
                    %1608 = arith.muli %1607, %c72340172838076673_i64 : i64
                    %c56_i32 = arith.constant 56 : i32
                    %1609 = arith.extsi %c56_i32 : i32 to i64
                    %1610 = arith.shrui %1608, %1609 : i64
                    %1611 = arith.extsi %1610 : i64 to i128
                    %c1_i32_2 = arith.constant 1 : i32
                    %1612 = arith.extsi %c1_i32_2 : i32 to i64
                    %1613 = arith.extsi %1612 : i64 to i128
                    %1614 = arith.shli %1611, %1613 : i128
                    %1615 = arith.subi %1586, %1614 : i128
                    %1616 = arith.trunci %1615 : i128 to i16
                    affine.yield %1616 : i16
                  } else {
                    %c0_i32 = arith.constant 0 : i32
                    %1586 = arith.trunci %c0_i32 : i32 to i16
                    affine.yield %1586 : i16
                  }
                  %1584 = affine.load %1581[%c0] {from = "sum_rv"} : memref<1xi16>
                  %1585 = arith.addi %1583, %1584 : i16
                  affine.store %1585, %1581[%c0] {to = "sum_rv"} : memref<1xi16>
                } {loop_name = "conv1_out_lsb_rx", reduction}
              } {loop_name = "conv1_out_lsb_ry", reduction}
            } {loop_name = "conv1_out_lsb_rc", reduction}
            %c0_0 = arith.constant 0 : index
            %1582 = affine.load %1581[%c0_0] {from = "sum_rv"} : memref<1xi16>
            affine.store %1582, %33[%arg168, %arg169, %arg170, %arg171] {to = "conv1_out_lsb"} : memref<1x16x32x32xi16>
          } {loop_name = "xx"}
        } {loop_name = "yy"}
      } {loop_name = "ff"}
    } {loop_name = "nn", op_name = "conv1_out_lsb"}
    %42 = memref.alloc() {name = "bn1"} : memref<1x16x32x32xf32>
    %43 = hcl.create_op_handle "bn1"
    %44 = hcl.create_loop_handle %43, "nn"
    %45 = hcl.create_loop_handle %43, "cc"
    %46 = hcl.create_loop_handle %43, "hh"
    %47 = hcl.create_loop_handle %43, "ww"
    affine.for %arg168 = 0 to 1 {
      affine.for %arg169 = 0 to 16 {
        affine.for %arg170 = 0 to 32 {
          affine.for %arg171 = 0 to 32 {
            %1581 = affine.load %18[%arg168, %arg169, %arg170, %arg171] {from = "conv1_out_msb"} : memref<1x16x32x32xi16>
            %1582 = arith.sitofp %1581 : i16 to f32
            %1583 = affine.load %arg2[%arg169] {from = "bn1_weight"} : memref<16xf32>
            %1584 = arith.mulf %1582, %1583 : f32
            %1585 = affine.load %arg3[%arg169] {from = "bn1_bias"} : memref<16xf32>
            %1586 = arith.addf %1584, %1585 : f32
            affine.store %1586, %42[%arg168, %arg169, %arg170, %arg171] {to = "bn1"} : memref<1x16x32x32xf32>
          } {loop_name = "ww"}
        } {loop_name = "hh"}
      } {loop_name = "cc"}
    } {loop_name = "nn", op_name = "bn1"}
    %48 = memref.alloc() {name = "layer1_0_rsign1", unsigned} : memref<1x16x32x32xi2>
    %49 = hcl.create_op_handle "layer1_0_rsign1"
    %50 = hcl.create_loop_handle %49, "nn"
    %51 = hcl.create_loop_handle %49, "cc"
    %52 = hcl.create_loop_handle %49, "hh"
    %53 = hcl.create_loop_handle %49, "ww"
    affine.for %arg168 = 0 to 1 {
      affine.for %arg169 = 0 to 16 {
        affine.for %arg170 = 0 to 32 {
          affine.for %arg171 = 0 to 32 {
            %1581 = affine.load %42[%arg168, %arg169, %arg170, %arg171] {from = "bn1", moved} : memref<1x16x32x32xf32>
            %cst = arith.constant {moved} 0.666666686 : f32
            %1582 = arith.cmpf ogt, %1581, %cst {moved} : f32
            %1583 = scf.if %1582 -> (i32) {
              %c3_i32 = arith.constant 3 : i32
              scf.yield %c3_i32 : i32
            } else {
              %c0_i32 = arith.constant {moved} 0 : i32
              %1585 = arith.sitofp %c0_i32 {moved} : i32 to f32
              %1586 = arith.cmpf oge, %1581, %1585 {moved} : f32
              %cst_0 = arith.constant {moved} 0.666666686 : f32
              %1587 = arith.cmpf ole, %1581, %cst_0 {moved} : f32
              %1588 = arith.andi %1586, %1587 {moved} : i1
              %1589 = scf.if %1588 -> (i32) {
                %c2_i32 = arith.constant 2 : i32
                scf.yield %c2_i32 : i32
              } else {
                %c0_i32_1 = arith.constant {moved} 0 : i32
                %1590 = arith.sitofp %c0_i32_1 {moved} : i32 to f32
                %1591 = arith.cmpf olt, %1581, %1590 {moved} : f32
                %cst_2 = arith.constant {moved} -0.666666686 : f32
                %1592 = arith.cmpf oge, %1581, %cst_2 {moved} : f32
                %1593 = arith.andi %1591, %1592 {moved} : i1
                %1594 = scf.if %1593 -> (i32) {
                  %c1_i32 = arith.constant 1 : i32
                  scf.yield %c1_i32 : i32
                } else {
                  %c0_i32_3 = arith.constant 0 : i32
                  scf.yield %c0_i32_3 : i32
                }
                scf.yield %1594 : i32
              }
              scf.yield %1589 : i32
            }
            %1584 = arith.trunci %1583 : i32 to i2
            affine.store %1584, %48[%arg168, %arg169, %arg170, %arg171] {to = "layer1_0_rsign1"} : memref<1x16x32x32xi2>
          } {loop_name = "ww"}
        } {loop_name = "hh"}
      } {loop_name = "cc"}
    } {loop_name = "nn", op_name = "layer1_0_rsign1"}
    %54 = memref.alloc() {name = "layer1_0_conv1_msb_truncate", unsigned} : memref<1x1x32x32xi16>
    %55 = hcl.create_op_handle "layer1_0_conv1_msb_truncate"
    %56 = hcl.create_loop_handle %55, "i"
    %57 = hcl.create_loop_handle %55, "c"
    %58 = hcl.create_loop_handle %55, "h"
    %59 = hcl.create_loop_handle %55, "w"
    affine.for %arg168 = 0 to 1 {
      affine.for %arg169 = 0 to 1 {
        affine.for %arg170 = 0 to 32 {
          affine.for %arg171 = 0 to 32 {
            %1581 = memref.alloc() {name = "layer1_0_conv1_msb_truncate_pack", unsigned} : memref<1xi16>
            %c0 = arith.constant 0 : index
            %c0_i16 = arith.constant {unsigned} 0 : i16
            affine.store %c0_i16, %1581[0] {to = "layer1_0_conv1_msb_truncate_pack", unsigned} : memref<1xi16>
            %1582 = hcl.create_op_handle "stage_0"
            %1583 = hcl.create_loop_handle %1582, "loop_0"
            affine.for %arg172 = 0 to 16 {
              %1585 = affine.load %48[%arg168, %arg169 * 16 + %arg172, %arg170, %arg171] {from = "layer1_0_rsign1", unsigned} : memref<1x16x32x32xi2>
              %c1 = arith.constant 1 : index
              %1586 = hcl.get_bit(%1585 : i2, %c1) -> i1
              %1587 = affine.load %1581[0] {from = "layer1_0_conv1_msb_truncate_pack", unsigned} : memref<1xi16>
              hcl.set_bit(%1587 : i16, %arg172, %1586 : i1)
              affine.store %1587, %1581[0] {to = "layer1_0_conv1_msb_truncate_pack", unsigned} : memref<1xi16>
            } {loop_name = "loop_0", op_name = "stage_0"}
            %1584 = affine.load %1581[0] {from = "layer1_0_conv1_msb_truncate_pack", unsigned} : memref<1xi16>
            affine.store %1584, %54[%arg168, %arg169, %arg170, %arg171] {to = "layer1_0_conv1_msb_truncate"} : memref<1x1x32x32xi16>
          } {loop_name = "w"}
        } {loop_name = "h"}
      } {loop_name = "c"}
    } {loop_name = "i", op_name = "layer1_0_conv1_msb_truncate"}
    %60 = memref.alloc() {name = "layer1_0_conv1_lsb_truncate", unsigned} : memref<1x1x32x32xi16>
    %61 = hcl.create_op_handle "layer1_0_conv1_lsb_truncate"
    %62 = hcl.create_loop_handle %61, "i"
    %63 = hcl.create_loop_handle %61, "c"
    %64 = hcl.create_loop_handle %61, "h"
    %65 = hcl.create_loop_handle %61, "w"
    affine.for %arg168 = 0 to 1 {
      affine.for %arg169 = 0 to 1 {
        affine.for %arg170 = 0 to 32 {
          affine.for %arg171 = 0 to 32 {
            %1581 = memref.alloc() {name = "layer1_0_conv1_lsb_truncate_pack", unsigned} : memref<1xi16>
            %c0 = arith.constant 0 : index
            %c0_i16 = arith.constant {unsigned} 0 : i16
            affine.store %c0_i16, %1581[0] {to = "layer1_0_conv1_lsb_truncate_pack", unsigned} : memref<1xi16>
            %1582 = hcl.create_op_handle "stage_1"
            %1583 = hcl.create_loop_handle %1582, "loop_1"
            affine.for %arg172 = 0 to 16 {
              %1585 = affine.load %48[%arg168, %arg169 * 16 + %arg172, %arg170, %arg171] {from = "layer1_0_rsign1", unsigned} : memref<1x16x32x32xi2>
              %c0_0 = arith.constant 0 : index
              %1586 = hcl.get_bit(%1585 : i2, %c0_0) -> i1
              %1587 = affine.load %1581[0] {from = "layer1_0_conv1_lsb_truncate_pack", unsigned} : memref<1xi16>
              hcl.set_bit(%1587 : i16, %arg172, %1586 : i1)
              affine.store %1587, %1581[0] {to = "layer1_0_conv1_lsb_truncate_pack", unsigned} : memref<1xi16>
            } {loop_name = "loop_1", op_name = "stage_1"}
            %1584 = affine.load %1581[0] {from = "layer1_0_conv1_lsb_truncate_pack", unsigned} : memref<1xi16>
            affine.store %1584, %60[%arg168, %arg169, %arg170, %arg171] {to = "layer1_0_conv1_lsb_truncate"} : memref<1x1x32x32xi16>
          } {loop_name = "w"}
        } {loop_name = "h"}
      } {loop_name = "c"}
    } {loop_name = "i", op_name = "layer1_0_conv1_lsb_truncate"}
    %66 = memref.alloc() {name = "layer1_0_conv1_out_msb_pad", unsigned} : memref<1x1x34x34xi16>
    %67 = hcl.create_op_handle "layer1_0_conv1_out_msb_pad"
    %68 = hcl.create_loop_handle %67, "ii"
    %69 = hcl.create_loop_handle %67, "cc"
    %70 = hcl.create_loop_handle %67, "hh"
    %71 = hcl.create_loop_handle %67, "ww"
    affine.for %arg168 = 0 to 1 {
      affine.for %arg169 = 0 to 1 {
        affine.for %arg170 = 0 to 34 {
          affine.for %arg171 = 0 to 34 {
            %1581 = affine.if #set0(%arg171, %arg170) -> i16 {
              %1582 = affine.load %54[%arg168, %arg169, %arg170 - 1, %arg171 - 1] {from = "layer1_0_conv1_msb_truncate", unsigned} : memref<1x1x32x32xi16>
              affine.yield %1582 : i16
            } else {
              %c0_i32 = arith.constant 0 : i32
              %1582 = arith.trunci %c0_i32 {unsigned} : i32 to i16
              affine.yield %1582 : i16
            } {unsigned}
            affine.store %1581, %66[%arg168, %arg169, %arg170, %arg171] {to = "layer1_0_conv1_out_msb_pad"} : memref<1x1x34x34xi16>
          } {loop_name = "ww"}
        } {loop_name = "hh"}
      } {loop_name = "cc"}
    } {loop_name = "ii", op_name = "layer1_0_conv1_out_msb_pad"}
    %72 = memref.alloc() {name = "layer1_0_conv1_out_msb"} : memref<1x16x32x32xi16>
    %73 = hcl.create_op_handle "layer1_0_conv1_out_msb"
    %74 = hcl.create_loop_handle %73, "nn"
    %75 = hcl.create_loop_handle %73, "ff"
    %76 = hcl.create_loop_handle %73, "yy"
    %77 = hcl.create_loop_handle %73, "xx"
    %78 = hcl.create_loop_handle %73, "layer1_0_conv1_out_msb_rc"
    %79 = hcl.create_loop_handle %73, "layer1_0_conv1_out_msb_rx"
    %80 = hcl.create_loop_handle %73, "layer1_0_conv1_out_msb_ry"
    affine.for %arg168 = 0 to 1 {
      affine.for %arg169 = 0 to 16 {
        affine.for %arg170 = 0 to 32 {
          affine.for %arg171 = 0 to 32 {
            %1581 = memref.alloc() {name = "sum_rv"} : memref<1xi16>
            %c0 = arith.constant 0 : index
            %c0_i16 = arith.constant 0 : i16
            affine.store %c0_i16, %1581[%c0] {to = "sum_rv"} : memref<1xi16>
            affine.for %arg172 = 0 to 1 {
              affine.for %arg173 = 0 to 3 {
                affine.for %arg174 = 0 to 3 {
                  %1583 = affine.if #set1(%arg171, %arg174, %arg170, %arg173) -> i16 {
                    %c16_i32 = arith.constant 16 : i32
                    %1586 = arith.extsi %c16_i32 : i32 to i128
                    %1587 = affine.load %66[%arg168, %arg172, %arg170 + %arg173, %arg171 + %arg174] {from = "layer1_0_conv1_out_msb_pad", unsigned} : memref<1x1x34x34xi16>
                    %1588 = affine.load %arg10[%arg169, %arg172, %arg173, %arg174] {from = "layer1_0_conv1_weight", unsigned} : memref<16x1x3x3xi16>
                    %1589 = arith.xori %1587, %1588 {unsigned} : i16
                    %c1_i32 = arith.constant 1 : i32
                    %1590 = arith.trunci %c1_i32 {unsigned} : i32 to i16
                    %1591 = arith.shrui %1589, %1590 {unsigned} : i16
                    %c6148914691236517205_i64 = arith.constant 6148914691236517205 : i64
                    %1592 = arith.trunci %c6148914691236517205_i64 {unsigned} : i64 to i16
                    %1593 = arith.andi %1591, %1592 {unsigned} : i16
                    %1594 = arith.subi %1589, %1593 {unsigned} : i16
                    %c3689348814741910323_i64 = arith.constant 3689348814741910323 : i64
                    %1595 = arith.trunci %c3689348814741910323_i64 {unsigned} : i64 to i16
                    %1596 = arith.andi %1594, %1595 {unsigned} : i16
                    %c2_i32 = arith.constant 2 : i32
                    %1597 = arith.trunci %c2_i32 {unsigned} : i32 to i16
                    %1598 = arith.shrui %1594, %1597 {unsigned} : i16
                    %c3689348814741910323_i64_1 = arith.constant 3689348814741910323 : i64
                    %1599 = arith.trunci %c3689348814741910323_i64_1 {unsigned} : i64 to i16
                    %1600 = arith.andi %1598, %1599 {unsigned} : i16
                    %1601 = arith.addi %1596, %1600 {unsigned} : i16
                    %c4_i32 = arith.constant 4 : i32
                    %1602 = arith.trunci %c4_i32 {unsigned} : i32 to i16
                    %1603 = arith.shrui %1601, %1602 {unsigned} : i16
                    %1604 = arith.addi %1601, %1603 {unsigned} : i16
                    %c1085102592571150095_i64 = arith.constant 1085102592571150095 : i64
                    %1605 = arith.trunci %c1085102592571150095_i64 {unsigned} : i64 to i16
                    %1606 = arith.andi %1604, %1605 {unsigned} : i16
                    %1607 = arith.extui %1606 : i16 to i64
                    %c72340172838076673_i64 = arith.constant 72340172838076673 : i64
                    %1608 = arith.muli %1607, %c72340172838076673_i64 : i64
                    %c56_i32 = arith.constant 56 : i32
                    %1609 = arith.extsi %c56_i32 : i32 to i64
                    %1610 = arith.shrui %1608, %1609 : i64
                    %1611 = arith.extsi %1610 : i64 to i128
                    %c1_i32_2 = arith.constant 1 : i32
                    %1612 = arith.extsi %c1_i32_2 : i32 to i64
                    %1613 = arith.extsi %1612 : i64 to i128
                    %1614 = arith.shli %1611, %1613 : i128
                    %1615 = arith.subi %1586, %1614 : i128
                    %1616 = arith.trunci %1615 : i128 to i16
                    affine.yield %1616 : i16
                  } else {
                    %c0_i32 = arith.constant 0 : i32
                    %1586 = arith.trunci %c0_i32 : i32 to i16
                    affine.yield %1586 : i16
                  }
                  %1584 = affine.load %1581[%c0] {from = "sum_rv"} : memref<1xi16>
                  %1585 = arith.addi %1583, %1584 : i16
                  affine.store %1585, %1581[%c0] {to = "sum_rv"} : memref<1xi16>
                } {loop_name = "layer1_0_conv1_out_msb_rx", reduction}
              } {loop_name = "layer1_0_conv1_out_msb_ry", reduction}
            } {loop_name = "layer1_0_conv1_out_msb_rc", reduction}
            %c0_0 = arith.constant 0 : index
            %1582 = affine.load %1581[%c0_0] {from = "sum_rv"} : memref<1xi16>
            affine.store %1582, %72[%arg168, %arg169, %arg170, %arg171] {to = "layer1_0_conv1_out_msb"} : memref<1x16x32x32xi16>
          } {loop_name = "xx"}
        } {loop_name = "yy"}
      } {loop_name = "ff"}
    } {loop_name = "nn", op_name = "layer1_0_conv1_out_msb"}
    %81 = memref.alloc() {name = "layer1_0_conv1_out_lsb_pad", unsigned} : memref<1x1x34x34xi16>
    %82 = hcl.create_op_handle "layer1_0_conv1_out_lsb_pad"
    %83 = hcl.create_loop_handle %82, "ii"
    %84 = hcl.create_loop_handle %82, "cc"
    %85 = hcl.create_loop_handle %82, "hh"
    %86 = hcl.create_loop_handle %82, "ww"
    affine.for %arg168 = 0 to 1 {
      affine.for %arg169 = 0 to 1 {
        affine.for %arg170 = 0 to 34 {
          affine.for %arg171 = 0 to 34 {
            %1581 = affine.if #set0(%arg171, %arg170) -> i16 {
              %1582 = affine.load %60[%arg168, %arg169, %arg170 - 1, %arg171 - 1] {from = "layer1_0_conv1_lsb_truncate", unsigned} : memref<1x1x32x32xi16>
              affine.yield %1582 : i16
            } else {
              %c0_i32 = arith.constant 0 : i32
              %1582 = arith.trunci %c0_i32 {unsigned} : i32 to i16
              affine.yield %1582 : i16
            } {unsigned}
            affine.store %1581, %81[%arg168, %arg169, %arg170, %arg171] {to = "layer1_0_conv1_out_lsb_pad"} : memref<1x1x34x34xi16>
          } {loop_name = "ww"}
        } {loop_name = "hh"}
      } {loop_name = "cc"}
    } {loop_name = "ii", op_name = "layer1_0_conv1_out_lsb_pad"}
    %87 = memref.alloc() {name = "layer1_0_conv1_out_lsb"} : memref<1x16x32x32xi16>
    %88 = hcl.create_op_handle "layer1_0_conv1_out_lsb"
    %89 = hcl.create_loop_handle %88, "nn"
    %90 = hcl.create_loop_handle %88, "ff"
    %91 = hcl.create_loop_handle %88, "yy"
    %92 = hcl.create_loop_handle %88, "xx"
    %93 = hcl.create_loop_handle %88, "layer1_0_conv1_out_lsb_rc"
    %94 = hcl.create_loop_handle %88, "layer1_0_conv1_out_lsb_rx"
    %95 = hcl.create_loop_handle %88, "layer1_0_conv1_out_lsb_ry"
    affine.for %arg168 = 0 to 1 {
      affine.for %arg169 = 0 to 16 {
        affine.for %arg170 = 0 to 32 {
          affine.for %arg171 = 0 to 32 {
            %1581 = memref.alloc() {name = "sum_rv"} : memref<1xi16>
            %c0 = arith.constant 0 : index
            %c0_i16 = arith.constant 0 : i16
            affine.store %c0_i16, %1581[%c0] {to = "sum_rv"} : memref<1xi16>
            affine.for %arg172 = 0 to 1 {
              affine.for %arg173 = 0 to 3 {
                affine.for %arg174 = 0 to 3 {
                  %1583 = affine.if #set1(%arg171, %arg174, %arg170, %arg173) -> i16 {
                    %c16_i32 = arith.constant 16 : i32
                    %1586 = arith.extsi %c16_i32 : i32 to i128
                    %1587 = affine.load %81[%arg168, %arg172, %arg170 + %arg173, %arg171 + %arg174] {from = "layer1_0_conv1_out_lsb_pad", unsigned} : memref<1x1x34x34xi16>
                    %1588 = affine.load %arg10[%arg169, %arg172, %arg173, %arg174] {from = "layer1_0_conv1_weight", unsigned} : memref<16x1x3x3xi16>
                    %1589 = arith.xori %1587, %1588 {unsigned} : i16
                    %c1_i32 = arith.constant 1 : i32
                    %1590 = arith.trunci %c1_i32 {unsigned} : i32 to i16
                    %1591 = arith.shrui %1589, %1590 {unsigned} : i16
                    %c6148914691236517205_i64 = arith.constant 6148914691236517205 : i64
                    %1592 = arith.trunci %c6148914691236517205_i64 {unsigned} : i64 to i16
                    %1593 = arith.andi %1591, %1592 {unsigned} : i16
                    %1594 = arith.subi %1589, %1593 {unsigned} : i16
                    %c3689348814741910323_i64 = arith.constant 3689348814741910323 : i64
                    %1595 = arith.trunci %c3689348814741910323_i64 {unsigned} : i64 to i16
                    %1596 = arith.andi %1594, %1595 {unsigned} : i16
                    %c2_i32 = arith.constant 2 : i32
                    %1597 = arith.trunci %c2_i32 {unsigned} : i32 to i16
                    %1598 = arith.shrui %1594, %1597 {unsigned} : i16
                    %c3689348814741910323_i64_1 = arith.constant 3689348814741910323 : i64
                    %1599 = arith.trunci %c3689348814741910323_i64_1 {unsigned} : i64 to i16
                    %1600 = arith.andi %1598, %1599 {unsigned} : i16
                    %1601 = arith.addi %1596, %1600 {unsigned} : i16
                    %c4_i32 = arith.constant 4 : i32
                    %1602 = arith.trunci %c4_i32 {unsigned} : i32 to i16
                    %1603 = arith.shrui %1601, %1602 {unsigned} : i16
                    %1604 = arith.addi %1601, %1603 {unsigned} : i16
                    %c1085102592571150095_i64 = arith.constant 1085102592571150095 : i64
                    %1605 = arith.trunci %c1085102592571150095_i64 {unsigned} : i64 to i16
                    %1606 = arith.andi %1604, %1605 {unsigned} : i16
                    %1607 = arith.extui %1606 : i16 to i64
                    %c72340172838076673_i64 = arith.constant 72340172838076673 : i64
                    %1608 = arith.muli %1607, %c72340172838076673_i64 : i64
                    %c56_i32 = arith.constant 56 : i32
                    %1609 = arith.extsi %c56_i32 : i32 to i64
                    %1610 = arith.shrui %1608, %1609 : i64
                    %1611 = arith.extsi %1610 : i64 to i128
                    %c1_i32_2 = arith.constant 1 : i32
                    %1612 = arith.extsi %c1_i32_2 : i32 to i64
                    %1613 = arith.extsi %1612 : i64 to i128
                    %1614 = arith.shli %1611, %1613 : i128
                    %1615 = arith.subi %1586, %1614 : i128
                    %1616 = arith.trunci %1615 : i128 to i16
                    affine.yield %1616 : i16
                  } else {
                    %c0_i32 = arith.constant 0 : i32
                    %1586 = arith.trunci %c0_i32 : i32 to i16
                    affine.yield %1586 : i16
                  }
                  %1584 = affine.load %1581[%c0] {from = "sum_rv"} : memref<1xi16>
                  %1585 = arith.addi %1583, %1584 : i16
                  affine.store %1585, %1581[%c0] {to = "sum_rv"} : memref<1xi16>
                } {loop_name = "layer1_0_conv1_out_lsb_rx", reduction}
              } {loop_name = "layer1_0_conv1_out_lsb_ry", reduction}
            } {loop_name = "layer1_0_conv1_out_lsb_rc", reduction}
            %c0_0 = arith.constant 0 : index
            %1582 = affine.load %1581[%c0_0] {from = "sum_rv"} : memref<1xi16>
            affine.store %1582, %87[%arg168, %arg169, %arg170, %arg171] {to = "layer1_0_conv1_out_lsb"} : memref<1x16x32x32xi16>
          } {loop_name = "xx"}
        } {loop_name = "yy"}
      } {loop_name = "ff"}
    } {loop_name = "nn", op_name = "layer1_0_conv1_out_lsb"}
    %96 = memref.alloc() {name = "layer1_0_conv1_pgconv"} : memref<1x16x32x32xf32>
    %97 = hcl.create_op_handle "layer1_0_conv1_pgconv"
    %98 = hcl.create_loop_handle %97, "nn"
    %99 = hcl.create_loop_handle %97, "cc"
    %100 = hcl.create_loop_handle %97, "hh"
    %101 = hcl.create_loop_handle %97, "ww"
    affine.for %arg168 = 0 to 1 {
      affine.for %arg169 = 0 to 16 {
        affine.for %arg170 = 0 to 32 {
          affine.for %arg171 = 0 to 32 {
            %1581 = affine.load %72[%arg168, %arg169, %arg170, %arg171] {from = "layer1_0_conv1_out_msb", moved} : memref<1x16x32x32xi16>
            %1582 = arith.sitofp %1581 {moved} : i16 to f32
            %cst = arith.constant {moved} 2.000000e+00 : f32
            %1583 = arith.mulf %1582, %cst {moved} : f32
            %cst_0 = arith.constant {moved} 3.000000e+00 : f32
            %1584 = arith.divf %1583, %cst_0 {moved} : f32
            %1585 = affine.load %arg11[%arg169] {from = "layer1_0_conv1_threshold", moved} : memref<16xf32>
            %1586 = arith.cmpf ogt, %1584, %1585 {moved} : f32
            %1587 = scf.if %1586 -> (f32) {
              %1588 = affine.load %87[%arg168, %arg169, %arg170, %arg171] {from = "layer1_0_conv1_out_lsb"} : memref<1x16x32x32xi16>
              %1589 = arith.sitofp %1588 : i16 to f32
              %cst_1 = arith.constant 3.000000e+00 : f32
              %1590 = arith.divf %1589, %cst_1 : f32
              %1591 = arith.addf %1590, %1584 : f32
              scf.yield %1591 : f32
            } else {
              scf.yield %1584 : f32
            }
            affine.store %1587, %96[%arg168, %arg169, %arg170, %arg171] {to = "layer1_0_conv1_pgconv"} : memref<1x16x32x32xf32>
          } {loop_name = "ww"}
        } {loop_name = "hh"}
      } {loop_name = "cc"}
    } {loop_name = "nn", op_name = "layer1_0_conv1_pgconv"}
    %102 = memref.alloc() {name = "layer1_0_bn1"} : memref<1x16x32x32xf32>
    %103 = hcl.create_op_handle "layer1_0_bn1"
    %104 = hcl.create_loop_handle %103, "nn"
    %105 = hcl.create_loop_handle %103, "cc"
    %106 = hcl.create_loop_handle %103, "hh"
    %107 = hcl.create_loop_handle %103, "ww"
    affine.for %arg168 = 0 to 1 {
      affine.for %arg169 = 0 to 16 {
        affine.for %arg170 = 0 to 32 {
          affine.for %arg171 = 0 to 32 {
            %1581 = affine.load %96[%arg168, %arg169, %arg170, %arg171] {from = "layer1_0_conv1_pgconv"} : memref<1x16x32x32xf32>
            %1582 = affine.load %arg12[%arg169] {from = "layer1_0_bn1_weight"} : memref<16xf32>
            %1583 = arith.mulf %1581, %1582 : f32
            %1584 = affine.load %arg13[%arg169] {from = "layer1_0_bn1_bias"} : memref<16xf32>
            %1585 = arith.addf %1583, %1584 : f32
            affine.store %1585, %102[%arg168, %arg169, %arg170, %arg171] {to = "layer1_0_bn1"} : memref<1x16x32x32xf32>
          } {loop_name = "ww"}
        } {loop_name = "hh"}
      } {loop_name = "cc"}
    } {loop_name = "nn", op_name = "layer1_0_bn1"}
    %108 = memref.alloc() {name = "layer1_0_rprelu1"} : memref<1x16x32x32xf32>
    %109 = hcl.create_op_handle "layer1_0_rprelu1"
    %110 = hcl.create_loop_handle %109, "nn"
    %111 = hcl.create_loop_handle %109, "cc"
    %112 = hcl.create_loop_handle %109, "hh"
    %113 = hcl.create_loop_handle %109, "ww"
    affine.for %arg168 = 0 to 1 {
      affine.for %arg169 = 0 to 16 {
        affine.for %arg170 = 0 to 32 {
          affine.for %arg171 = 0 to 32 {
            %1581 = affine.load %102[%arg168, %arg169, %arg170, %arg171] {from = "layer1_0_bn1", moved} : memref<1x16x32x32xf32>
            %1582 = affine.load %arg4[%arg169] {from = "layer1_0_rprelu1_shift_x_bias", moved} : memref<16xf32>
            %1583 = arith.addf %1581, %1582 {moved} : f32
            %c0_i32 = arith.constant {moved} 0 : i32
            %1584 = arith.sitofp %c0_i32 {moved} : i32 to f32
            %1585 = arith.cmpf ogt, %1583, %1584 {moved} : f32
            %1586 = scf.if %1585 -> (f32) {
              scf.yield %1583 : f32
            } else {
              %1589 = affine.load %arg6[%arg169] {from = "layer1_0_rprelu1_prelu_weight"} : memref<16xf32>
              %1590 = arith.mulf %1589, %1583 : f32
              scf.yield %1590 : f32
            }
            %1587 = affine.load %arg5[%arg169] {from = "layer1_0_rprelu1_shift_y_bias"} : memref<16xf32>
            %1588 = arith.addf %1586, %1587 : f32
            affine.store %1588, %108[%arg168, %arg169, %arg170, %arg171] {to = "layer1_0_rprelu1"} : memref<1x16x32x32xf32>
          } {loop_name = "ww"}
        } {loop_name = "hh"}
      } {loop_name = "cc"}
    } {loop_name = "nn", op_name = "layer1_0_rprelu1"}
    %114 = memref.alloc() {name = "layer1_0_residual1"} : memref<1x16x32x32xf32>
    %115 = hcl.create_op_handle "layer1_0_residual1"
    %116 = hcl.create_loop_handle %115, "nn"
    %117 = hcl.create_loop_handle %115, "cc"
    %118 = hcl.create_loop_handle %115, "hh"
    %119 = hcl.create_loop_handle %115, "ww"
    affine.for %arg168 = 0 to 1 {
      affine.for %arg169 = 0 to 16 {
        affine.for %arg170 = 0 to 32 {
          affine.for %arg171 = 0 to 32 {
            %1581 = affine.load %108[%arg168, %arg169, %arg170, %arg171] {from = "layer1_0_rprelu1"} : memref<1x16x32x32xf32>
            %1582 = affine.load %42[%arg168, %arg169, %arg170, %arg171] {from = "bn1"} : memref<1x16x32x32xf32>
            %1583 = arith.addf %1581, %1582 : f32
            affine.store %1583, %114[%arg168, %arg169, %arg170, %arg171] {to = "layer1_0_residual1"} : memref<1x16x32x32xf32>
          } {loop_name = "ww"}
        } {loop_name = "hh"}
      } {loop_name = "cc"}
    } {loop_name = "nn", op_name = "layer1_0_residual1"}
    %120 = memref.alloc() {name = "layer1_0_bn2"} : memref<1x16x32x32xf32>
    %121 = hcl.create_op_handle "layer1_0_bn2"
    %122 = hcl.create_loop_handle %121, "nn"
    %123 = hcl.create_loop_handle %121, "cc"
    %124 = hcl.create_loop_handle %121, "hh"
    %125 = hcl.create_loop_handle %121, "ww"
    affine.for %arg168 = 0 to 1 {
      affine.for %arg169 = 0 to 16 {
        affine.for %arg170 = 0 to 32 {
          affine.for %arg171 = 0 to 32 {
            %1581 = affine.load %114[%arg168, %arg169, %arg170, %arg171] {from = "layer1_0_residual1"} : memref<1x16x32x32xf32>
            %1582 = affine.load %arg18[%arg169] {from = "layer1_0_bn3_weight"} : memref<16xf32>
            %1583 = arith.mulf %1581, %1582 : f32
            %1584 = affine.load %arg19[%arg169] {from = "layer1_0_bn3_bias"} : memref<16xf32>
            %1585 = arith.addf %1583, %1584 : f32
            affine.store %1585, %120[%arg168, %arg169, %arg170, %arg171] {to = "layer1_0_bn2"} : memref<1x16x32x32xf32>
          } {loop_name = "ww"}
        } {loop_name = "hh"}
      } {loop_name = "cc"}
    } {loop_name = "nn", op_name = "layer1_0_bn2"}
    %126 = memref.alloc() {name = "layer1_0_rsign2", unsigned} : memref<1x16x32x32xi2>
    %127 = hcl.create_op_handle "layer1_0_rsign2"
    %128 = hcl.create_loop_handle %127, "nn"
    %129 = hcl.create_loop_handle %127, "cc"
    %130 = hcl.create_loop_handle %127, "hh"
    %131 = hcl.create_loop_handle %127, "ww"
    affine.for %arg168 = 0 to 1 {
      affine.for %arg169 = 0 to 16 {
        affine.for %arg170 = 0 to 32 {
          affine.for %arg171 = 0 to 32 {
            %1581 = affine.load %120[%arg168, %arg169, %arg170, %arg171] {from = "layer1_0_bn2", moved} : memref<1x16x32x32xf32>
            %cst = arith.constant {moved} 0.666666686 : f32
            %1582 = arith.cmpf ogt, %1581, %cst {moved} : f32
            %1583 = scf.if %1582 -> (i32) {
              %c3_i32 = arith.constant 3 : i32
              scf.yield %c3_i32 : i32
            } else {
              %c0_i32 = arith.constant {moved} 0 : i32
              %1585 = arith.sitofp %c0_i32 {moved} : i32 to f32
              %1586 = arith.cmpf oge, %1581, %1585 {moved} : f32
              %cst_0 = arith.constant {moved} 0.666666686 : f32
              %1587 = arith.cmpf ole, %1581, %cst_0 {moved} : f32
              %1588 = arith.andi %1586, %1587 {moved} : i1
              %1589 = scf.if %1588 -> (i32) {
                %c2_i32 = arith.constant 2 : i32
                scf.yield %c2_i32 : i32
              } else {
                %c0_i32_1 = arith.constant {moved} 0 : i32
                %1590 = arith.sitofp %c0_i32_1 {moved} : i32 to f32
                %1591 = arith.cmpf olt, %1581, %1590 {moved} : f32
                %cst_2 = arith.constant {moved} -0.666666686 : f32
                %1592 = arith.cmpf oge, %1581, %cst_2 {moved} : f32
                %1593 = arith.andi %1591, %1592 {moved} : i1
                %1594 = scf.if %1593 -> (i32) {
                  %c1_i32 = arith.constant 1 : i32
                  scf.yield %c1_i32 : i32
                } else {
                  %c0_i32_3 = arith.constant 0 : i32
                  scf.yield %c0_i32_3 : i32
                }
                scf.yield %1594 : i32
              }
              scf.yield %1589 : i32
            }
            %1584 = arith.trunci %1583 : i32 to i2
            affine.store %1584, %126[%arg168, %arg169, %arg170, %arg171] {to = "layer1_0_rsign2"} : memref<1x16x32x32xi2>
          } {loop_name = "ww"}
        } {loop_name = "hh"}
      } {loop_name = "cc"}
    } {loop_name = "nn", op_name = "layer1_0_rsign2"}
    %132 = memref.alloc() {name = "layer1_0_conv2_msb_truncate", unsigned} : memref<1x1x32x32xi16>
    %133 = hcl.create_op_handle "layer1_0_conv2_msb_truncate"
    %134 = hcl.create_loop_handle %133, "i"
    %135 = hcl.create_loop_handle %133, "c"
    %136 = hcl.create_loop_handle %133, "h"
    %137 = hcl.create_loop_handle %133, "w"
    affine.for %arg168 = 0 to 1 {
      affine.for %arg169 = 0 to 1 {
        affine.for %arg170 = 0 to 32 {
          affine.for %arg171 = 0 to 32 {
            %1581 = memref.alloc() {name = "layer1_0_conv2_msb_truncate_pack", unsigned} : memref<1xi16>
            %c0 = arith.constant 0 : index
            %c0_i16 = arith.constant {unsigned} 0 : i16
            affine.store %c0_i16, %1581[0] {to = "layer1_0_conv2_msb_truncate_pack", unsigned} : memref<1xi16>
            %1582 = hcl.create_op_handle "stage_2"
            %1583 = hcl.create_loop_handle %1582, "loop_2"
            affine.for %arg172 = 0 to 16 {
              %1585 = affine.load %126[%arg168, %arg169 * 16 + %arg172, %arg170, %arg171] {from = "layer1_0_rsign2", unsigned} : memref<1x16x32x32xi2>
              %c1 = arith.constant 1 : index
              %1586 = hcl.get_bit(%1585 : i2, %c1) -> i1
              %1587 = affine.load %1581[0] {from = "layer1_0_conv2_msb_truncate_pack", unsigned} : memref<1xi16>
              hcl.set_bit(%1587 : i16, %arg172, %1586 : i1)
              affine.store %1587, %1581[0] {to = "layer1_0_conv2_msb_truncate_pack", unsigned} : memref<1xi16>
            } {loop_name = "loop_2", op_name = "stage_2"}
            %1584 = affine.load %1581[0] {from = "layer1_0_conv2_msb_truncate_pack", unsigned} : memref<1xi16>
            affine.store %1584, %132[%arg168, %arg169, %arg170, %arg171] {to = "layer1_0_conv2_msb_truncate"} : memref<1x1x32x32xi16>
          } {loop_name = "w"}
        } {loop_name = "h"}
      } {loop_name = "c"}
    } {loop_name = "i", op_name = "layer1_0_conv2_msb_truncate"}
    %138 = memref.alloc() {name = "layer1_0_conv2_lsb_truncate", unsigned} : memref<1x1x32x32xi16>
    %139 = hcl.create_op_handle "layer1_0_conv2_lsb_truncate"
    %140 = hcl.create_loop_handle %139, "i"
    %141 = hcl.create_loop_handle %139, "c"
    %142 = hcl.create_loop_handle %139, "h"
    %143 = hcl.create_loop_handle %139, "w"
    affine.for %arg168 = 0 to 1 {
      affine.for %arg169 = 0 to 1 {
        affine.for %arg170 = 0 to 32 {
          affine.for %arg171 = 0 to 32 {
            %1581 = memref.alloc() {name = "layer1_0_conv2_lsb_truncate_pack", unsigned} : memref<1xi16>
            %c0 = arith.constant 0 : index
            %c0_i16 = arith.constant {unsigned} 0 : i16
            affine.store %c0_i16, %1581[0] {to = "layer1_0_conv2_lsb_truncate_pack", unsigned} : memref<1xi16>
            %1582 = hcl.create_op_handle "stage_3"
            %1583 = hcl.create_loop_handle %1582, "loop_3"
            affine.for %arg172 = 0 to 16 {
              %1585 = affine.load %126[%arg168, %arg169 * 16 + %arg172, %arg170, %arg171] {from = "layer1_0_rsign2", unsigned} : memref<1x16x32x32xi2>
              %c0_0 = arith.constant 0 : index
              %1586 = hcl.get_bit(%1585 : i2, %c0_0) -> i1
              %1587 = affine.load %1581[0] {from = "layer1_0_conv2_lsb_truncate_pack", unsigned} : memref<1xi16>
              hcl.set_bit(%1587 : i16, %arg172, %1586 : i1)
              affine.store %1587, %1581[0] {to = "layer1_0_conv2_lsb_truncate_pack", unsigned} : memref<1xi16>
            } {loop_name = "loop_3", op_name = "stage_3"}
            %1584 = affine.load %1581[0] {from = "layer1_0_conv2_lsb_truncate_pack", unsigned} : memref<1xi16>
            affine.store %1584, %138[%arg168, %arg169, %arg170, %arg171] {to = "layer1_0_conv2_lsb_truncate"} : memref<1x1x32x32xi16>
          } {loop_name = "w"}
        } {loop_name = "h"}
      } {loop_name = "c"}
    } {loop_name = "i", op_name = "layer1_0_conv2_lsb_truncate"}
    %144 = memref.alloc() {name = "layer1_0_conv2_out_msb_pad", unsigned} : memref<1x1x34x34xi16>
    %145 = hcl.create_op_handle "layer1_0_conv2_out_msb_pad"
    %146 = hcl.create_loop_handle %145, "ii"
    %147 = hcl.create_loop_handle %145, "cc"
    %148 = hcl.create_loop_handle %145, "hh"
    %149 = hcl.create_loop_handle %145, "ww"
    affine.for %arg168 = 0 to 1 {
      affine.for %arg169 = 0 to 1 {
        affine.for %arg170 = 0 to 34 {
          affine.for %arg171 = 0 to 34 {
            %1581 = affine.if #set0(%arg171, %arg170) -> i16 {
              %1582 = affine.load %132[%arg168, %arg169, %arg170 - 1, %arg171 - 1] {from = "layer1_0_conv2_msb_truncate", unsigned} : memref<1x1x32x32xi16>
              affine.yield %1582 : i16
            } else {
              %c0_i32 = arith.constant 0 : i32
              %1582 = arith.trunci %c0_i32 {unsigned} : i32 to i16
              affine.yield %1582 : i16
            } {unsigned}
            affine.store %1581, %144[%arg168, %arg169, %arg170, %arg171] {to = "layer1_0_conv2_out_msb_pad"} : memref<1x1x34x34xi16>
          } {loop_name = "ww"}
        } {loop_name = "hh"}
      } {loop_name = "cc"}
    } {loop_name = "ii", op_name = "layer1_0_conv2_out_msb_pad"}
    %150 = memref.alloc() {name = "layer1_0_conv2_out_msb"} : memref<1x16x32x32xi16>
    %151 = hcl.create_op_handle "layer1_0_conv2_out_msb"
    %152 = hcl.create_loop_handle %151, "nn"
    %153 = hcl.create_loop_handle %151, "ff"
    %154 = hcl.create_loop_handle %151, "yy"
    %155 = hcl.create_loop_handle %151, "xx"
    %156 = hcl.create_loop_handle %151, "layer1_0_conv2_out_msb_rc"
    %157 = hcl.create_loop_handle %151, "layer1_0_conv2_out_msb_rx"
    %158 = hcl.create_loop_handle %151, "layer1_0_conv2_out_msb_ry"
    affine.for %arg168 = 0 to 1 {
      affine.for %arg169 = 0 to 16 {
        affine.for %arg170 = 0 to 32 {
          affine.for %arg171 = 0 to 32 {
            %1581 = memref.alloc() {name = "sum_rv"} : memref<1xi16>
            %c0 = arith.constant 0 : index
            %c0_i16 = arith.constant 0 : i16
            affine.store %c0_i16, %1581[%c0] {to = "sum_rv"} : memref<1xi16>
            affine.for %arg172 = 0 to 1 {
              affine.for %arg173 = 0 to 3 {
                affine.for %arg174 = 0 to 3 {
                  %1583 = affine.if #set1(%arg171, %arg174, %arg170, %arg173) -> i16 {
                    %c16_i32 = arith.constant 16 : i32
                    %1586 = arith.extsi %c16_i32 : i32 to i128
                    %1587 = affine.load %144[%arg168, %arg172, %arg170 + %arg173, %arg171 + %arg174] {from = "layer1_0_conv2_out_msb_pad", unsigned} : memref<1x1x34x34xi16>
                    %1588 = affine.load %arg14[%arg169, %arg172, %arg173, %arg174] {from = "layer1_0_conv2_weight", unsigned} : memref<16x1x3x3xi16>
                    %1589 = arith.xori %1587, %1588 {unsigned} : i16
                    %c1_i32 = arith.constant 1 : i32
                    %1590 = arith.trunci %c1_i32 {unsigned} : i32 to i16
                    %1591 = arith.shrui %1589, %1590 {unsigned} : i16
                    %c6148914691236517205_i64 = arith.constant 6148914691236517205 : i64
                    %1592 = arith.trunci %c6148914691236517205_i64 {unsigned} : i64 to i16
                    %1593 = arith.andi %1591, %1592 {unsigned} : i16
                    %1594 = arith.subi %1589, %1593 {unsigned} : i16
                    %c3689348814741910323_i64 = arith.constant 3689348814741910323 : i64
                    %1595 = arith.trunci %c3689348814741910323_i64 {unsigned} : i64 to i16
                    %1596 = arith.andi %1594, %1595 {unsigned} : i16
                    %c2_i32 = arith.constant 2 : i32
                    %1597 = arith.trunci %c2_i32 {unsigned} : i32 to i16
                    %1598 = arith.shrui %1594, %1597 {unsigned} : i16
                    %c3689348814741910323_i64_1 = arith.constant 3689348814741910323 : i64
                    %1599 = arith.trunci %c3689348814741910323_i64_1 {unsigned} : i64 to i16
                    %1600 = arith.andi %1598, %1599 {unsigned} : i16
                    %1601 = arith.addi %1596, %1600 {unsigned} : i16
                    %c4_i32 = arith.constant 4 : i32
                    %1602 = arith.trunci %c4_i32 {unsigned} : i32 to i16
                    %1603 = arith.shrui %1601, %1602 {unsigned} : i16
                    %1604 = arith.addi %1601, %1603 {unsigned} : i16
                    %c1085102592571150095_i64 = arith.constant 1085102592571150095 : i64
                    %1605 = arith.trunci %c1085102592571150095_i64 {unsigned} : i64 to i16
                    %1606 = arith.andi %1604, %1605 {unsigned} : i16
                    %1607 = arith.extui %1606 : i16 to i64
                    %c72340172838076673_i64 = arith.constant 72340172838076673 : i64
                    %1608 = arith.muli %1607, %c72340172838076673_i64 : i64
                    %c56_i32 = arith.constant 56 : i32
                    %1609 = arith.extsi %c56_i32 : i32 to i64
                    %1610 = arith.shrui %1608, %1609 : i64
                    %1611 = arith.extsi %1610 : i64 to i128
                    %c1_i32_2 = arith.constant 1 : i32
                    %1612 = arith.extsi %c1_i32_2 : i32 to i64
                    %1613 = arith.extsi %1612 : i64 to i128
                    %1614 = arith.shli %1611, %1613 : i128
                    %1615 = arith.subi %1586, %1614 : i128
                    %1616 = arith.trunci %1615 : i128 to i16
                    affine.yield %1616 : i16
                  } else {
                    %c0_i32 = arith.constant 0 : i32
                    %1586 = arith.trunci %c0_i32 : i32 to i16
                    affine.yield %1586 : i16
                  }
                  %1584 = affine.load %1581[%c0] {from = "sum_rv"} : memref<1xi16>
                  %1585 = arith.addi %1583, %1584 : i16
                  affine.store %1585, %1581[%c0] {to = "sum_rv"} : memref<1xi16>
                } {loop_name = "layer1_0_conv2_out_msb_rx", reduction}
              } {loop_name = "layer1_0_conv2_out_msb_ry", reduction}
            } {loop_name = "layer1_0_conv2_out_msb_rc", reduction}
            %c0_0 = arith.constant 0 : index
            %1582 = affine.load %1581[%c0_0] {from = "sum_rv"} : memref<1xi16>
            affine.store %1582, %150[%arg168, %arg169, %arg170, %arg171] {to = "layer1_0_conv2_out_msb"} : memref<1x16x32x32xi16>
          } {loop_name = "xx"}
        } {loop_name = "yy"}
      } {loop_name = "ff"}
    } {loop_name = "nn", op_name = "layer1_0_conv2_out_msb"}
    %159 = memref.alloc() {name = "layer1_0_conv2_out_lsb_pad", unsigned} : memref<1x1x34x34xi16>
    %160 = hcl.create_op_handle "layer1_0_conv2_out_lsb_pad"
    %161 = hcl.create_loop_handle %160, "ii"
    %162 = hcl.create_loop_handle %160, "cc"
    %163 = hcl.create_loop_handle %160, "hh"
    %164 = hcl.create_loop_handle %160, "ww"
    affine.for %arg168 = 0 to 1 {
      affine.for %arg169 = 0 to 1 {
        affine.for %arg170 = 0 to 34 {
          affine.for %arg171 = 0 to 34 {
            %1581 = affine.if #set0(%arg171, %arg170) -> i16 {
              %1582 = affine.load %138[%arg168, %arg169, %arg170 - 1, %arg171 - 1] {from = "layer1_0_conv2_lsb_truncate", unsigned} : memref<1x1x32x32xi16>
              affine.yield %1582 : i16
            } else {
              %c0_i32 = arith.constant 0 : i32
              %1582 = arith.trunci %c0_i32 {unsigned} : i32 to i16
              affine.yield %1582 : i16
            } {unsigned}
            affine.store %1581, %159[%arg168, %arg169, %arg170, %arg171] {to = "layer1_0_conv2_out_lsb_pad"} : memref<1x1x34x34xi16>
          } {loop_name = "ww"}
        } {loop_name = "hh"}
      } {loop_name = "cc"}
    } {loop_name = "ii", op_name = "layer1_0_conv2_out_lsb_pad"}
    %165 = memref.alloc() {name = "layer1_0_conv2_out_lsb"} : memref<1x16x32x32xi16>
    %166 = hcl.create_op_handle "layer1_0_conv2_out_lsb"
    %167 = hcl.create_loop_handle %166, "nn"
    %168 = hcl.create_loop_handle %166, "ff"
    %169 = hcl.create_loop_handle %166, "yy"
    %170 = hcl.create_loop_handle %166, "xx"
    %171 = hcl.create_loop_handle %166, "layer1_0_conv2_out_lsb_rc"
    %172 = hcl.create_loop_handle %166, "layer1_0_conv2_out_lsb_rx"
    %173 = hcl.create_loop_handle %166, "layer1_0_conv2_out_lsb_ry"
    affine.for %arg168 = 0 to 1 {
      affine.for %arg169 = 0 to 16 {
        affine.for %arg170 = 0 to 32 {
          affine.for %arg171 = 0 to 32 {
            %1581 = memref.alloc() {name = "sum_rv"} : memref<1xi16>
            %c0 = arith.constant 0 : index
            %c0_i16 = arith.constant 0 : i16
            affine.store %c0_i16, %1581[%c0] {to = "sum_rv"} : memref<1xi16>
            affine.for %arg172 = 0 to 1 {
              affine.for %arg173 = 0 to 3 {
                affine.for %arg174 = 0 to 3 {
                  %1583 = affine.if #set1(%arg171, %arg174, %arg170, %arg173) -> i16 {
                    %c16_i32 = arith.constant 16 : i32
                    %1586 = arith.extsi %c16_i32 : i32 to i128
                    %1587 = affine.load %159[%arg168, %arg172, %arg170 + %arg173, %arg171 + %arg174] {from = "layer1_0_conv2_out_lsb_pad", unsigned} : memref<1x1x34x34xi16>
                    %1588 = affine.load %arg14[%arg169, %arg172, %arg173, %arg174] {from = "layer1_0_conv2_weight", unsigned} : memref<16x1x3x3xi16>
                    %1589 = arith.xori %1587, %1588 {unsigned} : i16
                    %c1_i32 = arith.constant 1 : i32
                    %1590 = arith.trunci %c1_i32 {unsigned} : i32 to i16
                    %1591 = arith.shrui %1589, %1590 {unsigned} : i16
                    %c6148914691236517205_i64 = arith.constant 6148914691236517205 : i64
                    %1592 = arith.trunci %c6148914691236517205_i64 {unsigned} : i64 to i16
                    %1593 = arith.andi %1591, %1592 {unsigned} : i16
                    %1594 = arith.subi %1589, %1593 {unsigned} : i16
                    %c3689348814741910323_i64 = arith.constant 3689348814741910323 : i64
                    %1595 = arith.trunci %c3689348814741910323_i64 {unsigned} : i64 to i16
                    %1596 = arith.andi %1594, %1595 {unsigned} : i16
                    %c2_i32 = arith.constant 2 : i32
                    %1597 = arith.trunci %c2_i32 {unsigned} : i32 to i16
                    %1598 = arith.shrui %1594, %1597 {unsigned} : i16
                    %c3689348814741910323_i64_1 = arith.constant 3689348814741910323 : i64
                    %1599 = arith.trunci %c3689348814741910323_i64_1 {unsigned} : i64 to i16
                    %1600 = arith.andi %1598, %1599 {unsigned} : i16
                    %1601 = arith.addi %1596, %1600 {unsigned} : i16
                    %c4_i32 = arith.constant 4 : i32
                    %1602 = arith.trunci %c4_i32 {unsigned} : i32 to i16
                    %1603 = arith.shrui %1601, %1602 {unsigned} : i16
                    %1604 = arith.addi %1601, %1603 {unsigned} : i16
                    %c1085102592571150095_i64 = arith.constant 1085102592571150095 : i64
                    %1605 = arith.trunci %c1085102592571150095_i64 {unsigned} : i64 to i16
                    %1606 = arith.andi %1604, %1605 {unsigned} : i16
                    %1607 = arith.extui %1606 : i16 to i64
                    %c72340172838076673_i64 = arith.constant 72340172838076673 : i64
                    %1608 = arith.muli %1607, %c72340172838076673_i64 : i64
                    %c56_i32 = arith.constant 56 : i32
                    %1609 = arith.extsi %c56_i32 : i32 to i64
                    %1610 = arith.shrui %1608, %1609 : i64
                    %1611 = arith.extsi %1610 : i64 to i128
                    %c1_i32_2 = arith.constant 1 : i32
                    %1612 = arith.extsi %c1_i32_2 : i32 to i64
                    %1613 = arith.extsi %1612 : i64 to i128
                    %1614 = arith.shli %1611, %1613 : i128
                    %1615 = arith.subi %1586, %1614 : i128
                    %1616 = arith.trunci %1615 : i128 to i16
                    affine.yield %1616 : i16
                  } else {
                    %c0_i32 = arith.constant 0 : i32
                    %1586 = arith.trunci %c0_i32 : i32 to i16
                    affine.yield %1586 : i16
                  }
                  %1584 = affine.load %1581[%c0] {from = "sum_rv"} : memref<1xi16>
                  %1585 = arith.addi %1583, %1584 : i16
                  affine.store %1585, %1581[%c0] {to = "sum_rv"} : memref<1xi16>
                } {loop_name = "layer1_0_conv2_out_lsb_rx", reduction}
              } {loop_name = "layer1_0_conv2_out_lsb_ry", reduction}
            } {loop_name = "layer1_0_conv2_out_lsb_rc", reduction}
            %c0_0 = arith.constant 0 : index
            %1582 = affine.load %1581[%c0_0] {from = "sum_rv"} : memref<1xi16>
            affine.store %1582, %165[%arg168, %arg169, %arg170, %arg171] {to = "layer1_0_conv2_out_lsb"} : memref<1x16x32x32xi16>
          } {loop_name = "xx"}
        } {loop_name = "yy"}
      } {loop_name = "ff"}
    } {loop_name = "nn", op_name = "layer1_0_conv2_out_lsb"}
    %174 = memref.alloc() {name = "layer1_0_conv2_pgconv"} : memref<1x16x32x32xf32>
    %175 = hcl.create_op_handle "layer1_0_conv2_pgconv"
    %176 = hcl.create_loop_handle %175, "nn"
    %177 = hcl.create_loop_handle %175, "cc"
    %178 = hcl.create_loop_handle %175, "hh"
    %179 = hcl.create_loop_handle %175, "ww"
    affine.for %arg168 = 0 to 1 {
      affine.for %arg169 = 0 to 16 {
        affine.for %arg170 = 0 to 32 {
          affine.for %arg171 = 0 to 32 {
            %1581 = affine.load %150[%arg168, %arg169, %arg170, %arg171] {from = "layer1_0_conv2_out_msb", moved} : memref<1x16x32x32xi16>
            %1582 = arith.sitofp %1581 {moved} : i16 to f32
            %cst = arith.constant {moved} 2.000000e+00 : f32
            %1583 = arith.mulf %1582, %cst {moved} : f32
            %cst_0 = arith.constant {moved} 3.000000e+00 : f32
            %1584 = arith.divf %1583, %cst_0 {moved} : f32
            %1585 = affine.load %arg15[%arg169] {from = "layer1_0_conv2_threshold", moved} : memref<16xf32>
            %1586 = arith.cmpf ogt, %1584, %1585 {moved} : f32
            %1587 = scf.if %1586 -> (f32) {
              %1588 = affine.load %165[%arg168, %arg169, %arg170, %arg171] {from = "layer1_0_conv2_out_lsb"} : memref<1x16x32x32xi16>
              %1589 = arith.sitofp %1588 : i16 to f32
              %cst_1 = arith.constant 3.000000e+00 : f32
              %1590 = arith.divf %1589, %cst_1 : f32
              %1591 = arith.addf %1590, %1584 : f32
              scf.yield %1591 : f32
            } else {
              scf.yield %1584 : f32
            }
            affine.store %1587, %174[%arg168, %arg169, %arg170, %arg171] {to = "layer1_0_conv2_pgconv"} : memref<1x16x32x32xf32>
          } {loop_name = "ww"}
        } {loop_name = "hh"}
      } {loop_name = "cc"}
    } {loop_name = "nn", op_name = "layer1_0_conv2_pgconv"}
    %180 = memref.alloc() {name = "layer1_0_bn3"} : memref<1x16x32x32xf32>
    %181 = hcl.create_op_handle "layer1_0_bn3"
    %182 = hcl.create_loop_handle %181, "nn"
    %183 = hcl.create_loop_handle %181, "cc"
    %184 = hcl.create_loop_handle %181, "hh"
    %185 = hcl.create_loop_handle %181, "ww"
    affine.for %arg168 = 0 to 1 {
      affine.for %arg169 = 0 to 16 {
        affine.for %arg170 = 0 to 32 {
          affine.for %arg171 = 0 to 32 {
            %1581 = affine.load %174[%arg168, %arg169, %arg170, %arg171] {from = "layer1_0_conv2_pgconv"} : memref<1x16x32x32xf32>
            %1582 = affine.load %arg16[%arg169] {from = "layer1_0_bn2_weight"} : memref<16xf32>
            %1583 = arith.mulf %1581, %1582 : f32
            %1584 = affine.load %arg17[%arg169] {from = "layer1_0_bn2_bias"} : memref<16xf32>
            %1585 = arith.addf %1583, %1584 : f32
            affine.store %1585, %180[%arg168, %arg169, %arg170, %arg171] {to = "layer1_0_bn3"} : memref<1x16x32x32xf32>
          } {loop_name = "ww"}
        } {loop_name = "hh"}
      } {loop_name = "cc"}
    } {loop_name = "nn", op_name = "layer1_0_bn3"}
    %186 = memref.alloc() {name = "layer1_0_rprelu2"} : memref<1x16x32x32xf32>
    %187 = hcl.create_op_handle "layer1_0_rprelu2"
    %188 = hcl.create_loop_handle %187, "nn"
    %189 = hcl.create_loop_handle %187, "cc"
    %190 = hcl.create_loop_handle %187, "hh"
    %191 = hcl.create_loop_handle %187, "ww"
    affine.for %arg168 = 0 to 1 {
      affine.for %arg169 = 0 to 16 {
        affine.for %arg170 = 0 to 32 {
          affine.for %arg171 = 0 to 32 {
            %1581 = affine.load %180[%arg168, %arg169, %arg170, %arg171] {from = "layer1_0_bn3", moved} : memref<1x16x32x32xf32>
            %1582 = affine.load %arg7[%arg169] {from = "layer1_0_rprelu2_shift_x_bias", moved} : memref<16xf32>
            %1583 = arith.addf %1581, %1582 {moved} : f32
            %c0_i32 = arith.constant {moved} 0 : i32
            %1584 = arith.sitofp %c0_i32 {moved} : i32 to f32
            %1585 = arith.cmpf ogt, %1583, %1584 {moved} : f32
            %1586 = scf.if %1585 -> (f32) {
              scf.yield %1583 : f32
            } else {
              %1589 = affine.load %arg9[%arg169] {from = "layer1_0_rprelu2_prelu_weight"} : memref<16xf32>
              %1590 = arith.mulf %1589, %1583 : f32
              scf.yield %1590 : f32
            }
            %1587 = affine.load %arg8[%arg169] {from = "layer1_0_rprelu2_shift_y_bias"} : memref<16xf32>
            %1588 = arith.addf %1586, %1587 : f32
            affine.store %1588, %186[%arg168, %arg169, %arg170, %arg171] {to = "layer1_0_rprelu2"} : memref<1x16x32x32xf32>
          } {loop_name = "ww"}
        } {loop_name = "hh"}
      } {loop_name = "cc"}
    } {loop_name = "nn", op_name = "layer1_0_rprelu2"}
    %192 = memref.alloc() {name = "layer1_0_residual2"} : memref<1x16x32x32xf32>
    %193 = hcl.create_op_handle "layer1_0_residual2"
    %194 = hcl.create_loop_handle %193, "nn"
    %195 = hcl.create_loop_handle %193, "cc"
    %196 = hcl.create_loop_handle %193, "hh"
    %197 = hcl.create_loop_handle %193, "ww"
    affine.for %arg168 = 0 to 1 {
      affine.for %arg169 = 0 to 16 {
        affine.for %arg170 = 0 to 32 {
          affine.for %arg171 = 0 to 32 {
            %1581 = affine.load %120[%arg168, %arg169, %arg170, %arg171] {from = "layer1_0_bn2"} : memref<1x16x32x32xf32>
            %1582 = affine.load %186[%arg168, %arg169, %arg170, %arg171] {from = "layer1_0_rprelu2"} : memref<1x16x32x32xf32>
            %1583 = arith.addf %1581, %1582 : f32
            affine.store %1583, %192[%arg168, %arg169, %arg170, %arg171] {to = "layer1_0_residual2"} : memref<1x16x32x32xf32>
          } {loop_name = "ww"}
        } {loop_name = "hh"}
      } {loop_name = "cc"}
    } {loop_name = "nn", op_name = "layer1_0_residual2"}
    %198 = memref.alloc() {name = "layer1_0_bn4"} : memref<1x16x32x32xf32>
    %199 = hcl.create_op_handle "layer1_0_bn4"
    %200 = hcl.create_loop_handle %199, "nn"
    %201 = hcl.create_loop_handle %199, "cc"
    %202 = hcl.create_loop_handle %199, "hh"
    %203 = hcl.create_loop_handle %199, "ww"
    affine.for %arg168 = 0 to 1 {
      affine.for %arg169 = 0 to 16 {
        affine.for %arg170 = 0 to 32 {
          affine.for %arg171 = 0 to 32 {
            %1581 = affine.load %192[%arg168, %arg169, %arg170, %arg171] {from = "layer1_0_residual2"} : memref<1x16x32x32xf32>
            %1582 = affine.load %arg20[%arg169] {from = "layer1_0_bn4_weight"} : memref<16xf32>
            %1583 = arith.mulf %1581, %1582 : f32
            %1584 = affine.load %arg21[%arg169] {from = "layer1_0_bn4_bias"} : memref<16xf32>
            %1585 = arith.addf %1583, %1584 : f32
            affine.store %1585, %198[%arg168, %arg169, %arg170, %arg171] {to = "layer1_0_bn4"} : memref<1x16x32x32xf32>
          } {loop_name = "ww"}
        } {loop_name = "hh"}
      } {loop_name = "cc"}
    } {loop_name = "nn", op_name = "layer1_0_bn4"}
    %204 = memref.alloc() {name = "layer1_1_rsign1", unsigned} : memref<1x16x32x32xi2>
    %205 = hcl.create_op_handle "layer1_1_rsign1"
    %206 = hcl.create_loop_handle %205, "nn"
    %207 = hcl.create_loop_handle %205, "cc"
    %208 = hcl.create_loop_handle %205, "hh"
    %209 = hcl.create_loop_handle %205, "ww"
    affine.for %arg168 = 0 to 1 {
      affine.for %arg169 = 0 to 16 {
        affine.for %arg170 = 0 to 32 {
          affine.for %arg171 = 0 to 32 {
            %1581 = affine.load %198[%arg168, %arg169, %arg170, %arg171] {from = "layer1_0_bn4", moved} : memref<1x16x32x32xf32>
            %cst = arith.constant {moved} 0.666666686 : f32
            %1582 = arith.cmpf ogt, %1581, %cst {moved} : f32
            %1583 = scf.if %1582 -> (i32) {
              %c3_i32 = arith.constant 3 : i32
              scf.yield %c3_i32 : i32
            } else {
              %c0_i32 = arith.constant {moved} 0 : i32
              %1585 = arith.sitofp %c0_i32 {moved} : i32 to f32
              %1586 = arith.cmpf oge, %1581, %1585 {moved} : f32
              %cst_0 = arith.constant {moved} 0.666666686 : f32
              %1587 = arith.cmpf ole, %1581, %cst_0 {moved} : f32
              %1588 = arith.andi %1586, %1587 {moved} : i1
              %1589 = scf.if %1588 -> (i32) {
                %c2_i32 = arith.constant 2 : i32
                scf.yield %c2_i32 : i32
              } else {
                %c0_i32_1 = arith.constant {moved} 0 : i32
                %1590 = arith.sitofp %c0_i32_1 {moved} : i32 to f32
                %1591 = arith.cmpf olt, %1581, %1590 {moved} : f32
                %cst_2 = arith.constant {moved} -0.666666686 : f32
                %1592 = arith.cmpf oge, %1581, %cst_2 {moved} : f32
                %1593 = arith.andi %1591, %1592 {moved} : i1
                %1594 = scf.if %1593 -> (i32) {
                  %c1_i32 = arith.constant 1 : i32
                  scf.yield %c1_i32 : i32
                } else {
                  %c0_i32_3 = arith.constant 0 : i32
                  scf.yield %c0_i32_3 : i32
                }
                scf.yield %1594 : i32
              }
              scf.yield %1589 : i32
            }
            %1584 = arith.trunci %1583 : i32 to i2
            affine.store %1584, %204[%arg168, %arg169, %arg170, %arg171] {to = "layer1_1_rsign1"} : memref<1x16x32x32xi2>
          } {loop_name = "ww"}
        } {loop_name = "hh"}
      } {loop_name = "cc"}
    } {loop_name = "nn", op_name = "layer1_1_rsign1"}
    %210 = memref.alloc() {name = "layer1_1_conv1_msb_truncate", unsigned} : memref<1x1x32x32xi16>
    %211 = hcl.create_op_handle "layer1_1_conv1_msb_truncate"
    %212 = hcl.create_loop_handle %211, "i"
    %213 = hcl.create_loop_handle %211, "c"
    %214 = hcl.create_loop_handle %211, "h"
    %215 = hcl.create_loop_handle %211, "w"
    affine.for %arg168 = 0 to 1 {
      affine.for %arg169 = 0 to 1 {
        affine.for %arg170 = 0 to 32 {
          affine.for %arg171 = 0 to 32 {
            %1581 = memref.alloc() {name = "layer1_1_conv1_msb_truncate_pack", unsigned} : memref<1xi16>
            %c0 = arith.constant 0 : index
            %c0_i16 = arith.constant {unsigned} 0 : i16
            affine.store %c0_i16, %1581[0] {to = "layer1_1_conv1_msb_truncate_pack", unsigned} : memref<1xi16>
            %1582 = hcl.create_op_handle "stage_4"
            %1583 = hcl.create_loop_handle %1582, "loop_4"
            affine.for %arg172 = 0 to 16 {
              %1585 = affine.load %204[%arg168, %arg169 * 16 + %arg172, %arg170, %arg171] {from = "layer1_1_rsign1", unsigned} : memref<1x16x32x32xi2>
              %c1 = arith.constant 1 : index
              %1586 = hcl.get_bit(%1585 : i2, %c1) -> i1
              %1587 = affine.load %1581[0] {from = "layer1_1_conv1_msb_truncate_pack", unsigned} : memref<1xi16>
              hcl.set_bit(%1587 : i16, %arg172, %1586 : i1)
              affine.store %1587, %1581[0] {to = "layer1_1_conv1_msb_truncate_pack", unsigned} : memref<1xi16>
            } {loop_name = "loop_4", op_name = "stage_4"}
            %1584 = affine.load %1581[0] {from = "layer1_1_conv1_msb_truncate_pack", unsigned} : memref<1xi16>
            affine.store %1584, %210[%arg168, %arg169, %arg170, %arg171] {to = "layer1_1_conv1_msb_truncate"} : memref<1x1x32x32xi16>
          } {loop_name = "w"}
        } {loop_name = "h"}
      } {loop_name = "c"}
    } {loop_name = "i", op_name = "layer1_1_conv1_msb_truncate"}
    %216 = memref.alloc() {name = "layer1_1_conv1_lsb_truncate", unsigned} : memref<1x1x32x32xi16>
    %217 = hcl.create_op_handle "layer1_1_conv1_lsb_truncate"
    %218 = hcl.create_loop_handle %217, "i"
    %219 = hcl.create_loop_handle %217, "c"
    %220 = hcl.create_loop_handle %217, "h"
    %221 = hcl.create_loop_handle %217, "w"
    affine.for %arg168 = 0 to 1 {
      affine.for %arg169 = 0 to 1 {
        affine.for %arg170 = 0 to 32 {
          affine.for %arg171 = 0 to 32 {
            %1581 = memref.alloc() {name = "layer1_1_conv1_lsb_truncate_pack", unsigned} : memref<1xi16>
            %c0 = arith.constant 0 : index
            %c0_i16 = arith.constant {unsigned} 0 : i16
            affine.store %c0_i16, %1581[0] {to = "layer1_1_conv1_lsb_truncate_pack", unsigned} : memref<1xi16>
            %1582 = hcl.create_op_handle "stage_5"
            %1583 = hcl.create_loop_handle %1582, "loop_5"
            affine.for %arg172 = 0 to 16 {
              %1585 = affine.load %204[%arg168, %arg169 * 16 + %arg172, %arg170, %arg171] {from = "layer1_1_rsign1", unsigned} : memref<1x16x32x32xi2>
              %c0_0 = arith.constant 0 : index
              %1586 = hcl.get_bit(%1585 : i2, %c0_0) -> i1
              %1587 = affine.load %1581[0] {from = "layer1_1_conv1_lsb_truncate_pack", unsigned} : memref<1xi16>
              hcl.set_bit(%1587 : i16, %arg172, %1586 : i1)
              affine.store %1587, %1581[0] {to = "layer1_1_conv1_lsb_truncate_pack", unsigned} : memref<1xi16>
            } {loop_name = "loop_5", op_name = "stage_5"}
            %1584 = affine.load %1581[0] {from = "layer1_1_conv1_lsb_truncate_pack", unsigned} : memref<1xi16>
            affine.store %1584, %216[%arg168, %arg169, %arg170, %arg171] {to = "layer1_1_conv1_lsb_truncate"} : memref<1x1x32x32xi16>
          } {loop_name = "w"}
        } {loop_name = "h"}
      } {loop_name = "c"}
    } {loop_name = "i", op_name = "layer1_1_conv1_lsb_truncate"}
    %222 = memref.alloc() {name = "layer1_1_conv1_out_msb_pad", unsigned} : memref<1x1x34x34xi16>
    %223 = hcl.create_op_handle "layer1_1_conv1_out_msb_pad"
    %224 = hcl.create_loop_handle %223, "ii"
    %225 = hcl.create_loop_handle %223, "cc"
    %226 = hcl.create_loop_handle %223, "hh"
    %227 = hcl.create_loop_handle %223, "ww"
    affine.for %arg168 = 0 to 1 {
      affine.for %arg169 = 0 to 1 {
        affine.for %arg170 = 0 to 34 {
          affine.for %arg171 = 0 to 34 {
            %1581 = affine.if #set0(%arg171, %arg170) -> i16 {
              %1582 = affine.load %210[%arg168, %arg169, %arg170 - 1, %arg171 - 1] {from = "layer1_1_conv1_msb_truncate", unsigned} : memref<1x1x32x32xi16>
              affine.yield %1582 : i16
            } else {
              %c0_i32 = arith.constant 0 : i32
              %1582 = arith.trunci %c0_i32 {unsigned} : i32 to i16
              affine.yield %1582 : i16
            } {unsigned}
            affine.store %1581, %222[%arg168, %arg169, %arg170, %arg171] {to = "layer1_1_conv1_out_msb_pad"} : memref<1x1x34x34xi16>
          } {loop_name = "ww"}
        } {loop_name = "hh"}
      } {loop_name = "cc"}
    } {loop_name = "ii", op_name = "layer1_1_conv1_out_msb_pad"}
    %228 = memref.alloc() {name = "layer1_1_conv1_out_msb"} : memref<1x16x32x32xi16>
    %229 = hcl.create_op_handle "layer1_1_conv1_out_msb"
    %230 = hcl.create_loop_handle %229, "nn"
    %231 = hcl.create_loop_handle %229, "ff"
    %232 = hcl.create_loop_handle %229, "yy"
    %233 = hcl.create_loop_handle %229, "xx"
    %234 = hcl.create_loop_handle %229, "layer1_1_conv1_out_msb_rc"
    %235 = hcl.create_loop_handle %229, "layer1_1_conv1_out_msb_rx"
    %236 = hcl.create_loop_handle %229, "layer1_1_conv1_out_msb_ry"
    affine.for %arg168 = 0 to 1 {
      affine.for %arg169 = 0 to 16 {
        affine.for %arg170 = 0 to 32 {
          affine.for %arg171 = 0 to 32 {
            %1581 = memref.alloc() {name = "sum_rv"} : memref<1xi16>
            %c0 = arith.constant 0 : index
            %c0_i16 = arith.constant 0 : i16
            affine.store %c0_i16, %1581[%c0] {to = "sum_rv"} : memref<1xi16>
            affine.for %arg172 = 0 to 1 {
              affine.for %arg173 = 0 to 3 {
                affine.for %arg174 = 0 to 3 {
                  %1583 = affine.if #set1(%arg171, %arg174, %arg170, %arg173) -> i16 {
                    %c16_i32 = arith.constant 16 : i32
                    %1586 = arith.extsi %c16_i32 : i32 to i128
                    %1587 = affine.load %222[%arg168, %arg172, %arg170 + %arg173, %arg171 + %arg174] {from = "layer1_1_conv1_out_msb_pad", unsigned} : memref<1x1x34x34xi16>
                    %1588 = affine.load %arg28[%arg169, %arg172, %arg173, %arg174] {from = "layer1_1_conv1_weight", unsigned} : memref<16x1x3x3xi16>
                    %1589 = arith.xori %1587, %1588 {unsigned} : i16
                    %c1_i32 = arith.constant 1 : i32
                    %1590 = arith.trunci %c1_i32 {unsigned} : i32 to i16
                    %1591 = arith.shrui %1589, %1590 {unsigned} : i16
                    %c6148914691236517205_i64 = arith.constant 6148914691236517205 : i64
                    %1592 = arith.trunci %c6148914691236517205_i64 {unsigned} : i64 to i16
                    %1593 = arith.andi %1591, %1592 {unsigned} : i16
                    %1594 = arith.subi %1589, %1593 {unsigned} : i16
                    %c3689348814741910323_i64 = arith.constant 3689348814741910323 : i64
                    %1595 = arith.trunci %c3689348814741910323_i64 {unsigned} : i64 to i16
                    %1596 = arith.andi %1594, %1595 {unsigned} : i16
                    %c2_i32 = arith.constant 2 : i32
                    %1597 = arith.trunci %c2_i32 {unsigned} : i32 to i16
                    %1598 = arith.shrui %1594, %1597 {unsigned} : i16
                    %c3689348814741910323_i64_1 = arith.constant 3689348814741910323 : i64
                    %1599 = arith.trunci %c3689348814741910323_i64_1 {unsigned} : i64 to i16
                    %1600 = arith.andi %1598, %1599 {unsigned} : i16
                    %1601 = arith.addi %1596, %1600 {unsigned} : i16
                    %c4_i32 = arith.constant 4 : i32
                    %1602 = arith.trunci %c4_i32 {unsigned} : i32 to i16
                    %1603 = arith.shrui %1601, %1602 {unsigned} : i16
                    %1604 = arith.addi %1601, %1603 {unsigned} : i16
                    %c1085102592571150095_i64 = arith.constant 1085102592571150095 : i64
                    %1605 = arith.trunci %c1085102592571150095_i64 {unsigned} : i64 to i16
                    %1606 = arith.andi %1604, %1605 {unsigned} : i16
                    %1607 = arith.extui %1606 : i16 to i64
                    %c72340172838076673_i64 = arith.constant 72340172838076673 : i64
                    %1608 = arith.muli %1607, %c72340172838076673_i64 : i64
                    %c56_i32 = arith.constant 56 : i32
                    %1609 = arith.extsi %c56_i32 : i32 to i64
                    %1610 = arith.shrui %1608, %1609 : i64
                    %1611 = arith.extsi %1610 : i64 to i128
                    %c1_i32_2 = arith.constant 1 : i32
                    %1612 = arith.extsi %c1_i32_2 : i32 to i64
                    %1613 = arith.extsi %1612 : i64 to i128
                    %1614 = arith.shli %1611, %1613 : i128
                    %1615 = arith.subi %1586, %1614 : i128
                    %1616 = arith.trunci %1615 : i128 to i16
                    affine.yield %1616 : i16
                  } else {
                    %c0_i32 = arith.constant 0 : i32
                    %1586 = arith.trunci %c0_i32 : i32 to i16
                    affine.yield %1586 : i16
                  }
                  %1584 = affine.load %1581[%c0] {from = "sum_rv"} : memref<1xi16>
                  %1585 = arith.addi %1583, %1584 : i16
                  affine.store %1585, %1581[%c0] {to = "sum_rv"} : memref<1xi16>
                } {loop_name = "layer1_1_conv1_out_msb_rx", reduction}
              } {loop_name = "layer1_1_conv1_out_msb_ry", reduction}
            } {loop_name = "layer1_1_conv1_out_msb_rc", reduction}
            %c0_0 = arith.constant 0 : index
            %1582 = affine.load %1581[%c0_0] {from = "sum_rv"} : memref<1xi16>
            affine.store %1582, %228[%arg168, %arg169, %arg170, %arg171] {to = "layer1_1_conv1_out_msb"} : memref<1x16x32x32xi16>
          } {loop_name = "xx"}
        } {loop_name = "yy"}
      } {loop_name = "ff"}
    } {loop_name = "nn", op_name = "layer1_1_conv1_out_msb"}
    %237 = memref.alloc() {name = "layer1_1_conv1_out_lsb_pad", unsigned} : memref<1x1x34x34xi16>
    %238 = hcl.create_op_handle "layer1_1_conv1_out_lsb_pad"
    %239 = hcl.create_loop_handle %238, "ii"
    %240 = hcl.create_loop_handle %238, "cc"
    %241 = hcl.create_loop_handle %238, "hh"
    %242 = hcl.create_loop_handle %238, "ww"
    affine.for %arg168 = 0 to 1 {
      affine.for %arg169 = 0 to 1 {
        affine.for %arg170 = 0 to 34 {
          affine.for %arg171 = 0 to 34 {
            %1581 = affine.if #set0(%arg171, %arg170) -> i16 {
              %1582 = affine.load %216[%arg168, %arg169, %arg170 - 1, %arg171 - 1] {from = "layer1_1_conv1_lsb_truncate", unsigned} : memref<1x1x32x32xi16>
              affine.yield %1582 : i16
            } else {
              %c0_i32 = arith.constant 0 : i32
              %1582 = arith.trunci %c0_i32 {unsigned} : i32 to i16
              affine.yield %1582 : i16
            } {unsigned}
            affine.store %1581, %237[%arg168, %arg169, %arg170, %arg171] {to = "layer1_1_conv1_out_lsb_pad"} : memref<1x1x34x34xi16>
          } {loop_name = "ww"}
        } {loop_name = "hh"}
      } {loop_name = "cc"}
    } {loop_name = "ii", op_name = "layer1_1_conv1_out_lsb_pad"}
    %243 = memref.alloc() {name = "layer1_1_conv1_out_lsb"} : memref<1x16x32x32xi16>
    %244 = hcl.create_op_handle "layer1_1_conv1_out_lsb"
    %245 = hcl.create_loop_handle %244, "nn"
    %246 = hcl.create_loop_handle %244, "ff"
    %247 = hcl.create_loop_handle %244, "yy"
    %248 = hcl.create_loop_handle %244, "xx"
    %249 = hcl.create_loop_handle %244, "layer1_1_conv1_out_lsb_rc"
    %250 = hcl.create_loop_handle %244, "layer1_1_conv1_out_lsb_rx"
    %251 = hcl.create_loop_handle %244, "layer1_1_conv1_out_lsb_ry"
    affine.for %arg168 = 0 to 1 {
      affine.for %arg169 = 0 to 16 {
        affine.for %arg170 = 0 to 32 {
          affine.for %arg171 = 0 to 32 {
            %1581 = memref.alloc() {name = "sum_rv"} : memref<1xi16>
            %c0 = arith.constant 0 : index
            %c0_i16 = arith.constant 0 : i16
            affine.store %c0_i16, %1581[%c0] {to = "sum_rv"} : memref<1xi16>
            affine.for %arg172 = 0 to 1 {
              affine.for %arg173 = 0 to 3 {
                affine.for %arg174 = 0 to 3 {
                  %1583 = affine.if #set1(%arg171, %arg174, %arg170, %arg173) -> i16 {
                    %c16_i32 = arith.constant 16 : i32
                    %1586 = arith.extsi %c16_i32 : i32 to i128
                    %1587 = affine.load %237[%arg168, %arg172, %arg170 + %arg173, %arg171 + %arg174] {from = "layer1_1_conv1_out_lsb_pad", unsigned} : memref<1x1x34x34xi16>
                    %1588 = affine.load %arg28[%arg169, %arg172, %arg173, %arg174] {from = "layer1_1_conv1_weight", unsigned} : memref<16x1x3x3xi16>
                    %1589 = arith.xori %1587, %1588 {unsigned} : i16
                    %c1_i32 = arith.constant 1 : i32
                    %1590 = arith.trunci %c1_i32 {unsigned} : i32 to i16
                    %1591 = arith.shrui %1589, %1590 {unsigned} : i16
                    %c6148914691236517205_i64 = arith.constant 6148914691236517205 : i64
                    %1592 = arith.trunci %c6148914691236517205_i64 {unsigned} : i64 to i16
                    %1593 = arith.andi %1591, %1592 {unsigned} : i16
                    %1594 = arith.subi %1589, %1593 {unsigned} : i16
                    %c3689348814741910323_i64 = arith.constant 3689348814741910323 : i64
                    %1595 = arith.trunci %c3689348814741910323_i64 {unsigned} : i64 to i16
                    %1596 = arith.andi %1594, %1595 {unsigned} : i16
                    %c2_i32 = arith.constant 2 : i32
                    %1597 = arith.trunci %c2_i32 {unsigned} : i32 to i16
                    %1598 = arith.shrui %1594, %1597 {unsigned} : i16
                    %c3689348814741910323_i64_1 = arith.constant 3689348814741910323 : i64
                    %1599 = arith.trunci %c3689348814741910323_i64_1 {unsigned} : i64 to i16
                    %1600 = arith.andi %1598, %1599 {unsigned} : i16
                    %1601 = arith.addi %1596, %1600 {unsigned} : i16
                    %c4_i32 = arith.constant 4 : i32
                    %1602 = arith.trunci %c4_i32 {unsigned} : i32 to i16
                    %1603 = arith.shrui %1601, %1602 {unsigned} : i16
                    %1604 = arith.addi %1601, %1603 {unsigned} : i16
                    %c1085102592571150095_i64 = arith.constant 1085102592571150095 : i64
                    %1605 = arith.trunci %c1085102592571150095_i64 {unsigned} : i64 to i16
                    %1606 = arith.andi %1604, %1605 {unsigned} : i16
                    %1607 = arith.extui %1606 : i16 to i64
                    %c72340172838076673_i64 = arith.constant 72340172838076673 : i64
                    %1608 = arith.muli %1607, %c72340172838076673_i64 : i64
                    %c56_i32 = arith.constant 56 : i32
                    %1609 = arith.extsi %c56_i32 : i32 to i64
                    %1610 = arith.shrui %1608, %1609 : i64
                    %1611 = arith.extsi %1610 : i64 to i128
                    %c1_i32_2 = arith.constant 1 : i32
                    %1612 = arith.extsi %c1_i32_2 : i32 to i64
                    %1613 = arith.extsi %1612 : i64 to i128
                    %1614 = arith.shli %1611, %1613 : i128
                    %1615 = arith.subi %1586, %1614 : i128
                    %1616 = arith.trunci %1615 : i128 to i16
                    affine.yield %1616 : i16
                  } else {
                    %c0_i32 = arith.constant 0 : i32
                    %1586 = arith.trunci %c0_i32 : i32 to i16
                    affine.yield %1586 : i16
                  }
                  %1584 = affine.load %1581[%c0] {from = "sum_rv"} : memref<1xi16>
                  %1585 = arith.addi %1583, %1584 : i16
                  affine.store %1585, %1581[%c0] {to = "sum_rv"} : memref<1xi16>
                } {loop_name = "layer1_1_conv1_out_lsb_rx", reduction}
              } {loop_name = "layer1_1_conv1_out_lsb_ry", reduction}
            } {loop_name = "layer1_1_conv1_out_lsb_rc", reduction}
            %c0_0 = arith.constant 0 : index
            %1582 = affine.load %1581[%c0_0] {from = "sum_rv"} : memref<1xi16>
            affine.store %1582, %243[%arg168, %arg169, %arg170, %arg171] {to = "layer1_1_conv1_out_lsb"} : memref<1x16x32x32xi16>
          } {loop_name = "xx"}
        } {loop_name = "yy"}
      } {loop_name = "ff"}
    } {loop_name = "nn", op_name = "layer1_1_conv1_out_lsb"}
    %252 = memref.alloc() {name = "layer1_1_conv1_pgconv"} : memref<1x16x32x32xf32>
    %253 = hcl.create_op_handle "layer1_1_conv1_pgconv"
    %254 = hcl.create_loop_handle %253, "nn"
    %255 = hcl.create_loop_handle %253, "cc"
    %256 = hcl.create_loop_handle %253, "hh"
    %257 = hcl.create_loop_handle %253, "ww"
    affine.for %arg168 = 0 to 1 {
      affine.for %arg169 = 0 to 16 {
        affine.for %arg170 = 0 to 32 {
          affine.for %arg171 = 0 to 32 {
            %1581 = affine.load %228[%arg168, %arg169, %arg170, %arg171] {from = "layer1_1_conv1_out_msb", moved} : memref<1x16x32x32xi16>
            %1582 = arith.sitofp %1581 {moved} : i16 to f32
            %cst = arith.constant {moved} 2.000000e+00 : f32
            %1583 = arith.mulf %1582, %cst {moved} : f32
            %cst_0 = arith.constant {moved} 3.000000e+00 : f32
            %1584 = arith.divf %1583, %cst_0 {moved} : f32
            %1585 = affine.load %arg29[%arg169] {from = "layer1_1_conv1_threshold", moved} : memref<16xf32>
            %1586 = arith.cmpf ogt, %1584, %1585 {moved} : f32
            %1587 = scf.if %1586 -> (f32) {
              %1588 = affine.load %243[%arg168, %arg169, %arg170, %arg171] {from = "layer1_1_conv1_out_lsb"} : memref<1x16x32x32xi16>
              %1589 = arith.sitofp %1588 : i16 to f32
              %cst_1 = arith.constant 3.000000e+00 : f32
              %1590 = arith.divf %1589, %cst_1 : f32
              %1591 = arith.addf %1590, %1584 : f32
              scf.yield %1591 : f32
            } else {
              scf.yield %1584 : f32
            }
            affine.store %1587, %252[%arg168, %arg169, %arg170, %arg171] {to = "layer1_1_conv1_pgconv"} : memref<1x16x32x32xf32>
          } {loop_name = "ww"}
        } {loop_name = "hh"}
      } {loop_name = "cc"}
    } {loop_name = "nn", op_name = "layer1_1_conv1_pgconv"}
    %258 = memref.alloc() {name = "layer1_1_bn1"} : memref<1x16x32x32xf32>
    %259 = hcl.create_op_handle "layer1_1_bn1"
    %260 = hcl.create_loop_handle %259, "nn"
    %261 = hcl.create_loop_handle %259, "cc"
    %262 = hcl.create_loop_handle %259, "hh"
    %263 = hcl.create_loop_handle %259, "ww"
    affine.for %arg168 = 0 to 1 {
      affine.for %arg169 = 0 to 16 {
        affine.for %arg170 = 0 to 32 {
          affine.for %arg171 = 0 to 32 {
            %1581 = affine.load %252[%arg168, %arg169, %arg170, %arg171] {from = "layer1_1_conv1_pgconv"} : memref<1x16x32x32xf32>
            %1582 = affine.load %arg30[%arg169] {from = "layer1_1_bn1_weight"} : memref<16xf32>
            %1583 = arith.mulf %1581, %1582 : f32
            %1584 = affine.load %arg31[%arg169] {from = "layer1_1_bn1_bias"} : memref<16xf32>
            %1585 = arith.addf %1583, %1584 : f32
            affine.store %1585, %258[%arg168, %arg169, %arg170, %arg171] {to = "layer1_1_bn1"} : memref<1x16x32x32xf32>
          } {loop_name = "ww"}
        } {loop_name = "hh"}
      } {loop_name = "cc"}
    } {loop_name = "nn", op_name = "layer1_1_bn1"}
    %264 = memref.alloc() {name = "layer1_1_rprelu1"} : memref<1x16x32x32xf32>
    %265 = hcl.create_op_handle "layer1_1_rprelu1"
    %266 = hcl.create_loop_handle %265, "nn"
    %267 = hcl.create_loop_handle %265, "cc"
    %268 = hcl.create_loop_handle %265, "hh"
    %269 = hcl.create_loop_handle %265, "ww"
    affine.for %arg168 = 0 to 1 {
      affine.for %arg169 = 0 to 16 {
        affine.for %arg170 = 0 to 32 {
          affine.for %arg171 = 0 to 32 {
            %1581 = affine.load %258[%arg168, %arg169, %arg170, %arg171] {from = "layer1_1_bn1", moved} : memref<1x16x32x32xf32>
            %1582 = affine.load %arg22[%arg169] {from = "layer1_1_rprelu1_shift_x_bias", moved} : memref<16xf32>
            %1583 = arith.addf %1581, %1582 {moved} : f32
            %c0_i32 = arith.constant {moved} 0 : i32
            %1584 = arith.sitofp %c0_i32 {moved} : i32 to f32
            %1585 = arith.cmpf ogt, %1583, %1584 {moved} : f32
            %1586 = scf.if %1585 -> (f32) {
              scf.yield %1583 : f32
            } else {
              %1589 = affine.load %arg24[%arg169] {from = "layer1_1_rprelu1_prelu_weight"} : memref<16xf32>
              %1590 = arith.mulf %1589, %1583 : f32
              scf.yield %1590 : f32
            }
            %1587 = affine.load %arg23[%arg169] {from = "layer1_1_rprelu1_shift_y_bias"} : memref<16xf32>
            %1588 = arith.addf %1586, %1587 : f32
            affine.store %1588, %264[%arg168, %arg169, %arg170, %arg171] {to = "layer1_1_rprelu1"} : memref<1x16x32x32xf32>
          } {loop_name = "ww"}
        } {loop_name = "hh"}
      } {loop_name = "cc"}
    } {loop_name = "nn", op_name = "layer1_1_rprelu1"}
    %270 = memref.alloc() {name = "layer1_1_residual1"} : memref<1x16x32x32xf32>
    %271 = hcl.create_op_handle "layer1_1_residual1"
    %272 = hcl.create_loop_handle %271, "nn"
    %273 = hcl.create_loop_handle %271, "cc"
    %274 = hcl.create_loop_handle %271, "hh"
    %275 = hcl.create_loop_handle %271, "ww"
    affine.for %arg168 = 0 to 1 {
      affine.for %arg169 = 0 to 16 {
        affine.for %arg170 = 0 to 32 {
          affine.for %arg171 = 0 to 32 {
            %1581 = affine.load %264[%arg168, %arg169, %arg170, %arg171] {from = "layer1_1_rprelu1"} : memref<1x16x32x32xf32>
            %1582 = affine.load %198[%arg168, %arg169, %arg170, %arg171] {from = "layer1_0_bn4"} : memref<1x16x32x32xf32>
            %1583 = arith.addf %1581, %1582 : f32
            affine.store %1583, %270[%arg168, %arg169, %arg170, %arg171] {to = "layer1_1_residual1"} : memref<1x16x32x32xf32>
          } {loop_name = "ww"}
        } {loop_name = "hh"}
      } {loop_name = "cc"}
    } {loop_name = "nn", op_name = "layer1_1_residual1"}
    %276 = memref.alloc() {name = "layer1_1_bn2"} : memref<1x16x32x32xf32>
    %277 = hcl.create_op_handle "layer1_1_bn2"
    %278 = hcl.create_loop_handle %277, "nn"
    %279 = hcl.create_loop_handle %277, "cc"
    %280 = hcl.create_loop_handle %277, "hh"
    %281 = hcl.create_loop_handle %277, "ww"
    affine.for %arg168 = 0 to 1 {
      affine.for %arg169 = 0 to 16 {
        affine.for %arg170 = 0 to 32 {
          affine.for %arg171 = 0 to 32 {
            %1581 = affine.load %270[%arg168, %arg169, %arg170, %arg171] {from = "layer1_1_residual1"} : memref<1x16x32x32xf32>
            %1582 = affine.load %arg36[%arg169] {from = "layer1_1_bn3_weight"} : memref<16xf32>
            %1583 = arith.mulf %1581, %1582 : f32
            %1584 = affine.load %arg37[%arg169] {from = "layer1_1_bn3_bias"} : memref<16xf32>
            %1585 = arith.addf %1583, %1584 : f32
            affine.store %1585, %276[%arg168, %arg169, %arg170, %arg171] {to = "layer1_1_bn2"} : memref<1x16x32x32xf32>
          } {loop_name = "ww"}
        } {loop_name = "hh"}
      } {loop_name = "cc"}
    } {loop_name = "nn", op_name = "layer1_1_bn2"}
    %282 = memref.alloc() {name = "layer1_1_rsign2", unsigned} : memref<1x16x32x32xi2>
    %283 = hcl.create_op_handle "layer1_1_rsign2"
    %284 = hcl.create_loop_handle %283, "nn"
    %285 = hcl.create_loop_handle %283, "cc"
    %286 = hcl.create_loop_handle %283, "hh"
    %287 = hcl.create_loop_handle %283, "ww"
    affine.for %arg168 = 0 to 1 {
      affine.for %arg169 = 0 to 16 {
        affine.for %arg170 = 0 to 32 {
          affine.for %arg171 = 0 to 32 {
            %1581 = affine.load %276[%arg168, %arg169, %arg170, %arg171] {from = "layer1_1_bn2", moved} : memref<1x16x32x32xf32>
            %cst = arith.constant {moved} 0.666666686 : f32
            %1582 = arith.cmpf ogt, %1581, %cst {moved} : f32
            %1583 = scf.if %1582 -> (i32) {
              %c3_i32 = arith.constant 3 : i32
              scf.yield %c3_i32 : i32
            } else {
              %c0_i32 = arith.constant {moved} 0 : i32
              %1585 = arith.sitofp %c0_i32 {moved} : i32 to f32
              %1586 = arith.cmpf oge, %1581, %1585 {moved} : f32
              %cst_0 = arith.constant {moved} 0.666666686 : f32
              %1587 = arith.cmpf ole, %1581, %cst_0 {moved} : f32
              %1588 = arith.andi %1586, %1587 {moved} : i1
              %1589 = scf.if %1588 -> (i32) {
                %c2_i32 = arith.constant 2 : i32
                scf.yield %c2_i32 : i32
              } else {
                %c0_i32_1 = arith.constant {moved} 0 : i32
                %1590 = arith.sitofp %c0_i32_1 {moved} : i32 to f32
                %1591 = arith.cmpf olt, %1581, %1590 {moved} : f32
                %cst_2 = arith.constant {moved} -0.666666686 : f32
                %1592 = arith.cmpf oge, %1581, %cst_2 {moved} : f32
                %1593 = arith.andi %1591, %1592 {moved} : i1
                %1594 = scf.if %1593 -> (i32) {
                  %c1_i32 = arith.constant 1 : i32
                  scf.yield %c1_i32 : i32
                } else {
                  %c0_i32_3 = arith.constant 0 : i32
                  scf.yield %c0_i32_3 : i32
                }
                scf.yield %1594 : i32
              }
              scf.yield %1589 : i32
            }
            %1584 = arith.trunci %1583 : i32 to i2
            affine.store %1584, %282[%arg168, %arg169, %arg170, %arg171] {to = "layer1_1_rsign2"} : memref<1x16x32x32xi2>
          } {loop_name = "ww"}
        } {loop_name = "hh"}
      } {loop_name = "cc"}
    } {loop_name = "nn", op_name = "layer1_1_rsign2"}
    %288 = memref.alloc() {name = "layer1_1_conv2_msb_truncate", unsigned} : memref<1x1x32x32xi16>
    %289 = hcl.create_op_handle "layer1_1_conv2_msb_truncate"
    %290 = hcl.create_loop_handle %289, "i"
    %291 = hcl.create_loop_handle %289, "c"
    %292 = hcl.create_loop_handle %289, "h"
    %293 = hcl.create_loop_handle %289, "w"
    affine.for %arg168 = 0 to 1 {
      affine.for %arg169 = 0 to 1 {
        affine.for %arg170 = 0 to 32 {
          affine.for %arg171 = 0 to 32 {
            %1581 = memref.alloc() {name = "layer1_1_conv2_msb_truncate_pack", unsigned} : memref<1xi16>
            %c0 = arith.constant 0 : index
            %c0_i16 = arith.constant {unsigned} 0 : i16
            affine.store %c0_i16, %1581[0] {to = "layer1_1_conv2_msb_truncate_pack", unsigned} : memref<1xi16>
            %1582 = hcl.create_op_handle "stage_6"
            %1583 = hcl.create_loop_handle %1582, "loop_6"
            affine.for %arg172 = 0 to 16 {
              %1585 = affine.load %282[%arg168, %arg169 * 16 + %arg172, %arg170, %arg171] {from = "layer1_1_rsign2", unsigned} : memref<1x16x32x32xi2>
              %c1 = arith.constant 1 : index
              %1586 = hcl.get_bit(%1585 : i2, %c1) -> i1
              %1587 = affine.load %1581[0] {from = "layer1_1_conv2_msb_truncate_pack", unsigned} : memref<1xi16>
              hcl.set_bit(%1587 : i16, %arg172, %1586 : i1)
              affine.store %1587, %1581[0] {to = "layer1_1_conv2_msb_truncate_pack", unsigned} : memref<1xi16>
            } {loop_name = "loop_6", op_name = "stage_6"}
            %1584 = affine.load %1581[0] {from = "layer1_1_conv2_msb_truncate_pack", unsigned} : memref<1xi16>
            affine.store %1584, %288[%arg168, %arg169, %arg170, %arg171] {to = "layer1_1_conv2_msb_truncate"} : memref<1x1x32x32xi16>
          } {loop_name = "w"}
        } {loop_name = "h"}
      } {loop_name = "c"}
    } {loop_name = "i", op_name = "layer1_1_conv2_msb_truncate"}
    %294 = memref.alloc() {name = "layer1_1_conv2_lsb_truncate", unsigned} : memref<1x1x32x32xi16>
    %295 = hcl.create_op_handle "layer1_1_conv2_lsb_truncate"
    %296 = hcl.create_loop_handle %295, "i"
    %297 = hcl.create_loop_handle %295, "c"
    %298 = hcl.create_loop_handle %295, "h"
    %299 = hcl.create_loop_handle %295, "w"
    affine.for %arg168 = 0 to 1 {
      affine.for %arg169 = 0 to 1 {
        affine.for %arg170 = 0 to 32 {
          affine.for %arg171 = 0 to 32 {
            %1581 = memref.alloc() {name = "layer1_1_conv2_lsb_truncate_pack", unsigned} : memref<1xi16>
            %c0 = arith.constant 0 : index
            %c0_i16 = arith.constant {unsigned} 0 : i16
            affine.store %c0_i16, %1581[0] {to = "layer1_1_conv2_lsb_truncate_pack", unsigned} : memref<1xi16>
            %1582 = hcl.create_op_handle "stage_7"
            %1583 = hcl.create_loop_handle %1582, "loop_7"
            affine.for %arg172 = 0 to 16 {
              %1585 = affine.load %282[%arg168, %arg169 * 16 + %arg172, %arg170, %arg171] {from = "layer1_1_rsign2", unsigned} : memref<1x16x32x32xi2>
              %c0_0 = arith.constant 0 : index
              %1586 = hcl.get_bit(%1585 : i2, %c0_0) -> i1
              %1587 = affine.load %1581[0] {from = "layer1_1_conv2_lsb_truncate_pack", unsigned} : memref<1xi16>
              hcl.set_bit(%1587 : i16, %arg172, %1586 : i1)
              affine.store %1587, %1581[0] {to = "layer1_1_conv2_lsb_truncate_pack", unsigned} : memref<1xi16>
            } {loop_name = "loop_7", op_name = "stage_7"}
            %1584 = affine.load %1581[0] {from = "layer1_1_conv2_lsb_truncate_pack", unsigned} : memref<1xi16>
            affine.store %1584, %294[%arg168, %arg169, %arg170, %arg171] {to = "layer1_1_conv2_lsb_truncate"} : memref<1x1x32x32xi16>
          } {loop_name = "w"}
        } {loop_name = "h"}
      } {loop_name = "c"}
    } {loop_name = "i", op_name = "layer1_1_conv2_lsb_truncate"}
    %300 = memref.alloc() {name = "layer1_1_conv2_out_msb_pad", unsigned} : memref<1x1x34x34xi16>
    %301 = hcl.create_op_handle "layer1_1_conv2_out_msb_pad"
    %302 = hcl.create_loop_handle %301, "ii"
    %303 = hcl.create_loop_handle %301, "cc"
    %304 = hcl.create_loop_handle %301, "hh"
    %305 = hcl.create_loop_handle %301, "ww"
    affine.for %arg168 = 0 to 1 {
      affine.for %arg169 = 0 to 1 {
        affine.for %arg170 = 0 to 34 {
          affine.for %arg171 = 0 to 34 {
            %1581 = affine.if #set0(%arg171, %arg170) -> i16 {
              %1582 = affine.load %288[%arg168, %arg169, %arg170 - 1, %arg171 - 1] {from = "layer1_1_conv2_msb_truncate", unsigned} : memref<1x1x32x32xi16>
              affine.yield %1582 : i16
            } else {
              %c0_i32 = arith.constant 0 : i32
              %1582 = arith.trunci %c0_i32 {unsigned} : i32 to i16
              affine.yield %1582 : i16
            } {unsigned}
            affine.store %1581, %300[%arg168, %arg169, %arg170, %arg171] {to = "layer1_1_conv2_out_msb_pad"} : memref<1x1x34x34xi16>
          } {loop_name = "ww"}
        } {loop_name = "hh"}
      } {loop_name = "cc"}
    } {loop_name = "ii", op_name = "layer1_1_conv2_out_msb_pad"}
    %306 = memref.alloc() {name = "layer1_1_conv2_out_msb"} : memref<1x16x32x32xi16>
    %307 = hcl.create_op_handle "layer1_1_conv2_out_msb"
    %308 = hcl.create_loop_handle %307, "nn"
    %309 = hcl.create_loop_handle %307, "ff"
    %310 = hcl.create_loop_handle %307, "yy"
    %311 = hcl.create_loop_handle %307, "xx"
    %312 = hcl.create_loop_handle %307, "layer1_1_conv2_out_msb_rc"
    %313 = hcl.create_loop_handle %307, "layer1_1_conv2_out_msb_rx"
    %314 = hcl.create_loop_handle %307, "layer1_1_conv2_out_msb_ry"
    affine.for %arg168 = 0 to 1 {
      affine.for %arg169 = 0 to 16 {
        affine.for %arg170 = 0 to 32 {
          affine.for %arg171 = 0 to 32 {
            %1581 = memref.alloc() {name = "sum_rv"} : memref<1xi16>
            %c0 = arith.constant 0 : index
            %c0_i16 = arith.constant 0 : i16
            affine.store %c0_i16, %1581[%c0] {to = "sum_rv"} : memref<1xi16>
            affine.for %arg172 = 0 to 1 {
              affine.for %arg173 = 0 to 3 {
                affine.for %arg174 = 0 to 3 {
                  %1583 = affine.if #set1(%arg171, %arg174, %arg170, %arg173) -> i16 {
                    %c16_i32 = arith.constant 16 : i32
                    %1586 = arith.extsi %c16_i32 : i32 to i128
                    %1587 = affine.load %300[%arg168, %arg172, %arg170 + %arg173, %arg171 + %arg174] {from = "layer1_1_conv2_out_msb_pad", unsigned} : memref<1x1x34x34xi16>
                    %1588 = affine.load %arg32[%arg169, %arg172, %arg173, %arg174] {from = "layer1_1_conv2_weight", unsigned} : memref<16x1x3x3xi16>
                    %1589 = arith.xori %1587, %1588 {unsigned} : i16
                    %c1_i32 = arith.constant 1 : i32
                    %1590 = arith.trunci %c1_i32 {unsigned} : i32 to i16
                    %1591 = arith.shrui %1589, %1590 {unsigned} : i16
                    %c6148914691236517205_i64 = arith.constant 6148914691236517205 : i64
                    %1592 = arith.trunci %c6148914691236517205_i64 {unsigned} : i64 to i16
                    %1593 = arith.andi %1591, %1592 {unsigned} : i16
                    %1594 = arith.subi %1589, %1593 {unsigned} : i16
                    %c3689348814741910323_i64 = arith.constant 3689348814741910323 : i64
                    %1595 = arith.trunci %c3689348814741910323_i64 {unsigned} : i64 to i16
                    %1596 = arith.andi %1594, %1595 {unsigned} : i16
                    %c2_i32 = arith.constant 2 : i32
                    %1597 = arith.trunci %c2_i32 {unsigned} : i32 to i16
                    %1598 = arith.shrui %1594, %1597 {unsigned} : i16
                    %c3689348814741910323_i64_1 = arith.constant 3689348814741910323 : i64
                    %1599 = arith.trunci %c3689348814741910323_i64_1 {unsigned} : i64 to i16
                    %1600 = arith.andi %1598, %1599 {unsigned} : i16
                    %1601 = arith.addi %1596, %1600 {unsigned} : i16
                    %c4_i32 = arith.constant 4 : i32
                    %1602 = arith.trunci %c4_i32 {unsigned} : i32 to i16
                    %1603 = arith.shrui %1601, %1602 {unsigned} : i16
                    %1604 = arith.addi %1601, %1603 {unsigned} : i16
                    %c1085102592571150095_i64 = arith.constant 1085102592571150095 : i64
                    %1605 = arith.trunci %c1085102592571150095_i64 {unsigned} : i64 to i16
                    %1606 = arith.andi %1604, %1605 {unsigned} : i16
                    %1607 = arith.extui %1606 : i16 to i64
                    %c72340172838076673_i64 = arith.constant 72340172838076673 : i64
                    %1608 = arith.muli %1607, %c72340172838076673_i64 : i64
                    %c56_i32 = arith.constant 56 : i32
                    %1609 = arith.extsi %c56_i32 : i32 to i64
                    %1610 = arith.shrui %1608, %1609 : i64
                    %1611 = arith.extsi %1610 : i64 to i128
                    %c1_i32_2 = arith.constant 1 : i32
                    %1612 = arith.extsi %c1_i32_2 : i32 to i64
                    %1613 = arith.extsi %1612 : i64 to i128
                    %1614 = arith.shli %1611, %1613 : i128
                    %1615 = arith.subi %1586, %1614 : i128
                    %1616 = arith.trunci %1615 : i128 to i16
                    affine.yield %1616 : i16
                  } else {
                    %c0_i32 = arith.constant 0 : i32
                    %1586 = arith.trunci %c0_i32 : i32 to i16
                    affine.yield %1586 : i16
                  }
                  %1584 = affine.load %1581[%c0] {from = "sum_rv"} : memref<1xi16>
                  %1585 = arith.addi %1583, %1584 : i16
                  affine.store %1585, %1581[%c0] {to = "sum_rv"} : memref<1xi16>
                } {loop_name = "layer1_1_conv2_out_msb_rx", reduction}
              } {loop_name = "layer1_1_conv2_out_msb_ry", reduction}
            } {loop_name = "layer1_1_conv2_out_msb_rc", reduction}
            %c0_0 = arith.constant 0 : index
            %1582 = affine.load %1581[%c0_0] {from = "sum_rv"} : memref<1xi16>
            affine.store %1582, %306[%arg168, %arg169, %arg170, %arg171] {to = "layer1_1_conv2_out_msb"} : memref<1x16x32x32xi16>
          } {loop_name = "xx"}
        } {loop_name = "yy"}
      } {loop_name = "ff"}
    } {loop_name = "nn", op_name = "layer1_1_conv2_out_msb"}
    %315 = memref.alloc() {name = "layer1_1_conv2_out_lsb_pad", unsigned} : memref<1x1x34x34xi16>
    %316 = hcl.create_op_handle "layer1_1_conv2_out_lsb_pad"
    %317 = hcl.create_loop_handle %316, "ii"
    %318 = hcl.create_loop_handle %316, "cc"
    %319 = hcl.create_loop_handle %316, "hh"
    %320 = hcl.create_loop_handle %316, "ww"
    affine.for %arg168 = 0 to 1 {
      affine.for %arg169 = 0 to 1 {
        affine.for %arg170 = 0 to 34 {
          affine.for %arg171 = 0 to 34 {
            %1581 = affine.if #set0(%arg171, %arg170) -> i16 {
              %1582 = affine.load %294[%arg168, %arg169, %arg170 - 1, %arg171 - 1] {from = "layer1_1_conv2_lsb_truncate", unsigned} : memref<1x1x32x32xi16>
              affine.yield %1582 : i16
            } else {
              %c0_i32 = arith.constant 0 : i32
              %1582 = arith.trunci %c0_i32 {unsigned} : i32 to i16
              affine.yield %1582 : i16
            } {unsigned}
            affine.store %1581, %315[%arg168, %arg169, %arg170, %arg171] {to = "layer1_1_conv2_out_lsb_pad"} : memref<1x1x34x34xi16>
          } {loop_name = "ww"}
        } {loop_name = "hh"}
      } {loop_name = "cc"}
    } {loop_name = "ii", op_name = "layer1_1_conv2_out_lsb_pad"}
    %321 = memref.alloc() {name = "layer1_1_conv2_out_lsb"} : memref<1x16x32x32xi16>
    %322 = hcl.create_op_handle "layer1_1_conv2_out_lsb"
    %323 = hcl.create_loop_handle %322, "nn"
    %324 = hcl.create_loop_handle %322, "ff"
    %325 = hcl.create_loop_handle %322, "yy"
    %326 = hcl.create_loop_handle %322, "xx"
    %327 = hcl.create_loop_handle %322, "layer1_1_conv2_out_lsb_rc"
    %328 = hcl.create_loop_handle %322, "layer1_1_conv2_out_lsb_rx"
    %329 = hcl.create_loop_handle %322, "layer1_1_conv2_out_lsb_ry"
    affine.for %arg168 = 0 to 1 {
      affine.for %arg169 = 0 to 16 {
        affine.for %arg170 = 0 to 32 {
          affine.for %arg171 = 0 to 32 {
            %1581 = memref.alloc() {name = "sum_rv"} : memref<1xi16>
            %c0 = arith.constant 0 : index
            %c0_i16 = arith.constant 0 : i16
            affine.store %c0_i16, %1581[%c0] {to = "sum_rv"} : memref<1xi16>
            affine.for %arg172 = 0 to 1 {
              affine.for %arg173 = 0 to 3 {
                affine.for %arg174 = 0 to 3 {
                  %1583 = affine.if #set1(%arg171, %arg174, %arg170, %arg173) -> i16 {
                    %c16_i32 = arith.constant 16 : i32
                    %1586 = arith.extsi %c16_i32 : i32 to i128
                    %1587 = affine.load %315[%arg168, %arg172, %arg170 + %arg173, %arg171 + %arg174] {from = "layer1_1_conv2_out_lsb_pad", unsigned} : memref<1x1x34x34xi16>
                    %1588 = affine.load %arg32[%arg169, %arg172, %arg173, %arg174] {from = "layer1_1_conv2_weight", unsigned} : memref<16x1x3x3xi16>
                    %1589 = arith.xori %1587, %1588 {unsigned} : i16
                    %c1_i32 = arith.constant 1 : i32
                    %1590 = arith.trunci %c1_i32 {unsigned} : i32 to i16
                    %1591 = arith.shrui %1589, %1590 {unsigned} : i16
                    %c6148914691236517205_i64 = arith.constant 6148914691236517205 : i64
                    %1592 = arith.trunci %c6148914691236517205_i64 {unsigned} : i64 to i16
                    %1593 = arith.andi %1591, %1592 {unsigned} : i16
                    %1594 = arith.subi %1589, %1593 {unsigned} : i16
                    %c3689348814741910323_i64 = arith.constant 3689348814741910323 : i64
                    %1595 = arith.trunci %c3689348814741910323_i64 {unsigned} : i64 to i16
                    %1596 = arith.andi %1594, %1595 {unsigned} : i16
                    %c2_i32 = arith.constant 2 : i32
                    %1597 = arith.trunci %c2_i32 {unsigned} : i32 to i16
                    %1598 = arith.shrui %1594, %1597 {unsigned} : i16
                    %c3689348814741910323_i64_1 = arith.constant 3689348814741910323 : i64
                    %1599 = arith.trunci %c3689348814741910323_i64_1 {unsigned} : i64 to i16
                    %1600 = arith.andi %1598, %1599 {unsigned} : i16
                    %1601 = arith.addi %1596, %1600 {unsigned} : i16
                    %c4_i32 = arith.constant 4 : i32
                    %1602 = arith.trunci %c4_i32 {unsigned} : i32 to i16
                    %1603 = arith.shrui %1601, %1602 {unsigned} : i16
                    %1604 = arith.addi %1601, %1603 {unsigned} : i16
                    %c1085102592571150095_i64 = arith.constant 1085102592571150095 : i64
                    %1605 = arith.trunci %c1085102592571150095_i64 {unsigned} : i64 to i16
                    %1606 = arith.andi %1604, %1605 {unsigned} : i16
                    %1607 = arith.extui %1606 : i16 to i64
                    %c72340172838076673_i64 = arith.constant 72340172838076673 : i64
                    %1608 = arith.muli %1607, %c72340172838076673_i64 : i64
                    %c56_i32 = arith.constant 56 : i32
                    %1609 = arith.extsi %c56_i32 : i32 to i64
                    %1610 = arith.shrui %1608, %1609 : i64
                    %1611 = arith.extsi %1610 : i64 to i128
                    %c1_i32_2 = arith.constant 1 : i32
                    %1612 = arith.extsi %c1_i32_2 : i32 to i64
                    %1613 = arith.extsi %1612 : i64 to i128
                    %1614 = arith.shli %1611, %1613 : i128
                    %1615 = arith.subi %1586, %1614 : i128
                    %1616 = arith.trunci %1615 : i128 to i16
                    affine.yield %1616 : i16
                  } else {
                    %c0_i32 = arith.constant 0 : i32
                    %1586 = arith.trunci %c0_i32 : i32 to i16
                    affine.yield %1586 : i16
                  }
                  %1584 = affine.load %1581[%c0] {from = "sum_rv"} : memref<1xi16>
                  %1585 = arith.addi %1583, %1584 : i16
                  affine.store %1585, %1581[%c0] {to = "sum_rv"} : memref<1xi16>
                } {loop_name = "layer1_1_conv2_out_lsb_rx", reduction}
              } {loop_name = "layer1_1_conv2_out_lsb_ry", reduction}
            } {loop_name = "layer1_1_conv2_out_lsb_rc", reduction}
            %c0_0 = arith.constant 0 : index
            %1582 = affine.load %1581[%c0_0] {from = "sum_rv"} : memref<1xi16>
            affine.store %1582, %321[%arg168, %arg169, %arg170, %arg171] {to = "layer1_1_conv2_out_lsb"} : memref<1x16x32x32xi16>
          } {loop_name = "xx"}
        } {loop_name = "yy"}
      } {loop_name = "ff"}
    } {loop_name = "nn", op_name = "layer1_1_conv2_out_lsb"}
    %330 = memref.alloc() {name = "layer1_1_conv2_pgconv"} : memref<1x16x32x32xf32>
    %331 = hcl.create_op_handle "layer1_1_conv2_pgconv"
    %332 = hcl.create_loop_handle %331, "nn"
    %333 = hcl.create_loop_handle %331, "cc"
    %334 = hcl.create_loop_handle %331, "hh"
    %335 = hcl.create_loop_handle %331, "ww"
    affine.for %arg168 = 0 to 1 {
      affine.for %arg169 = 0 to 16 {
        affine.for %arg170 = 0 to 32 {
          affine.for %arg171 = 0 to 32 {
            %1581 = affine.load %306[%arg168, %arg169, %arg170, %arg171] {from = "layer1_1_conv2_out_msb", moved} : memref<1x16x32x32xi16>
            %1582 = arith.sitofp %1581 {moved} : i16 to f32
            %cst = arith.constant {moved} 2.000000e+00 : f32
            %1583 = arith.mulf %1582, %cst {moved} : f32
            %cst_0 = arith.constant {moved} 3.000000e+00 : f32
            %1584 = arith.divf %1583, %cst_0 {moved} : f32
            %1585 = affine.load %arg33[%arg169] {from = "layer1_1_conv2_threshold", moved} : memref<16xf32>
            %1586 = arith.cmpf ogt, %1584, %1585 {moved} : f32
            %1587 = scf.if %1586 -> (f32) {
              %1588 = affine.load %321[%arg168, %arg169, %arg170, %arg171] {from = "layer1_1_conv2_out_lsb"} : memref<1x16x32x32xi16>
              %1589 = arith.sitofp %1588 : i16 to f32
              %cst_1 = arith.constant 3.000000e+00 : f32
              %1590 = arith.divf %1589, %cst_1 : f32
              %1591 = arith.addf %1590, %1584 : f32
              scf.yield %1591 : f32
            } else {
              scf.yield %1584 : f32
            }
            affine.store %1587, %330[%arg168, %arg169, %arg170, %arg171] {to = "layer1_1_conv2_pgconv"} : memref<1x16x32x32xf32>
          } {loop_name = "ww"}
        } {loop_name = "hh"}
      } {loop_name = "cc"}
    } {loop_name = "nn", op_name = "layer1_1_conv2_pgconv"}
    %336 = memref.alloc() {name = "layer1_1_bn3"} : memref<1x16x32x32xf32>
    %337 = hcl.create_op_handle "layer1_1_bn3"
    %338 = hcl.create_loop_handle %337, "nn"
    %339 = hcl.create_loop_handle %337, "cc"
    %340 = hcl.create_loop_handle %337, "hh"
    %341 = hcl.create_loop_handle %337, "ww"
    affine.for %arg168 = 0 to 1 {
      affine.for %arg169 = 0 to 16 {
        affine.for %arg170 = 0 to 32 {
          affine.for %arg171 = 0 to 32 {
            %1581 = affine.load %330[%arg168, %arg169, %arg170, %arg171] {from = "layer1_1_conv2_pgconv"} : memref<1x16x32x32xf32>
            %1582 = affine.load %arg34[%arg169] {from = "layer1_1_bn2_weight"} : memref<16xf32>
            %1583 = arith.mulf %1581, %1582 : f32
            %1584 = affine.load %arg35[%arg169] {from = "layer1_1_bn2_bias"} : memref<16xf32>
            %1585 = arith.addf %1583, %1584 : f32
            affine.store %1585, %336[%arg168, %arg169, %arg170, %arg171] {to = "layer1_1_bn3"} : memref<1x16x32x32xf32>
          } {loop_name = "ww"}
        } {loop_name = "hh"}
      } {loop_name = "cc"}
    } {loop_name = "nn", op_name = "layer1_1_bn3"}
    %342 = memref.alloc() {name = "layer1_1_rprelu2"} : memref<1x16x32x32xf32>
    %343 = hcl.create_op_handle "layer1_1_rprelu2"
    %344 = hcl.create_loop_handle %343, "nn"
    %345 = hcl.create_loop_handle %343, "cc"
    %346 = hcl.create_loop_handle %343, "hh"
    %347 = hcl.create_loop_handle %343, "ww"
    affine.for %arg168 = 0 to 1 {
      affine.for %arg169 = 0 to 16 {
        affine.for %arg170 = 0 to 32 {
          affine.for %arg171 = 0 to 32 {
            %1581 = affine.load %336[%arg168, %arg169, %arg170, %arg171] {from = "layer1_1_bn3", moved} : memref<1x16x32x32xf32>
            %1582 = affine.load %arg25[%arg169] {from = "layer1_1_rprelu2_shift_x_bias", moved} : memref<16xf32>
            %1583 = arith.addf %1581, %1582 {moved} : f32
            %c0_i32 = arith.constant {moved} 0 : i32
            %1584 = arith.sitofp %c0_i32 {moved} : i32 to f32
            %1585 = arith.cmpf ogt, %1583, %1584 {moved} : f32
            %1586 = scf.if %1585 -> (f32) {
              scf.yield %1583 : f32
            } else {
              %1589 = affine.load %arg27[%arg169] {from = "layer1_1_rprelu2_prelu_weight"} : memref<16xf32>
              %1590 = arith.mulf %1589, %1583 : f32
              scf.yield %1590 : f32
            }
            %1587 = affine.load %arg26[%arg169] {from = "layer1_1_rprelu2_shift_y_bias"} : memref<16xf32>
            %1588 = arith.addf %1586, %1587 : f32
            affine.store %1588, %342[%arg168, %arg169, %arg170, %arg171] {to = "layer1_1_rprelu2"} : memref<1x16x32x32xf32>
          } {loop_name = "ww"}
        } {loop_name = "hh"}
      } {loop_name = "cc"}
    } {loop_name = "nn", op_name = "layer1_1_rprelu2"}
    %348 = memref.alloc() {name = "layer1_1_residual2"} : memref<1x16x32x32xf32>
    %349 = hcl.create_op_handle "layer1_1_residual2"
    %350 = hcl.create_loop_handle %349, "nn"
    %351 = hcl.create_loop_handle %349, "cc"
    %352 = hcl.create_loop_handle %349, "hh"
    %353 = hcl.create_loop_handle %349, "ww"
    affine.for %arg168 = 0 to 1 {
      affine.for %arg169 = 0 to 16 {
        affine.for %arg170 = 0 to 32 {
          affine.for %arg171 = 0 to 32 {
            %1581 = affine.load %276[%arg168, %arg169, %arg170, %arg171] {from = "layer1_1_bn2"} : memref<1x16x32x32xf32>
            %1582 = affine.load %342[%arg168, %arg169, %arg170, %arg171] {from = "layer1_1_rprelu2"} : memref<1x16x32x32xf32>
            %1583 = arith.addf %1581, %1582 : f32
            affine.store %1583, %348[%arg168, %arg169, %arg170, %arg171] {to = "layer1_1_residual2"} : memref<1x16x32x32xf32>
          } {loop_name = "ww"}
        } {loop_name = "hh"}
      } {loop_name = "cc"}
    } {loop_name = "nn", op_name = "layer1_1_residual2"}
    %354 = memref.alloc() {name = "layer1_1_bn4"} : memref<1x16x32x32xf32>
    %355 = hcl.create_op_handle "layer1_1_bn4"
    %356 = hcl.create_loop_handle %355, "nn"
    %357 = hcl.create_loop_handle %355, "cc"
    %358 = hcl.create_loop_handle %355, "hh"
    %359 = hcl.create_loop_handle %355, "ww"
    affine.for %arg168 = 0 to 1 {
      affine.for %arg169 = 0 to 16 {
        affine.for %arg170 = 0 to 32 {
          affine.for %arg171 = 0 to 32 {
            %1581 = affine.load %348[%arg168, %arg169, %arg170, %arg171] {from = "layer1_1_residual2"} : memref<1x16x32x32xf32>
            %1582 = affine.load %arg38[%arg169] {from = "layer1_1_bn4_weight"} : memref<16xf32>
            %1583 = arith.mulf %1581, %1582 : f32
            %1584 = affine.load %arg39[%arg169] {from = "layer1_1_bn4_bias"} : memref<16xf32>
            %1585 = arith.addf %1583, %1584 : f32
            affine.store %1585, %354[%arg168, %arg169, %arg170, %arg171] {to = "layer1_1_bn4"} : memref<1x16x32x32xf32>
          } {loop_name = "ww"}
        } {loop_name = "hh"}
      } {loop_name = "cc"}
    } {loop_name = "nn", op_name = "layer1_1_bn4"}
    %360 = memref.alloc() {name = "layer1_2_rsign1", unsigned} : memref<1x16x32x32xi2>
    %361 = hcl.create_op_handle "layer1_2_rsign1"
    %362 = hcl.create_loop_handle %361, "nn"
    %363 = hcl.create_loop_handle %361, "cc"
    %364 = hcl.create_loop_handle %361, "hh"
    %365 = hcl.create_loop_handle %361, "ww"
    affine.for %arg168 = 0 to 1 {
      affine.for %arg169 = 0 to 16 {
        affine.for %arg170 = 0 to 32 {
          affine.for %arg171 = 0 to 32 {
            %1581 = affine.load %354[%arg168, %arg169, %arg170, %arg171] {from = "layer1_1_bn4", moved} : memref<1x16x32x32xf32>
            %cst = arith.constant {moved} 0.666666686 : f32
            %1582 = arith.cmpf ogt, %1581, %cst {moved} : f32
            %1583 = scf.if %1582 -> (i32) {
              %c3_i32 = arith.constant 3 : i32
              scf.yield %c3_i32 : i32
            } else {
              %c0_i32 = arith.constant {moved} 0 : i32
              %1585 = arith.sitofp %c0_i32 {moved} : i32 to f32
              %1586 = arith.cmpf oge, %1581, %1585 {moved} : f32
              %cst_0 = arith.constant {moved} 0.666666686 : f32
              %1587 = arith.cmpf ole, %1581, %cst_0 {moved} : f32
              %1588 = arith.andi %1586, %1587 {moved} : i1
              %1589 = scf.if %1588 -> (i32) {
                %c2_i32 = arith.constant 2 : i32
                scf.yield %c2_i32 : i32
              } else {
                %c0_i32_1 = arith.constant {moved} 0 : i32
                %1590 = arith.sitofp %c0_i32_1 {moved} : i32 to f32
                %1591 = arith.cmpf olt, %1581, %1590 {moved} : f32
                %cst_2 = arith.constant {moved} -0.666666686 : f32
                %1592 = arith.cmpf oge, %1581, %cst_2 {moved} : f32
                %1593 = arith.andi %1591, %1592 {moved} : i1
                %1594 = scf.if %1593 -> (i32) {
                  %c1_i32 = arith.constant 1 : i32
                  scf.yield %c1_i32 : i32
                } else {
                  %c0_i32_3 = arith.constant 0 : i32
                  scf.yield %c0_i32_3 : i32
                }
                scf.yield %1594 : i32
              }
              scf.yield %1589 : i32
            }
            %1584 = arith.trunci %1583 : i32 to i2
            affine.store %1584, %360[%arg168, %arg169, %arg170, %arg171] {to = "layer1_2_rsign1"} : memref<1x16x32x32xi2>
          } {loop_name = "ww"}
        } {loop_name = "hh"}
      } {loop_name = "cc"}
    } {loop_name = "nn", op_name = "layer1_2_rsign1"}
    %366 = memref.alloc() {name = "layer1_2_conv1_msb_truncate", unsigned} : memref<1x1x32x32xi16>
    %367 = hcl.create_op_handle "layer1_2_conv1_msb_truncate"
    %368 = hcl.create_loop_handle %367, "i"
    %369 = hcl.create_loop_handle %367, "c"
    %370 = hcl.create_loop_handle %367, "h"
    %371 = hcl.create_loop_handle %367, "w"
    affine.for %arg168 = 0 to 1 {
      affine.for %arg169 = 0 to 1 {
        affine.for %arg170 = 0 to 32 {
          affine.for %arg171 = 0 to 32 {
            %1581 = memref.alloc() {name = "layer1_2_conv1_msb_truncate_pack", unsigned} : memref<1xi16>
            %c0 = arith.constant 0 : index
            %c0_i16 = arith.constant {unsigned} 0 : i16
            affine.store %c0_i16, %1581[0] {to = "layer1_2_conv1_msb_truncate_pack", unsigned} : memref<1xi16>
            %1582 = hcl.create_op_handle "stage_8"
            %1583 = hcl.create_loop_handle %1582, "loop_8"
            affine.for %arg172 = 0 to 16 {
              %1585 = affine.load %360[%arg168, %arg169 * 16 + %arg172, %arg170, %arg171] {from = "layer1_2_rsign1", unsigned} : memref<1x16x32x32xi2>
              %c1 = arith.constant 1 : index
              %1586 = hcl.get_bit(%1585 : i2, %c1) -> i1
              %1587 = affine.load %1581[0] {from = "layer1_2_conv1_msb_truncate_pack", unsigned} : memref<1xi16>
              hcl.set_bit(%1587 : i16, %arg172, %1586 : i1)
              affine.store %1587, %1581[0] {to = "layer1_2_conv1_msb_truncate_pack", unsigned} : memref<1xi16>
            } {loop_name = "loop_8", op_name = "stage_8"}
            %1584 = affine.load %1581[0] {from = "layer1_2_conv1_msb_truncate_pack", unsigned} : memref<1xi16>
            affine.store %1584, %366[%arg168, %arg169, %arg170, %arg171] {to = "layer1_2_conv1_msb_truncate"} : memref<1x1x32x32xi16>
          } {loop_name = "w"}
        } {loop_name = "h"}
      } {loop_name = "c"}
    } {loop_name = "i", op_name = "layer1_2_conv1_msb_truncate"}
    %372 = memref.alloc() {name = "layer1_2_conv1_lsb_truncate", unsigned} : memref<1x1x32x32xi16>
    %373 = hcl.create_op_handle "layer1_2_conv1_lsb_truncate"
    %374 = hcl.create_loop_handle %373, "i"
    %375 = hcl.create_loop_handle %373, "c"
    %376 = hcl.create_loop_handle %373, "h"
    %377 = hcl.create_loop_handle %373, "w"
    affine.for %arg168 = 0 to 1 {
      affine.for %arg169 = 0 to 1 {
        affine.for %arg170 = 0 to 32 {
          affine.for %arg171 = 0 to 32 {
            %1581 = memref.alloc() {name = "layer1_2_conv1_lsb_truncate_pack", unsigned} : memref<1xi16>
            %c0 = arith.constant 0 : index
            %c0_i16 = arith.constant {unsigned} 0 : i16
            affine.store %c0_i16, %1581[0] {to = "layer1_2_conv1_lsb_truncate_pack", unsigned} : memref<1xi16>
            %1582 = hcl.create_op_handle "stage_9"
            %1583 = hcl.create_loop_handle %1582, "loop_9"
            affine.for %arg172 = 0 to 16 {
              %1585 = affine.load %360[%arg168, %arg169 * 16 + %arg172, %arg170, %arg171] {from = "layer1_2_rsign1", unsigned} : memref<1x16x32x32xi2>
              %c0_0 = arith.constant 0 : index
              %1586 = hcl.get_bit(%1585 : i2, %c0_0) -> i1
              %1587 = affine.load %1581[0] {from = "layer1_2_conv1_lsb_truncate_pack", unsigned} : memref<1xi16>
              hcl.set_bit(%1587 : i16, %arg172, %1586 : i1)
              affine.store %1587, %1581[0] {to = "layer1_2_conv1_lsb_truncate_pack", unsigned} : memref<1xi16>
            } {loop_name = "loop_9", op_name = "stage_9"}
            %1584 = affine.load %1581[0] {from = "layer1_2_conv1_lsb_truncate_pack", unsigned} : memref<1xi16>
            affine.store %1584, %372[%arg168, %arg169, %arg170, %arg171] {to = "layer1_2_conv1_lsb_truncate"} : memref<1x1x32x32xi16>
          } {loop_name = "w"}
        } {loop_name = "h"}
      } {loop_name = "c"}
    } {loop_name = "i", op_name = "layer1_2_conv1_lsb_truncate"}
    %378 = memref.alloc() {name = "layer1_2_conv1_out_msb_pad", unsigned} : memref<1x1x34x34xi16>
    %379 = hcl.create_op_handle "layer1_2_conv1_out_msb_pad"
    %380 = hcl.create_loop_handle %379, "ii"
    %381 = hcl.create_loop_handle %379, "cc"
    %382 = hcl.create_loop_handle %379, "hh"
    %383 = hcl.create_loop_handle %379, "ww"
    affine.for %arg168 = 0 to 1 {
      affine.for %arg169 = 0 to 1 {
        affine.for %arg170 = 0 to 34 {
          affine.for %arg171 = 0 to 34 {
            %1581 = affine.if #set0(%arg171, %arg170) -> i16 {
              %1582 = affine.load %366[%arg168, %arg169, %arg170 - 1, %arg171 - 1] {from = "layer1_2_conv1_msb_truncate", unsigned} : memref<1x1x32x32xi16>
              affine.yield %1582 : i16
            } else {
              %c0_i32 = arith.constant 0 : i32
              %1582 = arith.trunci %c0_i32 {unsigned} : i32 to i16
              affine.yield %1582 : i16
            } {unsigned}
            affine.store %1581, %378[%arg168, %arg169, %arg170, %arg171] {to = "layer1_2_conv1_out_msb_pad"} : memref<1x1x34x34xi16>
          } {loop_name = "ww"}
        } {loop_name = "hh"}
      } {loop_name = "cc"}
    } {loop_name = "ii", op_name = "layer1_2_conv1_out_msb_pad"}
    %384 = memref.alloc() {name = "layer1_2_conv1_out_msb"} : memref<1x16x32x32xi16>
    %385 = hcl.create_op_handle "layer1_2_conv1_out_msb"
    %386 = hcl.create_loop_handle %385, "nn"
    %387 = hcl.create_loop_handle %385, "ff"
    %388 = hcl.create_loop_handle %385, "yy"
    %389 = hcl.create_loop_handle %385, "xx"
    %390 = hcl.create_loop_handle %385, "layer1_2_conv1_out_msb_rc"
    %391 = hcl.create_loop_handle %385, "layer1_2_conv1_out_msb_rx"
    %392 = hcl.create_loop_handle %385, "layer1_2_conv1_out_msb_ry"
    affine.for %arg168 = 0 to 1 {
      affine.for %arg169 = 0 to 16 {
        affine.for %arg170 = 0 to 32 {
          affine.for %arg171 = 0 to 32 {
            %1581 = memref.alloc() {name = "sum_rv"} : memref<1xi16>
            %c0 = arith.constant 0 : index
            %c0_i16 = arith.constant 0 : i16
            affine.store %c0_i16, %1581[%c0] {to = "sum_rv"} : memref<1xi16>
            affine.for %arg172 = 0 to 1 {
              affine.for %arg173 = 0 to 3 {
                affine.for %arg174 = 0 to 3 {
                  %1583 = affine.if #set1(%arg171, %arg174, %arg170, %arg173) -> i16 {
                    %c16_i32 = arith.constant 16 : i32
                    %1586 = arith.extsi %c16_i32 : i32 to i128
                    %1587 = affine.load %378[%arg168, %arg172, %arg170 + %arg173, %arg171 + %arg174] {from = "layer1_2_conv1_out_msb_pad", unsigned} : memref<1x1x34x34xi16>
                    %1588 = affine.load %arg46[%arg169, %arg172, %arg173, %arg174] {from = "layer1_2_conv1_weight", unsigned} : memref<16x1x3x3xi16>
                    %1589 = arith.xori %1587, %1588 {unsigned} : i16
                    %c1_i32 = arith.constant 1 : i32
                    %1590 = arith.trunci %c1_i32 {unsigned} : i32 to i16
                    %1591 = arith.shrui %1589, %1590 {unsigned} : i16
                    %c6148914691236517205_i64 = arith.constant 6148914691236517205 : i64
                    %1592 = arith.trunci %c6148914691236517205_i64 {unsigned} : i64 to i16
                    %1593 = arith.andi %1591, %1592 {unsigned} : i16
                    %1594 = arith.subi %1589, %1593 {unsigned} : i16
                    %c3689348814741910323_i64 = arith.constant 3689348814741910323 : i64
                    %1595 = arith.trunci %c3689348814741910323_i64 {unsigned} : i64 to i16
                    %1596 = arith.andi %1594, %1595 {unsigned} : i16
                    %c2_i32 = arith.constant 2 : i32
                    %1597 = arith.trunci %c2_i32 {unsigned} : i32 to i16
                    %1598 = arith.shrui %1594, %1597 {unsigned} : i16
                    %c3689348814741910323_i64_1 = arith.constant 3689348814741910323 : i64
                    %1599 = arith.trunci %c3689348814741910323_i64_1 {unsigned} : i64 to i16
                    %1600 = arith.andi %1598, %1599 {unsigned} : i16
                    %1601 = arith.addi %1596, %1600 {unsigned} : i16
                    %c4_i32 = arith.constant 4 : i32
                    %1602 = arith.trunci %c4_i32 {unsigned} : i32 to i16
                    %1603 = arith.shrui %1601, %1602 {unsigned} : i16
                    %1604 = arith.addi %1601, %1603 {unsigned} : i16
                    %c1085102592571150095_i64 = arith.constant 1085102592571150095 : i64
                    %1605 = arith.trunci %c1085102592571150095_i64 {unsigned} : i64 to i16
                    %1606 = arith.andi %1604, %1605 {unsigned} : i16
                    %1607 = arith.extui %1606 : i16 to i64
                    %c72340172838076673_i64 = arith.constant 72340172838076673 : i64
                    %1608 = arith.muli %1607, %c72340172838076673_i64 : i64
                    %c56_i32 = arith.constant 56 : i32
                    %1609 = arith.extsi %c56_i32 : i32 to i64
                    %1610 = arith.shrui %1608, %1609 : i64
                    %1611 = arith.extsi %1610 : i64 to i128
                    %c1_i32_2 = arith.constant 1 : i32
                    %1612 = arith.extsi %c1_i32_2 : i32 to i64
                    %1613 = arith.extsi %1612 : i64 to i128
                    %1614 = arith.shli %1611, %1613 : i128
                    %1615 = arith.subi %1586, %1614 : i128
                    %1616 = arith.trunci %1615 : i128 to i16
                    affine.yield %1616 : i16
                  } else {
                    %c0_i32 = arith.constant 0 : i32
                    %1586 = arith.trunci %c0_i32 : i32 to i16
                    affine.yield %1586 : i16
                  }
                  %1584 = affine.load %1581[%c0] {from = "sum_rv"} : memref<1xi16>
                  %1585 = arith.addi %1583, %1584 : i16
                  affine.store %1585, %1581[%c0] {to = "sum_rv"} : memref<1xi16>
                } {loop_name = "layer1_2_conv1_out_msb_rx", reduction}
              } {loop_name = "layer1_2_conv1_out_msb_ry", reduction}
            } {loop_name = "layer1_2_conv1_out_msb_rc", reduction}
            %c0_0 = arith.constant 0 : index
            %1582 = affine.load %1581[%c0_0] {from = "sum_rv"} : memref<1xi16>
            affine.store %1582, %384[%arg168, %arg169, %arg170, %arg171] {to = "layer1_2_conv1_out_msb"} : memref<1x16x32x32xi16>
          } {loop_name = "xx"}
        } {loop_name = "yy"}
      } {loop_name = "ff"}
    } {loop_name = "nn", op_name = "layer1_2_conv1_out_msb"}
    %393 = memref.alloc() {name = "layer1_2_conv1_out_lsb_pad", unsigned} : memref<1x1x34x34xi16>
    %394 = hcl.create_op_handle "layer1_2_conv1_out_lsb_pad"
    %395 = hcl.create_loop_handle %394, "ii"
    %396 = hcl.create_loop_handle %394, "cc"
    %397 = hcl.create_loop_handle %394, "hh"
    %398 = hcl.create_loop_handle %394, "ww"
    affine.for %arg168 = 0 to 1 {
      affine.for %arg169 = 0 to 1 {
        affine.for %arg170 = 0 to 34 {
          affine.for %arg171 = 0 to 34 {
            %1581 = affine.if #set0(%arg171, %arg170) -> i16 {
              %1582 = affine.load %372[%arg168, %arg169, %arg170 - 1, %arg171 - 1] {from = "layer1_2_conv1_lsb_truncate", unsigned} : memref<1x1x32x32xi16>
              affine.yield %1582 : i16
            } else {
              %c0_i32 = arith.constant 0 : i32
              %1582 = arith.trunci %c0_i32 {unsigned} : i32 to i16
              affine.yield %1582 : i16
            } {unsigned}
            affine.store %1581, %393[%arg168, %arg169, %arg170, %arg171] {to = "layer1_2_conv1_out_lsb_pad"} : memref<1x1x34x34xi16>
          } {loop_name = "ww"}
        } {loop_name = "hh"}
      } {loop_name = "cc"}
    } {loop_name = "ii", op_name = "layer1_2_conv1_out_lsb_pad"}
    %399 = memref.alloc() {name = "layer1_2_conv1_out_lsb"} : memref<1x16x32x32xi16>
    %400 = hcl.create_op_handle "layer1_2_conv1_out_lsb"
    %401 = hcl.create_loop_handle %400, "nn"
    %402 = hcl.create_loop_handle %400, "ff"
    %403 = hcl.create_loop_handle %400, "yy"
    %404 = hcl.create_loop_handle %400, "xx"
    %405 = hcl.create_loop_handle %400, "layer1_2_conv1_out_lsb_rc"
    %406 = hcl.create_loop_handle %400, "layer1_2_conv1_out_lsb_rx"
    %407 = hcl.create_loop_handle %400, "layer1_2_conv1_out_lsb_ry"
    affine.for %arg168 = 0 to 1 {
      affine.for %arg169 = 0 to 16 {
        affine.for %arg170 = 0 to 32 {
          affine.for %arg171 = 0 to 32 {
            %1581 = memref.alloc() {name = "sum_rv"} : memref<1xi16>
            %c0 = arith.constant 0 : index
            %c0_i16 = arith.constant 0 : i16
            affine.store %c0_i16, %1581[%c0] {to = "sum_rv"} : memref<1xi16>
            affine.for %arg172 = 0 to 1 {
              affine.for %arg173 = 0 to 3 {
                affine.for %arg174 = 0 to 3 {
                  %1583 = affine.if #set1(%arg171, %arg174, %arg170, %arg173) -> i16 {
                    %c16_i32 = arith.constant 16 : i32
                    %1586 = arith.extsi %c16_i32 : i32 to i128
                    %1587 = affine.load %393[%arg168, %arg172, %arg170 + %arg173, %arg171 + %arg174] {from = "layer1_2_conv1_out_lsb_pad", unsigned} : memref<1x1x34x34xi16>
                    %1588 = affine.load %arg46[%arg169, %arg172, %arg173, %arg174] {from = "layer1_2_conv1_weight", unsigned} : memref<16x1x3x3xi16>
                    %1589 = arith.xori %1587, %1588 {unsigned} : i16
                    %c1_i32 = arith.constant 1 : i32
                    %1590 = arith.trunci %c1_i32 {unsigned} : i32 to i16
                    %1591 = arith.shrui %1589, %1590 {unsigned} : i16
                    %c6148914691236517205_i64 = arith.constant 6148914691236517205 : i64
                    %1592 = arith.trunci %c6148914691236517205_i64 {unsigned} : i64 to i16
                    %1593 = arith.andi %1591, %1592 {unsigned} : i16
                    %1594 = arith.subi %1589, %1593 {unsigned} : i16
                    %c3689348814741910323_i64 = arith.constant 3689348814741910323 : i64
                    %1595 = arith.trunci %c3689348814741910323_i64 {unsigned} : i64 to i16
                    %1596 = arith.andi %1594, %1595 {unsigned} : i16
                    %c2_i32 = arith.constant 2 : i32
                    %1597 = arith.trunci %c2_i32 {unsigned} : i32 to i16
                    %1598 = arith.shrui %1594, %1597 {unsigned} : i16
                    %c3689348814741910323_i64_1 = arith.constant 3689348814741910323 : i64
                    %1599 = arith.trunci %c3689348814741910323_i64_1 {unsigned} : i64 to i16
                    %1600 = arith.andi %1598, %1599 {unsigned} : i16
                    %1601 = arith.addi %1596, %1600 {unsigned} : i16
                    %c4_i32 = arith.constant 4 : i32
                    %1602 = arith.trunci %c4_i32 {unsigned} : i32 to i16
                    %1603 = arith.shrui %1601, %1602 {unsigned} : i16
                    %1604 = arith.addi %1601, %1603 {unsigned} : i16
                    %c1085102592571150095_i64 = arith.constant 1085102592571150095 : i64
                    %1605 = arith.trunci %c1085102592571150095_i64 {unsigned} : i64 to i16
                    %1606 = arith.andi %1604, %1605 {unsigned} : i16
                    %1607 = arith.extui %1606 : i16 to i64
                    %c72340172838076673_i64 = arith.constant 72340172838076673 : i64
                    %1608 = arith.muli %1607, %c72340172838076673_i64 : i64
                    %c56_i32 = arith.constant 56 : i32
                    %1609 = arith.extsi %c56_i32 : i32 to i64
                    %1610 = arith.shrui %1608, %1609 : i64
                    %1611 = arith.extsi %1610 : i64 to i128
                    %c1_i32_2 = arith.constant 1 : i32
                    %1612 = arith.extsi %c1_i32_2 : i32 to i64
                    %1613 = arith.extsi %1612 : i64 to i128
                    %1614 = arith.shli %1611, %1613 : i128
                    %1615 = arith.subi %1586, %1614 : i128
                    %1616 = arith.trunci %1615 : i128 to i16
                    affine.yield %1616 : i16
                  } else {
                    %c0_i32 = arith.constant 0 : i32
                    %1586 = arith.trunci %c0_i32 : i32 to i16
                    affine.yield %1586 : i16
                  }
                  %1584 = affine.load %1581[%c0] {from = "sum_rv"} : memref<1xi16>
                  %1585 = arith.addi %1583, %1584 : i16
                  affine.store %1585, %1581[%c0] {to = "sum_rv"} : memref<1xi16>
                } {loop_name = "layer1_2_conv1_out_lsb_rx", reduction}
              } {loop_name = "layer1_2_conv1_out_lsb_ry", reduction}
            } {loop_name = "layer1_2_conv1_out_lsb_rc", reduction}
            %c0_0 = arith.constant 0 : index
            %1582 = affine.load %1581[%c0_0] {from = "sum_rv"} : memref<1xi16>
            affine.store %1582, %399[%arg168, %arg169, %arg170, %arg171] {to = "layer1_2_conv1_out_lsb"} : memref<1x16x32x32xi16>
          } {loop_name = "xx"}
        } {loop_name = "yy"}
      } {loop_name = "ff"}
    } {loop_name = "nn", op_name = "layer1_2_conv1_out_lsb"}
    %408 = memref.alloc() {name = "layer1_2_conv1_pgconv"} : memref<1x16x32x32xf32>
    %409 = hcl.create_op_handle "layer1_2_conv1_pgconv"
    %410 = hcl.create_loop_handle %409, "nn"
    %411 = hcl.create_loop_handle %409, "cc"
    %412 = hcl.create_loop_handle %409, "hh"
    %413 = hcl.create_loop_handle %409, "ww"
    affine.for %arg168 = 0 to 1 {
      affine.for %arg169 = 0 to 16 {
        affine.for %arg170 = 0 to 32 {
          affine.for %arg171 = 0 to 32 {
            %1581 = affine.load %384[%arg168, %arg169, %arg170, %arg171] {from = "layer1_2_conv1_out_msb", moved} : memref<1x16x32x32xi16>
            %1582 = arith.sitofp %1581 {moved} : i16 to f32
            %cst = arith.constant {moved} 2.000000e+00 : f32
            %1583 = arith.mulf %1582, %cst {moved} : f32
            %cst_0 = arith.constant {moved} 3.000000e+00 : f32
            %1584 = arith.divf %1583, %cst_0 {moved} : f32
            %1585 = affine.load %arg47[%arg169] {from = "layer1_2_conv1_threshold", moved} : memref<16xf32>
            %1586 = arith.cmpf ogt, %1584, %1585 {moved} : f32
            %1587 = scf.if %1586 -> (f32) {
              %1588 = affine.load %399[%arg168, %arg169, %arg170, %arg171] {from = "layer1_2_conv1_out_lsb"} : memref<1x16x32x32xi16>
              %1589 = arith.sitofp %1588 : i16 to f32
              %cst_1 = arith.constant 3.000000e+00 : f32
              %1590 = arith.divf %1589, %cst_1 : f32
              %1591 = arith.addf %1590, %1584 : f32
              scf.yield %1591 : f32
            } else {
              scf.yield %1584 : f32
            }
            affine.store %1587, %408[%arg168, %arg169, %arg170, %arg171] {to = "layer1_2_conv1_pgconv"} : memref<1x16x32x32xf32>
          } {loop_name = "ww"}
        } {loop_name = "hh"}
      } {loop_name = "cc"}
    } {loop_name = "nn", op_name = "layer1_2_conv1_pgconv"}
    %414 = memref.alloc() {name = "layer1_2_bn1"} : memref<1x16x32x32xf32>
    %415 = hcl.create_op_handle "layer1_2_bn1"
    %416 = hcl.create_loop_handle %415, "nn"
    %417 = hcl.create_loop_handle %415, "cc"
    %418 = hcl.create_loop_handle %415, "hh"
    %419 = hcl.create_loop_handle %415, "ww"
    affine.for %arg168 = 0 to 1 {
      affine.for %arg169 = 0 to 16 {
        affine.for %arg170 = 0 to 32 {
          affine.for %arg171 = 0 to 32 {
            %1581 = affine.load %408[%arg168, %arg169, %arg170, %arg171] {from = "layer1_2_conv1_pgconv"} : memref<1x16x32x32xf32>
            %1582 = affine.load %arg48[%arg169] {from = "layer1_2_bn1_weight"} : memref<16xf32>
            %1583 = arith.mulf %1581, %1582 : f32
            %1584 = affine.load %arg49[%arg169] {from = "layer1_2_bn1_bias"} : memref<16xf32>
            %1585 = arith.addf %1583, %1584 : f32
            affine.store %1585, %414[%arg168, %arg169, %arg170, %arg171] {to = "layer1_2_bn1"} : memref<1x16x32x32xf32>
          } {loop_name = "ww"}
        } {loop_name = "hh"}
      } {loop_name = "cc"}
    } {loop_name = "nn", op_name = "layer1_2_bn1"}
    %420 = memref.alloc() {name = "layer1_2_rprelu1"} : memref<1x16x32x32xf32>
    %421 = hcl.create_op_handle "layer1_2_rprelu1"
    %422 = hcl.create_loop_handle %421, "nn"
    %423 = hcl.create_loop_handle %421, "cc"
    %424 = hcl.create_loop_handle %421, "hh"
    %425 = hcl.create_loop_handle %421, "ww"
    affine.for %arg168 = 0 to 1 {
      affine.for %arg169 = 0 to 16 {
        affine.for %arg170 = 0 to 32 {
          affine.for %arg171 = 0 to 32 {
            %1581 = affine.load %414[%arg168, %arg169, %arg170, %arg171] {from = "layer1_2_bn1", moved} : memref<1x16x32x32xf32>
            %1582 = affine.load %arg40[%arg169] {from = "layer1_2_rprelu1_shift_x_bias", moved} : memref<16xf32>
            %1583 = arith.addf %1581, %1582 {moved} : f32
            %c0_i32 = arith.constant {moved} 0 : i32
            %1584 = arith.sitofp %c0_i32 {moved} : i32 to f32
            %1585 = arith.cmpf ogt, %1583, %1584 {moved} : f32
            %1586 = scf.if %1585 -> (f32) {
              scf.yield %1583 : f32
            } else {
              %1589 = affine.load %arg42[%arg169] {from = "layer1_2_rprelu1_prelu_weight"} : memref<16xf32>
              %1590 = arith.mulf %1589, %1583 : f32
              scf.yield %1590 : f32
            }
            %1587 = affine.load %arg41[%arg169] {from = "layer1_2_rprelu1_shift_y_bias"} : memref<16xf32>
            %1588 = arith.addf %1586, %1587 : f32
            affine.store %1588, %420[%arg168, %arg169, %arg170, %arg171] {to = "layer1_2_rprelu1"} : memref<1x16x32x32xf32>
          } {loop_name = "ww"}
        } {loop_name = "hh"}
      } {loop_name = "cc"}
    } {loop_name = "nn", op_name = "layer1_2_rprelu1"}
    %426 = memref.alloc() {name = "layer1_2_residual1"} : memref<1x16x32x32xf32>
…
    %1515 = hcl.reuse_at(%237 : memref<1x1x34x34xi16>, %247) -> memref<1xf32>
    %1516 = hcl.reuse_at(%1515 : memref<1xf32>, %248) -> memref<1xf32>
    hcl.partition(%1515 : memref<1xf32>, CompletePartition, 1, 0)
    hcl.partition(%1516 : memref<1xf32>, CompletePartition, 1, 0)
    hcl.partition(%1516 : memref<1xf32>, CompletePartition, 2, 0)
    hcl.partition(%237 : memref<1x1x34x34xi16>, CompletePartition, 2, 0)
    hcl.partition(%arg28 : memref<16x1x3x3xi16>, CompletePartition, 2, 0)
    hcl.partition(%arg28 : memref<16x1x3x3xi16>, CompletePartition, 3, 0)
    hcl.partition(%arg28 : memref<16x1x3x3xi16>, CompletePartition, 4, 0)
    hcl.pipeline(%256, 1)
    hcl.partition(%252 : memref<1x16x32x32xf32>, CompletePartition, 4, 0)
    hcl.partition(%arg29 : memref<16xf32>, CompletePartition, 1, 0)
    hcl.pipeline(%262, 1)
    hcl.partition(%arg30 : memref<16xf32>, CompletePartition, 1, 0)
    hcl.partition(%arg31 : memref<16xf32>, CompletePartition, 1, 0)
    hcl.partition(%258 : memref<1x16x32x32xf32>, CompletePartition, 4, 0)
    hcl.pipeline(%268, 1)
    hcl.partition(%264 : memref<1x16x32x32xf32>, CompletePartition, 4, 0)
    hcl.partition(%arg22 : memref<16xf32>, CompletePartition, 1, 0)
    hcl.partition(%arg23 : memref<16xf32>, CompletePartition, 1, 0)
    hcl.partition(%arg24 : memref<16xf32>, CompletePartition, 1, 0)
    hcl.pipeline(%274, 1)
    hcl.partition(%270 : memref<1x16x32x32xf32>, CompletePartition, 4, 0)
    hcl.pipeline(%280, 1)
    hcl.partition(%arg34 : memref<16xf32>, CompletePartition, 1, 0)
    hcl.partition(%arg35 : memref<16xf32>, CompletePartition, 1, 0)
    hcl.partition(%276 : memref<1x16x32x32xf32>, CompletePartition, 4, 0)
    hcl.pipeline(%286, 1)
    hcl.partition(%282 : memref<1x16x32x32xi2>, CompletePartition, 4, 0)
    hcl.pipeline(%292, 1)
    hcl.partition(%288 : memref<1x1x32x32xi16>, CompletePartition, 4, 0)
    hcl.pipeline(%298, 1)
    hcl.partition(%294 : memref<1x1x32x32xi16>, CompletePartition, 4, 0)
    hcl.pipeline(%305, 1)
    hcl.pipeline(%311, 1)
    %1517 = hcl.reuse_at(%300 : memref<1x1x34x34xi16>, %310) -> memref<1xf32>
    %1518 = hcl.reuse_at(%1517 : memref<1xf32>, %311) -> memref<1xf32>
    hcl.partition(%1517 : memref<1xf32>, CompletePartition, 1, 0)
    hcl.partition(%1518 : memref<1xf32>, CompletePartition, 1, 0)
    hcl.partition(%1518 : memref<1xf32>, CompletePartition, 2, 0)
    hcl.partition(%300 : memref<1x1x34x34xi16>, CompletePartition, 2, 0)
    hcl.partition(%arg32 : memref<16x1x3x3xi16>, CompletePartition, 2, 0)
    hcl.partition(%arg32 : memref<16x1x3x3xi16>, CompletePartition, 3, 0)
    hcl.partition(%arg32 : memref<16x1x3x3xi16>, CompletePartition, 4, 0)
    hcl.pipeline(%320, 1)
    hcl.pipeline(%326, 1)
    %1519 = hcl.reuse_at(%315 : memref<1x1x34x34xi16>, %325) -> memref<1xf32>
    %1520 = hcl.reuse_at(%1519 : memref<1xf32>, %326) -> memref<1xf32>
    hcl.partition(%1519 : memref<1xf32>, CompletePartition, 1, 0)
    hcl.partition(%1520 : memref<1xf32>, CompletePartition, 1, 0)
    hcl.partition(%1520 : memref<1xf32>, CompletePartition, 2, 0)
    hcl.partition(%315 : memref<1x1x34x34xi16>, CompletePartition, 2, 0)
    hcl.partition(%arg32 : memref<16x1x3x3xi16>, CompletePartition, 2, 0)
    hcl.partition(%arg32 : memref<16x1x3x3xi16>, CompletePartition, 3, 0)
    hcl.partition(%arg32 : memref<16x1x3x3xi16>, CompletePartition, 4, 0)
    hcl.pipeline(%334, 1)
    hcl.partition(%330 : memref<1x16x32x32xf32>, CompletePartition, 4, 0)
    hcl.partition(%arg33 : memref<16xf32>, CompletePartition, 1, 0)
    hcl.pipeline(%340, 1)
    hcl.partition(%arg36 : memref<16xf32>, CompletePartition, 1, 0)
    hcl.partition(%arg37 : memref<16xf32>, CompletePartition, 1, 0)
    hcl.partition(%336 : memref<1x16x32x32xf32>, CompletePartition, 4, 0)
    hcl.pipeline(%346, 1)
    hcl.partition(%342 : memref<1x16x32x32xf32>, CompletePartition, 4, 0)
    hcl.partition(%arg25 : memref<16xf32>, CompletePartition, 1, 0)
    hcl.partition(%arg26 : memref<16xf32>, CompletePartition, 1, 0)
    hcl.partition(%arg27 : memref<16xf32>, CompletePartition, 1, 0)
    hcl.pipeline(%352, 1)
    hcl.partition(%348 : memref<1x16x32x32xf32>, CompletePartition, 4, 0)
    hcl.pipeline(%358, 1)
    hcl.partition(%arg38 : memref<16xf32>, CompletePartition, 1, 0)
    hcl.partition(%arg39 : memref<16xf32>, CompletePartition, 1, 0)
    hcl.partition(%354 : memref<1x16x32x32xf32>, CompletePartition, 4, 0)
    hcl.pipeline(%364, 1)
    hcl.partition(%360 : memref<1x16x32x32xi2>, CompletePartition, 4, 0)
    hcl.pipeline(%370, 1)
    hcl.partition(%366 : memref<1x1x32x32xi16>, CompletePartition, 4, 0)
    hcl.pipeline(%376, 1)
    hcl.partition(%372 : memref<1x1x32x32xi16>, CompletePartition, 4, 0)
    hcl.pipeline(%383, 1)
    hcl.pipeline(%389, 1)
    %1521 = hcl.reuse_at(%378 : memref<1x1x34x34xi16>, %388) -> memref<1xf32>
    %1522 = hcl.reuse_at(%1521 : memref<1xf32>, %389) -> memref<1xf32>
    hcl.partition(%1521 : memref<1xf32>, CompletePartition, 1, 0)
    hcl.partition(%1522 : memref<1xf32>, CompletePartition, 1, 0)
    hcl.partition(%1522 : memref<1xf32>, CompletePartition, 2, 0)
    hcl.partition(%378 : memref<1x1x34x34xi16>, CompletePartition, 2, 0)
    hcl.partition(%arg46 : memref<16x1x3x3xi16>, CompletePartition, 2, 0)
    hcl.partition(%arg46 : memref<16x1x3x3xi16>, CompletePartition, 3, 0)
    hcl.partition(%arg46 : memref<16x1x3x3xi16>, CompletePartition, 4, 0)
    hcl.pipeline(%398, 1)
    hcl.pipeline(%404, 1)
    %1523 = hcl.reuse_at(%393 : memref<1x1x34x34xi16>, %403) -> memref<1xf32>
    %1524 = hcl.reuse_at(%1523 : memref<1xf32>, %404) -> memref<1xf32>
    hcl.partition(%1523 : memref<1xf32>, CompletePartition, 1, 0)
    hcl.partition(%1524 : memref<1xf32>, CompletePartition, 1, 0)
    hcl.partition(%1524 : memref<1xf32>, CompletePartition, 2, 0)
    hcl.partition(%393 : memref<1x1x34x34xi16>, CompletePartition, 2, 0)
    hcl.partition(%arg46 : memref<16x1x3x3xi16>, CompletePartition, 2, 0)
    hcl.partition(%arg46 : memref<16x1x3x3xi16>, CompletePartition, 3, 0)
    hcl.partition(%arg46 : memref<16x1x3x3xi16>, CompletePartition, 4, 0)
    hcl.pipeline(%412, 1)
    hcl.partition(%408 : memref<1x16x32x32xf32>, CompletePartition, 4, 0)
    hcl.partition(%arg47 : memref<16xf32>, CompletePartition, 1, 0)
    hcl.pipeline(%418, 1)
    hcl.partition(%arg48 : memref<16xf32>, CompletePartition, 1, 0)
    hcl.partition(%arg49 : memref<16xf32>, CompletePartition, 1, 0)
    hcl.partition(%414 : memref<1x16x32x32xf32>, CompletePartition, 4, 0)
    hcl.pipeline(%424, 1)
    hcl.partition(%420 : memref<1x16x32x32xf32>, CompletePartition, 4, 0)
    hcl.partition(%arg40 : memref<16xf32>, CompletePartition, 1, 0)
    hcl.partition(%arg41 : memref<16xf32>, CompletePartition, 1, 0)
    hcl.partition(%arg42 : memref<16xf32>, CompletePartition, 1, 0)
    hcl.pipeline(%430, 1)
    hcl.partition(%426 : memref<1x16x32x32xf32>, CompletePartition, 4, 0)
    hcl.pipeline(%436, 1)
    hcl.partition(%arg52 : memref<16xf32>, CompletePartition, 1, 0)
    hcl.partition(%arg53 : memref<16xf32>, CompletePartition, 1, 0)
    hcl.partition(%432 : memref<1x16x32x32xf32>, CompletePartition, 4, 0)
    hcl.pipeline(%442, 1)
    hcl.partition(%438 : memref<1x16x32x32xi2>, CompletePartition, 4, 0)
    hcl.pipeline(%448, 1)
    hcl.partition(%444 : memref<1x1x32x32xi16>, CompletePartition, 4, 0)
    hcl.pipeline(%454, 1)
    hcl.partition(%450 : memref<1x1x32x32xi16>, CompletePartition, 4, 0)
    hcl.pipeline(%461, 1)
    hcl.pipeline(%467, 1)
    %1525 = hcl.reuse_at(%456 : memref<1x1x34x34xi16>, %466) -> memref<1xf32>
    %1526 = hcl.reuse_at(%1525 : memref<1xf32>, %467) -> memref<1xf32>
    hcl.partition(%1525 : memref<1xf32>, CompletePartition, 1, 0)
    hcl.partition(%1526 : memref<1xf32>, CompletePartition, 1, 0)
    hcl.partition(%1526 : memref<1xf32>, CompletePartition, 2, 0)
    hcl.partition(%456 : memref<1x1x34x34xi16>, CompletePartition, 2, 0)
    hcl.partition(%arg50 : memref<16x1x3x3xi16>, CompletePartition, 2, 0)
    hcl.partition(%arg50 : memref<16x1x3x3xi16>, CompletePartition, 3, 0)
    hcl.partition(%arg50 : memref<16x1x3x3xi16>, CompletePartition, 4, 0)
    hcl.pipeline(%476, 1)
    hcl.pipeline(%482, 1)
    %1527 = hcl.reuse_at(%471 : memref<1x1x34x34xi16>, %481) -> memref<1xf32>
    %1528 = hcl.reuse_at(%1527 : memref<1xf32>, %482) -> memref<1xf32>
    hcl.partition(%1527 : memref<1xf32>, CompletePartition, 1, 0)
    hcl.partition(%1528 : memref<1xf32>, CompletePartition, 1, 0)
    hcl.partition(%1528 : memref<1xf32>, CompletePartition, 2, 0)
    hcl.partition(%471 : memref<1x1x34x34xi16>, CompletePartition, 2, 0)
    hcl.partition(%arg50 : memref<16x1x3x3xi16>, CompletePartition, 2, 0)
    hcl.partition(%arg50 : memref<16x1x3x3xi16>, CompletePartition, 3, 0)
    hcl.partition(%arg50 : memref<16x1x3x3xi16>, CompletePartition, 4, 0)
    hcl.pipeline(%490, 1)
    hcl.partition(%486 : memref<1x16x32x32xf32>, CompletePartition, 4, 0)
    hcl.partition(%arg51 : memref<16xf32>, CompletePartition, 1, 0)
    hcl.pipeline(%496, 1)
    hcl.partition(%arg54 : memref<16xf32>, CompletePartition, 1, 0)
    hcl.partition(%arg55 : memref<16xf32>, CompletePartition, 1, 0)
    hcl.partition(%492 : memref<1x16x32x32xf32>, CompletePartition, 4, 0)
    hcl.pipeline(%502, 1)
    hcl.partition(%498 : memref<1x16x32x32xf32>, CompletePartition, 4, 0)
    hcl.partition(%arg43 : memref<16xf32>, CompletePartition, 1, 0)
    hcl.partition(%arg44 : memref<16xf32>, CompletePartition, 1, 0)
    hcl.partition(%arg45 : memref<16xf32>, CompletePartition, 1, 0)
    hcl.pipeline(%508, 1)
    hcl.partition(%504 : memref<1x16x32x32xf32>, CompletePartition, 4, 0)
    hcl.pipeline(%514, 1)
    hcl.partition(%arg56 : memref<16xf32>, CompletePartition, 1, 0)
    hcl.partition(%arg57 : memref<16xf32>, CompletePartition, 1, 0)
    hcl.partition(%510 : memref<1x16x32x32xf32>, CompletePartition, 4, 0)
    hcl.pipeline(%520, 1)
    hcl.partition(%516 : memref<1x16x32x32xi2>, CompletePartition, 4, 0)
    hcl.pipeline(%526, 1)
    hcl.partition(%522 : memref<1x1x32x32xi16>, CompletePartition, 4, 0)
    hcl.pipeline(%532, 1)
    hcl.partition(%528 : memref<1x1x32x32xi16>, CompletePartition, 4, 0)
    hcl.pipeline(%539, 1)
    hcl.pipeline(%545, 1)
    %1529 = hcl.reuse_at(%534 : memref<1x1x34x34xi16>, %544) -> memref<1xf32>
    %1530 = hcl.reuse_at(%1529 : memref<1xf32>, %545) -> memref<1xf32>
    hcl.partition(%1529 : memref<1xf32>, CompletePartition, 1, 0)
    hcl.partition(%1530 : memref<1xf32>, CompletePartition, 1, 0)
    hcl.partition(%1530 : memref<1xf32>, CompletePartition, 2, 0)
    hcl.partition(%534 : memref<1x1x34x34xi16>, CompletePartition, 2, 0)
    hcl.partition(%arg64 : memref<32x1x3x3xi16>, CompletePartition, 2, 0)
    hcl.partition(%arg64 : memref<32x1x3x3xi16>, CompletePartition, 3, 0)
    hcl.partition(%arg64 : memref<32x1x3x3xi16>, CompletePartition, 4, 0)
    hcl.pipeline(%554, 1)
    hcl.pipeline(%560, 1)
    %1531 = hcl.reuse_at(%549 : memref<1x1x34x34xi16>, %559) -> memref<1xf32>
    %1532 = hcl.reuse_at(%1531 : memref<1xf32>, %560) -> memref<1xf32>
    hcl.partition(%1531 : memref<1xf32>, CompletePartition, 1, 0)
    hcl.partition(%1532 : memref<1xf32>, CompletePartition, 1, 0)
    hcl.partition(%1532 : memref<1xf32>, CompletePartition, 2, 0)
    hcl.partition(%549 : memref<1x1x34x34xi16>, CompletePartition, 2, 0)
    hcl.partition(%arg64 : memref<32x1x3x3xi16>, CompletePartition, 2, 0)
    hcl.partition(%arg64 : memref<32x1x3x3xi16>, CompletePartition, 3, 0)
    hcl.partition(%arg64 : memref<32x1x3x3xi16>, CompletePartition, 4, 0)
    hcl.pipeline(%568, 1)
    hcl.partition(%564 : memref<1x32x16x16xf32>, CompletePartition, 4, 0)
    hcl.partition(%arg65 : memref<32xf32>, CompletePartition, 1, 0)
    hcl.pipeline(%574, 1)
    hcl.partition(%arg66 : memref<32xf32>, CompletePartition, 1, 0)
    hcl.partition(%arg67 : memref<32xf32>, CompletePartition, 1, 0)
    hcl.partition(%570 : memref<1x32x16x16xf32>, CompletePartition, 4, 0)
    hcl.pipeline(%580, 1)
    hcl.partition(%576 : memref<1x32x16x16xf32>, CompletePartition, 4, 0)
    hcl.partition(%arg58 : memref<32xf32>, CompletePartition, 1, 0)
    hcl.partition(%arg59 : memref<32xf32>, CompletePartition, 1, 0)
    hcl.partition(%arg60 : memref<32xf32>, CompletePartition, 1, 0)
    hcl.pipeline(%586, 1)
    %1533 = hcl.reuse_at(%510 : memref<1x16x32x32xf32>, %586) -> memref<1xf32>
    %1534 = hcl.reuse_at(%1533 : memref<1xf32>, %587) -> memref<1xf32>
    hcl.partition(%1533 : memref<1xf32>, CompletePartition, 1, 0)
    hcl.partition(%1534 : memref<1xf32>, CompletePartition, 1, 0)
    hcl.partition(%1534 : memref<1xf32>, CompletePartition, 2, 0)
    hcl.partition(%582 : memref<1x16x16x16xf32>, CompletePartition, 4, 0)
    hcl.pipeline(%594, 1)
    hcl.partition(%590 : memref<1x32x16x16xf32>, CompletePartition, 4, 0)
    hcl.pipeline(%600, 1)
    hcl.partition(%596 : memref<1x32x16x16xf32>, CompletePartition, 4, 0)
    hcl.pipeline(%606, 1)
    hcl.partition(%arg70 : memref<32xf32>, CompletePartition, 1, 0)
    hcl.partition(%arg71 : memref<32xf32>, CompletePartition, 1, 0)
    hcl.partition(%602 : memref<1x32x16x16xf32>, CompletePartition, 4, 0)
    hcl.pipeline(%612, 1)
    hcl.partition(%608 : memref<1x32x16x16xi2>, CompletePartition, 4, 0)
    hcl.pipeline(%618, 1)
    hcl.partition(%614 : memref<1x2x16x16xi16>, CompletePartition, 4, 0)
    hcl.pipeline(%624, 1)
    hcl.partition(%620 : memref<1x2x16x16xi16>, CompletePartition, 4, 0)
    hcl.pipeline(%631, 1)
    hcl.pipeline(%637, 1)
    %1535 = hcl.reuse_at(%626 : memref<1x2x18x18xi16>, %636) -> memref<1xf32>
    %1536 = hcl.reuse_at(%1535 : memref<1xf32>, %637) -> memref<1xf32>
    hcl.partition(%1535 : memref<1xf32>, CompletePartition, 1, 0)
    hcl.partition(%1536 : memref<1xf32>, CompletePartition, 1, 0)
    hcl.partition(%1536 : memref<1xf32>, CompletePartition, 2, 0)
    hcl.partition(%626 : memref<1x2x18x18xi16>, CompletePartition, 2, 0)
    hcl.partition(%arg68 : memref<32x2x3x3xi16>, CompletePartition, 2, 0)
    hcl.partition(%arg68 : memref<32x2x3x3xi16>, CompletePartition, 3, 0)
    hcl.partition(%arg68 : memref<32x2x3x3xi16>, CompletePartition, 4, 0)
    hcl.pipeline(%646, 1)
    hcl.pipeline(%652, 1)
    %1537 = hcl.reuse_at(%641 : memref<1x2x18x18xi16>, %651) -> memref<1xf32>
    %1538 = hcl.reuse_at(%1537 : memref<1xf32>, %652) -> memref<1xf32>
    hcl.partition(%1537 : memref<1xf32>, CompletePartition, 1, 0)
    hcl.partition(%1538 : memref<1xf32>, CompletePartition, 1, 0)
    hcl.partition(%1538 : memref<1xf32>, CompletePartition, 2, 0)
    hcl.partition(%641 : memref<1x2x18x18xi16>, CompletePartition, 2, 0)
    hcl.partition(%arg68 : memref<32x2x3x3xi16>, CompletePartition, 2, 0)
    hcl.partition(%arg68 : memref<32x2x3x3xi16>, CompletePartition, 3, 0)
    hcl.partition(%arg68 : memref<32x2x3x3xi16>, CompletePartition, 4, 0)
    hcl.pipeline(%660, 1)
    hcl.partition(%656 : memref<1x32x16x16xf32>, CompletePartition, 4, 0)
    hcl.partition(%arg69 : memref<32xf32>, CompletePartition, 1, 0)
    hcl.pipeline(%666, 1)
    hcl.partition(%arg72 : memref<32xf32>, CompletePartition, 1, 0)
    hcl.partition(%arg73 : memref<32xf32>, CompletePartition, 1, 0)
    hcl.partition(%662 : memref<1x32x16x16xf32>, CompletePartition, 4, 0)
    hcl.pipeline(%672, 1)
    hcl.partition(%668 : memref<1x32x16x16xf32>, CompletePartition, 4, 0)
    hcl.partition(%arg61 : memref<32xf32>, CompletePartition, 1, 0)
    hcl.partition(%arg62 : memref<32xf32>, CompletePartition, 1, 0)
    hcl.partition(%arg63 : memref<32xf32>, CompletePartition, 1, 0)
    hcl.pipeline(%678, 1)
    hcl.partition(%674 : memref<1x32x16x16xf32>, CompletePartition, 4, 0)
    hcl.pipeline(%684, 1)
    hcl.partition(%arg74 : memref<32xf32>, CompletePartition, 1, 0)
    hcl.partition(%arg75 : memref<32xf32>, CompletePartition, 1, 0)
    hcl.partition(%680 : memref<1x32x16x16xf32>, CompletePartition, 4, 0)
    hcl.pipeline(%690, 1)
    hcl.partition(%686 : memref<1x32x16x16xi2>, CompletePartition, 4, 0)
    hcl.pipeline(%696, 1)
    hcl.partition(%692 : memref<1x2x16x16xi16>, CompletePartition, 4, 0)
    hcl.pipeline(%702, 1)
    hcl.partition(%698 : memref<1x2x16x16xi16>, CompletePartition, 4, 0)
    hcl.pipeline(%709, 1)
    hcl.pipeline(%715, 1)
    %1539 = hcl.reuse_at(%704 : memref<1x2x18x18xi16>, %714) -> memref<1xf32>
    %1540 = hcl.reuse_at(%1539 : memref<1xf32>, %715) -> memref<1xf32>
    hcl.partition(%1539 : memref<1xf32>, CompletePartition, 1, 0)
    hcl.partition(%1540 : memref<1xf32>, CompletePartition, 1, 0)
    hcl.partition(%1540 : memref<1xf32>, CompletePartition, 2, 0)
    hcl.partition(%704 : memref<1x2x18x18xi16>, CompletePartition, 2, 0)
    hcl.partition(%arg82 : memref<32x2x3x3xi16>, CompletePartition, 2, 0)
    hcl.partition(%arg82 : memref<32x2x3x3xi16>, CompletePartition, 3, 0)
    hcl.partition(%arg82 : memref<32x2x3x3xi16>, CompletePartition, 4, 0)
    hcl.pipeline(%724, 1)
    hcl.pipeline(%730, 1)
    %1541 = hcl.reuse_at(%719 : memref<1x2x18x18xi16>, %729) -> memref<1xf32>
    %1542 = hcl.reuse_at(%1541 : memref<1xf32>, %730) -> memref<1xf32>
    hcl.partition(%1541 : memref<1xf32>, CompletePartition, 1, 0)
    hcl.partition(%1542 : memref<1xf32>, CompletePartition, 1, 0)
    hcl.partition(%1542 : memref<1xf32>, CompletePartition, 2, 0)
    hcl.partition(%719 : memref<1x2x18x18xi16>, CompletePartition, 2, 0)
    hcl.partition(%arg82 : memref<32x2x3x3xi16>, CompletePartition, 2, 0)
    hcl.partition(%arg82 : memref<32x2x3x3xi16>, CompletePartition, 3, 0)
    hcl.partition(%arg82 : memref<32x2x3x3xi16>, CompletePartition, 4, 0)
    hcl.pipeline(%738, 1)
    hcl.partition(%734 : memref<1x32x16x16xf32>, CompletePartition, 4, 0)
    hcl.partition(%arg83 : memref<32xf32>, CompletePartition, 1, 0)
    hcl.pipeline(%744, 1)
    hcl.partition(%arg84 : memref<32xf32>, CompletePartition, 1, 0)
    hcl.partition(%arg85 : memref<32xf32>, CompletePartition, 1, 0)
    hcl.partition(%740 : memref<1x32x16x16xf32>, CompletePartition, 4, 0)
    hcl.pipeline(%750, 1)
    hcl.partition(%746 : memref<1x32x16x16xf32>, CompletePartition, 4, 0)
    hcl.partition(%arg76 : memref<32xf32>, CompletePartition, 1, 0)
    hcl.partition(%arg77 : memref<32xf32>, CompletePartition, 1, 0)
    hcl.partition(%arg78 : memref<32xf32>, CompletePartition, 1, 0)
    hcl.pipeline(%756, 1)
    hcl.partition(%752 : memref<1x32x16x16xf32>, CompletePartition, 4, 0)
    hcl.pipeline(%762, 1)
    hcl.partition(%arg88 : memref<32xf32>, CompletePartition, 1, 0)
    hcl.partition(%arg89 : memref<32xf32>, CompletePartition, 1, 0)
    hcl.partition(%758 : memref<1x32x16x16xf32>, CompletePartition, 4, 0)
    hcl.pipeline(%768, 1)
    hcl.partition(%764 : memref<1x32x16x16xi2>, CompletePartition, 4, 0)
    hcl.pipeline(%774, 1)
    hcl.partition(%770 : memref<1x2x16x16xi16>, CompletePartition, 4, 0)
    hcl.pipeline(%780, 1)
    hcl.partition(%776 : memref<1x2x16x16xi16>, CompletePartition, 4, 0)
    hcl.pipeline(%787, 1)
    hcl.pipeline(%793, 1)
    %1543 = hcl.reuse_at(%782 : memref<1x2x18x18xi16>, %792) -> memref<1xf32>
    %1544 = hcl.reuse_at(%1543 : memref<1xf32>, %793) -> memref<1xf32>
    hcl.partition(%1543 : memref<1xf32>, CompletePartition, 1, 0)
    hcl.partition(%1544 : memref<1xf32>, CompletePartition, 1, 0)
    hcl.partition(%1544 : memref<1xf32>, CompletePartition, 2, 0)
    hcl.partition(%782 : memref<1x2x18x18xi16>, CompletePartition, 2, 0)
    hcl.partition(%arg86 : memref<32x2x3x3xi16>, CompletePartition, 2, 0)
    hcl.partition(%arg86 : memref<32x2x3x3xi16>, CompletePartition, 3, 0)
    hcl.partition(%arg86 : memref<32x2x3x3xi16>, CompletePartition, 4, 0)
    hcl.pipeline(%802, 1)
    hcl.pipeline(%808, 1)
    %1545 = hcl.reuse_at(%797 : memref<1x2x18x18xi16>, %807) -> memref<1xf32>
    %1546 = hcl.reuse_at(%1545 : memref<1xf32>, %808) -> memref<1xf32>
    hcl.partition(%1545 : memref<1xf32>, CompletePartition, 1, 0)
    hcl.partition(%1546 : memref<1xf32>, CompletePartition, 1, 0)
    hcl.partition(%1546 : memref<1xf32>, CompletePartition, 2, 0)
    hcl.partition(%797 : memref<1x2x18x18xi16>, CompletePartition, 2, 0)
    hcl.partition(%arg86 : memref<32x2x3x3xi16>, CompletePartition, 2, 0)
    hcl.partition(%arg86 : memref<32x2x3x3xi16>, CompletePartition, 3, 0)
    hcl.partition(%arg86 : memref<32x2x3x3xi16>, CompletePartition, 4, 0)
    hcl.pipeline(%816, 1)
    hcl.partition(%812 : memref<1x32x16x16xf32>, CompletePartition, 4, 0)
    hcl.partition(%arg87 : memref<32xf32>, CompletePartition, 1, 0)
    hcl.pipeline(%822, 1)
    hcl.partition(%arg90 : memref<32xf32>, CompletePartition, 1, 0)
    hcl.partition(%arg91 : memref<32xf32>, CompletePartition, 1, 0)
    hcl.partition(%818 : memref<1x32x16x16xf32>, CompletePartition, 4, 0)
    hcl.pipeline(%828, 1)
    hcl.partition(%824 : memref<1x32x16x16xf32>, CompletePartition, 4, 0)
    hcl.partition(%arg79 : memref<32xf32>, CompletePartition, 1, 0)
    hcl.partition(%arg80 : memref<32xf32>, CompletePartition, 1, 0)
    hcl.partition(%arg81 : memref<32xf32>, CompletePartition, 1, 0)
    hcl.pipeline(%834, 1)
    hcl.partition(%830 : memref<1x32x16x16xf32>, CompletePartition, 4, 0)
    hcl.pipeline(%840, 1)
    hcl.partition(%arg92 : memref<32xf32>, CompletePartition, 1, 0)
    hcl.partition(%arg93 : memref<32xf32>, CompletePartition, 1, 0)
    hcl.partition(%836 : memref<1x32x16x16xf32>, CompletePartition, 4, 0)
    hcl.pipeline(%846, 1)
    hcl.partition(%842 : memref<1x32x16x16xi2>, CompletePartition, 4, 0)
    hcl.pipeline(%852, 1)
    hcl.partition(%848 : memref<1x2x16x16xi16>, CompletePartition, 4, 0)
    hcl.pipeline(%858, 1)
    hcl.partition(%854 : memref<1x2x16x16xi16>, CompletePartition, 4, 0)
    hcl.pipeline(%865, 1)
    hcl.pipeline(%871, 1)
    %1547 = hcl.reuse_at(%860 : memref<1x2x18x18xi16>, %870) -> memref<1xf32>
    %1548 = hcl.reuse_at(%1547 : memref<1xf32>, %871) -> memref<1xf32>
    hcl.partition(%1547 : memref<1xf32>, CompletePartition, 1, 0)
    hcl.partition(%1548 : memref<1xf32>, CompletePartition, 1, 0)
    hcl.partition(%1548 : memref<1xf32>, CompletePartition, 2, 0)
    hcl.partition(%860 : memref<1x2x18x18xi16>, CompletePartition, 2, 0)
    hcl.partition(%arg100 : memref<32x2x3x3xi16>, CompletePartition, 2, 0)
    hcl.partition(%arg100 : memref<32x2x3x3xi16>, CompletePartition, 3, 0)
    hcl.partition(%arg100 : memref<32x2x3x3xi16>, CompletePartition, 4, 0)
    hcl.pipeline(%880, 1)
    hcl.pipeline(%886, 1)
    %1549 = hcl.reuse_at(%875 : memref<1x2x18x18xi16>, %885) -> memref<1xf32>
    %1550 = hcl.reuse_at(%1549 : memref<1xf32>, %886) -> memref<1xf32>
    hcl.partition(%1549 : memref<1xf32>, CompletePartition, 1, 0)
    hcl.partition(%1550 : memref<1xf32>, CompletePartition, 1, 0)
    hcl.partition(%1550 : memref<1xf32>, CompletePartition, 2, 0)
    hcl.partition(%875 : memref<1x2x18x18xi16>, CompletePartition, 2, 0)
    hcl.partition(%arg100 : memref<32x2x3x3xi16>, CompletePartition, 2, 0)
    hcl.partition(%arg100 : memref<32x2x3x3xi16>, CompletePartition, 3, 0)
    hcl.partition(%arg100 : memref<32x2x3x3xi16>, CompletePartition, 4, 0)
    hcl.pipeline(%894, 1)
    hcl.partition(%890 : memref<1x32x16x16xf32>, CompletePartition, 4, 0)
    hcl.partition(%arg101 : memref<32xf32>, CompletePartition, 1, 0)
    hcl.pipeline(%900, 1)
    hcl.partition(%arg102 : memref<32xf32>, CompletePartition, 1, 0)
    hcl.partition(%arg103 : memref<32xf32>, CompletePartition, 1, 0)
    hcl.partition(%896 : memref<1x32x16x16xf32>, CompletePartition, 4, 0)
    hcl.pipeline(%906, 1)
    hcl.partition(%902 : memref<1x32x16x16xf32>, CompletePartition, 4, 0)
    hcl.partition(%arg94 : memref<32xf32>, CompletePartition, 1, 0)
    hcl.partition(%arg95 : memref<32xf32>, CompletePartition, 1, 0)
    hcl.partition(%arg96 : memref<32xf32>, CompletePartition, 1, 0)
    hcl.pipeline(%912, 1)
    hcl.partition(%908 : memref<1x32x16x16xf32>, CompletePartition, 4, 0)
    hcl.pipeline(%918, 1)
    hcl.partition(%arg106 : memref<32xf32>, CompletePartition, 1, 0)
    hcl.partition(%arg107 : memref<32xf32>, CompletePartition, 1, 0)
    hcl.partition(%914 : memref<1x32x16x16xf32>, CompletePartition, 4, 0)
    hcl.pipeline(%924, 1)
    hcl.partition(%920 : memref<1x32x16x16xi2>, CompletePartition, 4, 0)
    hcl.pipeline(%930, 1)
    hcl.partition(%926 : memref<1x2x16x16xi16>, CompletePartition, 4, 0)
    hcl.pipeline(%936, 1)
    hcl.partition(%932 : memref<1x2x16x16xi16>, CompletePartition, 4, 0)
    hcl.pipeline(%943, 1)
    hcl.pipeline(%949, 1)
    %1551 = hcl.reuse_at(%938 : memref<1x2x18x18xi16>, %948) -> memref<1xf32>
    %1552 = hcl.reuse_at(%1551 : memref<1xf32>, %949) -> memref<1xf32>
    hcl.partition(%1551 : memref<1xf32>, CompletePartition, 1, 0)
    hcl.partition(%1552 : memref<1xf32>, CompletePartition, 1, 0)
    hcl.partition(%1552 : memref<1xf32>, CompletePartition, 2, 0)
    hcl.partition(%938 : memref<1x2x18x18xi16>, CompletePartition, 2, 0)
    hcl.partition(%arg104 : memref<32x2x3x3xi16>, CompletePartition, 2, 0)
    hcl.partition(%arg104 : memref<32x2x3x3xi16>, CompletePartition, 3, 0)
    hcl.partition(%arg104 : memref<32x2x3x3xi16>, CompletePartition, 4, 0)
    hcl.pipeline(%958, 1)
    hcl.pipeline(%964, 1)
    %1553 = hcl.reuse_at(%953 : memref<1x2x18x18xi16>, %963) -> memref<1xf32>
    %1554 = hcl.reuse_at(%1553 : memref<1xf32>, %964) -> memref<1xf32>
    hcl.partition(%1553 : memref<1xf32>, CompletePartition, 1, 0)
    hcl.partition(%1554 : memref<1xf32>, CompletePartition, 1, 0)
    hcl.partition(%1554 : memref<1xf32>, CompletePartition, 2, 0)
    hcl.partition(%953 : memref<1x2x18x18xi16>, CompletePartition, 2, 0)
    hcl.partition(%arg104 : memref<32x2x3x3xi16>, CompletePartition, 2, 0)
    hcl.partition(%arg104 : memref<32x2x3x3xi16>, CompletePartition, 3, 0)
    hcl.partition(%arg104 : memref<32x2x3x3xi16>, CompletePartition, 4, 0)
    hcl.pipeline(%972, 1)
    hcl.partition(%968 : memref<1x32x16x16xf32>, CompletePartition, 4, 0)
    hcl.partition(%arg105 : memref<32xf32>, CompletePartition, 1, 0)
    hcl.pipeline(%978, 1)
    hcl.partition(%arg108 : memref<32xf32>, CompletePartition, 1, 0)
    hcl.partition(%arg109 : memref<32xf32>, CompletePartition, 1, 0)
    hcl.partition(%974 : memref<1x32x16x16xf32>, CompletePartition, 4, 0)
    hcl.pipeline(%984, 1)
    hcl.partition(%980 : memref<1x32x16x16xf32>, CompletePartition, 4, 0)
    hcl.partition(%arg97 : memref<32xf32>, CompletePartition, 1, 0)
    hcl.partition(%arg98 : memref<32xf32>, CompletePartition, 1, 0)
    hcl.partition(%arg99 : memref<32xf32>, CompletePartition, 1, 0)
    hcl.pipeline(%990, 1)
    hcl.partition(%986 : memref<1x32x16x16xf32>, CompletePartition, 4, 0)
    hcl.pipeline(%996, 1)
    hcl.partition(%arg110 : memref<32xf32>, CompletePartition, 1, 0)
    hcl.partition(%arg111 : memref<32xf32>, CompletePartition, 1, 0)
    hcl.partition(%992 : memref<1x32x16x16xf32>, CompletePartition, 4, 0)
    hcl.pipeline(%1002, 1)
    hcl.partition(%998 : memref<1x32x16x16xi2>, CompletePartition, 4, 0)
    hcl.pipeline(%1008, 1)
    hcl.partition(%1004 : memref<1x2x16x16xi16>, CompletePartition, 4, 0)
    hcl.pipeline(%1014, 1)
    hcl.partition(%1010 : memref<1x2x16x16xi16>, CompletePartition, 4, 0)
    hcl.pipeline(%1021, 1)
    hcl.pipeline(%1027, 1)
    %1555 = hcl.reuse_at(%1016 : memref<1x2x18x18xi16>, %1026) -> memref<1xf32>
    %1556 = hcl.reuse_at(%1555 : memref<1xf32>, %1027) -> memref<1xf32>
    hcl.partition(%1555 : memref<1xf32>, CompletePartition, 1, 0)
    hcl.partition(%1556 : memref<1xf32>, CompletePartition, 1, 0)
    hcl.partition(%1556 : memref<1xf32>, CompletePartition, 2, 0)
    hcl.partition(%1016 : memref<1x2x18x18xi16>, CompletePartition, 2, 0)
    hcl.partition(%arg118 : memref<64x2x3x3xi16>, CompletePartition, 2, 0)
    hcl.partition(%arg118 : memref<64x2x3x3xi16>, CompletePartition, 3, 0)
    hcl.partition(%arg118 : memref<64x2x3x3xi16>, CompletePartition, 4, 0)
    hcl.pipeline(%1036, 1)
    hcl.pipeline(%1042, 1)
    %1557 = hcl.reuse_at(%1031 : memref<1x2x18x18xi16>, %1041) -> memref<1xf32>
    %1558 = hcl.reuse_at(%1557 : memref<1xf32>, %1042) -> memref<1xf32>
    hcl.partition(%1557 : memref<1xf32>, CompletePartition, 1, 0)
    hcl.partition(%1558 : memref<1xf32>, CompletePartition, 1, 0)
    hcl.partition(%1558 : memref<1xf32>, CompletePartition, 2, 0)
    hcl.partition(%1031 : memref<1x2x18x18xi16>, CompletePartition, 2, 0)
    hcl.partition(%arg118 : memref<64x2x3x3xi16>, CompletePartition, 2, 0)
    hcl.partition(%arg118 : memref<64x2x3x3xi16>, CompletePartition, 3, 0)
    hcl.partition(%arg118 : memref<64x2x3x3xi16>, CompletePartition, 4, 0)
    hcl.pipeline(%1050, 1)
    hcl.partition(%1046 : memref<1x64x8x8xf32>, CompletePartition, 4, 0)
    hcl.partition(%arg119 : memref<64xf32>, CompletePartition, 1, 0)
    hcl.pipeline(%1056, 1)
    hcl.partition(%arg120 : memref<64xf32>, CompletePartition, 1, 0)
    hcl.partition(%arg121 : memref<64xf32>, CompletePartition, 1, 0)
    hcl.partition(%1052 : memref<1x64x8x8xf32>, CompletePartition, 4, 0)
    hcl.pipeline(%1062, 1)
    hcl.partition(%1058 : memref<1x64x8x8xf32>, CompletePartition, 4, 0)
    hcl.partition(%arg112 : memref<64xf32>, CompletePartition, 1, 0)
    hcl.partition(%arg113 : memref<64xf32>, CompletePartition, 1, 0)
    hcl.partition(%arg114 : memref<64xf32>, CompletePartition, 1, 0)
    hcl.pipeline(%1068, 1)
    %1559 = hcl.reuse_at(%992 : memref<1x32x16x16xf32>, %1068) -> memref<1xf32>
    %1560 = hcl.reuse_at(%1559 : memref<1xf32>, %1069) -> memref<1xf32>
    hcl.partition(%1559 : memref<1xf32>, CompletePartition, 1, 0)
    hcl.partition(%1560 : memref<1xf32>, CompletePartition, 1, 0)
    hcl.partition(%1560 : memref<1xf32>, CompletePartition, 2, 0)
    hcl.partition(%1064 : memref<1x32x8x8xf32>, CompletePartition, 4, 0)
    hcl.pipeline(%1076, 1)
    hcl.partition(%1072 : memref<1x64x8x8xf32>, CompletePartition, 4, 0)
    hcl.pipeline(%1082, 1)
    hcl.partition(%1078 : memref<1x64x8x8xf32>, CompletePartition, 4, 0)
    hcl.pipeline(%1088, 1)
    hcl.partition(%arg124 : memref<64xf32>, CompletePartition, 1, 0)
    hcl.partition(%arg125 : memref<64xf32>, CompletePartition, 1, 0)
    hcl.partition(%1084 : memref<1x64x8x8xf32>, CompletePartition, 4, 0)
    hcl.pipeline(%1094, 1)
    hcl.partition(%1090 : memref<1x64x8x8xi2>, CompletePartition, 4, 0)
    hcl.pipeline(%1100, 1)
    hcl.partition(%1096 : memref<1x4x8x8xi16>, CompletePartition, 4, 0)
    hcl.pipeline(%1106, 1)
    hcl.partition(%1102 : memref<1x4x8x8xi16>, CompletePartition, 4, 0)
    hcl.pipeline(%1113, 1)
    hcl.pipeline(%1119, 1)
    %1561 = hcl.reuse_at(%1108 : memref<1x4x10x10xi16>, %1118) -> memref<1xf32>
    %1562 = hcl.reuse_at(%1561 : memref<1xf32>, %1119) -> memref<1xf32>
    hcl.partition(%1561 : memref<1xf32>, CompletePartition, 1, 0)
    hcl.partition(%1562 : memref<1xf32>, CompletePartition, 1, 0)
    hcl.partition(%1562 : memref<1xf32>, CompletePartition, 2, 0)
    hcl.partition(%1108 : memref<1x4x10x10xi16>, CompletePartition, 2, 0)
    hcl.partition(%arg122 : memref<64x4x3x3xi16>, CompletePartition, 2, 0)
    hcl.partition(%arg122 : memref<64x4x3x3xi16>, CompletePartition, 3, 0)
    hcl.partition(%arg122 : memref<64x4x3x3xi16>, CompletePartition, 4, 0)
    hcl.pipeline(%1128, 1)
    hcl.pipeline(%1134, 1)
    %1563 = hcl.reuse_at(%1123 : memref<1x4x10x10xi16>, %1133) -> memref<1xf32>
    %1564 = hcl.reuse_at(%1563 : memref<1xf32>, %1134) -> memref<1xf32>
    hcl.partition(%1563 : memref<1xf32>, CompletePartition, 1, 0)
    hcl.partition(%1564 : memref<1xf32>, CompletePartition, 1, 0)
    hcl.partition(%1564 : memref<1xf32>, CompletePartition, 2, 0)
    hcl.partition(%1123 : memref<1x4x10x10xi16>, CompletePartition, 2, 0)
    hcl.partition(%arg122 : memref<64x4x3x3xi16>, CompletePartition, 2, 0)
    hcl.partition(%arg122 : memref<64x4x3x3xi16>, CompletePartition, 3, 0)
    hcl.partition(%arg122 : memref<64x4x3x3xi16>, CompletePartition, 4, 0)
    hcl.pipeline(%1142, 1)
    hcl.partition(%1138 : memref<1x64x8x8xf32>, CompletePartition, 4, 0)
    hcl.partition(%arg123 : memref<64xf32>, CompletePartition, 1, 0)
    hcl.pipeline(%1148, 1)
    hcl.partition(%arg126 : memref<64xf32>, CompletePartition, 1, 0)
    hcl.partition(%arg127 : memref<64xf32>, CompletePartition, 1, 0)
    hcl.partition(%1144 : memref<1x64x8x8xf32>, CompletePartition, 4, 0)
    hcl.pipeline(%1154, 1)
    hcl.partition(%1150 : memref<1x64x8x8xf32>, CompletePartition, 4, 0)
    hcl.partition(%arg115 : memref<64xf32>, CompletePartition, 1, 0)
    hcl.partition(%arg116 : memref<64xf32>, CompletePartition, 1, 0)
    hcl.partition(%arg117 : memref<64xf32>, CompletePartition, 1, 0)
    hcl.pipeline(%1160, 1)
    hcl.partition(%1156 : memref<1x64x8x8xf32>, CompletePartition, 4, 0)
    hcl.pipeline(%1166, 1)
    hcl.partition(%arg128 : memref<64xf32>, CompletePartition, 1, 0)
    hcl.partition(%arg129 : memref<64xf32>, CompletePartition, 1, 0)
    hcl.partition(%1162 : memref<1x64x8x8xf32>, CompletePartition, 4, 0)
    hcl.pipeline(%1172, 1)
    hcl.partition(%1168 : memref<1x64x8x8xi2>, CompletePartition, 4, 0)
    hcl.pipeline(%1178, 1)
    hcl.partition(%1174 : memref<1x4x8x8xi16>, CompletePartition, 4, 0)
    hcl.pipeline(%1184, 1)
    hcl.partition(%1180 : memref<1x4x8x8xi16>, CompletePartition, 4, 0)
    hcl.pipeline(%1191, 1)
    hcl.pipeline(%1197, 1)
    %1565 = hcl.reuse_at(%1186 : memref<1x4x10x10xi16>, %1196) -> memref<1xf32>
    %1566 = hcl.reuse_at(%1565 : memref<1xf32>, %1197) -> memref<1xf32>
    hcl.partition(%1565 : memref<1xf32>, CompletePartition, 1, 0)
    hcl.partition(%1566 : memref<1xf32>, CompletePartition, 1, 0)
    hcl.partition(%1566 : memref<1xf32>, CompletePartition, 2, 0)
    hcl.partition(%1186 : memref<1x4x10x10xi16>, CompletePartition, 2, 0)
    hcl.partition(%arg136 : memref<64x4x3x3xi16>, CompletePartition, 2, 0)
    hcl.partition(%arg136 : memref<64x4x3x3xi16>, CompletePartition, 3, 0)
    hcl.partition(%arg136 : memref<64x4x3x3xi16>, CompletePartition, 4, 0)
    hcl.pipeline(%1206, 1)
    hcl.pipeline(%1212, 1)
    %1567 = hcl.reuse_at(%1201 : memref<1x4x10x10xi16>, %1211) -> memref<1xf32>
    %1568 = hcl.reuse_at(%1567 : memref<1xf32>, %1212) -> memref<1xf32>
    hcl.partition(%1567 : memref<1xf32>, CompletePartition, 1, 0)
    hcl.partition(%1568 : memref<1xf32>, CompletePartition, 1, 0)
    hcl.partition(%1568 : memref<1xf32>, CompletePartition, 2, 0)
    hcl.partition(%1201 : memref<1x4x10x10xi16>, CompletePartition, 2, 0)
    hcl.partition(%arg136 : memref<64x4x3x3xi16>, CompletePartition, 2, 0)
    hcl.partition(%arg136 : memref<64x4x3x3xi16>, CompletePartition, 3, 0)
    hcl.partition(%arg136 : memref<64x4x3x3xi16>, CompletePartition, 4, 0)
    hcl.pipeline(%1220, 1)
    hcl.partition(%1216 : memref<1x64x8x8xf32>, CompletePartition, 4, 0)
    hcl.partition(%arg137 : memref<64xf32>, CompletePartition, 1, 0)
    hcl.pipeline(%1226, 1)
    hcl.partition(%arg138 : memref<64xf32>, CompletePartition, 1, 0)
    hcl.partition(%arg139 : memref<64xf32>, CompletePartition, 1, 0)
    hcl.partition(%1222 : memref<1x64x8x8xf32>, CompletePartition, 4, 0)
    hcl.pipeline(%1232, 1)
    hcl.partition(%1228 : memref<1x64x8x8xf32>, CompletePartition, 4, 0)
    hcl.partition(%arg130 : memref<64xf32>, CompletePartition, 1, 0)
    hcl.partition(%arg131 : memref<64xf32>, CompletePartition, 1, 0)
    hcl.partition(%arg132 : memref<64xf32>, CompletePartition, 1, 0)
    hcl.pipeline(%1238, 1)
    hcl.partition(%1234 : memref<1x64x8x8xf32>, CompletePartition, 4, 0)
    hcl.pipeline(%1244, 1)
    hcl.partition(%arg142 : memref<64xf32>, CompletePartition, 1, 0)
    hcl.partition(%arg143 : memref<64xf32>, CompletePartition, 1, 0)
    hcl.partition(%1240 : memref<1x64x8x8xf32>, CompletePartition, 4, 0)
    hcl.pipeline(%1250, 1)
    hcl.partition(%1246 : memref<1x64x8x8xi2>, CompletePartition, 4, 0)
    hcl.pipeline(%1256, 1)
    hcl.partition(%1252 : memref<1x4x8x8xi16>, CompletePartition, 4, 0)
    hcl.pipeline(%1262, 1)
    hcl.partition(%1258 : memref<1x4x8x8xi16>, CompletePartition, 4, 0)
    hcl.pipeline(%1269, 1)
    hcl.pipeline(%1275, 1)
    %1569 = hcl.reuse_at(%1264 : memref<1x4x10x10xi16>, %1274) -> memref<1xf32>
    %1570 = hcl.reuse_at(%1569 : memref<1xf32>, %1275) -> memref<1xf32>
    hcl.partition(%1569 : memref<1xf32>, CompletePartition, 1, 0)
    hcl.partition(%1570 : memref<1xf32>, CompletePartition, 1, 0)
    hcl.partition(%1570 : memref<1xf32>, CompletePartition, 2, 0)
    hcl.partition(%1264 : memref<1x4x10x10xi16>, CompletePartition, 2, 0)
    hcl.partition(%arg140 : memref<64x4x3x3xi16>, CompletePartition, 2, 0)
    hcl.partition(%arg140 : memref<64x4x3x3xi16>, CompletePartition, 3, 0)
    hcl.partition(%arg140 : memref<64x4x3x3xi16>, CompletePartition, 4, 0)
    hcl.pipeline(%1284, 1)
    hcl.pipeline(%1290, 1)
    %1571 = hcl.reuse_at(%1279 : memref<1x4x10x10xi16>, %1289) -> memref<1xf32>
    %1572 = hcl.reuse_at(%1571 : memref<1xf32>, %1290) -> memref<1xf32>
    hcl.partition(%1571 : memref<1xf32>, CompletePartition, 1, 0)
    hcl.partition(%1572 : memref<1xf32>, CompletePartition, 1, 0)
    hcl.partition(%1572 : memref<1xf32>, CompletePartition, 2, 0)
    hcl.partition(%1279 : memref<1x4x10x10xi16>, CompletePartition, 2, 0)
    hcl.partition(%arg140 : memref<64x4x3x3xi16>, CompletePartition, 2, 0)
    hcl.partition(%arg140 : memref<64x4x3x3xi16>, CompletePartition, 3, 0)
    hcl.partition(%arg140 : memref<64x4x3x3xi16>, CompletePartition, 4, 0)
    hcl.pipeline(%1298, 1)
    hcl.partition(%1294 : memref<1x64x8x8xf32>, CompletePartition, 4, 0)
    hcl.partition(%arg141 : memref<64xf32>, CompletePartition, 1, 0)
    hcl.pipeline(%1304, 1)
    hcl.partition(%arg144 : memref<64xf32>, CompletePartition, 1, 0)
    hcl.partition(%arg145 : memref<64xf32>, CompletePartition, 1, 0)
    hcl.partition(%1300 : memref<1x64x8x8xf32>, CompletePartition, 4, 0)
    hcl.pipeline(%1310, 1)
    hcl.partition(%1306 : memref<1x64x8x8xf32>, CompletePartition, 4, 0)
    hcl.partition(%arg133 : memref<64xf32>, CompletePartition, 1, 0)
    hcl.partition(%arg134 : memref<64xf32>, CompletePartition, 1, 0)
    hcl.partition(%arg135 : memref<64xf32>, CompletePartition, 1, 0)
    hcl.pipeline(%1316, 1)
    hcl.partition(%1312 : memref<1x64x8x8xf32>, CompletePartition, 4, 0)
    hcl.pipeline(%1322, 1)
    hcl.partition(%arg146 : memref<64xf32>, CompletePartition, 1, 0)
    hcl.partition(%arg147 : memref<64xf32>, CompletePartition, 1, 0)
    hcl.partition(%1318 : memref<1x64x8x8xf32>, CompletePartition, 4, 0)
    hcl.pipeline(%1328, 1)
    hcl.partition(%1324 : memref<1x64x8x8xi2>, CompletePartition, 4, 0)
    hcl.pipeline(%1334, 1)
    hcl.partition(%1330 : memref<1x4x8x8xi16>, CompletePartition, 4, 0)
    hcl.pipeline(%1340, 1)
    hcl.partition(%1336 : memref<1x4x8x8xi16>, CompletePartition, 4, 0)
    hcl.pipeline(%1347, 1)
    hcl.pipeline(%1353, 1)
    %1573 = hcl.reuse_at(%1342 : memref<1x4x10x10xi16>, %1352) -> memref<1xf32>
    %1574 = hcl.reuse_at(%1573 : memref<1xf32>, %1353) -> memref<1xf32>
    hcl.partition(%1573 : memref<1xf32>, CompletePartition, 1, 0)
    hcl.partition(%1574 : memref<1xf32>, CompletePartition, 1, 0)
    hcl.partition(%1574 : memref<1xf32>, CompletePartition, 2, 0)
    hcl.partition(%1342 : memref<1x4x10x10xi16>, CompletePartition, 2, 0)
    hcl.partition(%arg154 : memref<64x4x3x3xi16>, CompletePartition, 2, 0)
    hcl.partition(%arg154 : memref<64x4x3x3xi16>, CompletePartition, 3, 0)
    hcl.partition(%arg154 : memref<64x4x3x3xi16>, CompletePartition, 4, 0)
    hcl.pipeline(%1362, 1)
    hcl.pipeline(%1368, 1)
    %1575 = hcl.reuse_at(%1357 : memref<1x4x10x10xi16>, %1367) -> memref<1xf32>
    %1576 = hcl.reuse_at(%1575 : memref<1xf32>, %1368) -> memref<1xf32>
    hcl.partition(%1575 : memref<1xf32>, CompletePartition, 1, 0)
    hcl.partition(%1576 : memref<1xf32>, CompletePartition, 1, 0)
    hcl.partition(%1576 : memref<1xf32>, CompletePartition, 2, 0)
    hcl.partition(%1357 : memref<1x4x10x10xi16>, CompletePartition, 2, 0)
    hcl.partition(%arg154 : memref<64x4x3x3xi16>, CompletePartition, 2, 0)
    hcl.partition(%arg154 : memref<64x4x3x3xi16>, CompletePartition, 3, 0)
    hcl.partition(%arg154 : memref<64x4x3x3xi16>, CompletePartition, 4, 0)
    hcl.pipeline(%1376, 1)
    hcl.partition(%1372 : memref<1x64x8x8xf32>, CompletePartition, 4, 0)
    hcl.partition(%arg155 : memref<64xf32>, CompletePartition, 1, 0)
    hcl.pipeline(%1382, 1)
    hcl.partition(%arg156 : memref<64xf32>, CompletePartition, 1, 0)
    hcl.partition(%arg157 : memref<64xf32>, CompletePartition, 1, 0)
    hcl.partition(%1378 : memref<1x64x8x8xf32>, CompletePartition, 4, 0)
    hcl.pipeline(%1388, 1)
    hcl.partition(%1384 : memref<1x64x8x8xf32>, CompletePartition, 4, 0)
    hcl.partition(%arg148 : memref<64xf32>, CompletePartition, 1, 0)
    hcl.partition(%arg149 : memref<64xf32>, CompletePartition, 1, 0)
    hcl.partition(%arg150 : memref<64xf32>, CompletePartition, 1, 0)
    hcl.pipeline(%1394, 1)
    hcl.partition(%1390 : memref<1x64x8x8xf32>, CompletePartition, 4, 0)
    hcl.pipeline(%1400, 1)
    hcl.partition(%arg160 : memref<64xf32>, CompletePartition, 1, 0)
    hcl.partition(%arg161 : memref<64xf32>, CompletePartition, 1, 0)
    hcl.partition(%1396 : memref<1x64x8x8xf32>, CompletePartition, 4, 0)
    hcl.pipeline(%1406, 1)
    hcl.partition(%1402 : memref<1x64x8x8xi2>, CompletePartition, 4, 0)
    hcl.pipeline(%1412, 1)
    hcl.partition(%1408 : memref<1x4x8x8xi16>, CompletePartition, 4, 0)
    hcl.pipeline(%1418, 1)
    hcl.partition(%1414 : memref<1x4x8x8xi16>, CompletePartition, 4, 0)
    hcl.pipeline(%1425, 1)
    hcl.pipeline(%1431, 1)
    %1577 = hcl.reuse_at(%1420 : memref<1x4x10x10xi16>, %1430) -> memref<1xf32>
    %1578 = hcl.reuse_at(%1577 : memref<1xf32>, %1431) -> memref<1xf32>
    hcl.partition(%1577 : memref<1xf32>, CompletePartition, 1, 0)
    hcl.partition(%1578 : memref<1xf32>, CompletePartition, 1, 0)
    hcl.partition(%1578 : memref<1xf32>, CompletePartition, 2, 0)
    hcl.partition(%1420 : memref<1x4x10x10xi16>, CompletePartition, 2, 0)
    hcl.partition(%arg158 : memref<64x4x3x3xi16>, CompletePartition, 2, 0)
    hcl.partition(%arg158 : memref<64x4x3x3xi16>, CompletePartition, 3, 0)
    hcl.partition(%arg158 : memref<64x4x3x3xi16>, CompletePartition, 4, 0)
    hcl.pipeline(%1440, 1)
    hcl.pipeline(%1446, 1)
    %1579 = hcl.reuse_at(%1435 : memref<1x4x10x10xi16>, %1445) -> memref<1xf32>
    %1580 = hcl.reuse_at(%1579 : memref<1xf32>, %1446) -> memref<1xf32>
    hcl.partition(%1579 : memref<1xf32>, CompletePartition, 1, 0)
    hcl.partition(%1580 : memref<1xf32>, CompletePartition, 1, 0)
    hcl.partition(%1580 : memref<1xf32>, CompletePartition, 2, 0)
    hcl.partition(%1435 : memref<1x4x10x10xi16>, CompletePartition, 2, 0)
    hcl.partition(%arg158 : memref<64x4x3x3xi16>, CompletePartition, 2, 0)
    hcl.partition(%arg158 : memref<64x4x3x3xi16>, CompletePartition, 3, 0)
    hcl.partition(%arg158 : memref<64x4x3x3xi16>, CompletePartition, 4, 0)
    hcl.pipeline(%1454, 1)
    hcl.partition(%1450 : memref<1x64x8x8xf32>, CompletePartition, 4, 0)
    hcl.partition(%arg159 : memref<64xf32>, CompletePartition, 1, 0)
    hcl.pipeline(%1460, 1)
    hcl.partition(%arg162 : memref<64xf32>, CompletePartition, 1, 0)
    hcl.partition(%arg163 : memref<64xf32>, CompletePartition, 1, 0)
    hcl.partition(%1456 : memref<1x64x8x8xf32>, CompletePartition, 4, 0)
    hcl.pipeline(%1466, 1)
    hcl.partition(%1462 : memref<1x64x8x8xf32>, CompletePartition, 4, 0)
    hcl.partition(%arg151 : memref<64xf32>, CompletePartition, 1, 0)
    hcl.partition(%arg152 : memref<64xf32>, CompletePartition, 1, 0)
    hcl.partition(%arg153 : memref<64xf32>, CompletePartition, 1, 0)
    hcl.pipeline(%1472, 1)
    hcl.partition(%1468 : memref<1x64x8x8xf32>, CompletePartition, 4, 0)
    hcl.pipeline(%1478, 1)
    hcl.partition(%arg164 : memref<64xf32>, CompletePartition, 1, 0)
    hcl.partition(%arg165 : memref<64xf32>, CompletePartition, 1, 0)
    hcl.partition(%1474 : memref<1x64x8x8xf32>, CompletePartition, 4, 0)
    hcl.pipeline(%1485, 1)
    hcl.partition(%1480 : memref<1x64x1x1xf32>, CompletePartition, 4, 0)
    hcl.pipeline(%1491, 1)
    hcl.partition(%1488 : memref<1x64xf32>, CompletePartition, 2, 0)
    hcl.pipeline(%1495, 1)
    hcl.partition(%1492 : memref<1x10xf32>, CompletePartition, 2, 0)
    hcl.partition(%arg166 : memref<10x64xf32>, CompletePartition, 2, 0)
    hcl.partition(%arg167 : memref<10xf32>, CompletePartition, 1, 0)
    hcl.pipeline(%1500, 1)
    hcl.partition(%1497 : memref<1x10xf32>, CompletePartition, 2, 0)
    hcl.compute_at(%13, %28, %32)
    hcl.compute_at(%19, %34, %38)
    hcl.compute_at(%55, %61, %64)
    hcl.compute_at(%49, %61, %64)
    hcl.compute_at(%67, %82, %86)
    hcl.compute_at(%73, %88, %92)
    hcl.compute_at(%97, %103, %107)
    hcl.compute_at(%103, %109, %113)
    hcl.compute_at(%109, %115, %119)
    hcl.compute_at(%115, %121, %125)
    hcl.compute_at(%133, %139, %142)
    hcl.compute_at(%127, %139, %142)
    hcl.compute_at(%145, %160, %164)
    hcl.compute_at(%151, %166, %170)
    hcl.compute_at(%175, %181, %185)
    hcl.compute_at(%181, %187, %191)
    hcl.compute_at(%187, %193, %197)
    hcl.compute_at(%193, %199, %203)
    hcl.compute_at(%211, %217, %220)
    hcl.compute_at(%205, %217, %220)
    hcl.compute_at(%223, %238, %242)
    hcl.compute_at(%229, %244, %248)
    hcl.compute_at(%253, %259, %263)
    hcl.compute_at(%259, %265, %269)
    hcl.compute_at(%265, %271, %275)
    hcl.compute_at(%271, %277, %281)
    hcl.compute_at(%289, %295, %298)
    hcl.compute_at(%283, %295, %298)
    hcl.compute_at(%301, %316, %320)
    hcl.compute_at(%307, %322, %326)
    hcl.compute_at(%331, %337, %341)
    hcl.compute_at(%337, %343, %347)
    hcl.compute_at(%343, %349, %353)
    hcl.compute_at(%349, %355, %359)
    hcl.compute_at(%367, %373, %376)
    hcl.compute_at(%361, %373, %376)
    hcl.compute_at(%379, %394, %398)
    hcl.compute_at(%385, %400, %404)
    hcl.compute_at(%409, %415, %419)
    hcl.compute_at(%415, %421, %425)
    hcl.compute_at(%421, %427, %431)
    hcl.compute_at(%427, %433, %437)
    hcl.compute_at(%445, %451, %454)
    hcl.compute_at(%439, %451, %454)
    hcl.compute_at(%457, %472, %476)
    hcl.compute_at(%463, %478, %482)
    hcl.compute_at(%487, %493, %497)
    hcl.compute_at(%493, %499, %503)
    hcl.compute_at(%499, %505, %509)
    hcl.compute_at(%505, %511, %515)
    hcl.compute_at(%523, %529, %532)
    hcl.compute_at(%517, %529, %532)
    hcl.compute_at(%535, %550, %554)
    hcl.compute_at(%541, %556, %560)
    hcl.compute_at(%565, %571, %575)
    hcl.compute_at(%571, %577, %581)
    hcl.compute_at(%577, %597, %601)
    hcl.compute_at(%597, %603, %607)
    hcl.compute_at(%615, %621, %624)
    hcl.compute_at(%609, %621, %624)
    hcl.compute_at(%627, %642, %646)
    hcl.compute_at(%633, %648, %652)
    hcl.compute_at(%657, %663, %667)
    hcl.compute_at(%663, %669, %673)
    hcl.compute_at(%669, %675, %679)
    hcl.compute_at(%675, %681, %685)
    hcl.compute_at(%693, %699, %702)
    hcl.compute_at(%687, %699, %702)
    hcl.compute_at(%705, %720, %724)
    hcl.compute_at(%711, %726, %730)
    hcl.compute_at(%735, %741, %745)
    hcl.compute_at(%741, %747, %751)
    hcl.compute_at(%747, %753, %757)
    hcl.compute_at(%753, %759, %763)
    hcl.compute_at(%771, %777, %780)
    hcl.compute_at(%765, %777, %780)
    hcl.compute_at(%783, %798, %802)
    hcl.compute_at(%789, %804, %808)
    hcl.compute_at(%813, %819, %823)
    hcl.compute_at(%819, %825, %829)
    hcl.compute_at(%825, %831, %835)
    hcl.compute_at(%831, %837, %841)
    hcl.compute_at(%849, %855, %858)
    hcl.compute_at(%843, %855, %858)
    hcl.compute_at(%861, %876, %880)
    hcl.compute_at(%867, %882, %886)
    hcl.compute_at(%891, %897, %901)
    hcl.compute_at(%897, %903, %907)
    hcl.compute_at(%903, %909, %913)
    hcl.compute_at(%909, %915, %919)
    hcl.compute_at(%927, %933, %936)
    hcl.compute_at(%921, %933, %936)
    hcl.compute_at(%939, %954, %958)
    hcl.compute_at(%945, %960, %964)
    hcl.compute_at(%969, %975, %979)
    hcl.compute_at(%975, %981, %985)
    hcl.compute_at(%981, %987, %991)
    hcl.compute_at(%987, %993, %997)
    hcl.compute_at(%1005, %1011, %1014)
    hcl.compute_at(%999, %1011, %1014)
    hcl.compute_at(%1017, %1032, %1036)
    hcl.compute_at(%1023, %1038, %1042)
    hcl.compute_at(%1047, %1053, %1057)
    hcl.compute_at(%1053, %1059, %1063)
    hcl.compute_at(%1059, %1079, %1083)
    hcl.compute_at(%1079, %1085, %1089)
    hcl.compute_at(%1097, %1103, %1106)
    hcl.compute_at(%1091, %1103, %1106)
    hcl.compute_at(%1109, %1124, %1128)
    hcl.compute_at(%1115, %1130, %1134)
    hcl.compute_at(%1139, %1145, %1149)
    hcl.compute_at(%1145, %1151, %1155)
    hcl.compute_at(%1151, %1157, %1161)
    hcl.compute_at(%1157, %1163, %1167)
    hcl.compute_at(%1175, %1181, %1184)
    hcl.compute_at(%1169, %1181, %1184)
    hcl.compute_at(%1187, %1202, %1206)
    hcl.compute_at(%1193, %1208, %1212)
    hcl.compute_at(%1217, %1223, %1227)
    hcl.compute_at(%1223, %1229, %1233)
    hcl.compute_at(%1229, %1235, %1239)
    hcl.compute_at(%1235, %1241, %1245)
    hcl.compute_at(%1253, %1259, %1262)
    hcl.compute_at(%1247, %1259, %1262)
    hcl.compute_at(%1265, %1280, %1284)
    hcl.compute_at(%1271, %1286, %1290)
    hcl.compute_at(%1295, %1301, %1305)
    hcl.compute_at(%1301, %1307, %1311)
    hcl.compute_at(%1307, %1313, %1317)
    hcl.compute_at(%1313, %1319, %1323)
    hcl.compute_at(%1331, %1337, %1340)
    hcl.compute_at(%1325, %1337, %1340)
    hcl.compute_at(%1343, %1358, %1362)
    hcl.compute_at(%1349, %1364, %1368)
    hcl.compute_at(%1373, %1379, %1383)
    hcl.compute_at(%1379, %1385, %1389)
    hcl.compute_at(%1385, %1391, %1395)
    hcl.compute_at(%1391, %1397, %1401)
    hcl.compute_at(%1409, %1415, %1418)
    hcl.compute_at(%1403, %1415, %1418)
    hcl.compute_at(%1421, %1436, %1440)
    hcl.compute_at(%1427, %1442, %1446)
    hcl.compute_at(%1451, %1457, %1461)
    hcl.compute_at(%1457, %1463, %1467)
    hcl.compute_at(%1463, %1469, %1473)
    hcl.compute_at(%1469, %1475, %1479)
    hcl.compute_at(%1493, %1498, %1500)
    return %1497 : memref<1x10xf32>
  }
}
