#map0 = affine_map<(d0, d1, d2, d3) -> (0, 0, 0, d3, d0, d1, d2, 0)>
#map1 = affine_map<(d0, d1, d2, d3) -> (0, d1, d2, d3, d0, 0, 0, 0)>
#map2 = affine_map<(d0, d1, d2, d3) -> (0, d1, 0, 0, d0, 0, d2, d3)>
#map3 = affine_map<(d0, d1) -> (d0, 0, 0, d1)>
#map4 = affine_map<(d0, d1) -> (d0, d1, 0, 0)>
#map5 = affine_map<(d0) -> (d0, 0)>
#map6 = affine_map<(d0, d1) -> (0, d1, d0, 0)>
#map7 = affine_map<(d0, d1, d2) -> (d0, 0, 0, 0, d1, d2)>
#map8 = affine_map<(d0, d1, d2) -> (d0, d1, 0, 0, 0, d2)>
#map9 = affine_map<(d0) -> (d0 * 16)>
#map10 = affine_map<(d0) -> (d0 * 16 + 16)>
#set0 = affine_set<(d0, d1) : (d0 - 1 >= 0, -d0 + 32 >= 0, d1 - 1 >= 0, -d1 + 32 >= 0)>
#set1 = affine_set<(d0) : (d0 - 2 >= 0)>
#set2 = affine_set<(d0, d1, d2, d3) : (d0 + d1 - 3 >= 0, -(d0 + d1) + 34 >= 0, d2 + d3 - 3 >= 0, -(d2 + d3) + 34 >= 0)>
#set3 = affine_set<(d0) : (d0 - 1 >= 0, (d0 - 1) mod 2 == 0)>
#set4 = affine_set<(d0, d1) : (d0 - 1 >= 0, -d0 + 16 >= 0, d1 - 1 >= 0, -d1 + 16 >= 0)>
#set5 = affine_set<(d0, d1, d2, d3) : (d0 + d1 - 3 >= 0, -(d0 + d1) + 18 >= 0, d2 + d3 - 3 >= 0, -(d2 + d3) + 18 >= 0)>
#set6 = affine_set<(d0, d1) : (d0 - 1 >= 0, -d0 + 8 >= 0, d1 - 1 >= 0, -d1 + 8 >= 0)>
#set7 = affine_set<(d0, d1, d2, d3) : (d0 + d1 - 3 >= 0, -(d0 + d1) + 10 >= 0, d2 + d3 - 3 >= 0, -(d2 + d3) + 10 >= 0)>
module {
  func.func private @Stage_layer1_0_conv1_out_lsb_pad_layer1_0_conv1_out_lsb(%arg0: memref<1x1x32x32xi16, #map0>, %arg1: memref<1x1x32x32xi16, #map0>, %arg2: memref<16x1x3x3xi16, #map1>, %arg3: memref<1x16x32x32xi16>, %arg4: memref<1x16x32x32xi16>) attributes {bit, itypes = "uuu__"} {
    %0 = memref.alloc() {name = "layer1_0_conv1_out_msb_pad", unsigned} : memref<1x1x34x34xi16, #map2>
    %c0 = arith.constant 0 : index
    %c0_0 = arith.constant 0 : index
    %1 = memref.alloc() {name = "layer1_0_conv1_out_msb_reuse_2"} : memref<3x34xi16, #map3>
    %2 = memref.alloc() {name = "layer1_0_conv1_out_msb_reuse_3"} : memref<3x3xi16, #map4>
    %3 = memref.alloc() {name = "layer1_0_conv1_out_lsb_pad", unsigned} : memref<1x1x34x34xi16, #map2>
    %4 = memref.alloc() {name = "layer1_0_conv1_out_lsb_reuse_2"} : memref<3x34xi16, #map3>
    %5 = memref.alloc() {name = "layer1_0_conv1_out_lsb_reuse_3"} : memref<3x3xi16, #map4>
    %c0_1 = arith.constant 0 : index
    %c0_2 = arith.constant 0 : index
    %c0_3 = arith.constant 0 : index
    %c0_4 = arith.constant 0 : index
    %c0_5 = arith.constant 0 : index
    %c0_6 = arith.constant 0 : index
    affine.for %arg5 = 0 to 1 {
      affine.for %arg6 = 0 to 1 {
        affine.for %arg7 = 0 to 34 {
          affine.for %arg8 = 0 to 34 {
            %6 = affine.if #set0(%arg8, %arg7) -> i16 {
              %8 = affine.load %arg0[%arg5, %arg6, %arg7 - 1, %arg8 - 1] {from = "layer1_0_conv1_msb_truncate", unsigned} : memref<1x1x32x32xi16, #map0>
              affine.yield %8 : i16
            } else {
              %c0_i32 = arith.constant 0 : i32
              %8 = arith.trunci %c0_i32 {unsigned} : i32 to i16
              affine.yield %8 : i16
            } {unsigned}
            affine.store %6, %0[%arg5, %arg6, %arg7, %arg8] {to = "layer1_0_conv1_out_msb_pad"} : memref<1x1x34x34xi16, #map2>
            %7 = affine.if #set0(%arg8, %arg7) -> i16 {
              %8 = affine.load %arg1[%arg5, %arg6, %arg7 - 1, %arg8 - 1] {from = "layer1_0_conv1_lsb_truncate", unsigned} : memref<1x1x32x32xi16, #map0>
              affine.yield %8 : i16
            } else {
              %c0_i32 = arith.constant 0 : i32
              %8 = arith.trunci %c0_i32 {unsigned} : i32 to i16
              affine.yield %8 : i16
            } {unsigned}
            affine.store %7, %3[%arg5, %arg6, %arg7, %arg8] {to = "layer1_0_conv1_out_lsb_pad"} : memref<1x1x34x34xi16, #map2>
          } {loop_name = "ww", pipeline_ii = 1 : i32}
        } {loop_name = "hh"}
      } {loop_name = "cc"}
    } {loop_name = "ii", op_name = "layer1_0_conv1_out_lsb_pad"}
    affine.for %arg5 = 0 to 1 {
      affine.for %arg6 = 0 to 16 {
        affine.for %arg7 = 0 to 34 {
          affine.for %arg8 = 0 to 34 {
            %6 = affine.load %1[1, %arg8] : memref<3x34xi16, #map3>
            affine.store %6, %1[0, %arg8] : memref<3x34xi16, #map3>
            %7 = affine.load %1[2, %arg8] : memref<3x34xi16, #map3>
            affine.store %7, %1[1, %arg8] : memref<3x34xi16, #map3>
            %8 = affine.load %0[%c0_1, %c0_2, %arg7, %arg8] : memref<1x1x34x34xi16, #map2>
            affine.store %8, %1[2, %arg8] : memref<3x34xi16, #map3>
            affine.if #set1(%arg7) {
              affine.for %arg9 = 0 to 3 {
                %12 = affine.load %2[%arg9, 1] : memref<3x3xi16, #map4>
                affine.store %12, %2[%arg9, 0] : memref<3x3xi16, #map4>
                %13 = affine.load %2[%arg9, 2] : memref<3x3xi16, #map4>
                affine.store %13, %2[%arg9, 1] : memref<3x3xi16, #map4>
                %14 = affine.load %1[%arg9, %arg8] : memref<3x34xi16, #map3>
                affine.store %14, %2[%arg9, 2] : memref<3x3xi16, #map4>
              } {spatial}
              affine.if #set1(%arg8) {
                %12 = memref.alloc() {name = "sum_rv"} : memref<1xi16>
                %c0_i16 = arith.constant 0 : i16
                affine.store %c0_i16, %12[%c0_3] {to = "sum_rv"} : memref<1xi16>
                affine.for %arg9 = 0 to 1 {
                  affine.for %arg10 = 0 to 3 {
                    affine.for %arg11 = 0 to 3 {
                      %14 = affine.if #set2(%arg8, %arg11, %arg7, %arg10) -> i16 {
                        %c16_i32 = arith.constant 16 : i32
                        %17 = arith.extsi %c16_i32 : i32 to i128
                        %18 = affine.load %2[%arg10, %arg11] : memref<3x3xi16, #map4>
                        %19 = affine.load %arg2[%arg6, %arg9, %arg10, %arg11] {from = "layer1_0_conv1_weight", unsigned} : memref<16x1x3x3xi16, #map1>
                        %20 = arith.xori %18, %19 {unsigned} : i16
                        %c1_i32 = arith.constant 1 : i32
                        %21 = arith.trunci %c1_i32 {unsigned} : i32 to i16
                        %22 = arith.shrui %20, %21 {unsigned} : i16
                        %c6148914691236517205_i64 = arith.constant 6148914691236517205 : i64
                        %23 = arith.trunci %c6148914691236517205_i64 {unsigned} : i64 to i16
                        %24 = arith.andi %22, %23 {unsigned} : i16
                        %25 = arith.subi %20, %24 {unsigned} : i16
                        %c3689348814741910323_i64 = arith.constant 3689348814741910323 : i64
                        %26 = arith.trunci %c3689348814741910323_i64 {unsigned} : i64 to i16
                        %27 = arith.andi %25, %26 {unsigned} : i16
                        %c2_i32 = arith.constant 2 : i32
                        %28 = arith.trunci %c2_i32 {unsigned} : i32 to i16
                        %29 = arith.shrui %25, %28 {unsigned} : i16
                        %c3689348814741910323_i64_7 = arith.constant 3689348814741910323 : i64
                        %30 = arith.trunci %c3689348814741910323_i64_7 {unsigned} : i64 to i16
                        %31 = arith.andi %29, %30 {unsigned} : i16
                        %32 = arith.addi %27, %31 {unsigned} : i16
                        %c4_i32 = arith.constant 4 : i32
                        %33 = arith.trunci %c4_i32 {unsigned} : i32 to i16
                        %34 = arith.shrui %32, %33 {unsigned} : i16
                        %35 = arith.addi %32, %34 {unsigned} : i16
                        %c1085102592571150095_i64 = arith.constant 1085102592571150095 : i64
                        %36 = arith.trunci %c1085102592571150095_i64 {unsigned} : i64 to i16
                        %37 = arith.andi %35, %36 {unsigned} : i16
                        %38 = arith.extui %37 : i16 to i64
                        %c72340172838076673_i64 = arith.constant 72340172838076673 : i64
                        %39 = arith.muli %38, %c72340172838076673_i64 : i64
                        %c56_i32 = arith.constant 56 : i32
                        %40 = arith.extsi %c56_i32 : i32 to i64
                        %41 = arith.shrui %39, %40 : i64
                        %42 = arith.extsi %41 : i64 to i128
                        %c1_i32_8 = arith.constant 1 : i32
                        %43 = arith.extsi %c1_i32_8 : i32 to i64
                        %44 = arith.extsi %43 : i64 to i128
                        %45 = arith.shli %42, %44 : i128
                        %46 = arith.subi %17, %45 : i128
                        %47 = arith.trunci %46 : i128 to i16
                        affine.yield %47 : i16
                      } else {
                        %c0_i32 = arith.constant 0 : i32
                        %17 = arith.trunci %c0_i32 : i32 to i16
                        affine.yield %17 : i16
                      }
                      %15 = affine.load %12[%c0_3] {from = "sum_rv"} : memref<1xi16>
                      %16 = arith.addi %14, %15 : i16
                      affine.store %16, %12[%c0_3] {to = "sum_rv"} : memref<1xi16>
                    } {loop_name = "layer1_0_conv1_out_msb_rx", reduction}
                  } {loop_name = "layer1_0_conv1_out_msb_ry", reduction}
                } {loop_name = "layer1_0_conv1_out_msb_rc", reduction}
                %13 = affine.load %12[%c0_4] {from = "sum_rv"} : memref<1xi16>
                affine.store %13, %arg3[%arg5, %arg6, %arg7 - 2, %arg8 - 2] : memref<1x16x32x32xi16>
              }
            }
            %9 = affine.load %4[1, %arg8] : memref<3x34xi16, #map3>
            affine.store %9, %4[0, %arg8] : memref<3x34xi16, #map3>
            %10 = affine.load %4[2, %arg8] : memref<3x34xi16, #map3>
            affine.store %10, %4[1, %arg8] : memref<3x34xi16, #map3>
            %11 = affine.load %3[%c0_5, %c0_6, %arg7, %arg8] : memref<1x1x34x34xi16, #map2>
            affine.store %11, %4[2, %arg8] : memref<3x34xi16, #map3>
            affine.if #set1(%arg7) {
              affine.for %arg9 = 0 to 3 {
                %12 = affine.load %5[%arg9, 1] : memref<3x3xi16, #map4>
                affine.store %12, %5[%arg9, 0] : memref<3x3xi16, #map4>
                %13 = affine.load %5[%arg9, 2] : memref<3x3xi16, #map4>
                affine.store %13, %5[%arg9, 1] : memref<3x3xi16, #map4>
                %14 = affine.load %4[%arg9, %arg8] : memref<3x34xi16, #map3>
                affine.store %14, %5[%arg9, 2] : memref<3x3xi16, #map4>
              } {spatial}
              affine.if #set1(%arg8) {
                %12 = memref.alloc() {name = "sum_rv"} : memref<1xi16>
                %c0_i16 = arith.constant 0 : i16
                affine.store %c0_i16, %12[%c0_0] {to = "sum_rv"} : memref<1xi16>
                affine.for %arg9 = 0 to 1 {
                  affine.for %arg10 = 0 to 3 {
                    affine.for %arg11 = 0 to 3 {
                      %14 = affine.if #set2(%arg8, %arg11, %arg7, %arg10) -> i16 {
                        %c16_i32 = arith.constant 16 : i32
                        %17 = arith.extsi %c16_i32 : i32 to i128
                        %18 = affine.load %5[%arg10, %arg11] : memref<3x3xi16, #map4>
                        %19 = affine.load %arg2[%arg6, %arg9, %arg10, %arg11] {from = "layer1_0_conv1_weight", unsigned} : memref<16x1x3x3xi16, #map1>
                        %20 = arith.xori %18, %19 {unsigned} : i16
                        %c1_i32 = arith.constant 1 : i32
                        %21 = arith.trunci %c1_i32 {unsigned} : i32 to i16
                        %22 = arith.shrui %20, %21 {unsigned} : i16
                        %c6148914691236517205_i64 = arith.constant 6148914691236517205 : i64
                        %23 = arith.trunci %c6148914691236517205_i64 {unsigned} : i64 to i16
                        %24 = arith.andi %22, %23 {unsigned} : i16
                        %25 = arith.subi %20, %24 {unsigned} : i16
                        %c3689348814741910323_i64 = arith.constant 3689348814741910323 : i64
                        %26 = arith.trunci %c3689348814741910323_i64 {unsigned} : i64 to i16
                        %27 = arith.andi %25, %26 {unsigned} : i16
                        %c2_i32 = arith.constant 2 : i32
                        %28 = arith.trunci %c2_i32 {unsigned} : i32 to i16
                        %29 = arith.shrui %25, %28 {unsigned} : i16
                        %c3689348814741910323_i64_7 = arith.constant 3689348814741910323 : i64
                        %30 = arith.trunci %c3689348814741910323_i64_7 {unsigned} : i64 to i16
                        %31 = arith.andi %29, %30 {unsigned} : i16
                        %32 = arith.addi %27, %31 {unsigned} : i16
                        %c4_i32 = arith.constant 4 : i32
                        %33 = arith.trunci %c4_i32 {unsigned} : i32 to i16
                        %34 = arith.shrui %32, %33 {unsigned} : i16
                        %35 = arith.addi %32, %34 {unsigned} : i16
                        %c1085102592571150095_i64 = arith.constant 1085102592571150095 : i64
                        %36 = arith.trunci %c1085102592571150095_i64 {unsigned} : i64 to i16
                        %37 = arith.andi %35, %36 {unsigned} : i16
                        %38 = arith.extui %37 : i16 to i64
                        %c72340172838076673_i64 = arith.constant 72340172838076673 : i64
                        %39 = arith.muli %38, %c72340172838076673_i64 : i64
                        %c56_i32 = arith.constant 56 : i32
                        %40 = arith.extsi %c56_i32 : i32 to i64
                        %41 = arith.shrui %39, %40 : i64
                        %42 = arith.extsi %41 : i64 to i128
                        %c1_i32_8 = arith.constant 1 : i32
                        %43 = arith.extsi %c1_i32_8 : i32 to i64
                        %44 = arith.extsi %43 : i64 to i128
                        %45 = arith.shli %42, %44 : i128
                        %46 = arith.subi %17, %45 : i128
                        %47 = arith.trunci %46 : i128 to i16
                        affine.yield %47 : i16
                      } else {
                        %c0_i32 = arith.constant 0 : i32
                        %17 = arith.trunci %c0_i32 : i32 to i16
                        affine.yield %17 : i16
                      }
                      %15 = affine.load %12[%c0_0] {from = "sum_rv"} : memref<1xi16>
                      %16 = arith.addi %14, %15 : i16
                      affine.store %16, %12[%c0_0] {to = "sum_rv"} : memref<1xi16>
                    } {loop_name = "layer1_0_conv1_out_lsb_rx", reduction}
                  } {loop_name = "layer1_0_conv1_out_lsb_ry", reduction}
                } {loop_name = "layer1_0_conv1_out_lsb_rc", reduction}
                %13 = affine.load %12[%c0] {from = "sum_rv"} : memref<1xi16>
                affine.store %13, %arg4[%arg5, %arg6, %arg7 - 2, %arg8 - 2] : memref<1x16x32x32xi16>
              }
            }
          } {loop_name = "xx", pipeline_ii = 1 : i32}
        } {loop_name = "yy"}
      } {loop_name = "ff"}
    } {loop_name = "nn", op_name = "layer1_0_conv1_out_lsb"}
    return
  }
  func.func @top(%arg0: memref<1x6x32x32xi16>, %arg1: memref<16x6x3x3xi16, #map1>, %arg2: memref<16xf32, #map5>, %arg3: memref<16xf32, #map5>, %arg4: memref<16xf32, #map5>, %arg5: memref<16xf32, #map5>, %arg6: memref<16xf32, #map5>, %arg7: memref<16xf32, #map5>, %arg8: memref<16xf32, #map5>, %arg9: memref<16xf32, #map5>, %arg10: memref<16x1x3x3xi16, #map1>, %arg11: memref<16xf32, #map5>, %arg12: memref<16xf32, #map5>, %arg13: memref<16xf32, #map5>, %arg14: memref<16x1x3x3xi16, #map1>, %arg15: memref<16xf32, #map5>, %arg16: memref<16xf32, #map5>, %arg17: memref<16xf32, #map5>, %arg18: memref<16xf32, #map5>, %arg19: memref<16xf32, #map5>, %arg20: memref<16xf32, #map5>, %arg21: memref<16xf32, #map5>, %arg22: memref<16xf32, #map5>, %arg23: memref<16xf32, #map5>, %arg24: memref<16xf32, #map5>, %arg25: memref<16xf32, #map5>, %arg26: memref<16xf32, #map5>, %arg27: memref<16xf32, #map5>, %arg28: memref<16x1x3x3xi16, #map1>, %arg29: memref<16xf32, #map5>, %arg30: memref<16xf32, #map5>, %arg31: memref<16xf32, #map5>, %arg32: memref<16x1x3x3xi16, #map1>, %arg33: memref<16xf32, #map5>, %arg34: memref<16xf32, #map5>, %arg35: memref<16xf32, #map5>, %arg36: memref<16xf32, #map5>, %arg37: memref<16xf32, #map5>, %arg38: memref<16xf32, #map5>, %arg39: memref<16xf32, #map5>, %arg40: memref<16xf32, #map5>, %arg41: memref<16xf32, #map5>, %arg42: memref<16xf32, #map5>, %arg43: memref<16xf32, #map5>, %arg44: memref<16xf32, #map5>, %arg45: memref<16xf32, #map5>, %arg46: memref<16x1x3x3xi16, #map1>, %arg47: memref<16xf32, #map5>, %arg48: memref<16xf32, #map5>, %arg49: memref<16xf32, #map5>, %arg50: memref<16x1x3x3xi16, #map1>, %arg51: memref<16xf32, #map5>, %arg52: memref<16xf32, #map5>, %arg53: memref<16xf32, #map5>, %arg54: memref<16xf32, #map5>, %arg55: memref<16xf32, #map5>, %arg56: memref<16xf32, #map5>, %arg57: memref<16xf32, #map5>, %arg58: memref<32xf32, #map5>, %arg59: memref<32xf32, #map5>, %arg60: memref<32xf32, #map5>, %arg61: memref<32xf32, #map5>, %arg62: memref<32xf32, #map5>, %arg63: memref<32xf32, #map5>, %arg64: memref<32x1x3x3xi16, #map1>, %arg65: memref<32xf32, #map5>, %arg66: memref<32xf32, #map5>, %arg67: memref<32xf32, #map5>, %arg68: memref<32x2x3x3xi16, #map1>, %arg69: memref<32xf32, #map5>, %arg70: memref<32xf32, #map5>, %arg71: memref<32xf32, #map5>, %arg72: memref<32xf32, #map5>, %arg73: memref<32xf32, #map5>, %arg74: memref<32xf32, #map5>, %arg75: memref<32xf32, #map5>, %arg76: memref<32xf32, #map5>, %arg77: memref<32xf32, #map5>, %arg78: memref<32xf32, #map5>, %arg79: memref<32xf32, #map5>, %arg80: memref<32xf32, #map5>, %arg81: memref<32xf32, #map5>, %arg82: memref<32x2x3x3xi16, #map1>, %arg83: memref<32xf32, #map5>, %arg84: memref<32xf32, #map5>, %arg85: memref<32xf32, #map5>, %arg86: memref<32x2x3x3xi16, #map1>, %arg87: memref<32xf32, #map5>, %arg88: memref<32xf32, #map5>, %arg89: memref<32xf32, #map5>, %arg90: memref<32xf32, #map5>, %arg91: memref<32xf32, #map5>, %arg92: memref<32xf32, #map5>, %arg93: memref<32xf32, #map5>, %arg94: memref<32xf32, #map5>, %arg95: memref<32xf32, #map5>, %arg96: memref<32xf32, #map5>, %arg97: memref<32xf32, #map5>, %arg98: memref<32xf32, #map5>, %arg99: memref<32xf32, #map5>, %arg100: memref<32x2x3x3xi16, #map1>, %arg101: memref<32xf32, #map5>, %arg102: memref<32xf32, #map5>, %arg103: memref<32xf32, #map5>, %arg104: memref<32x2x3x3xi16, #map1>, %arg105: memref<32xf32, #map5>, %arg106: memref<32xf32, #map5>, %arg107: memref<32xf32, #map5>, %arg108: memref<32xf32, #map5>, %arg109: memref<32xf32, #map5>, %arg110: memref<32xf32, #map5>, %arg111: memref<32xf32, #map5>, %arg112: memref<64xf32, #map5>, %arg113: memref<64xf32, #map5>, %arg114: memref<64xf32, #map5>, %arg115: memref<64xf32, #map5>, %arg116: memref<64xf32, #map5>, %arg117: memref<64xf32, #map5>, %arg118: memref<64x2x3x3xi16, #map1>, %arg119: memref<64xf32, #map5>, %arg120: memref<64xf32, #map5>, %arg121: memref<64xf32, #map5>, %arg122: memref<64x4x3x3xi16, #map1>, %arg123: memref<64xf32, #map5>, %arg124: memref<64xf32, #map5>, %arg125: memref<64xf32, #map5>, %arg126: memref<64xf32, #map5>, %arg127: memref<64xf32, #map5>, %arg128: memref<64xf32, #map5>, %arg129: memref<64xf32, #map5>, %arg130: memref<64xf32, #map5>, %arg131: memref<64xf32, #map5>, %arg132: memref<64xf32, #map5>, %arg133: memref<64xf32, #map5>, %arg134: memref<64xf32, #map5>, %arg135: memref<64xf32, #map5>, %arg136: memref<64x4x3x3xi16, #map1>, %arg137: memref<64xf32, #map5>, %arg138: memref<64xf32, #map5>, %arg139: memref<64xf32, #map5>, %arg140: memref<64x4x3x3xi16, #map1>, %arg141: memref<64xf32, #map5>, %arg142: memref<64xf32, #map5>, %arg143: memref<64xf32, #map5>, %arg144: memref<64xf32, #map5>, %arg145: memref<64xf32, #map5>, %arg146: memref<64xf32, #map5>, %arg147: memref<64xf32, #map5>, %arg148: memref<64xf32, #map5>, %arg149: memref<64xf32, #map5>, %arg150: memref<64xf32, #map5>, %arg151: memref<64xf32, #map5>, %arg152: memref<64xf32, #map5>, %arg153: memref<64xf32, #map5>, %arg154: memref<64x4x3x3xi16, #map1>, %arg155: memref<64xf32, #map5>, %arg156: memref<64xf32, #map5>, %arg157: memref<64xf32, #map5>, %arg158: memref<64x4x3x3xi16, #map1>, %arg159: memref<64xf32, #map5>, %arg160: memref<64xf32, #map5>, %arg161: memref<64xf32, #map5>, %arg162: memref<64xf32, #map5>, %arg163: memref<64xf32, #map5>, %arg164: memref<64xf32, #map5>, %arg165: memref<64xf32, #map5>, %arg166: memref<10x64xf32, #map6>, %arg167: memref<10xf32, #map5>) -> memref<1x10xf32, #map6> attributes {bit, itypes = "uu________u___u_____________u___u_____________u___u_____________u___u_____________u___u_____________u___u_____________u___u_____________u___u_____________u___u_________", otypes = "_"} {
    %c0 = arith.constant 0 : index
    %c0_0 = arith.constant 0 : index
    %c0_1 = arith.constant 0 : index
    %c0_2 = arith.constant 0 : index
    %c0_3 = arith.constant 0 : index
    %c0_4 = arith.constant 0 : index
    %c0_5 = arith.constant 0 : index
    %c0_6 = arith.constant 0 : index
    %c0_7 = arith.constant 0 : index
    %c0_8 = arith.constant 0 : index
    %c0_9 = arith.constant 0 : index
    %c0_10 = arith.constant 0 : index
    %c0_11 = arith.constant 0 : index
    %c0_12 = arith.constant 0 : index
    %c0_13 = arith.constant 0 : index
    %c0_14 = arith.constant 0 : index
    %c0_15 = arith.constant 0 : index
    %c0_16 = arith.constant 0 : index
    %c0_17 = arith.constant 0 : index
    %c0_18 = arith.constant 0 : index
    %c0_19 = arith.constant 0 : index
    %c0_20 = arith.constant 0 : index
    %c0_21 = arith.constant 0 : index
    %c0_22 = arith.constant 0 : index
    %c0_23 = arith.constant 0 : index
    %c0_24 = arith.constant 0 : index
    %c0_25 = arith.constant 0 : index
    %c0_26 = arith.constant 0 : index
    %c0_27 = arith.constant 0 : index
    %c0_28 = arith.constant 0 : index
    %c0_29 = arith.constant 0 : index
    %c0_30 = arith.constant 0 : index
    %c0_31 = arith.constant 0 : index
    %c0_32 = arith.constant 0 : index
    %c0_33 = arith.constant 0 : index
    %c0_34 = arith.constant 0 : index
    %c0_35 = arith.constant 0 : index
    %c0_36 = arith.constant 0 : index
    %c0_37 = arith.constant 0 : index
    %c0_38 = arith.constant 0 : index
    %c0_39 = arith.constant 0 : index
    %c0_40 = arith.constant 0 : index
    %c0_41 = arith.constant 0 : index
    %c0_42 = arith.constant 0 : index
    %c0_43 = arith.constant 0 : index
    %c0_44 = arith.constant 0 : index
    %c0_45 = arith.constant 0 : index
    %c0_46 = arith.constant 0 : index
    %c0_47 = arith.constant 0 : index
    %c0_48 = arith.constant 0 : index
    %c0_49 = arith.constant 0 : index
    %c0_50 = arith.constant 0 : index
    %c0_51 = arith.constant 0 : index
    %c0_52 = arith.constant 0 : index
    %c0_53 = arith.constant 0 : index
    %c0_54 = arith.constant 0 : index
    %c0_55 = arith.constant 0 : index
    %c0_56 = arith.constant 0 : index
    %c0_57 = arith.constant 0 : index
    %c0_58 = arith.constant 0 : index
    %c0_59 = arith.constant 0 : index
    %c0_60 = arith.constant 0 : index
    %c0_61 = arith.constant 0 : index
    %c0_62 = arith.constant 0 : index
    %c0_63 = arith.constant 0 : index
    %c0_64 = arith.constant 0 : index
    %c0_65 = arith.constant 0 : index
    %c0_66 = arith.constant 0 : index
    %c0_67 = arith.constant 0 : index
    %c0_68 = arith.constant 0 : index
    %c0_69 = arith.constant 0 : index
    %c0_70 = arith.constant 0 : index
    %c0_71 = arith.constant 0 : index
    %c0_72 = arith.constant 0 : index
    %c0_73 = arith.constant 0 : index
    %c0_74 = arith.constant 0 : index
    %c0_75 = arith.constant 0 : index
    %c0_76 = arith.constant 0 : index
    %c0_77 = arith.constant 0 : index
    %c0_78 = arith.constant 0 : index
    %c0_79 = arith.constant 0 : index
    %c0_80 = arith.constant 0 : index
    %c0_81 = arith.constant 0 : index
    %c0_82 = arith.constant 0 : index
    %c0_83 = arith.constant 0 : index
    %c0_84 = arith.constant 0 : index
    %c0_85 = arith.constant 0 : index
    %c0_86 = arith.constant 0 : index
    %c0_87 = arith.constant 0 : index
    %c0_88 = arith.constant 0 : index
    %c0_89 = arith.constant 0 : index
    %0 = memref.alloc() {name = "x_truncate", unsigned} : memref<1x6x32x32xi16, #map0>
    affine.for %arg168 = 0 to 1 {
      affine.for %arg169 = 0 to 6 {
        affine.for %arg170 = 0 to 32 {
          affine.for %arg171 = 0 to 32 {
            %305 = affine.load %arg0[%arg168, %arg169, %arg170, %arg171] {from = "input_image", unsigned} : memref<1x6x32x32xi16>
            affine.store %305, %0[%arg168, %arg169, %arg170, %arg171] {to = "x_truncate"} : memref<1x6x32x32xi16, #map0>
          } {loop_name = "i3"}
        } {loop_name = "i2", pipeline_ii = 1 : i32}
      } {loop_name = "i1"}
    } {loop_name = "i0", op_name = "x_truncate"}
    %1 = memref.alloc() {name = "x_truncate1", unsigned} : memref<1x6x32x32xi16, #map0>
    affine.for %arg168 = 0 to 1 {
      affine.for %arg169 = 0 to 6 {
        affine.for %arg170 = 0 to 32 {
          affine.for %arg171 = 0 to 32 {
            %305 = affine.load %arg0[%arg168, %arg169, %arg170, %arg171] {from = "input_image", unsigned} : memref<1x6x32x32xi16>
            affine.store %305, %1[%arg168, %arg169, %arg170, %arg171] {to = "x_truncate1"} : memref<1x6x32x32xi16, #map0>
          } {loop_name = "i3"}
        } {loop_name = "i2", pipeline_ii = 1 : i32}
      } {loop_name = "i1"}
    } {loop_name = "i0", op_name = "x_truncate1"}
    %2 = memref.alloc() {name = "conv1_out_msb_pad", unsigned} : memref<1x6x34x34xi16, #map2>
    %3 = memref.alloc() {name = "conv1_out_msb"} : memref<1x16x32x32xi16>
    %4 = memref.alloc() {name = "conv1_out_msb_reuse_2"} : memref<6x3x34xi16, #map7>
    %5 = memref.alloc() {name = "conv1_out_msb_reuse_3"} : memref<6x3x3xi16, #map8>
    %6 = memref.alloc() {name = "conv1_out_lsb_pad", unsigned} : memref<1x6x34x34xi16, #map2>
    affine.for %arg168 = 0 to 1 {
      affine.for %arg169 = 0 to 6 {
        affine.for %arg170 = 0 to 34 {
          affine.for %arg171 = 0 to 34 {
            %305 = affine.if #set0(%arg171, %arg170) -> i16 {
              %307 = affine.load %0[%arg168, %arg169, %arg170 - 1, %arg171 - 1] {from = "x_truncate", unsigned} : memref<1x6x32x32xi16, #map0>
              affine.yield %307 : i16
            } else {
              %c0_i32 = arith.constant 0 : i32
              %307 = arith.trunci %c0_i32 {unsigned} : i32 to i16
              affine.yield %307 : i16
            } {unsigned}
            affine.store %305, %2[%arg168, %arg169, %arg170, %arg171] {to = "conv1_out_msb_pad"} : memref<1x6x34x34xi16, #map2>
            %306 = affine.if #set0(%arg171, %arg170) -> i16 {
              %307 = affine.load %1[%arg168, %arg169, %arg170 - 1, %arg171 - 1] {from = "x_truncate1", unsigned} : memref<1x6x32x32xi16, #map0>
              affine.yield %307 : i16
            } else {
              %c0_i32 = arith.constant 0 : i32
              %307 = arith.trunci %c0_i32 {unsigned} : i32 to i16
              affine.yield %307 : i16
            } {unsigned}
            affine.store %306, %6[%arg168, %arg169, %arg170, %arg171] {to = "conv1_out_lsb_pad"} : memref<1x6x34x34xi16, #map2>
          } {loop_name = "ww", pipeline_ii = 1 : i32}
        } {loop_name = "hh"}
      } {loop_name = "cc"}
    } {loop_name = "ii", op_name = "conv1_out_lsb_pad"}
    %7 = memref.alloc() {name = "conv1_out_lsb"} : memref<1x16x32x32xi16>
    %8 = memref.alloc() {name = "conv1_out_lsb_reuse_2"} : memref<6x3x34xi16, #map7>
    %9 = memref.alloc() {name = "conv1_out_lsb_reuse_3"} : memref<6x3x3xi16, #map8>
    affine.for %arg168 = 0 to 1 {
      affine.for %arg169 = 0 to 16 {
        affine.for %arg170 = 0 to 34 {
          affine.for %arg171 = 0 to 34 {
            affine.for %arg172 = 0 to 6 {
              %305 = affine.load %4[%arg172, 1, %arg171] : memref<6x3x34xi16, #map7>
              affine.store %305, %4[%arg172, 0, %arg171] : memref<6x3x34xi16, #map7>
              %306 = affine.load %4[%arg172, 2, %arg171] : memref<6x3x34xi16, #map7>
              affine.store %306, %4[%arg172, 1, %arg171] : memref<6x3x34xi16, #map7>
              %307 = affine.load %2[%arg168, %arg172, %arg170, %arg171] : memref<1x6x34x34xi16, #map2>
              affine.store %307, %4[%arg172, 2, %arg171] : memref<6x3x34xi16, #map7>
            } {spatial}
            affine.if #set1(%arg170) {
              affine.for %arg172 = 0 to 6 {
                affine.for %arg173 = 0 to 3 {
                  %305 = affine.load %5[%arg172, %arg173, 1] : memref<6x3x3xi16, #map8>
                  affine.store %305, %5[%arg172, %arg173, 0] : memref<6x3x3xi16, #map8>
                  %306 = affine.load %5[%arg172, %arg173, 2] : memref<6x3x3xi16, #map8>
                  affine.store %306, %5[%arg172, %arg173, 1] : memref<6x3x3xi16, #map8>
                  %307 = affine.load %4[%arg172, %arg173, %arg171] : memref<6x3x34xi16, #map7>
                  affine.store %307, %5[%arg172, %arg173, 2] : memref<6x3x3xi16, #map8>
                } {spatial}
              } {spatial}
              affine.if #set1(%arg171) {
                %305 = memref.alloc() {name = "sum_rv"} : memref<1xi16>
                %c0_90 = arith.constant 0 : index
                %c0_i16 = arith.constant 0 : i16
                affine.store %c0_i16, %305[%c0_90] {to = "sum_rv"} : memref<1xi16>
                affine.for %arg172 = 0 to 6 {
                  affine.for %arg173 = 0 to 3 {
                    affine.for %arg174 = 0 to 3 {
                      %307 = affine.if #set2(%arg171, %arg174, %arg170, %arg173) -> i16 {
                        %c16_i32 = arith.constant 16 : i32
                        %310 = arith.extsi %c16_i32 : i32 to i128
                        %311 = affine.load %5[%arg172, %arg173, %arg174] : memref<6x3x3xi16, #map8>
                        %312 = affine.load %arg1[%arg169, %arg172, %arg173, %arg174] {from = "conv1_weight", unsigned} : memref<16x6x3x3xi16, #map1>
                        %313 = arith.xori %311, %312 {unsigned} : i16
                        %c1_i32 = arith.constant 1 : i32
                        %314 = arith.trunci %c1_i32 {unsigned} : i32 to i16
                        %315 = arith.shrui %313, %314 {unsigned} : i16
                        %c6148914691236517205_i64 = arith.constant 6148914691236517205 : i64
                        %316 = arith.trunci %c6148914691236517205_i64 {unsigned} : i64 to i16
                        %317 = arith.andi %315, %316 {unsigned} : i16
                        %318 = arith.subi %313, %317 {unsigned} : i16
                        %c3689348814741910323_i64 = arith.constant 3689348814741910323 : i64
                        %319 = arith.trunci %c3689348814741910323_i64 {unsigned} : i64 to i16
                        %320 = arith.andi %318, %319 {unsigned} : i16
                        %c2_i32 = arith.constant 2 : i32
                        %321 = arith.trunci %c2_i32 {unsigned} : i32 to i16
                        %322 = arith.shrui %318, %321 {unsigned} : i16
                        %c3689348814741910323_i64_92 = arith.constant 3689348814741910323 : i64
                        %323 = arith.trunci %c3689348814741910323_i64_92 {unsigned} : i64 to i16
                        %324 = arith.andi %322, %323 {unsigned} : i16
                        %325 = arith.addi %320, %324 {unsigned} : i16
                        %c4_i32 = arith.constant 4 : i32
                        %326 = arith.trunci %c4_i32 {unsigned} : i32 to i16
                        %327 = arith.shrui %325, %326 {unsigned} : i16
                        %328 = arith.addi %325, %327 {unsigned} : i16
                        %c1085102592571150095_i64 = arith.constant 1085102592571150095 : i64
                        %329 = arith.trunci %c1085102592571150095_i64 {unsigned} : i64 to i16
                        %330 = arith.andi %328, %329 {unsigned} : i16
                        %331 = arith.extui %330 : i16 to i64
                        %c72340172838076673_i64 = arith.constant 72340172838076673 : i64
                        %332 = arith.muli %331, %c72340172838076673_i64 : i64
                        %c56_i32 = arith.constant 56 : i32
                        %333 = arith.extsi %c56_i32 : i32 to i64
                        %334 = arith.shrui %332, %333 : i64
                        %335 = arith.extsi %334 : i64 to i128
                        %c1_i32_93 = arith.constant 1 : i32
                        %336 = arith.extsi %c1_i32_93 : i32 to i64
                        %337 = arith.extsi %336 : i64 to i128
                        %338 = arith.shli %335, %337 : i128
                        %339 = arith.subi %310, %338 : i128
                        %340 = arith.trunci %339 : i128 to i16
                        affine.yield %340 : i16
                      } else {
                        %c0_i32 = arith.constant 0 : i32
                        %310 = arith.trunci %c0_i32 : i32 to i16
                        affine.yield %310 : i16
                      }
                      %308 = affine.load %305[%c0_90] {from = "sum_rv"} : memref<1xi16>
                      %309 = arith.addi %307, %308 : i16
                      affine.store %309, %305[%c0_90] {to = "sum_rv"} : memref<1xi16>
                    } {loop_name = "conv1_out_msb_rx", reduction}
                  } {loop_name = "conv1_out_msb_ry", reduction}
                } {loop_name = "conv1_out_msb_rc", reduction}
                %c0_91 = arith.constant 0 : index
                %306 = affine.load %305[%c0_91] {from = "sum_rv"} : memref<1xi16>
                affine.store %306, %3[%arg168, %arg169, %arg170 - 2, %arg171 - 2] : memref<1x16x32x32xi16>
              }
            }
            affine.for %arg172 = 0 to 6 {
              %305 = affine.load %8[%arg172, 1, %arg171] : memref<6x3x34xi16, #map7>
              affine.store %305, %8[%arg172, 0, %arg171] : memref<6x3x34xi16, #map7>
              %306 = affine.load %8[%arg172, 2, %arg171] : memref<6x3x34xi16, #map7>
              affine.store %306, %8[%arg172, 1, %arg171] : memref<6x3x34xi16, #map7>
              %307 = affine.load %6[%arg168, %arg172, %arg170, %arg171] : memref<1x6x34x34xi16, #map2>
              affine.store %307, %8[%arg172, 2, %arg171] : memref<6x3x34xi16, #map7>
            } {spatial}
            affine.if #set1(%arg170) {
              affine.for %arg172 = 0 to 6 {
                affine.for %arg173 = 0 to 3 {
                  %305 = affine.load %9[%arg172, %arg173, 1] : memref<6x3x3xi16, #map8>
                  affine.store %305, %9[%arg172, %arg173, 0] : memref<6x3x3xi16, #map8>
                  %306 = affine.load %9[%arg172, %arg173, 2] : memref<6x3x3xi16, #map8>
                  affine.store %306, %9[%arg172, %arg173, 1] : memref<6x3x3xi16, #map8>
                  %307 = affine.load %8[%arg172, %arg173, %arg171] : memref<6x3x34xi16, #map7>
                  affine.store %307, %9[%arg172, %arg173, 2] : memref<6x3x3xi16, #map8>
                } {spatial}
              } {spatial}
              affine.if #set1(%arg171) {
                %305 = memref.alloc() {name = "sum_rv"} : memref<1xi16>
                %c0_90 = arith.constant 0 : index
                %c0_i16 = arith.constant 0 : i16
                affine.store %c0_i16, %305[%c0_90] {to = "sum_rv"} : memref<1xi16>
                affine.for %arg172 = 0 to 6 {
                  affine.for %arg173 = 0 to 3 {
                    affine.for %arg174 = 0 to 3 {
                      %307 = affine.if #set2(%arg171, %arg174, %arg170, %arg173) -> i16 {
                        %c16_i32 = arith.constant 16 : i32
                        %310 = arith.extsi %c16_i32 : i32 to i128
                        %311 = affine.load %9[%arg172, %arg173, %arg174] : memref<6x3x3xi16, #map8>
                        %312 = affine.load %arg1[%arg169, %arg172, %arg173, %arg174] {from = "conv1_weight", unsigned} : memref<16x6x3x3xi16, #map1>
                        %313 = arith.xori %311, %312 {unsigned} : i16
                        %c1_i32 = arith.constant 1 : i32
                        %314 = arith.trunci %c1_i32 {unsigned} : i32 to i16
                        %315 = arith.shrui %313, %314 {unsigned} : i16
                        %c6148914691236517205_i64 = arith.constant 6148914691236517205 : i64
                        %316 = arith.trunci %c6148914691236517205_i64 {unsigned} : i64 to i16
                        %317 = arith.andi %315, %316 {unsigned} : i16
                        %318 = arith.subi %313, %317 {unsigned} : i16
                        %c3689348814741910323_i64 = arith.constant 3689348814741910323 : i64
                        %319 = arith.trunci %c3689348814741910323_i64 {unsigned} : i64 to i16
                        %320 = arith.andi %318, %319 {unsigned} : i16
                        %c2_i32 = arith.constant 2 : i32
                        %321 = arith.trunci %c2_i32 {unsigned} : i32 to i16
                        %322 = arith.shrui %318, %321 {unsigned} : i16
                        %c3689348814741910323_i64_92 = arith.constant 3689348814741910323 : i64
                        %323 = arith.trunci %c3689348814741910323_i64_92 {unsigned} : i64 to i16
                        %324 = arith.andi %322, %323 {unsigned} : i16
                        %325 = arith.addi %320, %324 {unsigned} : i16
                        %c4_i32 = arith.constant 4 : i32
                        %326 = arith.trunci %c4_i32 {unsigned} : i32 to i16
                        %327 = arith.shrui %325, %326 {unsigned} : i16
                        %328 = arith.addi %325, %327 {unsigned} : i16
                        %c1085102592571150095_i64 = arith.constant 1085102592571150095 : i64
                        %329 = arith.trunci %c1085102592571150095_i64 {unsigned} : i64 to i16
                        %330 = arith.andi %328, %329 {unsigned} : i16
                        %331 = arith.extui %330 : i16 to i64
                        %c72340172838076673_i64 = arith.constant 72340172838076673 : i64
                        %332 = arith.muli %331, %c72340172838076673_i64 : i64
                        %c56_i32 = arith.constant 56 : i32
                        %333 = arith.extsi %c56_i32 : i32 to i64
                        %334 = arith.shrui %332, %333 : i64
                        %335 = arith.extsi %334 : i64 to i128
                        %c1_i32_93 = arith.constant 1 : i32
                        %336 = arith.extsi %c1_i32_93 : i32 to i64
                        %337 = arith.extsi %336 : i64 to i128
                        %338 = arith.shli %335, %337 : i128
                        %339 = arith.subi %310, %338 : i128
                        %340 = arith.trunci %339 : i128 to i16
                        affine.yield %340 : i16
                      } else {
                        %c0_i32 = arith.constant 0 : i32
                        %310 = arith.trunci %c0_i32 : i32 to i16
                        affine.yield %310 : i16
                      }
                      %308 = affine.load %305[%c0_90] {from = "sum_rv"} : memref<1xi16>
                      %309 = arith.addi %307, %308 : i16
                      affine.store %309, %305[%c0_90] {to = "sum_rv"} : memref<1xi16>
                    } {loop_name = "conv1_out_lsb_rx", reduction}
                  } {loop_name = "conv1_out_lsb_ry", reduction}
                } {loop_name = "conv1_out_lsb_rc", reduction}
                %c0_91 = arith.constant 0 : index
                %306 = affine.load %305[%c0_91] {from = "sum_rv"} : memref<1xi16>
                affine.store %306, %7[%arg168, %arg169, %arg170 - 2, %arg171 - 2] : memref<1x16x32x32xi16>
              }
            }
          } {loop_name = "xx", pipeline_ii = 1 : i32}
        } {loop_name = "yy"}
      } {loop_name = "ff"}
    } {loop_name = "nn", op_name = "conv1_out_lsb"}
    %10 = memref.alloc() {name = "bn1"} : memref<1x16x32x32xf32, #map0>
    affine.for %arg168 = 0 to 1 {
      affine.for %arg169 = 0 to 16 {
        affine.for %arg170 = 0 to 32 {
          affine.for %arg171 = 0 to 32 {
            %305 = affine.load %3[%arg168, %arg169, %arg170, %arg171] {from = "conv1_out_msb"} : memref<1x16x32x32xi16>
            %306 = arith.sitofp %305 : i16 to f32
            %307 = affine.load %arg2[%arg169] {from = "bn1_weight"} : memref<16xf32, #map5>
            %308 = arith.mulf %306, %307 : f32
            %309 = affine.load %arg3[%arg169] {from = "bn1_bias"} : memref<16xf32, #map5>
            %310 = arith.addf %308, %309 : f32
            affine.store %310, %10[%arg168, %arg169, %arg170, %arg171] {to = "bn1"} : memref<1x16x32x32xf32, #map0>
          } {loop_name = "ww"}
        } {loop_name = "hh", pipeline_ii = 1 : i32}
      } {loop_name = "cc"}
    } {loop_name = "nn", op_name = "bn1"}
    %11 = memref.alloc() {name = "layer1_0_rsign1", unsigned} : memref<1x16x32x32xi2, #map0>
    %12 = memref.alloc() {name = "layer1_0_conv1_msb_truncate", unsigned} : memref<1x1x32x32xi16, #map0>
    %13 = memref.alloc() {name = "layer1_0_conv1_lsb_truncate", unsigned} : memref<1x1x32x32xi16, #map0>
    affine.for %arg168 = 0 to 1 {
      affine.for %arg169 = 0 to 1 {
        affine.for %arg170 = 0 to 32 {
          affine.for %arg171 = #map9(%arg169) to #map10(%arg169) {
            affine.for %arg172 = 0 to 32 {
              %305 = affine.load %10[%c0_89, %arg171, %arg170, %arg172] {from = "bn1"} : memref<1x16x32x32xf32, #map0>
              %cst = arith.constant 0.666666686 : f32
              %306 = arith.cmpf ogt, %305, %cst : f32
              %307 = scf.if %306 -> (i32) {
                %c3_i32 = arith.constant 3 : i32
                scf.yield %c3_i32 : i32
              } else {
                %c0_i32 = arith.constant 0 : i32
                %309 = arith.sitofp %c0_i32 : i32 to f32
                %310 = arith.cmpf oge, %305, %309 : f32
                %cst_90 = arith.constant 0.666666686 : f32
                %311 = arith.cmpf ole, %305, %cst_90 : f32
                %312 = arith.andi %310, %311 : i1
                %313 = scf.if %312 -> (i32) {
                  %c2_i32 = arith.constant 2 : i32
                  scf.yield %c2_i32 : i32
                } else {
                  %c0_i32_91 = arith.constant 0 : i32
                  %314 = arith.sitofp %c0_i32_91 : i32 to f32
                  %315 = arith.cmpf olt, %305, %314 : f32
                  %cst_92 = arith.constant -0.666666686 : f32
                  %316 = arith.cmpf oge, %305, %cst_92 : f32
                  %317 = arith.andi %315, %316 : i1
                  %318 = scf.if %317 -> (i32) {
                    %c1_i32 = arith.constant 1 : i32
                    scf.yield %c1_i32 : i32
                  } else {
                    %c0_i32_93 = arith.constant 0 : i32
                    scf.yield %c0_i32_93 : i32
                  }
                  scf.yield %318 : i32
                }
                scf.yield %313 : i32
              }
              %308 = arith.trunci %307 : i32 to i2
              affine.store %308, %11[%c0_89, %arg171, %arg170, %arg172] {to = "layer1_0_rsign1"} : memref<1x16x32x32xi2, #map0>
            } {loop_name = "ww"}
          } {loop_name = "cc"}
          affine.for %arg171 = 0 to 32 {
            %305 = memref.alloc() {name = "layer1_0_conv1_msb_truncate_pack", unsigned} : memref<1xi16>
            %c0_90 = arith.constant 0 : index
            %c0_i16 = arith.constant {unsigned} 0 : i16
            affine.store %c0_i16, %305[0] {to = "layer1_0_conv1_msb_truncate_pack", unsigned} : memref<1xi16>
            %306 = hcl.create_op_handle "stage_0"
            %307 = hcl.create_loop_handle %306, "loop_0"
            affine.for %arg172 = 0 to 16 {
              %309 = affine.load %11[%arg168, %arg169 * 16 + %arg172, %arg170, %arg171] {from = "layer1_0_rsign1", unsigned} : memref<1x16x32x32xi2, #map0>
              %c1 = arith.constant 1 : index
              %310 = hcl.get_bit(%309 : i2, %c1) -> i1
              %311 = affine.load %305[0] {from = "layer1_0_conv1_msb_truncate_pack", unsigned} : memref<1xi16>
              hcl.set_bit(%311 : i16, %arg172, %310 : i1)
              affine.store %311, %305[0] {to = "layer1_0_conv1_msb_truncate_pack", unsigned} : memref<1xi16>
            } {loop_name = "loop_0", op_name = "stage_0"}
            %308 = affine.load %305[0] {from = "layer1_0_conv1_msb_truncate_pack", unsigned} : memref<1xi16>
            affine.store %308, %12[%arg168, %arg169, %arg170, %arg171] {to = "layer1_0_conv1_msb_truncate"} : memref<1x1x32x32xi16, #map0>
          } {loop_name = "w"}
          affine.for %arg171 = 0 to 32 {
            %305 = memref.alloc() {name = "layer1_0_conv1_lsb_truncate_pack", unsigned} : memref<1xi16>
            %c0_90 = arith.constant 0 : index
            %c0_i16 = arith.constant {unsigned} 0 : i16
            affine.store %c0_i16, %305[0] {to = "layer1_0_conv1_lsb_truncate_pack", unsigned} : memref<1xi16>
            %306 = hcl.create_op_handle "stage_1"
            %307 = hcl.create_loop_handle %306, "loop_1"
            affine.for %arg172 = 0 to 16 {
              %309 = affine.load %11[%arg168, %arg169 * 16 + %arg172, %arg170, %arg171] {from = "layer1_0_rsign1", unsigned} : memref<1x16x32x32xi2, #map0>
              %c0_91 = arith.constant 0 : index
              %310 = hcl.get_bit(%309 : i2, %c0_91) -> i1
              %311 = affine.load %305[0] {from = "layer1_0_conv1_lsb_truncate_pack", unsigned} : memref<1xi16>
              hcl.set_bit(%311 : i16, %arg172, %310 : i1)
              affine.store %311, %305[0] {to = "layer1_0_conv1_lsb_truncate_pack", unsigned} : memref<1xi16>
            } {loop_name = "loop_1", op_name = "stage_1"}
            %308 = affine.load %305[0] {from = "layer1_0_conv1_lsb_truncate_pack", unsigned} : memref<1xi16>
            affine.store %308, %13[%arg168, %arg169, %arg170, %arg171] {to = "layer1_0_conv1_lsb_truncate"} : memref<1x1x32x32xi16, #map0>
          } {loop_name = "w"}
        } {loop_name = "h", pipeline_ii = 1 : i32}
      } {loop_name = "c"}
    } {loop_name = "i", op_name = "layer1_0_conv1_lsb_truncate"}
    %14 = memref.alloc() {name = "layer1_0_conv1_out_msb"} : memref<1x16x32x32xi16>
    %15 = memref.alloc() {name = "layer1_0_conv1_out_lsb"} : memref<1x16x32x32xi16>
    call @Stage_layer1_0_conv1_out_lsb_pad_layer1_0_conv1_out_lsb(%12, %13, %arg10, %14, %15) : (memref<1x1x32x32xi16, #map0>, memref<1x1x32x32xi16, #map0>, memref<16x1x3x3xi16, #map1>, memref<1x16x32x32xi16>, memref<1x16x32x32xi16>) -> ()
    %16 = memref.alloc() {name = "layer1_0_conv1_pgconv"} : memref<1x16x32x32xf32, #map0>
    %17 = memref.alloc() {name = "layer1_0_bn1"} : memref<1x16x32x32xf32, #map0>
    %18 = memref.alloc() {name = "layer1_0_rprelu1"} : memref<1x16x32x32xf32, #map0>
    %19 = memref.alloc() {name = "layer1_0_residual1"} : memref<1x16x32x32xf32, #map0>
    %20 = memref.alloc() {name = "layer1_0_bn2"} : memref<1x16x32x32xf32, #map0>
    affine.for %arg168 = 0 to 1 {
      affine.for %arg169 = 0 to 16 {
        affine.for %arg170 = 0 to 32 {
          affine.for %arg171 = 0 to 32 {
            %305 = affine.load %14[%c0_88, %arg169, %arg170, %arg171] {from = "layer1_0_conv1_out_msb"} : memref<1x16x32x32xi16>
            %306 = arith.sitofp %305 : i16 to f32
            %cst = arith.constant 2.000000e+00 : f32
            %307 = arith.mulf %306, %cst : f32
            %cst_90 = arith.constant 3.000000e+00 : f32
            %308 = arith.divf %307, %cst_90 : f32
            %309 = affine.load %arg11[%arg169] {from = "layer1_0_conv1_threshold"} : memref<16xf32, #map5>
            %310 = arith.cmpf ogt, %308, %309 : f32
            %311 = scf.if %310 -> (f32) {
              %329 = affine.load %15[%c0_88, %arg169, %arg170, %arg171] {from = "layer1_0_conv1_out_lsb"} : memref<1x16x32x32xi16>
              %330 = arith.sitofp %329 : i16 to f32
              %cst_91 = arith.constant 3.000000e+00 : f32
              %331 = arith.divf %330, %cst_91 : f32
              %332 = arith.addf %331, %308 : f32
              scf.yield %332 : f32
            } else {
              scf.yield %308 : f32
            }
            %312 = affine.load %arg12[%arg169] {from = "layer1_0_bn1_weight"} : memref<16xf32, #map5>
            %313 = arith.mulf %311, %312 : f32
            %314 = affine.load %arg13[%arg169] {from = "layer1_0_bn1_bias"} : memref<16xf32, #map5>
            %315 = arith.addf %313, %314 : f32
            %316 = affine.load %arg4[%arg169] {from = "layer1_0_rprelu1_shift_x_bias"} : memref<16xf32, #map5>
            %317 = arith.addf %315, %316 : f32
            %c0_i32 = arith.constant 0 : i32
            %318 = arith.sitofp %c0_i32 : i32 to f32
            %319 = arith.cmpf ogt, %317, %318 : f32
            %320 = scf.if %319 -> (f32) {
              scf.yield %317 : f32
            } else {
              %329 = affine.load %arg6[%arg169] {from = "layer1_0_rprelu1_prelu_weight"} : memref<16xf32, #map5>
              %330 = arith.mulf %329, %317 : f32
              scf.yield %330 : f32
            }
            %321 = affine.load %arg5[%arg169] {from = "layer1_0_rprelu1_shift_y_bias"} : memref<16xf32, #map5>
            %322 = arith.addf %320, %321 : f32
            %323 = affine.load %10[%c0_85, %arg169, %arg170, %arg171] {from = "bn1"} : memref<1x16x32x32xf32, #map0>
            %324 = arith.addf %322, %323 : f32
            %325 = affine.load %arg18[%arg169] {from = "layer1_0_bn3_weight"} : memref<16xf32, #map5>
            %326 = arith.mulf %324, %325 : f32
            %327 = affine.load %arg19[%arg169] {from = "layer1_0_bn3_bias"} : memref<16xf32, #map5>
            %328 = arith.addf %326, %327 : f32
            affine.store %328, %20[%arg168, %arg169, %arg170, %arg171] {to = "layer1_0_bn2"} : memref<1x16x32x32xf32, #map0>
          } {loop_name = "ww"}
        } {loop_name = "hh", pipeline_ii = 1 : i32}
      } {loop_name = "cc"}
    } {loop_name = "nn", op_name = "layer1_0_bn2"}
    %21 = memref.alloc() {name = "layer1_0_rsign2", unsigned} : memref<1x16x32x32xi2, #map0>
    %22 = memref.alloc() {name = "layer1_0_conv2_msb_truncate", unsigned} : memref<1x1x32x32xi16, #map0>
    %23 = memref.alloc() {name = "layer1_0_conv2_lsb_truncate", unsigned} : memref<1x1x32x32xi16, #map0>
    affine.for %arg168 = 0 to 1 {
      affine.for %arg169 = 0 to 1 {
        affine.for %arg170 = 0 to 32 {
          affine.for %arg171 = #map9(%arg169) to #map10(%arg169) {
            affine.for %arg172 = 0 to 32 {
              %305 = affine.load %20[%c0_84, %arg171, %arg170, %arg172] {from = "layer1_0_bn2"} : memref<1x16x32x32xf32, #map0>
              %cst = arith.constant 0.666666686 : f32
              %306 = arith.cmpf ogt, %305, %cst : f32
              %307 = scf.if %306 -> (i32) {
                %c3_i32 = arith.constant 3 : i32
                scf.yield %c3_i32 : i32
              } else {
                %c0_i32 = arith.constant 0 : i32
                %309 = arith.sitofp %c0_i32 : i32 to f32
                %310 = arith.cmpf oge, %305, %309 : f32
                %cst_90 = arith.constant 0.666666686 : f32
                %311 = arith.cmpf ole, %305, %cst_90 : f32
                %312 = arith.andi %310, %311 : i1
                %313 = scf.if %312 -> (i32) {
                  %c2_i32 = arith.constant 2 : i32
                  scf.yield %c2_i32 : i32
                } else {
                  %c0_i32_91 = arith.constant 0 : i32
                  %314 = arith.sitofp %c0_i32_91 : i32 to f32
                  %315 = arith.cmpf olt, %305, %314 : f32
                  %cst_92 = arith.constant -0.666666686 : f32
                  %316 = arith.cmpf oge, %305, %cst_92 : f32
                  %317 = arith.andi %315, %316 : i1
                  %318 = scf.if %317 -> (i32) {
                    %c1_i32 = arith.constant 1 : i32
                    scf.yield %c1_i32 : i32
                  } else {
                    %c0_i32_93 = arith.constant 0 : i32
                    scf.yield %c0_i32_93 : i32
                  }
                  scf.yield %318 : i32
                }
                scf.yield %313 : i32
              }
              %308 = arith.trunci %307 : i32 to i2
              affine.store %308, %21[%c0_84, %arg171, %arg170, %arg172] {to = "layer1_0_rsign2"} : memref<1x16x32x32xi2, #map0>
            } {loop_name = "ww"}
          } {loop_name = "cc"}
          affine.for %arg171 = 0 to 32 {
            %305 = memref.alloc() {name = "layer1_0_conv2_msb_truncate_pack", unsigned} : memref<1xi16>
            %c0_90 = arith.constant 0 : index
            %c0_i16 = arith.constant {unsigned} 0 : i16
            affine.store %c0_i16, %305[0] {to = "layer1_0_conv2_msb_truncate_pack", unsigned} : memref<1xi16>
            %306 = hcl.create_op_handle "stage_2"
            %307 = hcl.create_loop_handle %306, "loop_2"
            affine.for %arg172 = 0 to 16 {
              %309 = affine.load %21[%arg168, %arg169 * 16 + %arg172, %arg170, %arg171] {from = "layer1_0_rsign2", unsigned} : memref<1x16x32x32xi2, #map0>
              %c1 = arith.constant 1 : index
              %310 = hcl.get_bit(%309 : i2, %c1) -> i1
              %311 = affine.load %305[0] {from = "layer1_0_conv2_msb_truncate_pack", unsigned} : memref<1xi16>
              hcl.set_bit(%311 : i16, %arg172, %310 : i1)
              affine.store %311, %305[0] {to = "layer1_0_conv2_msb_truncate_pack", unsigned} : memref<1xi16>
            } {loop_name = "loop_2", op_name = "stage_2"}
            %308 = affine.load %305[0] {from = "layer1_0_conv2_msb_truncate_pack", unsigned} : memref<1xi16>
            affine.store %308, %22[%arg168, %arg169, %arg170, %arg171] {to = "layer1_0_conv2_msb_truncate"} : memref<1x1x32x32xi16, #map0>
          } {loop_name = "w"}
          affine.for %arg171 = 0 to 32 {
            %305 = memref.alloc() {name = "layer1_0_conv2_lsb_truncate_pack", unsigned} : memref<1xi16>
            %c0_90 = arith.constant 0 : index
            %c0_i16 = arith.constant {unsigned} 0 : i16
            affine.store %c0_i16, %305[0] {to = "layer1_0_conv2_lsb_truncate_pack", unsigned} : memref<1xi16>
            %306 = hcl.create_op_handle "stage_3"
            %307 = hcl.create_loop_handle %306, "loop_3"
            affine.for %arg172 = 0 to 16 {
              %309 = affine.load %21[%arg168, %arg169 * 16 + %arg172, %arg170, %arg171] {from = "layer1_0_rsign2", unsigned} : memref<1x16x32x32xi2, #map0>
              %c0_91 = arith.constant 0 : index
              %310 = hcl.get_bit(%309 : i2, %c0_91) -> i1
              %311 = affine.load %305[0] {from = "layer1_0_conv2_lsb_truncate_pack", unsigned} : memref<1xi16>
              hcl.set_bit(%311 : i16, %arg172, %310 : i1)
              affine.store %311, %305[0] {to = "layer1_0_conv2_lsb_truncate_pack", unsigned} : memref<1xi16>
            } {loop_name = "loop_3", op_name = "stage_3"}
            %308 = affine.load %305[0] {from = "layer1_0_conv2_lsb_truncate_pack", unsigned} : memref<1xi16>
            affine.store %308, %23[%arg168, %arg169, %arg170, %arg171] {to = "layer1_0_conv2_lsb_truncate"} : memref<1x1x32x32xi16, #map0>
          } {loop_name = "w"}
        } {loop_name = "h", pipeline_ii = 1 : i32}
      } {loop_name = "c"}
    } {loop_name = "i", op_name = "layer1_0_conv2_lsb_truncate"}
    %24 = memref.alloc() {name = "layer1_0_conv2_out_msb_pad", unsigned} : memref<1x1x34x34xi16, #map2>
    %25 = memref.alloc() {name = "layer1_0_conv2_out_msb"} : memref<1x16x32x32xi16>
    %26 = memref.alloc() {name = "layer1_0_conv2_out_msb_reuse_2"} : memref<3x34xi16, #map3>
    %27 = memref.alloc() {name = "layer1_0_conv2_out_msb_reuse_3"} : memref<3x3xi16, #map4>
    %28 = memref.alloc() {name = "layer1_0_conv2_out_lsb_pad", unsigned} : memref<1x1x34x34xi16, #map2>
    affine.for %arg168 = 0 to 1 {
      affine.for %arg169 = 0 to 1 {
        affine.for %arg170 = 0 to 34 {
          affine.for %arg171 = 0 to 34 {
            %305 = affine.if #set0(%arg171, %arg170) -> i16 {
              %307 = affine.load %22[%arg168, %arg169, %arg170 - 1, %arg171 - 1] {from = "layer1_0_conv2_msb_truncate", unsigned} : memref<1x1x32x32xi16, #map0>
              affine.yield %307 : i16
            } else {
              %c0_i32 = arith.constant 0 : i32
              %307 = arith.trunci %c0_i32 {unsigned} : i32 to i16
              affine.yield %307 : i16
            } {unsigned}
            affine.store %305, %24[%arg168, %arg169, %arg170, %arg171] {to = "layer1_0_conv2_out_msb_pad"} : memref<1x1x34x34xi16, #map2>
            %306 = affine.if #set0(%arg171, %arg170) -> i16 {
              %307 = affine.load %23[%arg168, %arg169, %arg170 - 1, %arg171 - 1] {from = "layer1_0_conv2_lsb_truncate", unsigned} : memref<1x1x32x32xi16, #map0>
              affine.yield %307 : i16
            } else {
              %c0_i32 = arith.constant 0 : i32
              %307 = arith.trunci %c0_i32 {unsigned} : i32 to i16
              affine.yield %307 : i16
            } {unsigned}
            affine.store %306, %28[%arg168, %arg169, %arg170, %arg171] {to = "layer1_0_conv2_out_lsb_pad"} : memref<1x1x34x34xi16, #map2>
          } {loop_name = "ww", pipeline_ii = 1 : i32}
        } {loop_name = "hh"}
      } {loop_name = "cc"}
    } {loop_name = "ii", op_name = "layer1_0_conv2_out_lsb_pad"}
    %29 = memref.alloc() {name = "layer1_0_conv2_out_lsb"} : memref<1x16x32x32xi16>
    %30 = memref.alloc() {name = "layer1_0_conv2_out_lsb_reuse_2"} : memref<3x34xi16, #map3>
    %31 = memref.alloc() {name = "layer1_0_conv2_out_lsb_reuse_3"} : memref<3x3xi16, #map4>
    affine.for %arg168 = 0 to 1 {
      affine.for %arg169 = 0 to 16 {
        affine.for %arg170 = 0 to 34 {
          affine.for %arg171 = 0 to 34 {
            %305 = affine.load %26[1, %arg171] : memref<3x34xi16, #map3>
            affine.store %305, %26[0, %arg171] : memref<3x34xi16, #map3>
            %306 = affine.load %26[2, %arg171] : memref<3x34xi16, #map3>
            affine.store %306, %26[1, %arg171] : memref<3x34xi16, #map3>
            %c0_90 = arith.constant 0 : index
            %c0_91 = arith.constant 0 : index
            %307 = affine.load %24[%c0_90, %c0_91, %arg170, %arg171] : memref<1x1x34x34xi16, #map2>
            affine.store %307, %26[2, %arg171] : memref<3x34xi16, #map3>
            affine.if #set1(%arg170) {
              affine.for %arg172 = 0 to 3 {
                %311 = affine.load %27[%arg172, 1] : memref<3x3xi16, #map4>
                affine.store %311, %27[%arg172, 0] : memref<3x3xi16, #map4>
                %312 = affine.load %27[%arg172, 2] : memref<3x3xi16, #map4>
                affine.store %312, %27[%arg172, 1] : memref<3x3xi16, #map4>
                %313 = affine.load %26[%arg172, %arg171] : memref<3x34xi16, #map3>
                affine.store %313, %27[%arg172, 2] : memref<3x3xi16, #map4>
              } {spatial}
              affine.if #set1(%arg171) {
                %311 = memref.alloc() {name = "sum_rv"} : memref<1xi16>
                %c0_94 = arith.constant 0 : index
                %c0_i16 = arith.constant 0 : i16
                affine.store %c0_i16, %311[%c0_94] {to = "sum_rv"} : memref<1xi16>
                affine.for %arg172 = 0 to 1 {
                  affine.for %arg173 = 0 to 3 {
                    affine.for %arg174 = 0 to 3 {
                      %313 = affine.if #set2(%arg171, %arg174, %arg170, %arg173) -> i16 {
                        %c16_i32 = arith.constant 16 : i32
                        %316 = arith.extsi %c16_i32 : i32 to i128
                        %317 = affine.load %27[%arg173, %arg174] : memref<3x3xi16, #map4>
                        %318 = affine.load %arg14[%arg169, %arg172, %arg173, %arg174] {from = "layer1_0_conv2_weight", unsigned} : memref<16x1x3x3xi16, #map1>
                        %319 = arith.xori %317, %318 {unsigned} : i16
                        %c1_i32 = arith.constant 1 : i32
                        %320 = arith.trunci %c1_i32 {unsigned} : i32 to i16
                        %321 = arith.shrui %319, %320 {unsigned} : i16
                        %c6148914691236517205_i64 = arith.constant 6148914691236517205 : i64
                        %322 = arith.trunci %c6148914691236517205_i64 {unsigned} : i64 to i16
                        %323 = arith.andi %321, %322 {unsigned} : i16
                        %324 = arith.subi %319, %323 {unsigned} : i16
                        %c3689348814741910323_i64 = arith.constant 3689348814741910323 : i64
                        %325 = arith.trunci %c3689348814741910323_i64 {unsigned} : i64 to i16
                        %326 = arith.andi %324, %325 {unsigned} : i16
                        %c2_i32 = arith.constant 2 : i32
                        %327 = arith.trunci %c2_i32 {unsigned} : i32 to i16
                        %328 = arith.shrui %324, %327 {unsigned} : i16
                        %c3689348814741910323_i64_96 = arith.constant 3689348814741910323 : i64
                        %329 = arith.trunci %c3689348814741910323_i64_96 {unsigned} : i64 to i16
                        %330 = arith.andi %328, %329 {unsigned} : i16
                        %331 = arith.addi %326, %330 {unsigned} : i16
                        %c4_i32 = arith.constant 4 : i32
                        %332 = arith.trunci %c4_i32 {unsigned} : i32 to i16
                        %333 = arith.shrui %331, %332 {unsigned} : i16
                        %334 = arith.addi %331, %333 {unsigned} : i16
                        %c1085102592571150095_i64 = arith.constant 1085102592571150095 : i64
                        %335 = arith.trunci %c1085102592571150095_i64 {unsigned} : i64 to i16
                        %336 = arith.andi %334, %335 {unsigned} : i16
                        %337 = arith.extui %336 : i16 to i64
                        %c72340172838076673_i64 = arith.constant 72340172838076673 : i64
                        %338 = arith.muli %337, %c72340172838076673_i64 : i64
                        %c56_i32 = arith.constant 56 : i32
                        %339 = arith.extsi %c56_i32 : i32 to i64
                        %340 = arith.shrui %338, %339 : i64
                        %341 = arith.extsi %340 : i64 to i128
                        %c1_i32_97 = arith.constant 1 : i32
                        %342 = arith.extsi %c1_i32_97 : i32 to i64
                        %343 = arith.extsi %342 : i64 to i128
                        %344 = arith.shli %341, %343 : i128
                        %345 = arith.subi %316, %344 : i128
                        %346 = arith.trunci %345 : i128 to i16
                        affine.yield %346 : i16
                      } else {
                        %c0_i32 = arith.constant 0 : i32
                        %316 = arith.trunci %c0_i32 : i32 to i16
                        affine.yield %316 : i16
                      }
                      %314 = affine.load %311[%c0_94] {from = "sum_rv"} : memref<1xi16>
                      %315 = arith.addi %313, %314 : i16
                      affine.store %315, %311[%c0_94] {to = "sum_rv"} : memref<1xi16>
                    } {loop_name = "layer1_0_conv2_out_msb_rx", reduction}
                  } {loop_name = "layer1_0_conv2_out_msb_ry", reduction}
                } {loop_name = "layer1_0_conv2_out_msb_rc", reduction}
                %c0_95 = arith.constant 0 : index
                %312 = affine.load %311[%c0_95] {from = "sum_rv"} : memref<1xi16>
                affine.store %312, %25[%arg168, %arg169, %arg170 - 2, %arg171 - 2] : memref<1x16x32x32xi16>
              }
            }
            %308 = affine.load %30[1, %arg171] : memref<3x34xi16, #map3>
            affine.store %308, %30[0, %arg171] : memref<3x34xi16, #map3>
            %309 = affine.load %30[2, %arg171] : memref<3x34xi16, #map3>
            affine.store %309, %30[1, %arg171] : memref<3x34xi16, #map3>
            %c0_92 = arith.constant 0 : index
            %c0_93 = arith.constant 0 : index
            %310 = affine.load %28[%c0_92, %c0_93, %arg170, %arg171] : memref<1x1x34x34xi16, #map2>
            affine.store %310, %30[2, %arg171] : memref<3x34xi16, #map3>
            affine.if #set1(%arg170) {
              affine.for %arg172 = 0 to 3 {
                %311 = affine.load %31[%arg172, 1] : memref<3x3xi16, #map4>
                affine.store %311, %31[%arg172, 0] : memref<3x3xi16, #map4>
                %312 = affine.load %31[%arg172, 2] : memref<3x3xi16, #map4>
                affine.store %312, %31[%arg172, 1] : memref<3x3xi16, #map4>
                %313 = affine.load %30[%arg172, %arg171] : memref<3x34xi16, #map3>
                affine.store %313, %31[%arg172, 2] : memref<3x3xi16, #map4>
              } {spatial}
              affine.if #set1(%arg171) {
                %311 = memref.alloc() {name = "sum_rv"} : memref<1xi16>
                %c0_94 = arith.constant 0 : index
                %c0_i16 = arith.constant 0 : i16
                affine.store %c0_i16, %311[%c0_94] {to = "sum_rv"} : memref<1xi16>
                affine.for %arg172 = 0 to 1 {
                  affine.for %arg173 = 0 to 3 {
                    affine.for %arg174 = 0 to 3 {
                      %313 = affine.if #set2(%arg171, %arg174, %arg170, %arg173) -> i16 {
                        %c16_i32 = arith.constant 16 : i32
                        %316 = arith.extsi %c16_i32 : i32 to i128
                        %317 = affine.load %31[%arg173, %arg174] : memref<3x3xi16, #map4>
                        %318 = affine.load %arg14[%arg169, %arg172, %arg173, %arg174] {from = "layer1_0_conv2_weight", unsigned} : memref<16x1x3x3xi16, #map1>
                        %319 = arith.xori %317, %318 {unsigned} : i16
                        %c1_i32 = arith.constant 1 : i32
                        %320 = arith.trunci %c1_i32 {unsigned} : i32 to i16
                        %321 = arith.shrui %319, %320 {unsigned} : i16
                        %c6148914691236517205_i64 = arith.constant 6148914691236517205 : i64
                        %322 = arith.trunci %c6148914691236517205_i64 {unsigned} : i64 to i16
                        %323 = arith.andi %321, %322 {unsigned} : i16
                        %324 = arith.subi %319, %323 {unsigned} : i16
                        %c3689348814741910323_i64 = arith.constant 3689348814741910323 : i64
                        %325 = arith.trunci %c3689348814741910323_i64 {unsigned} : i64 to i16
                        %326 = arith.andi %324, %325 {unsigned} : i16
                        %c2_i32 = arith.constant 2 : i32
                        %327 = arith.trunci %c2_i32 {unsigned} : i32 to i16
                        %328 = arith.shrui %324, %327 {unsigned} : i16
                        %c3689348814741910323_i64_96 = arith.constant 3689348814741910323 : i64
                        %329 = arith.trunci %c3689348814741910323_i64_96 {unsigned} : i64 to i16
                        %330 = arith.andi %328, %329 {unsigned} : i16
                        %331 = arith.addi %326, %330 {unsigned} : i16
                        %c4_i32 = arith.constant 4 : i32
                        %332 = arith.trunci %c4_i32 {unsigned} : i32 to i16
                        %333 = arith.shrui %331, %332 {unsigned} : i16
                        %334 = arith.addi %331, %333 {unsigned} : i16
                        %c1085102592571150095_i64 = arith.constant 1085102592571150095 : i64
                        %335 = arith.trunci %c1085102592571150095_i64 {unsigned} : i64 to i16
                        %336 = arith.andi %334, %335 {unsigned} : i16
                        %337 = arith.extui %336 : i16 to i64
                        %c72340172838076673_i64 = arith.constant 72340172838076673 : i64
                        %338 = arith.muli %337, %c72340172838076673_i64 : i64
                        %c56_i32 = arith.constant 56 : i32
                        %339 = arith.extsi %c56_i32 : i32 to i64
                        %340 = arith.shrui %338, %339 : i64
                        %341 = arith.extsi %340 : i64 to i128
                        %c1_i32_97 = arith.constant 1 : i32
                        %342 = arith.extsi %c1_i32_97 : i32 to i64
                        %343 = arith.extsi %342 : i64 to i128
                        %344 = arith.shli %341, %343 : i128
                        %345 = arith.subi %316, %344 : i128
                        %346 = arith.trunci %345 : i128 to i16
                        affine.yield %346 : i16
                      } else {
                        %c0_i32 = arith.constant 0 : i32
                        %316 = arith.trunci %c0_i32 : i32 to i16
                        affine.yield %316 : i16
                      }
                      %314 = affine.load %311[%c0_94] {from = "sum_rv"} : memref<1xi16>
                      %315 = arith.addi %313, %314 : i16
                      affine.store %315, %311[%c0_94] {to = "sum_rv"} : memref<1xi16>
                    } {loop_name = "layer1_0_conv2_out_lsb_rx", reduction}
                  } {loop_name = "layer1_0_conv2_out_lsb_ry", reduction}
                } {loop_name = "layer1_0_conv2_out_lsb_rc", reduction}
                %c0_95 = arith.constant 0 : index
                %312 = affine.load %311[%c0_95] {from = "sum_rv"} : memref<1xi16>
                affine.store %312, %29[%arg168, %arg169, %arg170 - 2, %arg171 - 2] : memref<1x16x32x32xi16>
              }
            }
          } {loop_name = "xx", pipeline_ii = 1 : i32}
        } {loop_name = "yy"}
      } {loop_name = "ff"}
    } {loop_name = "nn", op_name = "layer1_0_conv2_out_lsb"}
    %32 = memref.alloc() {name = "layer1_0_conv2_pgconv"} : memref<1x16x32x32xf32, #map0>
    %33 = memref.alloc() {name = "layer1_0_bn3"} : memref<1x16x32x32xf32, #map0>
    %34 = memref.alloc() {name = "layer1_0_rprelu2"} : memref<1x16x32x32xf32, #map0>
    %35 = memref.alloc() {name = "layer1_0_residual2"} : memref<1x16x32x32xf32, #map0>
    %36 = memref.alloc() {name = "layer1_0_bn4"} : memref<1x16x32x32xf32, #map0>
    affine.for %arg168 = 0 to 1 {
      affine.for %arg169 = 0 to 16 {
        affine.for %arg170 = 0 to 32 {
          affine.for %arg171 = 0 to 32 {
            %305 = affine.load %25[%c0_83, %arg169, %arg170, %arg171] {from = "layer1_0_conv2_out_msb"} : memref<1x16x32x32xi16>
            %306 = arith.sitofp %305 : i16 to f32
            %cst = arith.constant 2.000000e+00 : f32
            %307 = arith.mulf %306, %cst : f32
            %cst_90 = arith.constant 3.000000e+00 : f32
            %308 = arith.divf %307, %cst_90 : f32
            %309 = affine.load %arg15[%arg169] {from = "layer1_0_conv2_threshold"} : memref<16xf32, #map5>
            %310 = arith.cmpf ogt, %308, %309 : f32
            %311 = scf.if %310 -> (f32) {
              %329 = affine.load %29[%c0_83, %arg169, %arg170, %arg171] {from = "layer1_0_conv2_out_lsb"} : memref<1x16x32x32xi16>
              %330 = arith.sitofp %329 : i16 to f32
              %cst_91 = arith.constant 3.000000e+00 : f32
              %331 = arith.divf %330, %cst_91 : f32
              %332 = arith.addf %331, %308 : f32
              scf.yield %332 : f32
            } else {
              scf.yield %308 : f32
            }
            %312 = affine.load %arg16[%arg169] {from = "layer1_0_bn2_weight"} : memref<16xf32, #map5>
            %313 = arith.mulf %311, %312 : f32
            %314 = affine.load %arg17[%arg169] {from = "layer1_0_bn2_bias"} : memref<16xf32, #map5>
            %315 = arith.addf %313, %314 : f32
            %316 = affine.load %arg7[%arg169] {from = "layer1_0_rprelu2_shift_x_bias"} : memref<16xf32, #map5>
            %317 = arith.addf %315, %316 : f32
            %c0_i32 = arith.constant 0 : i32
            %318 = arith.sitofp %c0_i32 : i32 to f32
            %319 = arith.cmpf ogt, %317, %318 : f32
            %320 = scf.if %319 -> (f32) {
              scf.yield %317 : f32
            } else {
              %329 = affine.load %arg9[%arg169] {from = "layer1_0_rprelu2_prelu_weight"} : memref<16xf32, #map5>
              %330 = arith.mulf %329, %317 : f32
              scf.yield %330 : f32
            }
            %321 = affine.load %arg8[%arg169] {from = "layer1_0_rprelu2_shift_y_bias"} : memref<16xf32, #map5>
            %322 = arith.addf %320, %321 : f32
            %323 = affine.load %20[%c0_80, %arg169, %arg170, %arg171] {from = "layer1_0_bn2"} : memref<1x16x32x32xf32, #map0>
            %324 = arith.addf %323, %322 : f32
            %325 = affine.load %arg20[%arg169] {from = "layer1_0_bn4_weight"} : memref<16xf32, #map5>
            %326 = arith.mulf %324, %325 : f32
            %327 = affine.load %arg21[%arg169] {from = "layer1_0_bn4_bias"} : memref<16xf32, #map5>
            %328 = arith.addf %326, %327 : f32
            affine.store %328, %36[%arg168, %arg169, %arg170, %arg171] {to = "layer1_0_bn4"} : memref<1x16x32x32xf32, #map0>
          } {loop_name = "ww"}
        } {loop_name = "hh", pipeline_ii = 1 : i32}
      } {loop_name = "cc"}
    } {loop_name = "nn", op_name = "layer1_0_bn4"}
    %37 = memref.alloc() {name = "layer1_1_rsign1", unsigned} : memref<1x16x32x32xi2, #map0>
    %38 = memref.alloc() {name = "layer1_1_conv1_msb_truncate", unsigned} : memref<1x1x32x32xi16, #map0>
    %39 = memref.alloc() {name = "layer1_1_conv1_lsb_truncate", unsigned} : memref<1x1x32x32xi16, #map0>
    affine.for %arg168 = 0 to 1 {
      affine.for %arg169 = 0 to 1 {
        affine.for %arg170 = 0 to 32 {
          affine.for %arg171 = #map9(%arg169) to #map10(%arg169) {
            affine.for %arg172 = 0 to 32 {
              %305 = affine.load %36[%c0_79, %arg171, %arg170, %arg172] {from = "layer1_0_bn4"} : memref<1x16x32x32xf32, #map0>
              %cst = arith.constant 0.666666686 : f32
              %306 = arith.cmpf ogt, %305, %cst : f32
              %307 = scf.if %306 -> (i32) {
                %c3_i32 = arith.constant 3 : i32
                scf.yield %c3_i32 : i32
              } else {
                %c0_i32 = arith.constant 0 : i32
                %309 = arith.sitofp %c0_i32 : i32 to f32
                %310 = arith.cmpf oge, %305, %309 : f32
                %cst_90 = arith.constant 0.666666686 : f32
                %311 = arith.cmpf ole, %305, %cst_90 : f32
                %312 = arith.andi %310, %311 : i1
                %313 = scf.if %312 -> (i32) {
                  %c2_i32 = arith.constant 2 : i32
                  scf.yield %c2_i32 : i32
                } else {
                  %c0_i32_91 = arith.constant 0 : i32
                  %314 = arith.sitofp %c0_i32_91 : i32 to f32
                  %315 = arith.cmpf olt, %305, %314 : f32
                  %cst_92 = arith.constant -0.666666686 : f32
                  %316 = arith.cmpf oge, %305, %cst_92 : f32
                  %317 = arith.andi %315, %316 : i1
                  %318 = scf.if %317 -> (i32) {
                    %c1_i32 = arith.constant 1 : i32
                    scf.yield %c1_i32 : i32
                  } else {
                    %c0_i32_93 = arith.constant 0 : i32
                    scf.yield %c0_i32_93 : i32
                  }
                  scf.yield %318 : i32
                }
                scf.yield %313 : i32
              }
              %308 = arith.trunci %307 : i32 to i2
              affine.store %308, %37[%c0_79, %arg171, %arg170, %arg172] {to = "layer1_1_rsign1"} : memref<1x16x32x32xi2, #map0>
            } {loop_name = "ww"}
          } {loop_name = "cc"}
          affine.for %arg171 = 0 to 32 {
            %305 = memref.alloc() {name = "layer1_1_conv1_msb_truncate_pack", unsigned} : memref<1xi16>
            %c0_90 = arith.constant 0 : index
            %c0_i16 = arith.constant {unsigned} 0 : i16
            affine.store %c0_i16, %305[0] {to = "layer1_1_conv1_msb_truncate_pack", unsigned} : memref<1xi16>
            %306 = hcl.create_op_handle "stage_4"
            %307 = hcl.create_loop_handle %306, "loop_4"
            affine.for %arg172 = 0 to 16 {
              %309 = affine.load %37[%arg168, %arg169 * 16 + %arg172, %arg170, %arg171] {from = "layer1_1_rsign1", unsigned} : memref<1x16x32x32xi2, #map0>
              %c1 = arith.constant 1 : index
              %310 = hcl.get_bit(%309 : i2, %c1) -> i1
              %311 = affine.load %305[0] {from = "layer1_1_conv1_msb_truncate_pack", unsigned} : memref<1xi16>
              hcl.set_bit(%311 : i16, %arg172, %310 : i1)
              affine.store %311, %305[0] {to = "layer1_1_conv1_msb_truncate_pack", unsigned} : memref<1xi16>
            } {loop_name = "loop_4", op_name = "stage_4"}
            %308 = affine.load %305[0] {from = "layer1_1_conv1_msb_truncate_pack", unsigned} : memref<1xi16>
            affine.store %308, %38[%arg168, %arg169, %arg170, %arg171] {to = "layer1_1_conv1_msb_truncate"} : memref<1x1x32x32xi16, #map0>
          } {loop_name = "w"}
          affine.for %arg171 = 0 to 32 {
            %305 = memref.alloc() {name = "layer1_1_conv1_lsb_truncate_pack", unsigned} : memref<1xi16>
            %c0_90 = arith.constant 0 : index
            %c0_i16 = arith.constant {unsigned} 0 : i16
            affine.store %c0_i16, %305[0] {to = "layer1_1_conv1_lsb_truncate_pack", unsigned} : memref<1xi16>
            %306 = hcl.create_op_handle "stage_5"
            %307 = hcl.create_loop_handle %306, "loop_5"
            affine.for %arg172 = 0 to 16 {
              %309 = affine.load %37[%arg168, %arg169 * 16 + %arg172, %arg170, %arg171] {from = "layer1_1_rsign1", unsigned} : memref<1x16x32x32xi2, #map0>
              %c0_91 = arith.constant 0 : index
              %310 = hcl.get_bit(%309 : i2, %c0_91) -> i1
              %311 = affine.load %305[0] {from = "layer1_1_conv1_lsb_truncate_pack", unsigned} : memref<1xi16>
              hcl.set_bit(%311 : i16, %arg172, %310 : i1)
              affine.store %311, %305[0] {to = "layer1_1_conv1_lsb_truncate_pack", unsigned} : memref<1xi16>
            } {loop_name = "loop_5", op_name = "stage_5"}
            %308 = affine.load %305[0] {from = "layer1_1_conv1_lsb_truncate_pack", unsigned} : memref<1xi16>
            affine.store %308, %39[%arg168, %arg169, %arg170, %arg171] {to = "layer1_1_conv1_lsb_truncate"} : memref<1x1x32x32xi16, #map0>
          } {loop_name = "w"}
        } {loop_name = "h", pipeline_ii = 1 : i32}
      } {loop_name = "c"}
    } {loop_name = "i", op_name = "layer1_1_conv1_lsb_truncate"}
    %40 = memref.alloc() {name = "layer1_1_conv1_out_msb_pad", unsigned} : memref<1x1x34x34xi16, #map2>
    %41 = memref.alloc() {name = "layer1_1_conv1_out_msb"} : memref<1x16x32x32xi16>
    %42 = memref.alloc() {name = "layer1_1_conv1_out_msb_reuse_2"} : memref<3x34xi16, #map3>
    %43 = memref.alloc() {name = "layer1_1_conv1_out_msb_reuse_3"} : memref<3x3xi16, #map4>
    %44 = memref.alloc() {name = "layer1_1_conv1_out_lsb_pad", unsigned} : memref<1x1x34x34xi16, #map2>
    affine.for %arg168 = 0 to 1 {
      affine.for %arg169 = 0 to 1 {
        affine.for %arg170 = 0 to 34 {
          affine.for %arg171 = 0 to 34 {
            %305 = affine.if #set0(%arg171, %arg170) -> i16 {
              %307 = affine.load %38[%arg168, %arg169, %arg170 - 1, %arg171 - 1] {from = "layer1_1_conv1_msb_truncate", unsigned} : memref<1x1x32x32xi16, #map0>
              affine.yield %307 : i16
            } else {
              %c0_i32 = arith.constant 0 : i32
              %307 = arith.trunci %c0_i32 {unsigned} : i32 to i16
              affine.yield %307 : i16
            } {unsigned}
            affine.store %305, %40[%arg168, %arg169, %arg170, %arg171] {to = "layer1_1_conv1_out_msb_pad"} : memref<1x1x34x34xi16, #map2>
            %306 = affine.if #set0(%arg171, %arg170) -> i16 {
              %307 = affine.load %39[%arg168, %arg169, %arg170 - 1, %arg171 - 1] {from = "layer1_1_conv1_lsb_truncate", unsigned} : memref<1x1x32x32xi16, #map0>
              affine.yield %307 : i16
            } else {
              %c0_i32 = arith.constant 0 : i32
              %307 = arith.trunci %c0_i32 {unsigned} : i32 to i16
              affine.yield %307 : i16
            } {unsigned}
            affine.store %306, %44[%arg168, %arg169, %arg170, %arg171] {to = "layer1_1_conv1_out_lsb_pad"} : memref<1x1x34x34xi16, #map2>
          } {loop_name = "ww", pipeline_ii = 1 : i32}
        } {loop_name = "hh"}
      } {loop_name = "cc"}
    } {loop_name = "ii", op_name = "layer1_1_conv1_out_lsb_pad"}
    %45 = memref.alloc() {name = "layer1_1_conv1_out_lsb"} : memref<1x16x32x32xi16>
    %46 = memref.alloc() {name = "layer1_1_conv1_out_lsb_reuse_2"} : memref<3x34xi16, #map3>
    %47 = memref.alloc() {name = "layer1_1_conv1_out_lsb_reuse_3"} : memref<3x3xi16, #map4>
    affine.for %arg168 = 0 to 1 {
      affine.for %arg169 = 0 to 16 {
        affine.for %arg170 = 0 to 34 {
          affine.for %arg171 = 0 to 34 {
            %305 = affine.load %42[1, %arg171] : memref<3x34xi16, #map3>
            affine.store %305, %42[0, %arg171] : memref<3x34xi16, #map3>
            %306 = affine.load %42[2, %arg171] : memref<3x34xi16, #map3>
            affine.store %306, %42[1, %arg171] : memref<3x34xi16, #map3>
            %c0_90 = arith.constant 0 : index
            %c0_91 = arith.constant 0 : index
            %307 = affine.load %40[%c0_90, %c0_91, %arg170, %arg171] : memref<1x1x34x34xi16, #map2>
            affine.store %307, %42[2, %arg171] : memref<3x34xi16, #map3>
            affine.if #set1(%arg170) {
              affine.for %arg172 = 0 to 3 {
                %311 = affine.load %43[%arg172, 1] : memref<3x3xi16, #map4>
                affine.store %311, %43[%arg172, 0] : memref<3x3xi16, #map4>
                %312 = affine.load %43[%arg172, 2] : memref<3x3xi16, #map4>
                affine.store %312, %43[%arg172, 1] : memref<3x3xi16, #map4>
                %313 = affine.load %42[%arg172, %arg171] : memref<3x34xi16, #map3>
                affine.store %313, %43[%arg172, 2] : memref<3x3xi16, #map4>
              } {spatial}
              affine.if #set1(%arg171) {
                %311 = memref.alloc() {name = "sum_rv"} : memref<1xi16>
                %c0_94 = arith.constant 0 : index
                %c0_i16 = arith.constant 0 : i16
                affine.store %c0_i16, %311[%c0_94] {to = "sum_rv"} : memref<1xi16>
                affine.for %arg172 = 0 to 1 {
                  affine.for %arg173 = 0 to 3 {
                    affine.for %arg174 = 0 to 3 {
                      %313 = affine.if #set2(%arg171, %arg174, %arg170, %arg173) -> i16 {
                        %c16_i32 = arith.constant 16 : i32
                        %316 = arith.extsi %c16_i32 : i32 to i128
                        %317 = affine.load %43[%arg173, %arg174] : memref<3x3xi16, #map4>
                        %318 = affine.load %arg28[%arg169, %arg172, %arg173, %arg174] {from = "layer1_1_conv1_weight", unsigned} : memref<16x1x3x3xi16, #map1>
                        %319 = arith.xori %317, %318 {unsigned} : i16
                        %c1_i32 = arith.constant 1 : i32
                        %320 = arith.trunci %c1_i32 {unsigned} : i32 to i16
                        %321 = arith.shrui %319, %320 {unsigned} : i16
                        %c6148914691236517205_i64 = arith.constant 6148914691236517205 : i64
                        %322 = arith.trunci %c6148914691236517205_i64 {unsigned} : i64 to i16
                        %323 = arith.andi %321, %322 {unsigned} : i16
                        %324 = arith.subi %319, %323 {unsigned} : i16
                        %c3689348814741910323_i64 = arith.constant 3689348814741910323 : i64
                        %325 = arith.trunci %c3689348814741910323_i64 {unsigned} : i64 to i16
                        %326 = arith.andi %324, %325 {unsigned} : i16
                        %c2_i32 = arith.constant 2 : i32
                        %327 = arith.trunci %c2_i32 {unsigned} : i32 to i16
                        %328 = arith.shrui %324, %327 {unsigned} : i16
                        %c3689348814741910323_i64_96 = arith.constant 3689348814741910323 : i64
                        %329 = arith.trunci %c3689348814741910323_i64_96 {unsigned} : i64 to i16
                        %330 = arith.andi %328, %329 {unsigned} : i16
                        %331 = arith.addi %326, %330 {unsigned} : i16
                        %c4_i32 = arith.constant 4 : i32
                        %332 = arith.trunci %c4_i32 {unsigned} : i32 to i16
                        %333 = arith.shrui %331, %332 {unsigned} : i16
                        %334 = arith.addi %331, %333 {unsigned} : i16
                        %c1085102592571150095_i64 = arith.constant 1085102592571150095 : i64
                        %335 = arith.trunci %c1085102592571150095_i64 {unsigned} : i64 to i16
                        %336 = arith.andi %334, %335 {unsigned} : i16
                        %337 = arith.extui %336 : i16 to i64
                        %c72340172838076673_i64 = arith.constant 72340172838076673 : i64
                        %338 = arith.muli %337, %c72340172838076673_i64 : i64
                        %c56_i32 = arith.constant 56 : i32
                        %339 = arith.extsi %c56_i32 : i32 to i64
                        %340 = arith.shrui %338, %339 : i64
                        %341 = arith.extsi %340 : i64 to i128
                        %c1_i32_97 = arith.constant 1 : i32
                        %342 = arith.extsi %c1_i32_97 : i32 to i64
                        %343 = arith.extsi %342 : i64 to i128
                        %344 = arith.shli %341, %343 : i128
                        %345 = arith.subi %316, %344 : i128
                        %346 = arith.trunci %345 : i128 to i16
                        affine.yield %346 : i16
                      } else {
                        %c0_i32 = arith.constant 0 : i32
                        %316 = arith.trunci %c0_i32 : i32 to i16
                        affine.yield %316 : i16
                      }
                      %314 = affine.load %311[%c0_94] {from = "sum_rv"} : memref<1xi16>
                      %315 = arith.addi %313, %314 : i16
                      affine.store %315, %311[%c0_94] {to = "sum_rv"} : memref<1xi16>
                    } {loop_name = "layer1_1_conv1_out_msb_rx", reduction}
                  } {loop_name = "layer1_1_conv1_out_msb_ry", reduction}
                } {loop_name = "layer1_1_conv1_out_msb_rc", reduction}
                %c0_95 = arith.constant 0 : index
                %312 = affine.load %311[%c0_95] {from = "sum_rv"} : memref<1xi16>
                affine.store %312, %41[%arg168, %arg169, %arg170 - 2, %arg171 - 2] : memref<1x16x32x32xi16>
              }
            }
            %308 = affine.load %46[1, %arg171] : memref<3x34xi16, #map3>
            affine.store %308, %46[0, %arg171] : memref<3x34xi16, #map3>
            %309 = affine.load %46[2, %arg171] : memref<3x34xi16, #map3>
            affine.store %309, %46[1, %arg171] : memref<3x34xi16, #map3>
            %c0_92 = arith.constant 0 : index
            %c0_93 = arith.constant 0 : index
            %310 = affine.load %44[%c0_92, %c0_93, %arg170, %arg171] : memref<1x1x34x34xi16, #map2>
            affine.store %310, %46[2, %arg171] : memref<3x34xi16, #map3>
            affine.if #set1(%arg170) {
              affine.for %arg172 = 0 to 3 {
                %311 = affine.load %47[%arg172, 1] : memref<3x3xi16, #map4>
                affine.store %311, %47[%arg172, 0] : memref<3x3xi16, #map4>
                %312 = affine.load %47[%arg172, 2] : memref<3x3xi16, #map4>
                affine.store %312, %47[%arg172, 1] : memref<3x3xi16, #map4>
                %313 = affine.load %46[%arg172, %arg171] : memref<3x34xi16, #map3>
                affine.store %313, %47[%arg172, 2] : memref<3x3xi16, #map4>
              } {spatial}
              affine.if #set1(%arg171) {
                %311 = memref.alloc() {name = "sum_rv"} : memref<1xi16>
                %c0_94 = arith.constant 0 : index
                %c0_i16 = arith.constant 0 : i16
                affine.store %c0_i16, %311[%c0_94] {to = "sum_rv"} : memref<1xi16>
                affine.for %arg172 = 0 to 1 {
                  affine.for %arg173 = 0 to 3 {
                    affine.for %arg174 = 0 to 3 {
                      %313 = affine.if #set2(%arg171, %arg174, %arg170, %arg173) -> i16 {
                        %c16_i32 = arith.constant 16 : i32
                        %316 = arith.extsi %c16_i32 : i32 to i128
                        %317 = affine.load %47[%arg173, %arg174] : memref<3x3xi16, #map4>
                        %318 = affine.load %arg28[%arg169, %arg172, %arg173, %arg174] {from = "layer1_1_conv1_weight", unsigned} : memref<16x1x3x3xi16, #map1>
                        %319 = arith.xori %317, %318 {unsigned} : i16
                        %c1_i32 = arith.constant 1 : i32
                        %320 = arith.trunci %c1_i32 {unsigned} : i32 to i16
                        %321 = arith.shrui %319, %320 {unsigned} : i16
                        %c6148914691236517205_i64 = arith.constant 6148914691236517205 : i64
                        %322 = arith.trunci %c6148914691236517205_i64 {unsigned} : i64 to i16
                        %323 = arith.andi %321, %322 {unsigned} : i16
                        %324 = arith.subi %319, %323 {unsigned} : i16
                        %c3689348814741910323_i64 = arith.constant 3689348814741910323 : i64
                        %325 = arith.trunci %c3689348814741910323_i64 {unsigned} : i64 to i16
                        %326 = arith.andi %324, %325 {unsigned} : i16
                        %c2_i32 = arith.constant 2 : i32
                        %327 = arith.trunci %c2_i32 {unsigned} : i32 to i16
                        %328 = arith.shrui %324, %327 {unsigned} : i16
                        %c3689348814741910323_i64_96 = arith.constant 3689348814741910323 : i64
                        %329 = arith.trunci %c3689348814741910323_i64_96 {unsigned} : i64 to i16
                        %330 = arith.andi %328, %329 {unsigned} : i16
                        %331 = arith.addi %326, %330 {unsigned} : i16
                        %c4_i32 = arith.constant 4 : i32
                        %332 = arith.trunci %c4_i32 {unsigned} : i32 to i16
                        %333 = arith.shrui %331, %332 {unsigned} : i16
                        %334 = arith.addi %331, %333 {unsigned} : i16
                        %c1085102592571150095_i64 = arith.constant 1085102592571150095 : i64
                        %335 = arith.trunci %c1085102592571150095_i64 {unsigned} : i64 to i16
                        %336 = arith.andi %334, %335 {unsigned} : i16
                        %337 = arith.extui %336 : i16 to i64
                        %c72340172838076673_i64 = arith.constant 72340172838076673 : i64
                        %338 = arith.muli %337, %c72340172838076673_i64 : i64
                        %c56_i32 = arith.constant 56 : i32
                        %339 = arith.extsi %c56_i32 : i32 to i64
                        %340 = arith.shrui %338, %339 : i64
                        %341 = arith.extsi %340 : i64 to i128
                        %c1_i32_97 = arith.constant 1 : i32
                        %342 = arith.extsi %c1_i32_97 : i32 to i64
                        %343 = arith.extsi %342 : i64 to i128
                        %344 = arith.shli %341, %343 : i128
                        %345 = arith.subi %316, %344 : i128
                        %346 = arith.trunci %345 : i128 to i16
                        affine.yield %346 : i16
                      } else {
                        %c0_i32 = arith.constant 0 : i32
                        %316 = arith.trunci %c0_i32 : i32 to i16
                        affine.yield %316 : i16
                      }
                      %314 = affine.load %311[%c0_94] {from = "sum_rv"} : memref<1xi16>
                      %315 = arith.addi %313, %314 : i16
                      affine.store %315, %311[%c0_94] {to = "sum_rv"} : memref<1xi16>
                    } {loop_name = "layer1_1_conv1_out_lsb_rx", reduction}
                  } {loop_name = "layer1_1_conv1_out_lsb_ry", reduction}
                } {loop_name = "layer1_1_conv1_out_lsb_rc", reduction}
                %c0_95 = arith.constant 0 : index
                %312 = affine.load %311[%c0_95] {from = "sum_rv"} : memref<1xi16>
                affine.store %312, %45[%arg168, %arg169, %arg170 - 2, %arg171 - 2] : memref<1x16x32x32xi16>
              }
            }
          } {loop_name = "xx", pipeline_ii = 1 : i32}
        } {loop_name = "yy"}
      } {loop_name = "ff"}
    } {loop_name = "nn", op_name = "layer1_1_conv1_out_lsb"}
    %48 = memref.alloc() {name = "layer1_1_conv1_pgconv"} : memref<1x16x32x32xf32, #map0>
    %49 = memref.alloc() {name = "layer1_1_bn1"} : memref<1x16x32x32xf32, #map0>
    %50 = memref.alloc() {name = "layer1_1_rprelu1"} : memref<1x16x32x32xf32, #map0>
    %51 = memref.alloc() {name = "layer1_1_residual1"} : memref<1x16x32x32xf32, #map0>
    %52 = memref.alloc() {name = "layer1_1_bn2"} : memref<1x16x32x32xf32, #map0>
    affine.for %arg168 = 0 to 1 {
      affine.for %arg169 = 0 to 16 {
        affine.for %arg170 = 0 to 32 {
          affine.for %arg171 = 0 to 32 {
            %305 = affine.load %41[%c0_78, %arg169, %arg170, %arg171] {from = "layer1_1_conv1_out_msb"} : memref<1x16x32x32xi16>
            %306 = arith.sitofp %305 : i16 to f32
            %cst = arith.constant 2.000000e+00 : f32
            %307 = arith.mulf %306, %cst : f32
            %cst_90 = arith.constant 3.000000e+00 : f32
            %308 = arith.divf %307, %cst_90 : f32
            %309 = affine.load %arg29[%arg169] {from = "layer1_1_conv1_threshold"} : memref<16xf32, #map5>
            %310 = arith.cmpf ogt, %308, %309 : f32
            %311 = scf.if %310 -> (f32) {
              %329 = affine.load %45[%c0_78, %arg169, %arg170, %arg171] {from = "layer1_1_conv1_out_lsb"} : memref<1x16x32x32xi16>
              %330 = arith.sitofp %329 : i16 to f32
              %cst_91 = arith.constant 3.000000e+00 : f32
              %331 = arith.divf %330, %cst_91 : f32
              %332 = arith.addf %331, %308 : f32
              scf.yield %332 : f32
            } else {
              scf.yield %308 : f32
            }
            %312 = affine.load %arg30[%arg169] {from = "layer1_1_bn1_weight"} : memref<16xf32, #map5>
            %313 = arith.mulf %311, %312 : f32
            %314 = affine.load %arg31[%arg169] {from = "layer1_1_bn1_bias"} : memref<16xf32, #map5>
            %315 = arith.addf %313, %314 : f32
            %316 = affine.load %arg22[%arg169] {from = "layer1_1_rprelu1_shift_x_bias"} : memref<16xf32, #map5>
            %317 = arith.addf %315, %316 : f32
            %c0_i32 = arith.constant 0 : i32
            %318 = arith.sitofp %c0_i32 : i32 to f32
            %319 = arith.cmpf ogt, %317, %318 : f32
            %320 = scf.if %319 -> (f32) {
              scf.yield %317 : f32
            } else {
              %329 = affine.load %arg24[%arg169] {from = "layer1_1_rprelu1_prelu_weight"} : memref<16xf32, #map5>
              %330 = arith.mulf %329, %317 : f32
              scf.yield %330 : f32
            }
            %321 = affine.load %arg23[%arg169] {from = "layer1_1_rprelu1_shift_y_bias"} : memref<16xf32, #map5>
            %322 = arith.addf %320, %321 : f32
            %323 = affine.load %36[%c0_75, %arg169, %arg170, %arg171] {from = "layer1_0_bn4"} : memref<1x16x32x32xf32, #map0>
            %324 = arith.addf %322, %323 : f32
            %325 = affine.load %arg36[%arg169] {from = "layer1_1_bn3_weight"} : memref<16xf32, #map5>
            %326 = arith.mulf %324, %325 : f32
            %327 = affine.load %arg37[%arg169] {from = "layer1_1_bn3_bias"} : memref<16xf32, #map5>
            %328 = arith.addf %326, %327 : f32
            affine.store %328, %52[%arg168, %arg169, %arg170, %arg171] {to = "layer1_1_bn2"} : memref<1x16x32x32xf32, #map0>
          } {loop_name = "ww"}
        } {loop_name = "hh", pipeline_ii = 1 : i32}
      } {loop_name = "cc"}
    } {loop_name = "nn", op_name = "layer1_1_bn2"}
    %53 = memref.alloc() {name = "layer1_1_rsign2", unsigned} : memref<1x16x32x32xi2, #map0>
    %54 = memref.alloc() {name = "layer1_1_conv2_msb_truncate", unsigned} : memref<1x1x32x32xi16, #map0>
    %55 = memref.alloc() {name = "layer1_1_conv2_lsb_truncate", unsigned} : memref<1x1x32x32xi16, #map0>
    affine.for %arg168 = 0 to 1 {
      affine.for %arg169 = 0 to 1 {
        affine.for %arg170 = 0 to 32 {
          affine.for %arg171 = #map9(%arg169) to #map10(%arg169) {
            affine.for %arg172 = 0 to 32 {
              %305 = affine.load %52[%c0_74, %arg171, %arg170, %arg172] {from = "layer1_1_bn2"} : memref<1x16x32x32xf32, #map0>
              %cst = arith.constant 0.666666686 : f32
              %306 = arith.cmpf ogt, %305, %cst : f32
              %307 = scf.if %306 -> (i32) {
                %c3_i32 = arith.constant 3 : i32
                scf.yield %c3_i32 : i32
              } else {
                %c0_i32 = arith.constant 0 : i32
                %309 = arith.sitofp %c0_i32 : i32 to f32
                %310 = arith.cmpf oge, %305, %309 : f32
                %cst_90 = arith.constant 0.666666686 : f32
                %311 = arith.cmpf ole, %305, %cst_90 : f32
                %312 = arith.andi %310, %311 : i1
                %313 = scf.if %312 -> (i32) {
                  %c2_i32 = arith.constant 2 : i32
                  scf.yield %c2_i32 : i32
                } else {
                  %c0_i32_91 = arith.constant 0 : i32
                  %314 = arith.sitofp %c0_i32_91 : i32 to f32
                  %315 = arith.cmpf olt, %305, %314 : f32
                  %cst_92 = arith.constant -0.666666686 : f32
                  %316 = arith.cmpf oge, %305, %cst_92 : f32
                  %317 = arith.andi %315, %316 : i1
                  %318 = scf.if %317 -> (i32) {
                    %c1_i32 = arith.constant 1 : i32
                    scf.yield %c1_i32 : i32
                  } else {
                    %c0_i32_93 = arith.constant 0 : i32
                    scf.yield %c0_i32_93 : i32
                  }
                  scf.yield %318 : i32
                }
                scf.yield %313 : i32
              }
              %308 = arith.trunci %307 : i32 to i2
              affine.store %308, %53[%c0_74, %arg171, %arg170, %arg172] {to = "layer1_1_rsign2"} : memref<1x16x32x32xi2, #map0>
            } {loop_name = "ww"}
          } {loop_name = "cc"}
          affine.for %arg171 = 0 to 32 {
            %305 = memref.alloc() {name = "layer1_1_conv2_msb_truncate_pack", unsigned} : memref<1xi16>
            %c0_90 = arith.constant 0 : index
            %c0_i16 = arith.constant {unsigned} 0 : i16
            affine.store %c0_i16, %305[0] {to = "layer1_1_conv2_msb_truncate_pack", unsigned} : memref<1xi16>
            %306 = hcl.create_op_handle "stage_6"
            %307 = hcl.create_loop_handle %306, "loop_6"
            affine.for %arg172 = 0 to 16 {
              %309 = affine.load %53[%arg168, %arg169 * 16 + %arg172, %arg170, %arg171] {from = "layer1_1_rsign2", unsigned} : memref<1x16x32x32xi2, #map0>
              %c1 = arith.constant 1 : index
              %310 = hcl.get_bit(%309 : i2, %c1) -> i1
              %311 = affine.load %305[0] {from = "layer1_1_conv2_msb_truncate_pack", unsigned} : memref<1xi16>
              hcl.set_bit(%311 : i16, %arg172, %310 : i1)
              affine.store %311, %305[0] {to = "layer1_1_conv2_msb_truncate_pack", unsigned} : memref<1xi16>
            } {loop_name = "loop_6", op_name = "stage_6"}
            %308 = affine.load %305[0] {from = "layer1_1_conv2_msb_truncate_pack", unsigned} : memref<1xi16>
            affine.store %308, %54[%arg168, %arg169, %arg170, %arg171] {to = "layer1_1_conv2_msb_truncate"} : memref<1x1x32x32xi16, #map0>
          } {loop_name = "w"}
          affine.for %arg171 = 0 to 32 {
            %305 = memref.alloc() {name = "layer1_1_conv2_lsb_truncate_pack", unsigned} : memref<1xi16>
            %c0_90 = arith.constant 0 : index
            %c0_i16 = arith.constant {unsigned} 0 : i16
            affine.store %c0_i16, %305[0] {to = "layer1_1_conv2_lsb_truncate_pack", unsigned} : memref<1xi16>
            %306 = hcl.create_op_handle "stage_7"
            %307 = hcl.create_loop_handle %306, "loop_7"
            affine.for %arg172 = 0 to 16 {
              %309 = affine.load %53[%arg168, %arg169 * 16 + %arg172, %arg170, %arg171] {from = "layer1_1_rsign2", unsigned} : memref<1x16x32x32xi2, #map0>
              %c0_91 = arith.constant 0 : index
              %310 = hcl.get_bit(%309 : i2, %c0_91) -> i1
              %311 = affine.load %305[0] {from = "layer1_1_conv2_lsb_truncate_pack", unsigned} : memref<1xi16>
              hcl.set_bit(%311 : i16, %arg172, %310 : i1)
              affine.store %311, %305[0] {to = "layer1_1_conv2_lsb_truncate_pack", unsigned} : memref<1xi16>
            } {loop_name = "loop_7", op_name = "stage_7"}
            %308 = affine.load %305[0] {from = "layer1_1_conv2_lsb_truncate_pack", unsigned} : memref<1xi16>
            affine.store %308, %55[%arg168, %arg169, %arg170, %arg171] {to = "layer1_1_conv2_lsb_truncate"} : memref<1x1x32x32xi16, #map0>
          } {loop_name = "w"}
        } {loop_name = "h", pipeline_ii = 1 : i32}
      } {loop_name = "c"}
    } {loop_name = "i", op_name = "layer1_1_conv2_lsb_truncate"}
    %56 = memref.alloc() {name = "layer1_1_conv2_out_msb_pad", unsigned} : memref<1x1x34x34xi16, #map2>
    %57 = memref.alloc() {name = "layer1_1_conv2_out_msb"} : memref<1x16x32x32xi16>
    %58 = memref.alloc() {name = "layer1_1_conv2_out_msb_reuse_2"} : memref<3x34xi16, #map3>
    %59 = memref.alloc() {name = "layer1_1_conv2_out_msb_reuse_3"} : memref<3x3xi16, #map4>
    %60 = memref.alloc() {name = "layer1_1_conv2_out_lsb_pad", unsigned} : memref<1x1x34x34xi16, #map2>
    affine.for %arg168 = 0 to 1 {
      affine.for %arg169 = 0 to 1 {
        affine.for %arg170 = 0 to 34 {
          affine.for %arg171 = 0 to 34 {
            %305 = affine.if #set0(%arg171, %arg170) -> i16 {
              %307 = affine.load %54[%arg168, %arg169, %arg170 - 1, %arg171 - 1] {from = "layer1_1_conv2_msb_truncate", unsigned} : memref<1x1x32x32xi16, #map0>
              affine.yield %307 : i16
            } else {
              %c0_i32 = arith.constant 0 : i32
              %307 = arith.trunci %c0_i32 {unsigned} : i32 to i16
              affine.yield %307 : i16
            } {unsigned}
            affine.store %305, %56[%arg168, %arg169, %arg170, %arg171] {to = "layer1_1_conv2_out_msb_pad"} : memref<1x1x34x34xi16, #map2>
            %306 = affine.if #set0(%arg171, %arg170) -> i16 {
              %307 = affine.load %55[%arg168, %arg169, %arg170 - 1, %arg171 - 1] {from = "layer1_1_conv2_lsb_truncate", unsigned} : memref<1x1x32x32xi16, #map0>
              affine.yield %307 : i16
            } else {
              %c0_i32 = arith.constant 0 : i32
              %307 = arith.trunci %c0_i32 {unsigned} : i32 to i16
              affine.yield %307 : i16
            } {unsigned}
            affine.store %306, %60[%arg168, %arg169, %arg170, %arg171] {to = "layer1_1_conv2_out_lsb_pad"} : memref<1x1x34x34xi16, #map2>
          } {loop_name = "ww", pipeline_ii = 1 : i32}
        } {loop_name = "hh"}
      } {loop_name = "cc"}
    } {loop_name = "ii", op_name = "layer1_1_conv2_out_lsb_pad"}
    %61 = memref.alloc() {name = "layer1_1_conv2_out_lsb"} : memref<1x16x32x32xi16>
    %62 = memref.alloc() {name = "layer1_1_conv2_out_lsb_reuse_2"} : memref<3x34xi16, #map3>
    %63 = memref.alloc() {name = "layer1_1_conv2_out_lsb_reuse_3"} : memref<3x3xi16, #map4>
    affine.for %arg168 = 0 to 1 {
      affine.for %arg169 = 0 to 16 {
        affine.for %arg170 = 0 to 34 {
          affine.for %arg171 = 0 to 34 {
            %305 = affine.load %58[1, %arg171] : memref<3x34xi16, #map3>
            affine.store %305, %58[0, %arg171] : memref<3x34xi16, #map3>
            %306 = affine.load %58[2, %arg171] : memref<3x34xi16, #map3>
            affine.store %306, %58[1, %arg171] : memref<3x34xi16, #map3>
            %c0_90 = arith.constant 0 : index
            %c0_91 = arith.constant 0 : index
            %307 = affine.load %56[%c0_90, %c0_91, %arg170, %arg171] : memref<1x1x34x34xi16, #map2>
            affine.store %307, %58[2, %arg171] : memref<3x34xi16, #map3>
            affine.if #set1(%arg170) {
              affine.for %arg172 = 0 to 3 {
                %311 = affine.load %59[%arg172, 1] : memref<3x3xi16, #map4>
                affine.store %311, %59[%arg172, 0] : memref<3x3xi16, #map4>
                %312 = affine.load %59[%arg172, 2] : memref<3x3xi16, #map4>
                affine.store %312, %59[%arg172, 1] : memref<3x3xi16, #map4>
                %313 = affine.load %58[%arg172, %arg171] : memref<3x34xi16, #map3>
                affine.store %313, %59[%arg172, 2] : memref<3x3xi16, #map4>
              } {spatial}
              affine.if #set1(%arg171) {
                %311 = memref.alloc() {name = "sum_rv"} : memref<1xi16>
                %c0_94 = arith.constant 0 : index
                %c0_i16 = arith.constant 0 : i16
                affine.store %c0_i16, %311[%c0_94] {to = "sum_rv"} : memref<1xi16>
                affine.for %arg172 = 0 to 1 {
                  affine.for %arg173 = 0 to 3 {
                    affine.for %arg174 = 0 to 3 {
                      %313 = affine.if #set2(%arg171, %arg174, %arg170, %arg173) -> i16 {
                        %c16_i32 = arith.constant 16 : i32
                        %316 = arith.extsi %c16_i32 : i32 to i128
                        %317 = affine.load %59[%arg173, %arg174] : memref<3x3xi16, #map4>
                        %318 = affine.load %arg32[%arg169, %arg172, %arg173, %arg174] {from = "layer1_1_conv2_weight", unsigned} : memref<16x1x3x3xi16, #map1>
                        %319 = arith.xori %317, %318 {unsigned} : i16
                        %c1_i32 = arith.constant 1 : i32
                        %320 = arith.trunci %c1_i32 {unsigned} : i32 to i16
                        %321 = arith.shrui %319, %320 {unsigned} : i16
                        %c6148914691236517205_i64 = arith.constant 6148914691236517205 : i64
                        %322 = arith.trunci %c6148914691236517205_i64 {unsigned} : i64 to i16
                        %323 = arith.andi %321, %322 {unsigned} : i16
                        %324 = arith.subi %319, %323 {unsigned} : i16
                        %c3689348814741910323_i64 = arith.constant 3689348814741910323 : i64
                        %325 = arith.trunci %c3689348814741910323_i64 {unsigned} : i64 to i16
                        %326 = arith.andi %324, %325 {unsigned} : i16
                        %c2_i32 = arith.constant 2 : i32
                        %327 = arith.trunci %c2_i32 {unsigned} : i32 to i16
                        %328 = arith.shrui %324, %327 {unsigned} : i16
                        %c3689348814741910323_i64_96 = arith.constant 3689348814741910323 : i64
                        %329 = arith.trunci %c3689348814741910323_i64_96 {unsigned} : i64 to i16
                        %330 = arith.andi %328, %329 {unsigned} : i16
                        %331 = arith.addi %326, %330 {unsigned} : i16
                        %c4_i32 = arith.constant 4 : i32
                        %332 = arith.trunci %c4_i32 {unsigned} : i32 to i16
                        %333 = arith.shrui %331, %332 {unsigned} : i16
                        %334 = arith.addi %331, %333 {unsigned} : i16
                        %c1085102592571150095_i64 = arith.constant 1085102592571150095 : i64
                        %335 = arith.trunci %c1085102592571150095_i64 {unsigned} : i64 to i16
                        %336 = arith.andi %334, %335 {unsigned} : i16
                        %337 = arith.extui %336 : i16 to i64
                        %c72340172838076673_i64 = arith.constant 72340172838076673 : i64
                        %338 = arith.muli %337, %c72340172838076673_i64 : i64
                        %c56_i32 = arith.constant 56 : i32
                        %339 = arith.extsi %c56_i32 : i32 to i64
                        %340 = arith.shrui %338, %339 : i64
                        %341 = arith.extsi %340 : i64 to i128
                        %c1_i32_97 = arith.constant 1 : i32
                        %342 = arith.extsi %c1_i32_97 : i32 to i64
                        %343 = arith.extsi %342 : i64 to i128
                        %344 = arith.shli %341, %343 : i128
                        %345 = arith.subi %316, %344 : i128
                        %346 = arith.trunci %345 : i128 to i16
                        affine.yield %346 : i16
                      } else {
                        %c0_i32 = arith.constant 0 : i32
                        %316 = arith.trunci %c0_i32 : i32 to i16
                        affine.yield %316 : i16
                      }
                      %314 = affine.load %311[%c0_94] {from = "sum_rv"} : memref<1xi16>
                      %315 = arith.addi %313, %314 : i16
                      affine.store %315, %311[%c0_94] {to = "sum_rv"} : memref<1xi16>
                    } {loop_name = "layer1_1_conv2_out_msb_rx", reduction}
                  } {loop_name = "layer1_1_conv2_out_msb_ry", reduction}
                } {loop_name = "layer1_1_conv2_out_msb_rc", reduction}
                %c0_95 = arith.constant 0 : index
                %312 = affine.load %311[%c0_95] {from = "sum_rv"} : memref<1xi16>
                affine.store %312, %57[%arg168, %arg169, %arg170 - 2, %arg171 - 2] : memref<1x16x32x32xi16>
              }
            }
            %308 = affine.load %62[1, %arg171] : memref<3x34xi16, #map3>
            affine.store %308, %62[0, %arg171] : memref<3x34xi16, #map3>
            %309 = affine.load %62[2, %arg171] : memref<3x34xi16, #map3>
            affine.store %309, %62[1, %arg171] : memref<3x34xi16, #map3>
            %c0_92 = arith.constant 0 : index
            %c0_93 = arith.constant 0 : index
            %310 = affine.load %60[%c0_92, %c0_93, %arg170, %arg171] : memref<1x1x34x34xi16, #map2>
            affine.store %310, %62[2, %arg171] : memref<3x34xi16, #map3>
            affine.if #set1(%arg170) {
              affine.for %arg172 = 0 to 3 {
                %311 = affine.load %63[%arg172, 1] : memref<3x3xi16, #map4>
                affine.store %311, %63[%arg172, 0] : memref<3x3xi16, #map4>
                %312 = affine.load %63[%arg172, 2] : memref<3x3xi16, #map4>
                affine.store %312, %63[%arg172, 1] : memref<3x3xi16, #map4>
                %313 = affine.load %62[%arg172, %arg171] : memref<3x34xi16, #map3>
                affine.store %313, %63[%arg172, 2] : memref<3x3xi16, #map4>
              } {spatial}
              affine.if #set1(%arg171) {
                %311 = memref.alloc() {name = "sum_rv"} : memref<1xi16>
                %c0_94 = arith.constant 0 : index
                %c0_i16 = arith.constant 0 : i16
                affine.store %c0_i16, %311[%c0_94] {to = "sum_rv"} : memref<1xi16>
                affine.for %arg172 = 0 to 1 {
                  affine.for %arg173 = 0 to 3 {
                    affine.for %arg174 = 0 to 3 {
                      %313 = affine.if #set2(%arg171, %arg174, %arg170, %arg173) -> i16 {
                        %c16_i32 = arith.constant 16 : i32
                        %316 = arith.extsi %c16_i32 : i32 to i128
                        %317 = affine.load %63[%arg173, %arg174] : memref<3x3xi16, #map4>
                        %318 = affine.load %arg32[%arg169, %arg172, %arg173, %arg174] {from = "layer1_1_conv2_weight", unsigned} : memref<16x1x3x3xi16, #map1>
                        %319 = arith.xori %317, %318 {unsigned} : i16
                        %c1_i32 = arith.constant 1 : i32
                        %320 = arith.trunci %c1_i32 {unsigned} : i32 to i16
                        %321 = arith.shrui %319, %320 {unsigned} : i16
                        %c6148914691236517205_i64 = arith.constant 6148914691236517205 : i64
                        %322 = arith.trunci %c6148914691236517205_i64 {unsigned} : i64 to i16
                        %323 = arith.andi %321, %322 {unsigned} : i16
                        %324 = arith.subi %319, %323 {unsigned} : i16
                        %c3689348814741910323_i64 = arith.constant 3689348814741910323 : i64
                        %325 = arith.trunci %c3689348814741910323_i64 {unsigned} : i64 to i16
                        %326 = arith.andi %324, %325 {unsigned} : i16
                        %c2_i32 = arith.constant 2 : i32
                        %327 = arith.trunci %c2_i32 {unsigned} : i32 to i16
                        %328 = arith.shrui %324, %327 {unsigned} : i16
                        %c3689348814741910323_i64_96 = arith.constant 3689348814741910323 : i64
                        %329 = arith.trunci %c3689348814741910323_i64_96 {unsigned} : i64 to i16
                        %330 = arith.andi %328, %329 {unsigned} : i16
                        %331 = arith.addi %326, %330 {unsigned} : i16
                        %c4_i32 = arith.constant 4 : i32
                        %332 = arith.trunci %c4_i32 {unsigned} : i32 to i16
                        %333 = arith.shrui %331, %332 {unsigned} : i16
                        %334 = arith.addi %331, %333 {unsigned} : i16
                        %c1085102592571150095_i64 = arith.constant 1085102592571150095 : i64
                        %335 = arith.trunci %c1085102592571150095_i64 {unsigned} : i64 to i16
                        %336 = arith.andi %334, %335 {unsigned} : i16
                        %337 = arith.extui %336 : i16 to i64
                        %c72340172838076673_i64 = arith.constant 72340172838076673 : i64
                        %338 = arith.muli %337, %c72340172838076673_i64 : i64
                        %c56_i32 = arith.constant 56 : i32
                        %339 = arith.extsi %c56_i32 : i32 to i64
                        %340 = arith.shrui %338, %339 : i64
                        %341 = arith.extsi %340 : i64 to i128
                        %c1_i32_97 = arith.constant 1 : i32
                        %342 = arith.extsi %c1_i32_97 : i32 to i64
                        %343 = arith.extsi %342 : i64 to i128
                        %344 = arith.shli %341, %343 : i128
                        %345 = arith.subi %316, %344 : i128
                        %346 = arith.trunci %345 : i128 to i16
                        affine.yield %346 : i16
                      } else {
                        %c0_i32 = arith.constant 0 : i32
                        %316 = arith.trunci %c0_i32 : i32 to i16
                        affine.yield %316 : i16
                      }
                      %314 = affine.load %311[%c0_94] {from = "sum_rv"} : memref<1xi16>
                      %315 = arith.addi %313, %314 : i16
                      affine.store %315, %311[%c0_94] {to = "sum_rv"} : memref<1xi16>
                    } {loop_name = "layer1_1_conv2_out_lsb_rx", reduction}
                  } {loop_name = "layer1_1_conv2_out_lsb_ry", reduction}
                } {loop_name = "layer1_1_conv2_out_lsb_rc", reduction}
                %c0_95 = arith.constant 0 : index
                %312 = affine.load %311[%c0_95] {from = "sum_rv"} : memref<1xi16>
                affine.store %312, %61[%arg168, %arg169, %arg170 - 2, %arg171 - 2] : memref<1x16x32x32xi16>
              }
            }
          } {loop_name = "xx", pipeline_ii = 1 : i32}
        } {loop_name = "yy"}
      } {loop_name = "ff"}
    } {loop_name = "nn", op_name = "layer1_1_conv2_out_lsb"}
    %64 = memref.alloc() {name = "layer1_1_conv2_pgconv"} : memref<1x16x32x32xf32, #map0>
    %65 = memref.alloc() {name = "layer1_1_bn3"} : memref<1x16x32x32xf32, #map0>
    %66 = memref.alloc() {name = "layer1_1_rprelu2"} : memref<1x16x32x32xf32, #map0>
    %67 = memref.alloc() {name = "layer1_1_residual2"} : memref<1x16x32x32xf32, #map0>
    %68 = memref.alloc() {name = "layer1_1_bn4"} : memref<1x16x32x32xf32, #map0>
    affine.for %arg168 = 0 to 1 {
      affine.for %arg169 = 0 to 16 {
        affine.for %arg170 = 0 to 32 {
          affine.for %arg171 = 0 to 32 {
            %305 = affine.load %57[%c0_73, %arg169, %arg170, %arg171] {from = "layer1_1_conv2_out_msb"} : memref<1x16x32x32xi16>
            %306 = arith.sitofp %305 : i16 to f32
            %cst = arith.constant 2.000000e+00 : f32
            %307 = arith.mulf %306, %cst : f32
            %cst_90 = arith.constant 3.000000e+00 : f32
            %308 = arith.divf %307, %cst_90 : f32
            %309 = affine.load %arg33[%arg169] {from = "layer1_1_conv2_threshold"} : memref<16xf32, #map5>
            %310 = arith.cmpf ogt, %308, %309 : f32
            %311 = scf.if %310 -> (f32) {
              %329 = affine.load %61[%c0_73, %arg169, %arg170, %arg171] {from = "layer1_1_conv2_out_lsb"} : memref<1x16x32x32xi16>
              %330 = arith.sitofp %329 : i16 to f32
              %cst_91 = arith.constant 3.000000e+00 : f32
              %331 = arith.divf %330, %cst_91 : f32
              %332 = arith.addf %331, %308 : f32
              scf.yield %332 : f32
            } else {
              scf.yield %308 : f32
            }
            %312 = affine.load %arg34[%arg169] {from = "layer1_1_bn2_weight"} : memref<16xf32, #map5>
            %313 = arith.mulf %311, %312 : f32
            %314 = affine.load %arg35[%arg169] {from = "layer1_1_bn2_bias"} : memref<16xf32, #map5>
            %315 = arith.addf %313, %314 : f32
            %316 = affine.load %arg25[%arg169] {from = "layer1_1_rprelu2_shift_x_bias"} : memref<16xf32, #map5>
            %317 = arith.addf %315, %316 : f32
            %c0_i32 = arith.constant 0 : i32
            %318 = arith.sitofp %c0_i32 : i32 to f32
            %319 = arith.cmpf ogt, %317, %318 : f32
            %320 = scf.if %319 -> (f32) {
              scf.yield %317 : f32
            } else {
              %329 = affine.load %arg27[%arg169] {from = "layer1_1_rprelu2_prelu_weight"} : memref<16xf32, #map5>
              %330 = arith.mulf %329, %317 : f32
              scf.yield %330 : f32
            }
            %321 = affine.load %arg26[%arg169] {from = "layer1_1_rprelu2_shift_y_bias"} : memref<16xf32, #map5>
            %322 = arith.addf %320, %321 : f32
            %323 = affine.load %52[%c0_70, %arg169, %arg170, %arg171] {from = "layer1_1_bn2"} : memref<1x16x32x32xf32, #map0>
            %324 = arith.addf %323, %322 : f32
            %325 = affine.load %arg38[%arg169] {from = "layer1_1_bn4_weight"} : memref<16xf32, #map5>
            %326 = arith.mulf %324, %325 : f32
            %327 = affine.load %arg39[%arg169] {from = "layer1_1_bn4_bias"} : memref<16xf32, #map5>
            %328 = arith.addf %326, %327 : f32
            affine.store %328, %68[%arg168, %arg169, %arg170, %arg171] {to = "layer1_1_bn4"} : memref<1x16x32x32xf32, #map0>
          } {loop_name = "ww"}
        } {loop_name = "hh", pipeline_ii = 1 : i32}
      } {loop_name = "cc"}
    } {loop_name = "nn", op_name = "layer1_1_bn4"}
    %69 = memref.alloc() {name = "layer1_2_rsign1", unsigned} : memref<1x16x32x32xi2, #map0>
    %70 = memref.alloc() {name = "layer1_2_conv1_msb_truncate", unsigned} : memref<1x1x32x32xi16, #map0>
    %71 = memref.alloc() {name = "layer1_2_conv1_lsb_truncate", unsigned} : memref<1x1x32x32xi16, #map0>
    affine.for %arg168 = 0 to 1 {
      affine.for %arg169 = 0 to 1 {
        affine.for %arg170 = 0 to 32 {
          affine.for %arg171 = #map9(%arg169) to #map10(%arg169) {
            affine.for %arg172 = 0 to 32 {
              %305 = affine.load %68[%c0_69, %arg171, %arg170, %arg172] {from = "layer1_1_bn4"} : memref<1x16x32x32xf32, #map0>
              %cst = arith.constant 0.666666686 : f32
              %306 = arith.cmpf ogt, %305, %cst : f32
              %307 = scf.if %306 -> (i32) {
                %c3_i32 = arith.constant 3 : i32
                scf.yield %c3_i32 : i32
              } else {
                %c0_i32 = arith.constant 0 : i32
                %309 = arith.sitofp %c0_i32 : i32 to f32
                %310 = arith.cmpf oge, %305, %309 : f32
                %cst_90 = arith.constant 0.666666686 : f32
                %311 = arith.cmpf ole, %305, %cst_90 : f32
                %312 = arith.andi %310, %311 : i1
                %313 = scf.if %312 -> (i32) {
                  %c2_i32 = arith.constant 2 : i32
                  scf.yield %c2_i32 : i32
                } else {
                  %c0_i32_91 = arith.constant 0 : i32
                  %314 = arith.sitofp %c0_i32_91 : i32 to f32
                  %315 = arith.cmpf olt, %305, %314 : f32
                  %cst_92 = arith.constant -0.666666686 : f32
                  %316 = arith.cmpf oge, %305, %cst_92 : f32
                  %317 = arith.andi %315, %316 : i1
                  %318 = scf.if %317 -> (i32) {
                    %c1_i32 = arith.constant 1 : i32
                    scf.yield %c1_i32 : i32
                  } else {
                    %c0_i32_93 = arith.constant 0 : i32
                    scf.yield %c0_i32_93 : i32
                  }
                  scf.yield %318 : i32
                }
                scf.yield %313 : i32
              }
              %308 = arith.trunci %307 : i32 to i2
              affine.store %308, %69[%c0_69, %arg171, %arg170, %arg172] {to = "layer1_2_rsign1"} : memref<1x16x32x32xi2, #map0>
            } {loop_name = "ww"}
          } {loop_name = "cc"}
          affine.for %arg171 = 0 to 32 {
            %305 = memref.alloc() {name = "layer1_2_conv1_msb_truncate_pack", unsigned} : memref<1xi16>
            %c0_90 = arith.constant 0 : index
            %c0_i16 = arith.constant {unsigned} 0 : i16
            affine.store %c0_i16, %305[0] {to = "layer1_2_conv1_msb_truncate_pack", unsigned} : memref<1xi16>
            %306 = hcl.create_op_handle "stage_8"
            %307 = hcl.create_loop_handle %306, "loop_8"
            affine.for %arg172 = 0 to 16 {
              %309 = affine.load %69[%arg168, %arg169 * 16 + %arg172, %arg170, %arg171] {from = "layer1_2_rsign1", unsigned} : memref<1x16x32x32xi2, #map0>
              %c1 = arith.constant 1 : index
              %310 = hcl.get_bit(%309 : i2, %c1) -> i1
              %311 = affine.load %305[0] {from = "layer1_2_conv1_msb_truncate_pack", unsigned} : memref<1xi16>
              hcl.set_bit(%311 : i16, %arg172, %310 : i1)
              affine.store %311, %305[0] {to = "layer1_2_conv1_msb_truncate_pack", unsigned} : memref<1xi16>
            } {loop_name = "loop_8", op_name = "stage_8"}
            %308 = affine.load %305[0] {from = "layer1_2_conv1_msb_truncate_pack", unsigned} : memref<1xi16>
            affine.store %308, %70[%arg168, %arg169, %arg170, %arg171] {to = "layer1_2_conv1_msb_truncate"} : memref<1x1x32x32xi16, #map0>
          } {loop_name = "w"}
          affine.for %arg171 = 0 to 32 {
            %305 = memref.alloc() {name = "layer1_2_conv1_lsb_truncate_pack", unsigned} : memref<1xi16>
            %c0_90 = arith.constant 0 : index
            %c0_i16 = arith.constant {unsigned} 0 : i16
            affine.store %c0_i16, %305[0] {to = "layer1_2_conv1_lsb_truncate_pack", unsigned} : memref<1xi16>
            %306 = hcl.create_op_handle "stage_9"
            %307 = hcl.create_loop_handle %306, "loop_9"
            affine.for %arg172 = 0 to 16 {
              %309 = affine.load %69[%arg168, %arg169 * 16 + %arg172, %arg170, %arg171] {from = "layer1_2_rsign1", unsigned} : memref<1x16x32x32xi2, #map0>
              %c0_91 = arith.constant 0 : index
              %310 = hcl.get_bit(%309 : i2, %c0_91) -> i1
              %311 = affine.load %305[0] {from = "layer1_2_conv1_lsb_truncate_pack", unsigned} : memref<1xi16>
              hcl.set_bit(%311 : i16, %arg172, %310 : i1)
              affine.store %311, %305[0] {to = "layer1_2_conv1_lsb_truncate_pack", unsigned} : memref<1xi16>
            } {loop_name = "loop_9", op_name = "stage_9"}
            %308 = affine.load %305[0] {from = "layer1_2_conv1_lsb_truncate_pack", unsigned} : memref<1xi16>
            affine.store %308, %71[%arg168, %arg169, %arg170, %arg171] {to = "layer1_2_conv1_lsb_truncate"} : memref<1x1x32x32xi16, #map0>
          } {loop_name = "w"}
        } {loop_name = "h", pipeline_ii = 1 : i32}
      } {loop_name = "c"}
    } {loop_name = "i", op_name = "layer1_2_conv1_lsb_truncate"}
    %72 = memref.alloc() {name = "layer1_2_conv1_out_msb_pad", unsigned} : memref<1x1x34x34xi16, #map2>
    %73 = memref.alloc() {name = "layer1_2_conv1_out_msb"} : memref<1x16x32x32xi16>
    %74 = memref.alloc() {name = "layer1_2_conv1_out_msb_reuse_2"} : memref<3x34xi16, #map3>
    %75 = memref.alloc() {name = "layer1_2_conv1_out_msb_reuse_3"} : memref<3x3xi16, #map4>
    %76 = memref.alloc() {name = "layer1_2_conv1_out_lsb_pad", unsigned} : memref<1x1x34x34xi16, #map2>
    affine.for %arg168 = 0 to 1 {
      affine.for %arg169 = 0 to 1 {
        affine.for %arg170 = 0 to 34 {
          affine.for %arg171 = 0 to 34 {
            %305 = affine.if #set0(%arg171, %arg170) -> i16 {
              %307 = affine.load %70[%arg168, %arg169, %arg170 - 1, %arg171 - 1] {from = "layer1_2_conv1_msb_truncate", unsigned} : memref<1x1x32x32xi16, #map0>
              affine.yield %307 : i16
            } else {
              %c0_i32 = arith.constant 0 : i32
              %307 = arith.trunci %c0_i32 {unsigned} : i32 to i16
              affine.yield %307 : i16
            } {unsigned}
            affine.store %305, %72[%arg168, %arg169, %arg170, %arg171] {to = "layer1_2_conv1_out_msb_pad"} : memref<1x1x34x34xi16, #map2>
            %306 = affine.if #set0(%arg171, %arg170) -> i16 {
              %307 = affine.load %71[%arg168, %arg169, %arg170 - 1, %arg171 - 1] {from = "layer1_2_conv1_lsb_truncate", unsigned} : memref<1x1x32x32xi16, #map0>
              affine.yield %307 : i16
            } else {
              %c0_i32 = arith.constant 0 : i32
              %307 = arith.trunci %c0_i32 {unsigned} : i32 to i16
              affine.yield %307 : i16
            } {unsigned}
            affine.store %306, %76[%arg168, %arg169, %arg170, %arg171] {to = "layer1_2_conv1_out_lsb_pad"} : memref<1x1x34x34xi16, #map2>
          } {loop_name = "ww", pipeline_ii = 1 : i32}
        } {loop_name = "hh"}
      } {loop_name = "cc"}
    } {loop_name = "ii", op_name = "layer1_2_conv1_out_lsb_pad"}
    %77 = memref.alloc() {name = "layer1_2_conv1_out_lsb"} : memref<1x16x32x32xi16>
    %78 = memref.alloc() {name = "layer1_2_conv1_out_lsb_reuse_2"} : memref<3x34xi16, #map3>
    %79 = memref.alloc() {name = "layer1_2_conv1_out_lsb_reuse_3"} : memref<3x3xi16, #map4>
    affine.for %arg168 = 0 to 1 {
      affine.for %arg169 = 0 to 16 {
        affine.for %arg170 = 0 to 34 {
          affine.for %arg171 = 0 to 34 {
            %305 = affine.load %74[1, %arg171] : memref<3x34xi16, #map3>
            affine.store %305, %74[0, %arg171] : memref<3x34xi16, #map3>
            %306 = affine.load %74[2, %arg171] : memref<3x34xi16, #map3>
            affine.store %306, %74[1, %arg171] : memref<3x34xi16, #map3>
            %c0_90 = arith.constant 0 : index
            %c0_91 = arith.constant 0 : index
            %307 = affine.load %72[%c0_90, %c0_91, %arg170, %arg171] : memref<1x1x34x34xi16, #map2>
            affine.store %307, %74[2, %arg171] : memref<3x34xi16, #map3>
            affine.if #set1(%arg170) {
              affine.for %arg172 = 0 to 3 {
                %311 = affine.load %75[%arg172, 1] : memref<3x3xi16, #map4>
                affine.store %311, %75[%arg172, 0] : memref<3x3xi16, #map4>
                %312 = affine.load %75[%arg172, 2] : memref<3x3xi16, #map4>
                affine.store %312, %75[%arg172, 1] : memref<3x3xi16, #map4>
                %313 = affine.load %74[%arg172, %arg171] : memref<3x34xi16, #map3>
                affine.store %313, %75[%arg172, 2] : memref<3x3xi16, #map4>
              } {spatial}
              affine.if #set1(%arg171) {
                %311 = memref.alloc() {name = "sum_rv"} : memref<1xi16>
                %c0_94 = arith.constant 0 : index
                %c0_i16 = arith.constant 0 : i16
                affine.store %c0_i16, %311[%c0_94] {to = "sum_rv"} : memref<1xi16>
                affine.for %arg172 = 0 to 1 {
                  affine.for %arg173 = 0 to 3 {
                    affine.for %arg174 = 0 to 3 {
                      %313 = affine.if #set2(%arg171, %arg174, %arg170, %arg173) -> i16 {
                        %c16_i32 = arith.constant 16 : i32
                        %316 = arith.extsi %c16_i32 : i32 to i128
                        %317 = affine.load %75[%arg173, %arg174] : memref<3x3xi16, #map4>
                        %318 = affine.load %arg46[%arg169, %arg172, %arg173, %arg174] {from = "layer1_2_conv1_weight", unsigned} : memref<16x1x3x3xi16, #map1>
                        %319 = arith.xori %317, %318 {unsigned} : i16
                        %c1_i32 = arith.constant 1 : i32
                        %320 = arith.trunci %c1_i32 {unsigned} : i32 to i16
                        %321 = arith.shrui %319, %320 {unsigned} : i16
                        %c6148914691236517205_i64 = arith.constant 6148914691236517205 : i64
                        %322 = arith.trunci %c6148914691236517205_i64 {unsigned} : i64 to i16
                        %323 = arith.andi %321, %322 {unsigned} : i16
                        %324 = arith.subi %319, %323 {unsigned} : i16
                        %c3689348814741910323_i64 = arith.constant 3689348814741910323 : i64
                        %325 = arith.trunci %c3689348814741910323_i64 {unsigned} : i64 to i16
                        %326 = arith.andi %324, %325 {unsigned} : i16
                        %c2_i32 = arith.constant 2 : i32
                        %327 = arith.trunci %c2_i32 {unsigned} : i32 to i16
                        %328 = arith.shrui %324, %327 {unsigned} : i16
                        %c3689348814741910323_i64_96 = arith.constant 3689348814741910323 : i64
                        %329 = arith.trunci %c3689348814741910323_i64_96 {unsigned} : i64 to i16
                        %330 = arith.andi %328, %329 {unsigned} : i16
                        %331 = arith.addi %326, %330 {unsigned} : i16
                        %c4_i32 = arith.constant 4 : i32
                        %332 = arith.trunci %c4_i32 {unsigned} : i32 to i16
                        %333 = arith.shrui %331, %332 {unsigned} : i16
                        %334 = arith.addi %331, %333 {unsigned} : i16
                        %c1085102592571150095_i64 = arith.constant 1085102592571150095 : i64
                        %335 = arith.trunci %c1085102592571150095_i64 {unsigned} : i64 to i16
                        %336 = arith.andi %334, %335 {unsigned} : i16
                        %337 = arith.extui %336 : i16 to i64
                        %c72340172838076673_i64 = arith.constant 72340172838076673 : i64
                        %338 = arith.muli %337, %c72340172838076673_i64 : i64
                        %c56_i32 = arith.constant 56 : i32
                        %339 = arith.extsi %c56_i32 : i32 to i64
                        %340 = arith.shrui %338, %339 : i64
                        %341 = arith.extsi %340 : i64 to i128
                        %c1_i32_97 = arith.constant 1 : i32
                        %342 = arith.extsi %c1_i32_97 : i32 to i64
                        %343 = arith.extsi %342 : i64 to i128
                        %344 = arith.shli %341, %343 : i128
                        %345 = arith.subi %316, %344 : i128
                        %346 = arith.trunci %345 : i128 to i16
                        affine.yield %346 : i16
                      } else {
                        %c0_i32 = arith.constant 0 : i32
                        %316 = arith.trunci %c0_i32 : i32 to i16
                        affine.yield %316 : i16
                      }
                      %314 = affine.load %311[%c0_94] {from = "sum_rv"} : memref<1xi16>
                      %315 = arith.addi %313, %314 : i16
                      affine.store %315, %311[%c0_94] {to = "sum_rv"} : memref<1xi16>
                    } {loop_name = "layer1_2_conv1_out_msb_rx", reduction}
                  } {loop_name = "layer1_2_conv1_out_msb_ry", reduction}
                } {loop_name = "layer1_2_conv1_out_msb_rc", reduction}
                %c0_95 = arith.constant 0 : index
                %312 = affine.load %311[%c0_95] {from = "sum_rv"} : memref<1xi16>
                affine.store %312, %73[%arg168, %arg169, %arg170 - 2, %arg171 - 2] : memref<1x16x32x32xi16>
              }
            }
            %308 = affine.load %78[1, %arg171] : memref<3x34xi16, #map3>
            affine.store %308, %78[0, %arg171] : memref<3x34xi16, #map3>
            %309 = affine.load %78[2, %arg171] : memref<3x34xi16, #map3>
            affine.store %309, %78[1, %arg171] : memref<3x34xi16, #map3>
            %c0_92 = arith.constant 0 : index
            %c0_93 = arith.constant 0 : index
            %310 = affine.load %76[%c0_92, %c0_93, %arg170, %arg171] : memref<1x1x34x34xi16, #map2>
            affine.store %310, %78[2, %arg171] : memref<3x34xi16, #map3>
            affine.if #set1(%arg170) {
              affine.for %arg172 = 0 to 3 {
                %311 = affine.load %79[%arg172, 1] : memref<3x3xi16, #map4>
                affine.store %311, %79[%arg172, 0] : memref<3x3xi16, #map4>
                %312 = affine.load %79[%arg172, 2] : memref<3x3xi16, #map4>
                affine.store %312, %79[%arg172, 1] : memref<3x3xi16, #map4>
                %313 = affine.load %78[%arg172, %arg171] : memref<3x34xi16, #map3>
                affine.store %313, %79[%arg172, 2] : memref<3x3xi16, #map4>
              } {spatial}
              affine.if #set1(%arg171) {
                %311 = memref.alloc() {name = "sum_rv"} : memref<1xi16>
                %c0_94 = arith.constant 0 : index
                %c0_i16 = arith.constant 0 : i16
                affine.store %c0_i16, %311[%c0_94] {to = "sum_rv"} : memref<1xi16>
                affine.for %arg172 = 0 to 1 {
                  affine.for %arg173 = 0 to 3 {
                    affine.for %arg174 = 0 to 3 {
                      %313 = affine.if #set2(%arg171, %arg174, %arg170, %arg173) -> i16 {
                        %c16_i32 = arith.constant 16 : i32
                        %316 = arith.extsi %c16_i32 : i32 to i128
                        %317 = affine.load %79[%arg173, %arg174] : memref<3x3xi16, #map4>
                        %318 = affine.load %arg46[%arg169, %arg172, %arg173, %arg174] {from = "layer1_2_conv1_weight", unsigned} : memref<16x1x3x3xi16, #map1>
                        %319 = arith.xori %317, %318 {unsigned} : i16
                        %c1_i32 = arith.constant 1 : i32
                        %320 = arith.trunci %c1_i32 {unsigned} : i32 to i16
                        %321 = arith.shrui %319, %320 {unsigned} : i16
                        %c6148914691236517205_i64 = arith.constant 6148914691236517205 : i64
                        %322 = arith.trunci %c6148914691236517205_i64 {unsigned} : i64 to i16
                        %323 = arith.andi %321, %322 {unsigned} : i16
                        %324 = arith.subi %319, %323 {unsigned} : i16
                        %c3689348814741910323_i64 = arith.constant 3689348814741910323 : i64
                        %325 = arith.trunci %c3689348814741910323_i64 {unsigned} : i64 to i16
                        %326 = arith.andi %324, %325 {unsigned} : i16
                        %c2_i32 = arith.constant 2 : i32
                        %327 = arith.trunci %c2_i32 {unsigned} : i32 to i16
                        %328 = arith.shrui %324, %327 {unsigned} : i16
                        %c3689348814741910323_i64_96 = arith.constant 3689348814741910323 : i64
                        %329 = arith.trunci %c3689348814741910323_i64_96 {unsigned} : i64 to i16
                        %330 = arith.andi %328, %329 {unsigned} : i16
                        %331 = arith.addi %326, %330 {unsigned} : i16
                        %c4_i32 = arith.constant 4 : i32
                        %332 = arith.trunci %c4_i32 {unsigned} : i32 to i16
                        %333 = arith.shrui %331, %332 {unsigned} : i16
                        %334 = arith.addi %331, %333 {unsigned} : i16
                        %c1085102592571150095_i64 = arith.constant 1085102592571150095 : i64
                        %335 = arith.trunci %c1085102592571150095_i64 {unsigned} : i64 to i16
                        %336 = arith.andi %334, %335 {unsigned} : i16
                        %337 = arith.extui %336 : i16 to i64
                        %c72340172838076673_i64 = arith.constant 72340172838076673 : i64
                        %338 = arith.muli %337, %c72340172838076673_i64 : i64
                        %c56_i32 = arith.constant 56 : i32
                        %339 = arith.extsi %c56_i32 : i32 to i64
                        %340 = arith.shrui %338, %339 : i64
                        %341 = arith.extsi %340 : i64 to i128
                        %c1_i32_97 = arith.constant 1 : i32
                        %342 = arith.extsi %c1_i32_97 : i32 to i64
                        %343 = arith.extsi %342 : i64 to i128
                        %344 = arith.shli %341, %343 : i128
                        %345 = arith.subi %316, %344 : i128
                        %346 = arith.trunci %345 : i128 to i16
                        affine.yield %346 : i16
                      } else {
                        %c0_i32 = arith.constant 0 : i32
                        %316 = arith.trunci %c0_i32 : i32 to i16
                        affine.yield %316 : i16
                      }
                      %314 = affine.load %311[%c0_94] {from = "sum_rv"} : memref<1xi16>
                      %315 = arith.addi %313, %314 : i16
                      affine.store %315, %311[%c0_94] {to = "sum_rv"} : memref<1xi16>
                    } {loop_name = "layer1_2_conv1_out_lsb_rx", reduction}
                  } {loop_name = "layer1_2_conv1_out_lsb_ry", reduction}
                } {loop_name = "layer1_2_conv1_out_lsb_rc", reduction}
                %c0_95 = arith.constant 0 : index
                %312 = affine.load %311[%c0_95] {from = "sum_rv"} : memref<1xi16>
                affine.store %312, %77[%arg168, %arg169, %arg170 - 2, %arg171 - 2] : memref<1x16x32x32xi16>
              }
            }
          } {loop_name = "xx", pipeline_ii = 1 : i32}
        } {loop_name = "yy"}
      } {loop_name = "ff"}
    } {loop_name = "nn", op_name = "layer1_2_conv1_out_lsb"}
    %80 = memref.alloc() {name = "layer1_2_conv1_pgconv"} : memref<1x16x32x32xf32, #map0>
    %81 = memref.alloc() {name = "layer1_2_bn1"} : memref<1x16x32x32xf32, #map0>
    %82 = memref.alloc() {name = "layer1_2_rprelu1"} : memref<1x16x32x32xf32, #map0>
    %83 = memref.alloc() {name = "layer1_2_residual1"} : memref<1x16x32x32xf32, #map0>
    %84 = memref.alloc() {name = "layer1_2_bn2"} : memref<1x16x32x32xf32, #map0>
    affine.for %arg168 = 0 to 1 {
      affine.for %arg169 = 0 to 16 {
        affine.for %arg170 = 0 to 32 {
          affine.for %arg171 = 0 to 32 {
            %305 = affine.load %73[%c0_68, %arg169, %arg170, %arg171] {from = "layer1_2_conv1_out_msb"} : memref<1x16x32x32xi16>
            %306 = arith.sitofp %305 : i16 to f32
            %cst = arith.constant 2.000000e+00 : f32
            %307 = arith.mulf %306, %cst : f32
            %cst_90 = arith.constant 3.000000e+00 : f32
            %308 = arith.divf %307, %cst_90 : f32
            %309 = affine.load %arg47[%arg169] {from = "layer1_2_conv1_threshold"} : memref<16xf32, #map5>
            %310 = arith.cmpf ogt, %308, %309 : f32
            %311 = scf.if %310 -> (f32) {
              %329 = affine.load %77[%c0_68, %arg169, %arg170, %arg171] {from = "layer1_2_conv1_out_lsb"} : memref<1x16x32x32xi16>
              %330 = arith.sitofp %329 : i16 to f32
              %cst_91 = arith.constant 3.000000e+00 : f32
              %331 = arith.divf %330, %cst_91 : f32
              %332 = arith.addf %331, %308 : f32
              scf.yield %332 : f32
            } else {
              scf.yield %308 : f32
            }
            %312 = affine.load %arg48[%arg169] {from = "layer1_2_bn1_weight"} : memref<16xf32, #map5>
            %313 = arith.mulf %311, %312 : f32
            %314 = affine.load %arg49[%arg169] {from = "layer1_2_bn1_bias"} : memref<16xf32, #map5>
            %315 = arith.addf %313, %314 : f32
            %316 = affine.load %arg40[%arg169] {from = "layer1_2_rprelu1_shift_x_bias"} : memref<16xf32, #map5>
            %317 = arith.addf %315, %316 : f32
            %c0_i32 = arith.constant 0 : i32
            %318 = arith.sitofp %c0_i32 : i32 to f32
            %319 = arith.cmpf ogt, %317, %318 : f32
            %320 = scf.if %319 -> (f32) {
              scf.yield %317 : f32
            } else {
              %329 = affine.load %arg42[%arg169] {from = "layer1_2_rprelu1_prelu_weight"} : memref<16xf32, #map5>
              %330 = arith.mulf %329, %317 : f32
              scf.yield %330 : f32
            }
            %321 = affine.load %arg41[%arg169] {from = "layer1_2_rprelu1_shift_y_bias"} : memref<16xf32, #map5>
            %322 = arith.addf %320, %321 : f32
            %323 = affine.load %68[%c0_65, %arg169, %arg170, %arg171] {from = "layer1_1_bn4"} : memref<1x16x32x32xf32, #map0>
            %324 = arith.addf %322, %323 : f32
            %325 = affine.load %arg54[%arg169] {from = "layer1_2_bn3_weight"} : memref<16xf32, #map5>
            %326 = arith.mulf %324, %325 : f32
            %327 = affine.load %arg55[%arg169] {from = "layer1_2_bn3_bias"} : memref<16xf32, #map5>
            %328 = arith.addf %326, %327 : f32
            affine.store %328, %84[%arg168, %arg169, %arg170, %arg171] {to = "layer1_2_bn2"} : memref<1x16x32x32xf32, #map0>
          } {loop_name = "ww"}
        } {loop_name = "hh", pipeline_ii = 1 : i32}
      } {loop_name = "cc"}
    } {loop_name = "nn", op_name = "layer1_2_bn2"}
    %85 = memref.alloc() {name = "layer1_2_rsign2", unsigned} : memref<1x16x32x32xi2, #map0>
    %86 = memref.alloc() {name = "layer1_2_conv2_msb_truncate", unsigned} : memref<1x1x32x32xi16, #map0>
    %87 = memref.alloc() {name = "layer1_2_conv2_lsb_truncate", unsigned} : memref<1x1x32x32xi16, #map0>
    affine.for %arg168 = 0 to 1 {
      affine.for %arg169 = 0 to 1 {
        affine.for %arg170 = 0 to 32 {
          affine.for %arg171 = #map9(%arg169) to #map10(%arg169) {
            affine.for %arg172 = 0 to 32 {
              %305 = affine.load %84[%c0_64, %arg171, %arg170, %arg172] {from = "layer1_2_bn2"} : memref<1x16x32x32xf32, #map0>
              %cst = arith.constant 0.666666686 : f32
              %306 = arith.cmpf ogt, %305, %cst : f32
              %307 = scf.if %306 -> (i32) {
                %c3_i32 = arith.constant 3 : i32
                scf.yield %c3_i32 : i32
              } else {
                %c0_i32 = arith.constant 0 : i32
                %309 = arith.sitofp %c0_i32 : i32 to f32
                %310 = arith.cmpf oge, %305, %309 : f32
                %cst_90 = arith.constant 0.666666686 : f32
                %311 = arith.cmpf ole, %305, %cst_90 : f32
                %312 = arith.andi %310, %311 : i1
                %313 = scf.if %312 -> (i32) {
                  %c2_i32 = arith.constant 2 : i32
                  scf.yield %c2_i32 : i32
                } else {
                  %c0_i32_91 = arith.constant 0 : i32
                  %314 = arith.sitofp %c0_i32_91 : i32 to f32
                  %315 = arith.cmpf olt, %305, %314 : f32
                  %cst_92 = arith.constant -0.666666686 : f32
                  %316 = arith.cmpf oge, %305, %cst_92 : f32
                  %317 = arith.andi %315, %316 : i1
                  %318 = scf.if %317 -> (i32) {
                    %c1_i32 = arith.constant 1 : i32
                    scf.yield %c1_i32 : i32
                  } else {
                    %c0_i32_93 = arith.constant 0 : i32
                    scf.yield %c0_i32_93 : i32
                  }
                  scf.yield %318 : i32
                }
                scf.yield %313 : i32
              }
              %308 = arith.trunci %307 : i32 to i2
              affine.store %308, %85[%c0_64, %arg171, %arg170, %arg172] {to = "layer1_2_rsign2"} : memref<1x16x32x32xi2, #map0>
            } {loop_name = "ww"}
          } {loop_name = "cc"}
          affine.for %arg171 = 0 to 32 {
            %305 = memref.alloc() {name = "layer1_2_conv2_msb_truncate_pack", unsigned} : memref<1xi16>
            %c0_90 = arith.constant 0 : index
            %c0_i16 = arith.constant {unsigned} 0 : i16
            affine.store %c0_i16, %305[0] {to = "layer1_2_conv2_msb_truncate_pack", unsigned} : memref<1xi16>
            %306 = hcl.create_op_handle "stage_10"
            %307 = hcl.create_loop_handle %306, "loop_10"
            affine.for %arg172 = 0 to 16 {
              %309 = affine.load %85[%arg168, %arg169 * 16 + %arg172, %arg170, %arg171] {from = "layer1_2_rsign2", unsigned} : memref<1x16x32x32xi2, #map0>
              %c1 = arith.constant 1 : index
              %310 = hcl.get_bit(%309 : i2, %c1) -> i1
              %311 = affine.load %305[0] {from = "layer1_2_conv2_msb_truncate_pack", unsigned} : memref<1xi16>
              hcl.set_bit(%311 : i16, %arg172, %310 : i1)
              affine.store %311, %305[0] {to = "layer1_2_conv2_msb_truncate_pack", unsigned} : memref<1xi16>
            } {loop_name = "loop_10", op_name = "stage_10"}
            %308 = affine.load %305[0] {from = "layer1_2_conv2_msb_truncate_pack", unsigned} : memref<1xi16>
            affine.store %308, %86[%arg168, %arg169, %arg170, %arg171] {to = "layer1_2_conv2_msb_truncate"} : memref<1x1x32x32xi16, #map0>
          } {loop_name = "w"}
          affine.for %arg171 = 0 to 32 {
            %305 = memref.alloc() {name = "layer1_2_conv2_lsb_truncate_pack", unsigned} : memref<1xi16>
            %c0_90 = arith.constant 0 : index
            %c0_i16 = arith.constant {unsigned} 0 : i16
            affine.store %c0_i16, %305[0] {to = "layer1_2_conv2_lsb_truncate_pack", unsigned} : memref<1xi16>
            %306 = hcl.create_op_handle "stage_11"
            %307 = hcl.create_loop_handle %306, "loop_11"
            affine.for %arg172 = 0 to 16 {
              %309 = affine.load %85[%arg168, %arg169 * 16 + %arg172, %arg170, %arg171] {from = "layer1_2_rsign2", unsigned} : memref<1x16x32x32xi2, #map0>
              %c0_91 = arith.constant 0 : index
              %310 = hcl.get_bit(%309 : i2, %c0_91) -> i1
              %311 = affine.load %305[0] {from = "layer1_2_conv2_lsb_truncate_pack", unsigned} : memref<1xi16>
              hcl.set_bit(%311 : i16, %arg172, %310 : i1)
              affine.store %311, %305[0] {to = "layer1_2_conv2_lsb_truncate_pack", unsigned} : memref<1xi16>
            } {loop_name = "loop_11", op_name = "stage_11"}
            %308 = affine.load %305[0] {from = "layer1_2_conv2_lsb_truncate_pack", unsigned} : memref<1xi16>
            affine.store %308, %87[%arg168, %arg169, %arg170, %arg171] {to = "layer1_2_conv2_lsb_truncate"} : memref<1x1x32x32xi16, #map0>
          } {loop_name = "w"}
        } {loop_name = "h", pipeline_ii = 1 : i32}
      } {loop_name = "c"}
    } {loop_name = "i", op_name = "layer1_2_conv2_lsb_truncate"}
    %88 = memref.alloc() {name = "layer1_2_conv2_out_msb_pad", unsigned} : memref<1x1x34x34xi16, #map2>
    %89 = memref.alloc() {name = "layer1_2_conv2_out_msb"} : memref<1x16x32x32xi16>
    %90 = memref.alloc() {name = "layer1_2_conv2_out_msb_reuse_2"} : memref<3x34xi16, #map3>
    %91 = memref.alloc() {name = "layer1_2_conv2_out_msb_reuse_3"} : memref<3x3xi16, #map4>
    %92 = memref.alloc() {name = "layer1_2_conv2_out_lsb_pad", unsigned} : memref<1x1x34x34xi16, #map2>
    affine.for %arg168 = 0 to 1 {
      affine.for %arg169 = 0 to 1 {
        affine.for %arg170 = 0 to 34 {
          affine.for %arg171 = 0 to 34 {
            %305 = affine.if #set0(%arg171, %arg170) -> i16 {
              %307 = affine.load %86[%arg168, %arg169, %arg170 - 1, %arg171 - 1] {from = "layer1_2_conv2_msb_truncate", unsigned} : memref<1x1x32x32xi16, #map0>
              affine.yield %307 : i16
            } else {
              %c0_i32 = arith.constant 0 : i32
              %307 = arith.trunci %c0_i32 {unsigned} : i32 to i16
              affine.yield %307 : i16
            } {unsigned}
            affine.store %305, %88[%arg168, %arg169, %arg170, %arg171] {to = "layer1_2_conv2_out_msb_pad"} : memref<1x1x34x34xi16, #map2>
            %306 = affine.if #set0(%arg171, %arg170) -> i16 {
              %307 = affine.load %87[%arg168, %arg169, %arg170 - 1, %arg171 - 1] {from = "layer1_2_conv2_lsb_truncate", unsigned} : memref<1x1x32x32xi16, #map0>
              affine.yield %307 : i16
            } else {
              %c0_i32 = arith.constant 0 : i32
              %307 = arith.trunci %c0_i32 {unsigned} : i32 to i16
              affine.yield %307 : i16
            } {unsigned}
            affine.store %306, %92[%arg168, %arg169, %arg170, %arg171] {to = "layer1_2_conv2_out_lsb_pad"} : memref<1x1x34x34xi16, #map2>
          } {loop_name = "ww", pipeline_ii = 1 : i32}
        } {loop_name = "hh"}
      } {loop_name = "cc"}
    } {loop_name = "ii", op_name = "layer1_2_conv2_out_lsb_pad"}
    %93 = memref.alloc() {name = "layer1_2_conv2_out_lsb"} : memref<1x16x32x32xi16>
    %94 = memref.alloc() {name = "layer1_2_conv2_out_lsb_reuse_2"} : memref<3x34xi16, #map3>
    %95 = memref.alloc() {name = "layer1_2_conv2_out_lsb_reuse_3"} : memref<3x3xi16, #map4>
    affine.for %arg168 = 0 to 1 {
      affine.for %arg169 = 0 to 16 {
        affine.for %arg170 = 0 to 34 {
          affine.for %arg171 = 0 to 34 {
            %305 = affine.load %90[1, %arg171] : memref<3x34xi16, #map3>
            affine.store %305, %90[0, %arg171] : memref<3x34xi16, #map3>
            %306 = affine.load %90[2, %arg171] : memref<3x34xi16, #map3>
            affine.store %306, %90[1, %arg171] : memref<3x34xi16, #map3>
            %c0_90 = arith.constant 0 : index
            %c0_91 = arith.constant 0 : index
            %307 = affine.load %88[%c0_90, %c0_91, %arg170, %arg171] : memref<1x1x34x34xi16, #map2>
            affine.store %307, %90[2, %arg171] : memref<3x34xi16, #map3>
            affine.if #set1(%arg170) {
              affine.for %arg172 = 0 to 3 {
…
    %270 = memref.alloc() {name = "layer3_2_conv1_msb_truncate", unsigned} : memref<1x4x8x8xi16, #map0>
    %271 = memref.alloc() {name = "layer3_2_conv1_lsb_truncate", unsigned} : memref<1x4x8x8xi16, #map0>
    affine.for %arg168 = 0 to 1 {
      affine.for %arg169 = 0 to 4 {
        affine.for %arg170 = 0 to 8 {
          affine.for %arg171 = #map9(%arg169) to #map10(%arg169) {
            affine.for %arg172 = 0 to 8 {
              %305 = affine.load %268[%c0_9, %arg171, %arg170, %arg172] {from = "layer3_1_bn4"} : memref<1x64x8x8xf32, #map0>
              %cst = arith.constant 0.666666686 : f32
              %306 = arith.cmpf ogt, %305, %cst : f32
              %307 = scf.if %306 -> (i32) {
                %c3_i32 = arith.constant 3 : i32
                scf.yield %c3_i32 : i32
              } else {
                %c0_i32 = arith.constant 0 : i32
                %309 = arith.sitofp %c0_i32 : i32 to f32
                %310 = arith.cmpf oge, %305, %309 : f32
                %cst_90 = arith.constant 0.666666686 : f32
                %311 = arith.cmpf ole, %305, %cst_90 : f32
                %312 = arith.andi %310, %311 : i1
                %313 = scf.if %312 -> (i32) {
                  %c2_i32 = arith.constant 2 : i32
                  scf.yield %c2_i32 : i32
                } else {
                  %c0_i32_91 = arith.constant 0 : i32
                  %314 = arith.sitofp %c0_i32_91 : i32 to f32
                  %315 = arith.cmpf olt, %305, %314 : f32
                  %cst_92 = arith.constant -0.666666686 : f32
                  %316 = arith.cmpf oge, %305, %cst_92 : f32
                  %317 = arith.andi %315, %316 : i1
                  %318 = scf.if %317 -> (i32) {
                    %c1_i32 = arith.constant 1 : i32
                    scf.yield %c1_i32 : i32
                  } else {
                    %c0_i32_93 = arith.constant 0 : i32
                    scf.yield %c0_i32_93 : i32
                  }
                  scf.yield %318 : i32
                }
                scf.yield %313 : i32
              }
              %308 = arith.trunci %307 : i32 to i2
              affine.store %308, %269[%c0_9, %arg171, %arg170, %arg172] {to = "layer3_2_rsign1"} : memref<1x64x8x8xi2, #map0>
            } {loop_name = "ww"}
          } {loop_name = "cc"}
          affine.for %arg171 = 0 to 8 {
            %305 = memref.alloc() {name = "layer3_2_conv1_msb_truncate_pack", unsigned} : memref<1xi16>
            %c0_90 = arith.constant 0 : index
            %c0_i16 = arith.constant {unsigned} 0 : i16
            affine.store %c0_i16, %305[0] {to = "layer3_2_conv1_msb_truncate_pack", unsigned} : memref<1xi16>
            %306 = hcl.create_op_handle "stage_32"
            %307 = hcl.create_loop_handle %306, "loop_32"
            affine.for %arg172 = 0 to 16 {
              %309 = affine.load %269[%arg168, %arg169 * 16 + %arg172, %arg170, %arg171] {from = "layer3_2_rsign1", unsigned} : memref<1x64x8x8xi2, #map0>
              %c1 = arith.constant 1 : index
              %310 = hcl.get_bit(%309 : i2, %c1) -> i1
              %311 = affine.load %305[0] {from = "layer3_2_conv1_msb_truncate_pack", unsigned} : memref<1xi16>
              hcl.set_bit(%311 : i16, %arg172, %310 : i1)
              affine.store %311, %305[0] {to = "layer3_2_conv1_msb_truncate_pack", unsigned} : memref<1xi16>
            } {loop_name = "loop_32", op_name = "stage_32"}
            %308 = affine.load %305[0] {from = "layer3_2_conv1_msb_truncate_pack", unsigned} : memref<1xi16>
            affine.store %308, %270[%arg168, %arg169, %arg170, %arg171] {to = "layer3_2_conv1_msb_truncate"} : memref<1x4x8x8xi16, #map0>
          } {loop_name = "w"}
          affine.for %arg171 = 0 to 8 {
            %305 = memref.alloc() {name = "layer3_2_conv1_lsb_truncate_pack", unsigned} : memref<1xi16>
            %c0_90 = arith.constant 0 : index
            %c0_i16 = arith.constant {unsigned} 0 : i16
            affine.store %c0_i16, %305[0] {to = "layer3_2_conv1_lsb_truncate_pack", unsigned} : memref<1xi16>
            %306 = hcl.create_op_handle "stage_33"
            %307 = hcl.create_loop_handle %306, "loop_33"
            affine.for %arg172 = 0 to 16 {
              %309 = affine.load %269[%arg168, %arg169 * 16 + %arg172, %arg170, %arg171] {from = "layer3_2_rsign1", unsigned} : memref<1x64x8x8xi2, #map0>
              %c0_91 = arith.constant 0 : index
              %310 = hcl.get_bit(%309 : i2, %c0_91) -> i1
              %311 = affine.load %305[0] {from = "layer3_2_conv1_lsb_truncate_pack", unsigned} : memref<1xi16>
              hcl.set_bit(%311 : i16, %arg172, %310 : i1)
              affine.store %311, %305[0] {to = "layer3_2_conv1_lsb_truncate_pack", unsigned} : memref<1xi16>
            } {loop_name = "loop_33", op_name = "stage_33"}
            %308 = affine.load %305[0] {from = "layer3_2_conv1_lsb_truncate_pack", unsigned} : memref<1xi16>
            affine.store %308, %271[%arg168, %arg169, %arg170, %arg171] {to = "layer3_2_conv1_lsb_truncate"} : memref<1x4x8x8xi16, #map0>
          } {loop_name = "w"}
        } {loop_name = "h", pipeline_ii = 1 : i32}
      } {loop_name = "c"}
    } {loop_name = "i", op_name = "layer3_2_conv1_lsb_truncate"}
    %272 = memref.alloc() {name = "layer3_2_conv1_out_msb_pad", unsigned} : memref<1x4x10x10xi16, #map2>
    %273 = memref.alloc() {name = "layer3_2_conv1_out_msb"} : memref<1x64x8x8xi16>
    %274 = memref.alloc() {name = "layer3_2_conv1_out_msb_reuse_2"} : memref<4x3x10xi16, #map7>
    %275 = memref.alloc() {name = "layer3_2_conv1_out_msb_reuse_3"} : memref<4x3x3xi16, #map8>
    %276 = memref.alloc() {name = "layer3_2_conv1_out_lsb_pad", unsigned} : memref<1x4x10x10xi16, #map2>
    affine.for %arg168 = 0 to 1 {
      affine.for %arg169 = 0 to 4 {
        affine.for %arg170 = 0 to 10 {
          affine.for %arg171 = 0 to 10 {
            %305 = affine.if #set6(%arg171, %arg170) -> i16 {
              %307 = affine.load %270[%arg168, %arg169, %arg170 - 1, %arg171 - 1] {from = "layer3_2_conv1_msb_truncate", unsigned} : memref<1x4x8x8xi16, #map0>
              affine.yield %307 : i16
            } else {
              %c0_i32 = arith.constant 0 : i32
              %307 = arith.trunci %c0_i32 {unsigned} : i32 to i16
              affine.yield %307 : i16
            } {unsigned}
            affine.store %305, %272[%arg168, %arg169, %arg170, %arg171] {to = "layer3_2_conv1_out_msb_pad"} : memref<1x4x10x10xi16, #map2>
            %306 = affine.if #set6(%arg171, %arg170) -> i16 {
              %307 = affine.load %271[%arg168, %arg169, %arg170 - 1, %arg171 - 1] {from = "layer3_2_conv1_lsb_truncate", unsigned} : memref<1x4x8x8xi16, #map0>
              affine.yield %307 : i16
            } else {
              %c0_i32 = arith.constant 0 : i32
              %307 = arith.trunci %c0_i32 {unsigned} : i32 to i16
              affine.yield %307 : i16
            } {unsigned}
            affine.store %306, %276[%arg168, %arg169, %arg170, %arg171] {to = "layer3_2_conv1_out_lsb_pad"} : memref<1x4x10x10xi16, #map2>
          } {loop_name = "ww", pipeline_ii = 1 : i32}
        } {loop_name = "hh"}
      } {loop_name = "cc"}
    } {loop_name = "ii", op_name = "layer3_2_conv1_out_lsb_pad"}
    %277 = memref.alloc() {name = "layer3_2_conv1_out_lsb"} : memref<1x64x8x8xi16>
    %278 = memref.alloc() {name = "layer3_2_conv1_out_lsb_reuse_2"} : memref<4x3x10xi16, #map7>
    %279 = memref.alloc() {name = "layer3_2_conv1_out_lsb_reuse_3"} : memref<4x3x3xi16, #map8>
    affine.for %arg168 = 0 to 1 {
      affine.for %arg169 = 0 to 64 {
        affine.for %arg170 = 0 to 10 {
          affine.for %arg171 = 0 to 10 {
            affine.for %arg172 = 0 to 4 {
              %305 = affine.load %274[%arg172, 1, %arg171] : memref<4x3x10xi16, #map7>
              affine.store %305, %274[%arg172, 0, %arg171] : memref<4x3x10xi16, #map7>
              %306 = affine.load %274[%arg172, 2, %arg171] : memref<4x3x10xi16, #map7>
              affine.store %306, %274[%arg172, 1, %arg171] : memref<4x3x10xi16, #map7>
              %307 = affine.load %272[%arg168, %arg172, %arg170, %arg171] : memref<1x4x10x10xi16, #map2>
              affine.store %307, %274[%arg172, 2, %arg171] : memref<4x3x10xi16, #map7>
            } {spatial}
            affine.if #set1(%arg170) {
              affine.for %arg172 = 0 to 4 {
                affine.for %arg173 = 0 to 3 {
                  %305 = affine.load %275[%arg172, %arg173, 1] : memref<4x3x3xi16, #map8>
                  affine.store %305, %275[%arg172, %arg173, 0] : memref<4x3x3xi16, #map8>
                  %306 = affine.load %275[%arg172, %arg173, 2] : memref<4x3x3xi16, #map8>
                  affine.store %306, %275[%arg172, %arg173, 1] : memref<4x3x3xi16, #map8>
                  %307 = affine.load %274[%arg172, %arg173, %arg171] : memref<4x3x10xi16, #map7>
                  affine.store %307, %275[%arg172, %arg173, 2] : memref<4x3x3xi16, #map8>
                } {spatial}
              } {spatial}
              affine.if #set1(%arg171) {
                %305 = memref.alloc() {name = "sum_rv"} : memref<1xi16>
                %c0_90 = arith.constant 0 : index
                %c0_i16 = arith.constant 0 : i16
                affine.store %c0_i16, %305[%c0_90] {to = "sum_rv"} : memref<1xi16>
                affine.for %arg172 = 0 to 4 {
                  affine.for %arg173 = 0 to 3 {
                    affine.for %arg174 = 0 to 3 {
                      %307 = affine.if #set7(%arg171, %arg174, %arg170, %arg173) -> i16 {
                        %c16_i32 = arith.constant 16 : i32
                        %310 = arith.extsi %c16_i32 : i32 to i128
                        %311 = affine.load %275[%arg172, %arg173, %arg174] : memref<4x3x3xi16, #map8>
                        %312 = affine.load %arg154[%arg169, %arg172, %arg173, %arg174] {from = "layer3_2_conv1_weight", unsigned} : memref<64x4x3x3xi16, #map1>
                        %313 = arith.xori %311, %312 {unsigned} : i16
                        %c1_i32 = arith.constant 1 : i32
                        %314 = arith.trunci %c1_i32 {unsigned} : i32 to i16
                        %315 = arith.shrui %313, %314 {unsigned} : i16
                        %c6148914691236517205_i64 = arith.constant 6148914691236517205 : i64
                        %316 = arith.trunci %c6148914691236517205_i64 {unsigned} : i64 to i16
                        %317 = arith.andi %315, %316 {unsigned} : i16
                        %318 = arith.subi %313, %317 {unsigned} : i16
                        %c3689348814741910323_i64 = arith.constant 3689348814741910323 : i64
                        %319 = arith.trunci %c3689348814741910323_i64 {unsigned} : i64 to i16
                        %320 = arith.andi %318, %319 {unsigned} : i16
                        %c2_i32 = arith.constant 2 : i32
                        %321 = arith.trunci %c2_i32 {unsigned} : i32 to i16
                        %322 = arith.shrui %318, %321 {unsigned} : i16
                        %c3689348814741910323_i64_92 = arith.constant 3689348814741910323 : i64
                        %323 = arith.trunci %c3689348814741910323_i64_92 {unsigned} : i64 to i16
                        %324 = arith.andi %322, %323 {unsigned} : i16
                        %325 = arith.addi %320, %324 {unsigned} : i16
                        %c4_i32 = arith.constant 4 : i32
                        %326 = arith.trunci %c4_i32 {unsigned} : i32 to i16
                        %327 = arith.shrui %325, %326 {unsigned} : i16
                        %328 = arith.addi %325, %327 {unsigned} : i16
                        %c1085102592571150095_i64 = arith.constant 1085102592571150095 : i64
                        %329 = arith.trunci %c1085102592571150095_i64 {unsigned} : i64 to i16
                        %330 = arith.andi %328, %329 {unsigned} : i16
                        %331 = arith.extui %330 : i16 to i64
                        %c72340172838076673_i64 = arith.constant 72340172838076673 : i64
                        %332 = arith.muli %331, %c72340172838076673_i64 : i64
                        %c56_i32 = arith.constant 56 : i32
                        %333 = arith.extsi %c56_i32 : i32 to i64
                        %334 = arith.shrui %332, %333 : i64
                        %335 = arith.extsi %334 : i64 to i128
                        %c1_i32_93 = arith.constant 1 : i32
                        %336 = arith.extsi %c1_i32_93 : i32 to i64
                        %337 = arith.extsi %336 : i64 to i128
                        %338 = arith.shli %335, %337 : i128
                        %339 = arith.subi %310, %338 : i128
                        %340 = arith.trunci %339 : i128 to i16
                        affine.yield %340 : i16
                      } else {
                        %c0_i32 = arith.constant 0 : i32
                        %310 = arith.trunci %c0_i32 : i32 to i16
                        affine.yield %310 : i16
                      }
                      %308 = affine.load %305[%c0_90] {from = "sum_rv"} : memref<1xi16>
                      %309 = arith.addi %307, %308 : i16
                      affine.store %309, %305[%c0_90] {to = "sum_rv"} : memref<1xi16>
                    } {loop_name = "layer3_2_conv1_out_msb_rx", reduction}
                  } {loop_name = "layer3_2_conv1_out_msb_ry", reduction}
                } {loop_name = "layer3_2_conv1_out_msb_rc", reduction}
                %c0_91 = arith.constant 0 : index
                %306 = affine.load %305[%c0_91] {from = "sum_rv"} : memref<1xi16>
                affine.store %306, %273[%arg168, %arg169, %arg170 - 2, %arg171 - 2] : memref<1x64x8x8xi16>
              }
            }
            affine.for %arg172 = 0 to 4 {
              %305 = affine.load %278[%arg172, 1, %arg171] : memref<4x3x10xi16, #map7>
              affine.store %305, %278[%arg172, 0, %arg171] : memref<4x3x10xi16, #map7>
              %306 = affine.load %278[%arg172, 2, %arg171] : memref<4x3x10xi16, #map7>
              affine.store %306, %278[%arg172, 1, %arg171] : memref<4x3x10xi16, #map7>
              %307 = affine.load %276[%arg168, %arg172, %arg170, %arg171] : memref<1x4x10x10xi16, #map2>
              affine.store %307, %278[%arg172, 2, %arg171] : memref<4x3x10xi16, #map7>
            } {spatial}
            affine.if #set1(%arg170) {
              affine.for %arg172 = 0 to 4 {
                affine.for %arg173 = 0 to 3 {
                  %305 = affine.load %279[%arg172, %arg173, 1] : memref<4x3x3xi16, #map8>
                  affine.store %305, %279[%arg172, %arg173, 0] : memref<4x3x3xi16, #map8>
                  %306 = affine.load %279[%arg172, %arg173, 2] : memref<4x3x3xi16, #map8>
                  affine.store %306, %279[%arg172, %arg173, 1] : memref<4x3x3xi16, #map8>
                  %307 = affine.load %278[%arg172, %arg173, %arg171] : memref<4x3x10xi16, #map7>
                  affine.store %307, %279[%arg172, %arg173, 2] : memref<4x3x3xi16, #map8>
                } {spatial}
              } {spatial}
              affine.if #set1(%arg171) {
                %305 = memref.alloc() {name = "sum_rv"} : memref<1xi16>
                %c0_90 = arith.constant 0 : index
                %c0_i16 = arith.constant 0 : i16
                affine.store %c0_i16, %305[%c0_90] {to = "sum_rv"} : memref<1xi16>
                affine.for %arg172 = 0 to 4 {
                  affine.for %arg173 = 0 to 3 {
                    affine.for %arg174 = 0 to 3 {
                      %307 = affine.if #set7(%arg171, %arg174, %arg170, %arg173) -> i16 {
                        %c16_i32 = arith.constant 16 : i32
                        %310 = arith.extsi %c16_i32 : i32 to i128
                        %311 = affine.load %279[%arg172, %arg173, %arg174] : memref<4x3x3xi16, #map8>
                        %312 = affine.load %arg154[%arg169, %arg172, %arg173, %arg174] {from = "layer3_2_conv1_weight", unsigned} : memref<64x4x3x3xi16, #map1>
                        %313 = arith.xori %311, %312 {unsigned} : i16
                        %c1_i32 = arith.constant 1 : i32
                        %314 = arith.trunci %c1_i32 {unsigned} : i32 to i16
                        %315 = arith.shrui %313, %314 {unsigned} : i16
                        %c6148914691236517205_i64 = arith.constant 6148914691236517205 : i64
                        %316 = arith.trunci %c6148914691236517205_i64 {unsigned} : i64 to i16
                        %317 = arith.andi %315, %316 {unsigned} : i16
                        %318 = arith.subi %313, %317 {unsigned} : i16
                        %c3689348814741910323_i64 = arith.constant 3689348814741910323 : i64
                        %319 = arith.trunci %c3689348814741910323_i64 {unsigned} : i64 to i16
                        %320 = arith.andi %318, %319 {unsigned} : i16
                        %c2_i32 = arith.constant 2 : i32
                        %321 = arith.trunci %c2_i32 {unsigned} : i32 to i16
                        %322 = arith.shrui %318, %321 {unsigned} : i16
                        %c3689348814741910323_i64_92 = arith.constant 3689348814741910323 : i64
                        %323 = arith.trunci %c3689348814741910323_i64_92 {unsigned} : i64 to i16
                        %324 = arith.andi %322, %323 {unsigned} : i16
                        %325 = arith.addi %320, %324 {unsigned} : i16
                        %c4_i32 = arith.constant 4 : i32
                        %326 = arith.trunci %c4_i32 {unsigned} : i32 to i16
                        %327 = arith.shrui %325, %326 {unsigned} : i16
                        %328 = arith.addi %325, %327 {unsigned} : i16
                        %c1085102592571150095_i64 = arith.constant 1085102592571150095 : i64
                        %329 = arith.trunci %c1085102592571150095_i64 {unsigned} : i64 to i16
                        %330 = arith.andi %328, %329 {unsigned} : i16
                        %331 = arith.extui %330 : i16 to i64
                        %c72340172838076673_i64 = arith.constant 72340172838076673 : i64
                        %332 = arith.muli %331, %c72340172838076673_i64 : i64
                        %c56_i32 = arith.constant 56 : i32
                        %333 = arith.extsi %c56_i32 : i32 to i64
                        %334 = arith.shrui %332, %333 : i64
                        %335 = arith.extsi %334 : i64 to i128
                        %c1_i32_93 = arith.constant 1 : i32
                        %336 = arith.extsi %c1_i32_93 : i32 to i64
                        %337 = arith.extsi %336 : i64 to i128
                        %338 = arith.shli %335, %337 : i128
                        %339 = arith.subi %310, %338 : i128
                        %340 = arith.trunci %339 : i128 to i16
                        affine.yield %340 : i16
                      } else {
                        %c0_i32 = arith.constant 0 : i32
                        %310 = arith.trunci %c0_i32 : i32 to i16
                        affine.yield %310 : i16
                      }
                      %308 = affine.load %305[%c0_90] {from = "sum_rv"} : memref<1xi16>
                      %309 = arith.addi %307, %308 : i16
                      affine.store %309, %305[%c0_90] {to = "sum_rv"} : memref<1xi16>
                    } {loop_name = "layer3_2_conv1_out_lsb_rx", reduction}
                  } {loop_name = "layer3_2_conv1_out_lsb_ry", reduction}
                } {loop_name = "layer3_2_conv1_out_lsb_rc", reduction}
                %c0_91 = arith.constant 0 : index
                %306 = affine.load %305[%c0_91] {from = "sum_rv"} : memref<1xi16>
                affine.store %306, %277[%arg168, %arg169, %arg170 - 2, %arg171 - 2] : memref<1x64x8x8xi16>
              }
            }
          } {loop_name = "xx", pipeline_ii = 1 : i32}
        } {loop_name = "yy"}
      } {loop_name = "ff"}
    } {loop_name = "nn", op_name = "layer3_2_conv1_out_lsb"}
    %280 = memref.alloc() {name = "layer3_2_conv1_pgconv"} : memref<1x64x8x8xf32, #map0>
    %281 = memref.alloc() {name = "layer3_2_bn1"} : memref<1x64x8x8xf32, #map0>
    %282 = memref.alloc() {name = "layer3_2_rprelu1"} : memref<1x64x8x8xf32, #map0>
    %283 = memref.alloc() {name = "layer3_2_residual1"} : memref<1x64x8x8xf32, #map0>
    %284 = memref.alloc() {name = "layer3_2_bn2"} : memref<1x64x8x8xf32, #map0>
    affine.for %arg168 = 0 to 1 {
      affine.for %arg169 = 0 to 64 {
        affine.for %arg170 = 0 to 8 {
          affine.for %arg171 = 0 to 8 {
            %305 = affine.load %273[%c0_8, %arg169, %arg170, %arg171] {from = "layer3_2_conv1_out_msb"} : memref<1x64x8x8xi16>
            %306 = arith.sitofp %305 : i16 to f32
            %cst = arith.constant 2.000000e+00 : f32
            %307 = arith.mulf %306, %cst : f32
            %cst_90 = arith.constant 3.000000e+00 : f32
            %308 = arith.divf %307, %cst_90 : f32
            %309 = affine.load %arg155[%arg169] {from = "layer3_2_conv1_threshold"} : memref<64xf32, #map5>
            %310 = arith.cmpf ogt, %308, %309 : f32
            %311 = scf.if %310 -> (f32) {
              %329 = affine.load %277[%c0_8, %arg169, %arg170, %arg171] {from = "layer3_2_conv1_out_lsb"} : memref<1x64x8x8xi16>
              %330 = arith.sitofp %329 : i16 to f32
              %cst_91 = arith.constant 3.000000e+00 : f32
              %331 = arith.divf %330, %cst_91 : f32
              %332 = arith.addf %331, %308 : f32
              scf.yield %332 : f32
            } else {
              scf.yield %308 : f32
            }
            %312 = affine.load %arg156[%arg169] {from = "layer3_2_bn1_weight"} : memref<64xf32, #map5>
            %313 = arith.mulf %311, %312 : f32
            %314 = affine.load %arg157[%arg169] {from = "layer3_2_bn1_bias"} : memref<64xf32, #map5>
            %315 = arith.addf %313, %314 : f32
            %316 = affine.load %arg148[%arg169] {from = "layer3_2_rprelu1_shift_x_bias"} : memref<64xf32, #map5>
            %317 = arith.addf %315, %316 : f32
            %c0_i32 = arith.constant 0 : i32
            %318 = arith.sitofp %c0_i32 : i32 to f32
            %319 = arith.cmpf ogt, %317, %318 : f32
            %320 = scf.if %319 -> (f32) {
              scf.yield %317 : f32
            } else {
              %329 = affine.load %arg150[%arg169] {from = "layer3_2_rprelu1_prelu_weight"} : memref<64xf32, #map5>
              %330 = arith.mulf %329, %317 : f32
              scf.yield %330 : f32
            }
            %321 = affine.load %arg149[%arg169] {from = "layer3_2_rprelu1_shift_y_bias"} : memref<64xf32, #map5>
            %322 = arith.addf %320, %321 : f32
            %323 = affine.load %268[%c0_5, %arg169, %arg170, %arg171] {from = "layer3_1_bn4"} : memref<1x64x8x8xf32, #map0>
            %324 = arith.addf %322, %323 : f32
            %325 = affine.load %arg162[%arg169] {from = "layer3_2_bn3_weight"} : memref<64xf32, #map5>
            %326 = arith.mulf %324, %325 : f32
            %327 = affine.load %arg163[%arg169] {from = "layer3_2_bn3_bias"} : memref<64xf32, #map5>
            %328 = arith.addf %326, %327 : f32
            affine.store %328, %284[%arg168, %arg169, %arg170, %arg171] {to = "layer3_2_bn2"} : memref<1x64x8x8xf32, #map0>
          } {loop_name = "ww"}
        } {loop_name = "hh", pipeline_ii = 1 : i32}
      } {loop_name = "cc"}
    } {loop_name = "nn", op_name = "layer3_2_bn2"}
    %285 = memref.alloc() {name = "layer3_2_rsign2", unsigned} : memref<1x64x8x8xi2, #map0>
    %286 = memref.alloc() {name = "layer3_2_conv2_msb_truncate", unsigned} : memref<1x4x8x8xi16, #map0>
    %287 = memref.alloc() {name = "layer3_2_conv2_lsb_truncate", unsigned} : memref<1x4x8x8xi16, #map0>
    affine.for %arg168 = 0 to 1 {
      affine.for %arg169 = 0 to 4 {
        affine.for %arg170 = 0 to 8 {
          affine.for %arg171 = #map9(%arg169) to #map10(%arg169) {
            affine.for %arg172 = 0 to 8 {
              %305 = affine.load %284[%c0_4, %arg171, %arg170, %arg172] {from = "layer3_2_bn2"} : memref<1x64x8x8xf32, #map0>
              %cst = arith.constant 0.666666686 : f32
              %306 = arith.cmpf ogt, %305, %cst : f32
              %307 = scf.if %306 -> (i32) {
                %c3_i32 = arith.constant 3 : i32
                scf.yield %c3_i32 : i32
              } else {
                %c0_i32 = arith.constant 0 : i32
                %309 = arith.sitofp %c0_i32 : i32 to f32
                %310 = arith.cmpf oge, %305, %309 : f32
                %cst_90 = arith.constant 0.666666686 : f32
                %311 = arith.cmpf ole, %305, %cst_90 : f32
                %312 = arith.andi %310, %311 : i1
                %313 = scf.if %312 -> (i32) {
                  %c2_i32 = arith.constant 2 : i32
                  scf.yield %c2_i32 : i32
                } else {
                  %c0_i32_91 = arith.constant 0 : i32
                  %314 = arith.sitofp %c0_i32_91 : i32 to f32
                  %315 = arith.cmpf olt, %305, %314 : f32
                  %cst_92 = arith.constant -0.666666686 : f32
                  %316 = arith.cmpf oge, %305, %cst_92 : f32
                  %317 = arith.andi %315, %316 : i1
                  %318 = scf.if %317 -> (i32) {
                    %c1_i32 = arith.constant 1 : i32
                    scf.yield %c1_i32 : i32
                  } else {
                    %c0_i32_93 = arith.constant 0 : i32
                    scf.yield %c0_i32_93 : i32
                  }
                  scf.yield %318 : i32
                }
                scf.yield %313 : i32
              }
              %308 = arith.trunci %307 : i32 to i2
              affine.store %308, %285[%c0_4, %arg171, %arg170, %arg172] {to = "layer3_2_rsign2"} : memref<1x64x8x8xi2, #map0>
            } {loop_name = "ww"}
          } {loop_name = "cc"}
          affine.for %arg171 = 0 to 8 {
            %305 = memref.alloc() {name = "layer3_2_conv2_msb_truncate_pack", unsigned} : memref<1xi16>
            %c0_90 = arith.constant 0 : index
            %c0_i16 = arith.constant {unsigned} 0 : i16
            affine.store %c0_i16, %305[0] {to = "layer3_2_conv2_msb_truncate_pack", unsigned} : memref<1xi16>
            %306 = hcl.create_op_handle "stage_34"
            %307 = hcl.create_loop_handle %306, "loop_34"
            affine.for %arg172 = 0 to 16 {
              %309 = affine.load %285[%arg168, %arg169 * 16 + %arg172, %arg170, %arg171] {from = "layer3_2_rsign2", unsigned} : memref<1x64x8x8xi2, #map0>
              %c1 = arith.constant 1 : index
              %310 = hcl.get_bit(%309 : i2, %c1) -> i1
              %311 = affine.load %305[0] {from = "layer3_2_conv2_msb_truncate_pack", unsigned} : memref<1xi16>
              hcl.set_bit(%311 : i16, %arg172, %310 : i1)
              affine.store %311, %305[0] {to = "layer3_2_conv2_msb_truncate_pack", unsigned} : memref<1xi16>
            } {loop_name = "loop_34", op_name = "stage_34"}
            %308 = affine.load %305[0] {from = "layer3_2_conv2_msb_truncate_pack", unsigned} : memref<1xi16>
            affine.store %308, %286[%arg168, %arg169, %arg170, %arg171] {to = "layer3_2_conv2_msb_truncate"} : memref<1x4x8x8xi16, #map0>
          } {loop_name = "w"}
          affine.for %arg171 = 0 to 8 {
            %305 = memref.alloc() {name = "layer3_2_conv2_lsb_truncate_pack", unsigned} : memref<1xi16>
            %c0_90 = arith.constant 0 : index
            %c0_i16 = arith.constant {unsigned} 0 : i16
            affine.store %c0_i16, %305[0] {to = "layer3_2_conv2_lsb_truncate_pack", unsigned} : memref<1xi16>
            %306 = hcl.create_op_handle "stage_35"
            %307 = hcl.create_loop_handle %306, "loop_35"
            affine.for %arg172 = 0 to 16 {
              %309 = affine.load %285[%arg168, %arg169 * 16 + %arg172, %arg170, %arg171] {from = "layer3_2_rsign2", unsigned} : memref<1x64x8x8xi2, #map0>
              %c0_91 = arith.constant 0 : index
              %310 = hcl.get_bit(%309 : i2, %c0_91) -> i1
              %311 = affine.load %305[0] {from = "layer3_2_conv2_lsb_truncate_pack", unsigned} : memref<1xi16>
              hcl.set_bit(%311 : i16, %arg172, %310 : i1)
              affine.store %311, %305[0] {to = "layer3_2_conv2_lsb_truncate_pack", unsigned} : memref<1xi16>
            } {loop_name = "loop_35", op_name = "stage_35"}
            %308 = affine.load %305[0] {from = "layer3_2_conv2_lsb_truncate_pack", unsigned} : memref<1xi16>
            affine.store %308, %287[%arg168, %arg169, %arg170, %arg171] {to = "layer3_2_conv2_lsb_truncate"} : memref<1x4x8x8xi16, #map0>
          } {loop_name = "w"}
        } {loop_name = "h", pipeline_ii = 1 : i32}
      } {loop_name = "c"}
    } {loop_name = "i", op_name = "layer3_2_conv2_lsb_truncate"}
    %288 = memref.alloc() {name = "layer3_2_conv2_out_msb_pad", unsigned} : memref<1x4x10x10xi16, #map2>
    %289 = memref.alloc() {name = "layer3_2_conv2_out_msb"} : memref<1x64x8x8xi16>
    %290 = memref.alloc() {name = "layer3_2_conv2_out_msb_reuse_2"} : memref<4x3x10xi16, #map7>
    %291 = memref.alloc() {name = "layer3_2_conv2_out_msb_reuse_3"} : memref<4x3x3xi16, #map8>
    %292 = memref.alloc() {name = "layer3_2_conv2_out_lsb_pad", unsigned} : memref<1x4x10x10xi16, #map2>
    affine.for %arg168 = 0 to 1 {
      affine.for %arg169 = 0 to 4 {
        affine.for %arg170 = 0 to 10 {
          affine.for %arg171 = 0 to 10 {
            %305 = affine.if #set6(%arg171, %arg170) -> i16 {
              %307 = affine.load %286[%arg168, %arg169, %arg170 - 1, %arg171 - 1] {from = "layer3_2_conv2_msb_truncate", unsigned} : memref<1x4x8x8xi16, #map0>
              affine.yield %307 : i16
            } else {
              %c0_i32 = arith.constant 0 : i32
              %307 = arith.trunci %c0_i32 {unsigned} : i32 to i16
              affine.yield %307 : i16
            } {unsigned}
            affine.store %305, %288[%arg168, %arg169, %arg170, %arg171] {to = "layer3_2_conv2_out_msb_pad"} : memref<1x4x10x10xi16, #map2>
            %306 = affine.if #set6(%arg171, %arg170) -> i16 {
              %307 = affine.load %287[%arg168, %arg169, %arg170 - 1, %arg171 - 1] {from = "layer3_2_conv2_lsb_truncate", unsigned} : memref<1x4x8x8xi16, #map0>
              affine.yield %307 : i16
            } else {
              %c0_i32 = arith.constant 0 : i32
              %307 = arith.trunci %c0_i32 {unsigned} : i32 to i16
              affine.yield %307 : i16
            } {unsigned}
            affine.store %306, %292[%arg168, %arg169, %arg170, %arg171] {to = "layer3_2_conv2_out_lsb_pad"} : memref<1x4x10x10xi16, #map2>
          } {loop_name = "ww", pipeline_ii = 1 : i32}
        } {loop_name = "hh"}
      } {loop_name = "cc"}
    } {loop_name = "ii", op_name = "layer3_2_conv2_out_lsb_pad"}
    %293 = memref.alloc() {name = "layer3_2_conv2_out_lsb"} : memref<1x64x8x8xi16>
    %294 = memref.alloc() {name = "layer3_2_conv2_out_lsb_reuse_2"} : memref<4x3x10xi16, #map7>
    %295 = memref.alloc() {name = "layer3_2_conv2_out_lsb_reuse_3"} : memref<4x3x3xi16, #map8>
    affine.for %arg168 = 0 to 1 {
      affine.for %arg169 = 0 to 64 {
        affine.for %arg170 = 0 to 10 {
          affine.for %arg171 = 0 to 10 {
            affine.for %arg172 = 0 to 4 {
              %305 = affine.load %290[%arg172, 1, %arg171] : memref<4x3x10xi16, #map7>
              affine.store %305, %290[%arg172, 0, %arg171] : memref<4x3x10xi16, #map7>
              %306 = affine.load %290[%arg172, 2, %arg171] : memref<4x3x10xi16, #map7>
              affine.store %306, %290[%arg172, 1, %arg171] : memref<4x3x10xi16, #map7>
              %307 = affine.load %288[%arg168, %arg172, %arg170, %arg171] : memref<1x4x10x10xi16, #map2>
              affine.store %307, %290[%arg172, 2, %arg171] : memref<4x3x10xi16, #map7>
            } {spatial}
            affine.if #set1(%arg170) {
              affine.for %arg172 = 0 to 4 {
                affine.for %arg173 = 0 to 3 {
                  %305 = affine.load %291[%arg172, %arg173, 1] : memref<4x3x3xi16, #map8>
                  affine.store %305, %291[%arg172, %arg173, 0] : memref<4x3x3xi16, #map8>
                  %306 = affine.load %291[%arg172, %arg173, 2] : memref<4x3x3xi16, #map8>
                  affine.store %306, %291[%arg172, %arg173, 1] : memref<4x3x3xi16, #map8>
                  %307 = affine.load %290[%arg172, %arg173, %arg171] : memref<4x3x10xi16, #map7>
                  affine.store %307, %291[%arg172, %arg173, 2] : memref<4x3x3xi16, #map8>
                } {spatial}
              } {spatial}
              affine.if #set1(%arg171) {
                %305 = memref.alloc() {name = "sum_rv"} : memref<1xi16>
                %c0_90 = arith.constant 0 : index
                %c0_i16 = arith.constant 0 : i16
                affine.store %c0_i16, %305[%c0_90] {to = "sum_rv"} : memref<1xi16>
                affine.for %arg172 = 0 to 4 {
                  affine.for %arg173 = 0 to 3 {
                    affine.for %arg174 = 0 to 3 {
                      %307 = affine.if #set7(%arg171, %arg174, %arg170, %arg173) -> i16 {
                        %c16_i32 = arith.constant 16 : i32
                        %310 = arith.extsi %c16_i32 : i32 to i128
                        %311 = affine.load %291[%arg172, %arg173, %arg174] : memref<4x3x3xi16, #map8>
                        %312 = affine.load %arg158[%arg169, %arg172, %arg173, %arg174] {from = "layer3_2_conv2_weight", unsigned} : memref<64x4x3x3xi16, #map1>
                        %313 = arith.xori %311, %312 {unsigned} : i16
                        %c1_i32 = arith.constant 1 : i32
                        %314 = arith.trunci %c1_i32 {unsigned} : i32 to i16
                        %315 = arith.shrui %313, %314 {unsigned} : i16
                        %c6148914691236517205_i64 = arith.constant 6148914691236517205 : i64
                        %316 = arith.trunci %c6148914691236517205_i64 {unsigned} : i64 to i16
                        %317 = arith.andi %315, %316 {unsigned} : i16
                        %318 = arith.subi %313, %317 {unsigned} : i16
                        %c3689348814741910323_i64 = arith.constant 3689348814741910323 : i64
                        %319 = arith.trunci %c3689348814741910323_i64 {unsigned} : i64 to i16
                        %320 = arith.andi %318, %319 {unsigned} : i16
                        %c2_i32 = arith.constant 2 : i32
                        %321 = arith.trunci %c2_i32 {unsigned} : i32 to i16
                        %322 = arith.shrui %318, %321 {unsigned} : i16
                        %c3689348814741910323_i64_92 = arith.constant 3689348814741910323 : i64
                        %323 = arith.trunci %c3689348814741910323_i64_92 {unsigned} : i64 to i16
                        %324 = arith.andi %322, %323 {unsigned} : i16
                        %325 = arith.addi %320, %324 {unsigned} : i16
                        %c4_i32 = arith.constant 4 : i32
                        %326 = arith.trunci %c4_i32 {unsigned} : i32 to i16
                        %327 = arith.shrui %325, %326 {unsigned} : i16
                        %328 = arith.addi %325, %327 {unsigned} : i16
                        %c1085102592571150095_i64 = arith.constant 1085102592571150095 : i64
                        %329 = arith.trunci %c1085102592571150095_i64 {unsigned} : i64 to i16
                        %330 = arith.andi %328, %329 {unsigned} : i16
                        %331 = arith.extui %330 : i16 to i64
                        %c72340172838076673_i64 = arith.constant 72340172838076673 : i64
                        %332 = arith.muli %331, %c72340172838076673_i64 : i64
                        %c56_i32 = arith.constant 56 : i32
                        %333 = arith.extsi %c56_i32 : i32 to i64
                        %334 = arith.shrui %332, %333 : i64
                        %335 = arith.extsi %334 : i64 to i128
                        %c1_i32_93 = arith.constant 1 : i32
                        %336 = arith.extsi %c1_i32_93 : i32 to i64
                        %337 = arith.extsi %336 : i64 to i128
                        %338 = arith.shli %335, %337 : i128
                        %339 = arith.subi %310, %338 : i128
                        %340 = arith.trunci %339 : i128 to i16
                        affine.yield %340 : i16
                      } else {
                        %c0_i32 = arith.constant 0 : i32
                        %310 = arith.trunci %c0_i32 : i32 to i16
                        affine.yield %310 : i16
                      }
                      %308 = affine.load %305[%c0_90] {from = "sum_rv"} : memref<1xi16>
                      %309 = arith.addi %307, %308 : i16
                      affine.store %309, %305[%c0_90] {to = "sum_rv"} : memref<1xi16>
                    } {loop_name = "layer3_2_conv2_out_msb_rx", reduction}
                  } {loop_name = "layer3_2_conv2_out_msb_ry", reduction}
                } {loop_name = "layer3_2_conv2_out_msb_rc", reduction}
                %c0_91 = arith.constant 0 : index
                %306 = affine.load %305[%c0_91] {from = "sum_rv"} : memref<1xi16>
                affine.store %306, %289[%arg168, %arg169, %arg170 - 2, %arg171 - 2] : memref<1x64x8x8xi16>
              }
            }
            affine.for %arg172 = 0 to 4 {
              %305 = affine.load %294[%arg172, 1, %arg171] : memref<4x3x10xi16, #map7>
              affine.store %305, %294[%arg172, 0, %arg171] : memref<4x3x10xi16, #map7>
              %306 = affine.load %294[%arg172, 2, %arg171] : memref<4x3x10xi16, #map7>
              affine.store %306, %294[%arg172, 1, %arg171] : memref<4x3x10xi16, #map7>
              %307 = affine.load %292[%arg168, %arg172, %arg170, %arg171] : memref<1x4x10x10xi16, #map2>
              affine.store %307, %294[%arg172, 2, %arg171] : memref<4x3x10xi16, #map7>
            } {spatial}
            affine.if #set1(%arg170) {
              affine.for %arg172 = 0 to 4 {
                affine.for %arg173 = 0 to 3 {
                  %305 = affine.load %295[%arg172, %arg173, 1] : memref<4x3x3xi16, #map8>
                  affine.store %305, %295[%arg172, %arg173, 0] : memref<4x3x3xi16, #map8>
                  %306 = affine.load %295[%arg172, %arg173, 2] : memref<4x3x3xi16, #map8>
                  affine.store %306, %295[%arg172, %arg173, 1] : memref<4x3x3xi16, #map8>
                  %307 = affine.load %294[%arg172, %arg173, %arg171] : memref<4x3x10xi16, #map7>
                  affine.store %307, %295[%arg172, %arg173, 2] : memref<4x3x3xi16, #map8>
                } {spatial}
              } {spatial}
              affine.if #set1(%arg171) {
                %305 = memref.alloc() {name = "sum_rv"} : memref<1xi16>
                %c0_90 = arith.constant 0 : index
                %c0_i16 = arith.constant 0 : i16
                affine.store %c0_i16, %305[%c0_90] {to = "sum_rv"} : memref<1xi16>
                affine.for %arg172 = 0 to 4 {
                  affine.for %arg173 = 0 to 3 {
                    affine.for %arg174 = 0 to 3 {
                      %307 = affine.if #set7(%arg171, %arg174, %arg170, %arg173) -> i16 {
                        %c16_i32 = arith.constant 16 : i32
                        %310 = arith.extsi %c16_i32 : i32 to i128
                        %311 = affine.load %295[%arg172, %arg173, %arg174] : memref<4x3x3xi16, #map8>
                        %312 = affine.load %arg158[%arg169, %arg172, %arg173, %arg174] {from = "layer3_2_conv2_weight", unsigned} : memref<64x4x3x3xi16, #map1>
                        %313 = arith.xori %311, %312 {unsigned} : i16
                        %c1_i32 = arith.constant 1 : i32
                        %314 = arith.trunci %c1_i32 {unsigned} : i32 to i16
                        %315 = arith.shrui %313, %314 {unsigned} : i16
                        %c6148914691236517205_i64 = arith.constant 6148914691236517205 : i64
                        %316 = arith.trunci %c6148914691236517205_i64 {unsigned} : i64 to i16
                        %317 = arith.andi %315, %316 {unsigned} : i16
                        %318 = arith.subi %313, %317 {unsigned} : i16
                        %c3689348814741910323_i64 = arith.constant 3689348814741910323 : i64
                        %319 = arith.trunci %c3689348814741910323_i64 {unsigned} : i64 to i16
                        %320 = arith.andi %318, %319 {unsigned} : i16
                        %c2_i32 = arith.constant 2 : i32
                        %321 = arith.trunci %c2_i32 {unsigned} : i32 to i16
                        %322 = arith.shrui %318, %321 {unsigned} : i16
                        %c3689348814741910323_i64_92 = arith.constant 3689348814741910323 : i64
                        %323 = arith.trunci %c3689348814741910323_i64_92 {unsigned} : i64 to i16
                        %324 = arith.andi %322, %323 {unsigned} : i16
                        %325 = arith.addi %320, %324 {unsigned} : i16
                        %c4_i32 = arith.constant 4 : i32
                        %326 = arith.trunci %c4_i32 {unsigned} : i32 to i16
                        %327 = arith.shrui %325, %326 {unsigned} : i16
                        %328 = arith.addi %325, %327 {unsigned} : i16
                        %c1085102592571150095_i64 = arith.constant 1085102592571150095 : i64
                        %329 = arith.trunci %c1085102592571150095_i64 {unsigned} : i64 to i16
                        %330 = arith.andi %328, %329 {unsigned} : i16
                        %331 = arith.extui %330 : i16 to i64
                        %c72340172838076673_i64 = arith.constant 72340172838076673 : i64
                        %332 = arith.muli %331, %c72340172838076673_i64 : i64
                        %c56_i32 = arith.constant 56 : i32
                        %333 = arith.extsi %c56_i32 : i32 to i64
                        %334 = arith.shrui %332, %333 : i64
                        %335 = arith.extsi %334 : i64 to i128
                        %c1_i32_93 = arith.constant 1 : i32
                        %336 = arith.extsi %c1_i32_93 : i32 to i64
                        %337 = arith.extsi %336 : i64 to i128
                        %338 = arith.shli %335, %337 : i128
                        %339 = arith.subi %310, %338 : i128
                        %340 = arith.trunci %339 : i128 to i16
                        affine.yield %340 : i16
                      } else {
                        %c0_i32 = arith.constant 0 : i32
                        %310 = arith.trunci %c0_i32 : i32 to i16
                        affine.yield %310 : i16
                      }
                      %308 = affine.load %305[%c0_90] {from = "sum_rv"} : memref<1xi16>
                      %309 = arith.addi %307, %308 : i16
                      affine.store %309, %305[%c0_90] {to = "sum_rv"} : memref<1xi16>
                    } {loop_name = "layer3_2_conv2_out_lsb_rx", reduction}
                  } {loop_name = "layer3_2_conv2_out_lsb_ry", reduction}
                } {loop_name = "layer3_2_conv2_out_lsb_rc", reduction}
                %c0_91 = arith.constant 0 : index
                %306 = affine.load %305[%c0_91] {from = "sum_rv"} : memref<1xi16>
                affine.store %306, %293[%arg168, %arg169, %arg170 - 2, %arg171 - 2] : memref<1x64x8x8xi16>
              }
            }
          } {loop_name = "xx", pipeline_ii = 1 : i32}
        } {loop_name = "yy"}
      } {loop_name = "ff"}
    } {loop_name = "nn", op_name = "layer3_2_conv2_out_lsb"}
    %296 = memref.alloc() {name = "layer3_2_conv2_pgconv"} : memref<1x64x8x8xf32, #map0>
    %297 = memref.alloc() {name = "layer3_2_bn3"} : memref<1x64x8x8xf32, #map0>
    %298 = memref.alloc() {name = "layer3_2_rprelu2"} : memref<1x64x8x8xf32, #map0>
    %299 = memref.alloc() {name = "layer3_2_residual2"} : memref<1x64x8x8xf32, #map0>
    %300 = memref.alloc() {name = "layer3_2_bn4"} : memref<1x64x8x8xf32, #map0>
    affine.for %arg168 = 0 to 1 {
      affine.for %arg169 = 0 to 64 {
        affine.for %arg170 = 0 to 8 {
          affine.for %arg171 = 0 to 8 {
            %305 = affine.load %289[%c0_3, %arg169, %arg170, %arg171] {from = "layer3_2_conv2_out_msb"} : memref<1x64x8x8xi16>
            %306 = arith.sitofp %305 : i16 to f32
            %cst = arith.constant 2.000000e+00 : f32
            %307 = arith.mulf %306, %cst : f32
            %cst_90 = arith.constant 3.000000e+00 : f32
            %308 = arith.divf %307, %cst_90 : f32
            %309 = affine.load %arg159[%arg169] {from = "layer3_2_conv2_threshold"} : memref<64xf32, #map5>
            %310 = arith.cmpf ogt, %308, %309 : f32
            %311 = scf.if %310 -> (f32) {
              %329 = affine.load %293[%c0_3, %arg169, %arg170, %arg171] {from = "layer3_2_conv2_out_lsb"} : memref<1x64x8x8xi16>
              %330 = arith.sitofp %329 : i16 to f32
              %cst_91 = arith.constant 3.000000e+00 : f32
              %331 = arith.divf %330, %cst_91 : f32
              %332 = arith.addf %331, %308 : f32
              scf.yield %332 : f32
            } else {
              scf.yield %308 : f32
            }
            %312 = affine.load %arg160[%arg169] {from = "layer3_2_bn2_weight"} : memref<64xf32, #map5>
            %313 = arith.mulf %311, %312 : f32
            %314 = affine.load %arg161[%arg169] {from = "layer3_2_bn2_bias"} : memref<64xf32, #map5>
            %315 = arith.addf %313, %314 : f32
            %316 = affine.load %arg151[%arg169] {from = "layer3_2_rprelu2_shift_x_bias"} : memref<64xf32, #map5>
            %317 = arith.addf %315, %316 : f32
            %c0_i32 = arith.constant 0 : i32
            %318 = arith.sitofp %c0_i32 : i32 to f32
            %319 = arith.cmpf ogt, %317, %318 : f32
            %320 = scf.if %319 -> (f32) {
              scf.yield %317 : f32
            } else {
              %329 = affine.load %arg153[%arg169] {from = "layer3_2_rprelu2_prelu_weight"} : memref<64xf32, #map5>
              %330 = arith.mulf %329, %317 : f32
              scf.yield %330 : f32
            }
            %321 = affine.load %arg152[%arg169] {from = "layer3_2_rprelu2_shift_y_bias"} : memref<64xf32, #map5>
            %322 = arith.addf %320, %321 : f32
            %323 = affine.load %284[%c0_0, %arg169, %arg170, %arg171] {from = "layer3_2_bn2"} : memref<1x64x8x8xf32, #map0>
            %324 = arith.addf %323, %322 : f32
            %325 = affine.load %arg164[%arg169] {from = "layer3_2_bn4_weight"} : memref<64xf32, #map5>
            %326 = arith.mulf %324, %325 : f32
            %327 = affine.load %arg165[%arg169] {from = "layer3_2_bn4_bias"} : memref<64xf32, #map5>
            %328 = arith.addf %326, %327 : f32
            affine.store %328, %300[%arg168, %arg169, %arg170, %arg171] {to = "layer3_2_bn4"} : memref<1x64x8x8xf32, #map0>
          } {loop_name = "ww"}
        } {loop_name = "hh", pipeline_ii = 1 : i32}
      } {loop_name = "cc"}
    } {loop_name = "nn", op_name = "layer3_2_bn4"}
    %301 = memref.alloc() {name = "avgpool"} : memref<1x64x1x1xf32, #map0>
    affine.for %arg168 = 0 to 1 {
      affine.for %arg169 = 0 to 64 {
        affine.for %arg170 = 0 to 1 {
          affine.for %arg171 = 0 to 1 {
            %305 = memref.alloc() {name = "sum_rv"} : memref<1xf32>
            %c0_90 = arith.constant 0 : index
            %cst = arith.constant 0.000000e+00 : f32
            affine.store %cst, %305[%c0_90] {to = "sum_rv"} : memref<1xf32>
            affine.for %arg172 = 0 to 8 {
              affine.for %arg173 = 0 to 8 {
                %309 = affine.load %300[%arg168, %arg169, %arg170 * 8 + %arg172, %arg171 * 8 + %arg173] {from = "layer3_2_bn4"} : memref<1x64x8x8xf32, #map0>
                %310 = affine.load %305[%c0_90] {from = "sum_rv"} : memref<1xf32>
                %311 = arith.addf %309, %310 : f32
                affine.store %311, %305[%c0_90] {to = "sum_rv"} : memref<1xf32>
              } {loop_name = "rx_5", reduction}
            } {loop_name = "rx_4", reduction}
            %c0_91 = arith.constant 0 : index
            %306 = affine.load %305[%c0_91] {from = "sum_rv"} : memref<1xf32>
            %c64_i32 = arith.constant 64 : i32
            %307 = arith.sitofp %c64_i32 : i32 to f32
            %308 = arith.divf %306, %307 : f32
            affine.store %308, %301[%arg168, %arg169, %arg170, %arg171] {to = "avgpool"} : memref<1x64x1x1xf32, #map0>
          } {loop_name = "w", pipeline_ii = 1 : i32}
        } {loop_name = "h"}
      } {loop_name = "c"}
    } {loop_name = "i", op_name = "avgpool"}
    %302 = memref.alloc() {name = "flatten"} : memref<1x64xf32, #map6>
    affine.for %arg168 = 0 to 1 {
      affine.for %arg169 = 0 to 64 {
        %305 = affine.load %301[%arg168, %arg169 mod 64, %arg169 floordiv 64, 0] {from = "avgpool"} : memref<1x64x1x1xf32, #map0>
        affine.store %305, %302[%arg168, %arg169] {to = "flatten"} : memref<1x64xf32, #map6>
      } {loop_name = "j", pipeline_ii = 1 : i32}
    } {loop_name = "i", op_name = "flatten"}
    %303 = memref.alloc() {name = "fc_matmul"} : memref<1x10xf32, #map6>
    %304 = memref.alloc() {name = "fc"} : memref<1x10xf32, #map6>
    affine.for %arg168 = 0 to 1 {
      affine.for %arg169 = 0 to 10 {
        %305 = memref.alloc() {name = "sum_rv"} : memref<1xf32>
        %c0_90 = arith.constant 0 : index
        %cst = arith.constant 0.000000e+00 : f32
        affine.store %cst, %305[%c0_90] {to = "sum_rv"} : memref<1xf32>
        affine.for %arg170 = 0 to 64 {
          %309 = affine.load %302[%c0, %arg170] {from = "flatten"} : memref<1x64xf32, #map6>
          %310 = affine.load %arg166[%arg169, %arg170] {from = "linear_weight"} : memref<10x64xf32, #map6>
          %311 = arith.mulf %309, %310 : f32
          %312 = affine.load %305[%c0_90] {from = "sum_rv"} : memref<1xf32>
          %313 = arith.addf %311, %312 : f32
          affine.store %313, %305[%c0_90] {to = "sum_rv"} : memref<1xf32>
        } {loop_name = "rx_6", reduction}
        %c0_91 = arith.constant 0 : index
        %306 = affine.load %305[%c0_91] {from = "sum_rv"} : memref<1xf32>
        %307 = affine.load %arg167[%arg169] {from = "linear_bias"} : memref<10xf32, #map5>
        %308 = arith.addf %306, %307 : f32
        affine.store %308, %304[%arg168, %arg169] {to = "fc"} : memref<1x10xf32, #map6>
      } {loop_name = "j", pipeline_ii = 1 : i32}
    } {loop_name = "i", op_name = "fc"}
    return %304 : memref<1x10xf32, #map6>
  }
}

