// Verification failed, printing generic form
#map0 = affine_map<(d0) -> (d0)>
#map1 = affine_map<() -> (0)>
#map2 = affine_map<() -> (33554432)>
#map3 = affine_map<() -> (16384)>
#map4 = affine_map<() -> (32768)>
#map5 = affine_map<(d0, d1, d2) -> (d0, d1, d2)>
#map6 = affine_map<() -> (8192)>
#map7 = affine_map<() -> (72)>
#map8 = affine_map<() -> (4)>
#map9 = affine_map<(d0, d1) -> (d0, d1)>
#map10 = affine_map<() -> (64)>
#map11 = affine_map<() -> (32)>
#map12 = affine_map<() -> (16)>
#map13 = affine_map<() -> (128)>
#map14 = affine_map<() -> (1)>
#map15 = affine_map<() -> (2)>
#map16 = affine_map<() -> (3)>
#map17 = affine_map<() -> (5)>
"builtin.module"() ({
  "func.func"() ({
  ^bb0(%arg0: memref<33554432xi32>, %arg1: memref<10xi64>):
    %0 = "arith.constant"() {value = 0 : index} : () -> index
    %1 = "arith.constant"() {value = 0 : index} : () -> index
    %2 = "arith.constant"() {value = 0 : index} : () -> index
    %3 = "arith.constant"() {value = 0 : index} : () -> index
    %4 = "arith.constant"() {value = 0 : index} : () -> index
    %5 = "arith.constant"() {value = 0 : index} : () -> index
    %6 = "arith.constant"() {value = 0 : index} : () -> index
    %7 = "arith.constant"() {value = 0 : index} : () -> index
    %8 = "arith.constant"() {value = 0 : index} : () -> index
    %9 = "arith.constant"() {value = 0 : index} : () -> index
    %10 = "arith.constant"() {value = 0 : index} : () -> index
    %11 = "arith.constant"() {value = 0 : index} : () -> index
    %12 = "arith.constant"() {value = 0 : index} : () -> index
    %13 = "arith.constant"() {value = 0 : index} : () -> index
    %14 = "arith.constant"() {value = 0 : index} : () -> index
    %15 = "arith.constant"() {value = 0 : index} : () -> index
    %16 = "arith.constant"() {value = 0 : index} : () -> index
    %17 = "arith.constant"() {value = 0 : index} : () -> index
    %18 = "arith.constant"() {value = 0 : index} : () -> index
    %19 = "arith.constant"() {value = 0 : index} : () -> index
    %20 = "arith.constant"() {value = 0 : index} : () -> index
    %21 = "arith.constant"() {value = 0 : index} : () -> index
    %22 = "arith.constant"() {value = 0 : index} : () -> index
    %23 = "arith.constant"() {value = 0 : index} : () -> index
    %24 = "arith.constant"() {value = 0 : index} : () -> index
    %25 = "arith.constant"() {value = 0 : index} : () -> index
    %26 = "arith.constant"() {value = 0 : index} : () -> index
    %27 = "arith.constant"() {value = 0 : index} : () -> index
    %28 = "arith.constant"() {value = 0 : index} : () -> index
    %29 = "arith.constant"() {value = 0 : index} : () -> index
    %30 = "arith.constant"() {value = 0 : index} : () -> index
    %31 = "arith.constant"() {value = 0 : index} : () -> index
    %32 = "arith.constant"() {value = 0 : index} : () -> index
    %33 = "arith.constant"() {value = 0 : index} : () -> index
    %34 = "arith.constant"() {value = 0 : index} : () -> index
    %35 = "arith.constant"() {value = 0 : index} : () -> index
    %36 = "arith.constant"() {value = 0 : index} : () -> index
    %37 = "arith.constant"() {value = 0 : index} : () -> index
    %38 = "arith.constant"() {value = 0 : index} : () -> index
    %39 = "arith.constant"() {value = 0 : index} : () -> index
    %40 = "arith.constant"() {value = 0 : index} : () -> index
    %41 = "arith.constant"() {value = 0 : index} : () -> index
    %42 = "arith.constant"() {value = 0 : index} : () -> index
    %43 = "arith.constant"() {value = 0 : index} : () -> index
    %44 = "arith.constant"() {value = 0 : index} : () -> index
    %45 = "arith.constant"() {value = 0 : index} : () -> index
    %46 = "arith.constant"() {value = 0 : index} : () -> index
    %47 = "arith.constant"() {value = 0 : index} : () -> index
    %48 = "arith.constant"() {value = 0 : index} : () -> index
    %49 = "arith.constant"() {value = 0 : index} : () -> index
    %50 = "arith.constant"() {value = 0 : index} : () -> index
    %51 = "arith.constant"() {value = 0 : index} : () -> index
    %52 = "arith.constant"() {value = 0 : index} : () -> index
    %53 = "arith.constant"() {value = 0 : index} : () -> index
    %54 = "arith.constant"() {value = 0 : index} : () -> index
    %55 = "arith.constant"() {value = 0 : index} : () -> index
    %56 = "arith.constant"() {value = 0 : index} : () -> index
    %57 = "arith.constant"() {value = 0 : index} : () -> index
    %58 = "arith.constant"() {value = 0 : index} : () -> index
    %59 = "arith.constant"() {value = 0 : index} : () -> index
    %60 = "arith.constant"() {value = 0 : index} : () -> index
    %61 = "arith.constant"() {value = 0 : index} : () -> index
    %62 = "arith.constant"() {value = 0 : index} : () -> index
    %63 = "arith.constant"() {value = 0 : index} : () -> index
    %64 = "arith.constant"() {value = 0 : index} : () -> index
    %65 = "arith.constant"() {value = 0 : index} : () -> index
    %66 = "arith.constant"() {value = 0 : index} : () -> index
    %67 = "arith.constant"() {value = 0 : index} : () -> index
    %68 = "arith.constant"() {value = 0 : index} : () -> index
    %69 = "arith.constant"() {value = 0 : index} : () -> index
    %70 = "arith.constant"() {value = 0 : index} : () -> index
    %71 = "arith.constant"() {value = 0 : index} : () -> index
    %72 = "arith.constant"() {value = 0 : index} : () -> index
    %73 = "arith.constant"() {value = 0 : index} : () -> index
    %74 = "arith.constant"() {value = 0 : index} : () -> index
    %75 = "arith.constant"() {value = 0 : index} : () -> index
    %76 = "arith.constant"() {value = 0 : index} : () -> index
    %77 = "arith.constant"() {value = 0 : index} : () -> index
    %78 = "arith.constant"() {value = 0 : index} : () -> index
    %79 = "arith.constant"() {value = 0 : index} : () -> index
    %80 = "arith.constant"() {value = 0 : index} : () -> index
    %81 = "arith.constant"() {value = 0 : index} : () -> index
    %82 = "arith.constant"() {value = 0 : index} : () -> index
    %83 = "arith.constant"() {value = 0 : index} : () -> index
    %84 = "arith.constant"() {value = 0 : index} : () -> index
    %85 = "arith.constant"() {value = 0 : index} : () -> index
    %86 = "arith.constant"() {value = 0 : index} : () -> index
    %87 = "arith.constant"() {value = 0 : index} : () -> index
    %88 = "arith.constant"() {value = 0 : index} : () -> index
    %89 = "arith.constant"() {value = 0 : index} : () -> index
    %90 = "arith.constant"() {value = 0 : index} : () -> index
    %91 = "arith.constant"() {value = 0 : index} : () -> index
    %92 = "arith.constant"() {value = 0 : index} : () -> index
    %93 = "arith.constant"() {value = 0 : index} : () -> index
    %94 = "arith.constant"() {value = 0 : index} : () -> index
    %95 = "arith.constant"() {value = 0 : index} : () -> index
    %96 = "arith.constant"() {value = 0 : index} : () -> index
    %97 = "arith.constant"() {value = 0 : index} : () -> index
    %98 = "arith.constant"() {value = 0 : index} : () -> index
    %99 = "arith.constant"() {value = 0 : index} : () -> index
    %100 = "arith.constant"() {value = 0 : index} : () -> index
    %101 = "arith.constant"() {value = 0 : index} : () -> index
    %102 = "arith.constant"() {value = 0 : index} : () -> index
    %103 = "arith.constant"() {value = 0 : index} : () -> index
    %104 = "arith.constant"() {value = 0 : index} : () -> index
    %105 = "arith.constant"() {value = 0 : index} : () -> index
    %106 = "arith.constant"() {value = 0 : index} : () -> index
    %107 = "arith.constant"() {value = 0 : index} : () -> index
    %108 = "arith.constant"() {value = 0 : index} : () -> index
    %109 = "arith.constant"() {value = 0 : index} : () -> index
    %110 = "arith.constant"() {value = 0 : index} : () -> index
    %111 = "arith.constant"() {value = 0 : index} : () -> index
    %112 = "arith.constant"() {value = 0 : index} : () -> index
    %113 = "arith.constant"() {value = 0 : index} : () -> index
    %114 = "arith.constant"() {value = 0 : index} : () -> index
    %115 = "arith.constant"() {value = 0 : index} : () -> index
    %116 = "arith.constant"() {value = 0 : index} : () -> index
    %117 = "arith.constant"() {value = 0 : index} : () -> index
    %118 = "arith.constant"() {value = 0 : index} : () -> index
    %119 = "arith.constant"() {value = 0 : index} : () -> index
    %120 = "arith.constant"() {value = 0 : index} : () -> index
    %121 = "arith.constant"() {value = 0 : index} : () -> index
    %122 = "arith.constant"() {value = 0 : index} : () -> index
    %123 = "arith.constant"() {value = 0 : index} : () -> index
    %124 = "arith.constant"() {value = 0 : index} : () -> index
    %125 = "arith.constant"() {value = 0 : index} : () -> index
    %126 = "arith.constant"() {value = 0 : index} : () -> index
    %127 = "arith.constant"() {value = 0 : index} : () -> index
    %128 = "arith.constant"() {value = 0 : index} : () -> index
    %129 = "arith.constant"() {value = 0 : index} : () -> index
    %130 = "arith.constant"() {value = 0 : index} : () -> index
    %131 = "arith.constant"() {value = 0 : index} : () -> index
    %132 = "arith.constant"() {value = 0 : index} : () -> index
    %133 = "arith.constant"() {value = 0 : index} : () -> index
    %134 = "arith.constant"() {value = 0 : index} : () -> index
    %135 = "arith.constant"() {value = 0 : index} : () -> index
    %136 = "arith.constant"() {value = 0 : index} : () -> index
    %137 = "arith.constant"() {value = 0 : index} : () -> index
    %138 = "arith.constant"() {value = 0 : index} : () -> index
    %139 = "arith.constant"() {value = 0 : index} : () -> index
    %140 = "arith.constant"() {value = 0 : index} : () -> index
    %141 = "arith.constant"() {value = 0 : index} : () -> index
    %142 = "arith.constant"() {value = 0 : index} : () -> index
    %143 = "arith.constant"() {value = 0 : index} : () -> index
    %144 = "arith.constant"() {value = 0 : index} : () -> index
    %145 = "arith.constant"() {value = 0 : index} : () -> index
    %146 = "arith.constant"() {value = 0 : index} : () -> index
    %147 = "arith.constant"() {value = 0 : index} : () -> index
    %148 = "arith.constant"() {value = 0 : index} : () -> index
    %149 = "arith.constant"() {value = 0 : index} : () -> index
    %150 = "arith.constant"() {value = 0 : index} : () -> index
    %151 = "arith.constant"() {value = 0 : index} : () -> index
    %152 = "arith.constant"() {value = 0 : index} : () -> index
    %153 = "arith.constant"() {value = 0 : index} : () -> index
    %154 = "arith.constant"() {value = 0 : index} : () -> index
    %155 = "arith.constant"() {value = 0 : index} : () -> index
    %156 = "arith.constant"() {value = 0 : index} : () -> index
    %157 = "arith.constant"() {value = 0 : index} : () -> index
    %158 = "arith.constant"() {value = 0 : index} : () -> index
    %159 = "arith.constant"() {value = 0 : index} : () -> index
    %160 = "arith.constant"() {value = 0 : index} : () -> index
    %161 = "arith.constant"() {value = 0 : index} : () -> index
    %162 = "arith.constant"() {value = 0 : index} : () -> index
    %163 = "arith.constant"() {value = 0 : index} : () -> index
    %164 = "arith.constant"() {value = 0 : index} : () -> index
    %165 = "arith.constant"() {value = 0 : index} : () -> index
    %166 = "arith.constant"() {value = 0 : index} : () -> index
    %167 = "arith.constant"() {value = 0 : index} : () -> index
    %168 = "arith.constant"() {value = 0 : index} : () -> index
    %169 = "arith.constant"() {value = 0 : index} : () -> index
    %170 = "arith.constant"() {value = 0 : index} : () -> index
    %171 = "arith.constant"() {value = 0 : index} : () -> index
    %172 = "arith.constant"() {value = 0 : index} : () -> index
    %173 = "arith.constant"() {value = 0 : index} : () -> index
    %174 = "arith.constant"() {value = 0 : index} : () -> index
    %175 = "arith.constant"() {value = 0 : index} : () -> index
    %176 = "arith.constant"() {value = 0 : index} : () -> index
    %177 = "arith.constant"() {value = 0 : index} : () -> index
    %178 = "arith.constant"() {value = 0 : index} : () -> index
    %179 = "arith.constant"() {value = 0 : index} : () -> index
    %180 = "arith.constant"() {value = 0 : index} : () -> index
    %181 = "arith.constant"() {value = 0 : index} : () -> index
    %182 = "arith.constant"() {value = 0 : index} : () -> index
    %183 = "arith.constant"() {value = 0 : index} : () -> index
    %184 = "arith.constant"() {value = 0 : index} : () -> index
    %185 = "arith.constant"() {value = 0 : index} : () -> index
    %186 = "arith.constant"() {value = 0 : index} : () -> index
    %187 = "arith.constant"() {value = 0 : index} : () -> index
    %188 = "arith.constant"() {value = 0 : index} : () -> index
    %189 = "arith.constant"() {value = 0 : index} : () -> index
    %190 = "arith.constant"() {value = 0 : index} : () -> index
    %191 = "arith.constant"() {value = 0 : index} : () -> index
    %192 = "arith.constant"() {value = 0 : index} : () -> index
    %193 = "arith.constant"() {value = 0 : index} : () -> index
    %194 = "arith.constant"() {value = 0 : index} : () -> index
    %195 = "arith.constant"() {value = 0 : index} : () -> index
    %196 = "arith.constant"() {value = 0 : index} : () -> index
    %197 = "arith.constant"() {value = 0 : index} : () -> index
    %198 = "arith.constant"() {value = 0 : index} : () -> index
    %199 = "arith.constant"() {value = 0 : index} : () -> index
    %200 = "arith.constant"() {value = 0 : index} : () -> index
    %201 = "arith.constant"() {value = 0 : index} : () -> index
    %202 = "arith.constant"() {value = 0 : index} : () -> index
    %203 = "arith.constant"() {value = 0 : index} : () -> index
    %204 = "arith.constant"() {value = 0 : index} : () -> index
    %205 = "arith.constant"() {value = 0 : index} : () -> index
    %206 = "arith.constant"() {value = 0 : index} : () -> index
    %207 = "arith.constant"() {value = 0 : index} : () -> index
    %208 = "arith.constant"() {value = 0 : index} : () -> index
    %209 = "arith.constant"() {value = 0 : index} : () -> index
    %210 = "arith.constant"() {value = 0 : index} : () -> index
    %211 = "arith.constant"() {value = 0 : index} : () -> index
    %212 = "arith.constant"() {value = 0 : index} : () -> index
    %213 = "arith.constant"() {value = 0 : index} : () -> index
    %214 = "arith.constant"() {value = 0 : index} : () -> index
    %215 = "arith.constant"() {value = 0 : index} : () -> index
    %216 = "arith.constant"() {value = 0 : index} : () -> index
    %217 = "arith.constant"() {value = 0 : index} : () -> index
    %218 = "arith.constant"() {value = 0 : index} : () -> index
    %219 = "arith.constant"() {value = 0 : index} : () -> index
    %220 = "arith.constant"() {value = 0 : index} : () -> index
    %221 = "arith.constant"() {value = 0 : index} : () -> index
    %222 = "arith.constant"() {value = 0 : index} : () -> index
    %223 = "arith.constant"() {value = 0 : index} : () -> index
    %224 = "arith.constant"() {value = 0 : index} : () -> index
    %225 = "arith.constant"() {value = 0 : index} : () -> index
    %226 = "arith.constant"() {value = 0 : index} : () -> index
    %227 = "arith.constant"() {value = 0 : index} : () -> index
    %228 = "arith.constant"() {value = 0 : index} : () -> index
    %229 = "arith.constant"() {value = 0 : index} : () -> index
    %230 = "arith.constant"() {value = 0 : index} : () -> index
    %231 = "arith.constant"() {value = 0 : index} : () -> index
    %232 = "arith.constant"() {value = 0 : index} : () -> index
    %233 = "arith.constant"() {value = 0 : index} : () -> index
    %234 = "arith.constant"() {value = 0 : index} : () -> index
    %235 = "arith.constant"() {value = 0 : index} : () -> index
    %236 = "arith.constant"() {value = 0 : index} : () -> index
    %237 = "arith.constant"() {value = 0 : index} : () -> index
    %238 = "arith.constant"() {value = 0 : index} : () -> index
    %239 = "arith.constant"() {value = 0 : index} : () -> index
    %240 = "arith.constant"() {value = 0 : index} : () -> index
    %241 = "arith.constant"() {value = 0 : index} : () -> index
    %242 = "arith.constant"() {value = 0 : index} : () -> index
    %243 = "arith.constant"() {value = 0 : index} : () -> index
    %244 = "arith.constant"() {value = 0 : index} : () -> index
    %245 = "arith.constant"() {value = 0 : index} : () -> index
    %246 = "arith.constant"() {value = 0 : index} : () -> index
    %247 = "arith.constant"() {value = 0 : index} : () -> index
    %248 = "arith.constant"() {value = 0 : index} : () -> index
    %249 = "arith.constant"() {value = 0 : index} : () -> index
    %250 = "arith.constant"() {value = 0 : index} : () -> index
    %251 = "arith.constant"() {value = 0 : index} : () -> index
    %252 = "arith.constant"() {value = 0 : index} : () -> index
    %253 = "arith.constant"() {value = 0 : index} : () -> index
    %254 = "arith.constant"() {value = 0 : index} : () -> index
    %255 = "arith.constant"() {value = 0 : index} : () -> index
    %256 = "arith.constant"() {value = 0 : index} : () -> index
    %257 = "arith.constant"() {value = 0 : index} : () -> index
    %258 = "arith.constant"() {value = 0 : index} : () -> index
    %259 = "arith.constant"() {value = 0 : index} : () -> index
    %260 = "arith.constant"() {value = 0 : index} : () -> index
    %261 = "arith.constant"() {value = 0 : index} : () -> index
    %262 = "arith.constant"() {value = 0 : index} : () -> index
    %263 = "arith.constant"() {value = 0 : index} : () -> index
    %264 = "arith.constant"() {value = 0 : index} : () -> index
    %265 = "arith.constant"() {value = 0 : index} : () -> index
    %266 = "arith.constant"() {value = 0 : index} : () -> index
    %267 = "arith.constant"() {value = 0 : index} : () -> index
    %268 = "arith.constant"() {value = 0 : index} : () -> index
    %269 = "arith.constant"() {value = 0 : index} : () -> index
    %270 = "arith.constant"() {value = 0 : index} : () -> index
    %271 = "arith.constant"() {value = 0 : index} : () -> index
    %272 = "arith.constant"() {value = 0 : index} : () -> index
    %273 = "arith.constant"() {value = 0 : index} : () -> index
    %274 = "arith.constant"() {value = 0 : index} : () -> index
    %275 = "arith.constant"() {value = 0 : index} : () -> index
    %276 = "arith.constant"() {value = 0 : index} : () -> index
    %277 = "arith.constant"() {value = 0 : index} : () -> index
    %278 = "arith.constant"() {value = 0 : index} : () -> index
    %279 = "arith.constant"() {value = 0 : index} : () -> index
    %280 = "arith.constant"() {value = 0 : index} : () -> index
    %281 = "arith.constant"() {value = 0 : index} : () -> index
    %282 = "arith.constant"() {value = 0 : index} : () -> index
    %283 = "arith.constant"() {value = 0 : index} : () -> index
    %284 = "arith.constant"() {value = 0 : index} : () -> index
    %285 = "arith.constant"() {value = 0 : index} : () -> index
    %286 = "arith.constant"() {value = 0 : index} : () -> index
    %287 = "arith.constant"() {value = 0 : index} : () -> index
    %288 = "arith.constant"() {value = 0 : index} : () -> index
    %289 = "arith.constant"() {value = 0 : index} : () -> index
    %290 = "arith.constant"() {value = 0 : index} : () -> index
    %291 = "arith.constant"() {value = 0 : index} : () -> index
    %292 = "arith.constant"() {value = 0 : index} : () -> index
    %293 = "arith.constant"() {value = 0 : index} : () -> index
    %294 = "arith.constant"() {value = 0 : index} : () -> index
    %295 = "arith.constant"() {value = 0 : index} : () -> index
    %296 = "arith.constant"() {value = 0 : index} : () -> index
    %297 = "arith.constant"() {value = 0 : index} : () -> index
    %298 = "arith.constant"() {value = 0 : index} : () -> index
    %299 = "arith.constant"() {value = 0 : index} : () -> index
    %300 = "arith.constant"() {value = 0 : index} : () -> index
    %301 = "arith.constant"() {value = 0 : index} : () -> index
    %302 = "arith.constant"() {value = 0 : index} : () -> index
    %303 = "arith.constant"() {value = 0 : index} : () -> index
    %304 = "arith.constant"() {value = 0 : index} : () -> index
    %305 = "arith.constant"() {value = 0 : index} : () -> index
    %306 = "arith.constant"() {value = 0 : index} : () -> index
    %307 = "arith.constant"() {value = 0 : index} : () -> index
    %308 = "arith.constant"() {value = 0 : index} : () -> index
    %309 = "arith.constant"() {value = 0 : index} : () -> index
    %310 = "arith.constant"() {value = 0 : index} : () -> index
    %311 = "arith.constant"() {value = 0 : index} : () -> index
    %312 = "arith.constant"() {value = 0 : index} : () -> index
    %313 = "arith.constant"() {value = 0 : index} : () -> index
    %314 = "arith.constant"() {value = 0 : index} : () -> index
    %315 = "arith.constant"() {value = 0 : index} : () -> index
    %316 = "arith.constant"() {value = 0 : index} : () -> index
    %317 = "arith.constant"() {value = 0 : index} : () -> index
    %318 = "arith.constant"() {value = 0 : index} : () -> index
    %319 = "arith.constant"() {value = 0 : index} : () -> index
    %320 = "arith.constant"() {value = 0 : index} : () -> index
    %321 = "arith.constant"() {value = 0 : index} : () -> index
    %322 = "arith.constant"() {value = 0 : index} : () -> index
    %323 = "arith.constant"() {value = 0 : index} : () -> index
    %324 = "arith.constant"() {value = 0 : index} : () -> index
    %325 = "arith.constant"() {value = 0 : index} : () -> index
    %326 = "arith.constant"() {value = 0 : index} : () -> index
    %327 = "arith.constant"() {value = 0 : index} : () -> index
    %328 = "arith.constant"() {value = 0 : index} : () -> index
    %329 = "arith.constant"() {value = 0 : index} : () -> index
    %330 = "arith.constant"() {value = 0 : index} : () -> index
    %331 = "arith.constant"() {value = 0 : index} : () -> index
    %332 = "arith.constant"() {value = 0 : index} : () -> index
    %333 = "arith.constant"() {value = 0 : index} : () -> index
    %334 = "arith.constant"() {value = 0 : index} : () -> index
    %335 = "arith.constant"() {value = 0 : index} : () -> index
    %336 = "arith.constant"() {value = 0 : index} : () -> index
    %337 = "arith.constant"() {value = 0 : index} : () -> index
    %338 = "arith.constant"() {value = 0 : index} : () -> index
    %339 = "arith.constant"() {value = 0 : index} : () -> index
    %340 = "arith.constant"() {value = 0 : index} : () -> index
    %341 = "arith.constant"() {value = 0 : index} : () -> index
    %342 = "arith.constant"() {value = 0 : index} : () -> index
    %343 = "arith.constant"() {value = 0 : index} : () -> index
    %344 = "arith.constant"() {value = 0 : index} : () -> index
    %345 = "arith.constant"() {value = 0 : index} : () -> index
    %346 = "arith.constant"() {value = 0 : index} : () -> index
    %347 = "arith.constant"() {value = 0 : index} : () -> index
    %348 = "arith.constant"() {value = 0 : index} : () -> index
    %349 = "arith.constant"() {value = 0 : index} : () -> index
    %350 = "arith.constant"() {value = 0 : index} : () -> index
    %351 = "arith.constant"() {value = 0 : index} : () -> index
    %352 = "arith.constant"() {value = 0 : index} : () -> index
    %353 = "arith.constant"() {value = 0 : index} : () -> index
    %354 = "arith.constant"() {value = 0 : index} : () -> index
    %355 = "arith.constant"() {value = 0 : index} : () -> index
    %356 = "arith.constant"() {value = 0 : index} : () -> index
    %357 = "arith.constant"() {value = 0 : index} : () -> index
    %358 = "arith.constant"() {value = 0 : index} : () -> index
    %359 = "arith.constant"() {value = 0 : index} : () -> index
    %360 = "arith.constant"() {value = 0 : index} : () -> index
    %361 = "arith.constant"() {value = 0 : index} : () -> index
    %362 = "arith.constant"() {value = 0 : index} : () -> index
    %363 = "arith.constant"() {value = 0 : index} : () -> index
    %364 = "arith.constant"() {value = 0 : index} : () -> index
    %365 = "arith.constant"() {value = 0 : index} : () -> index
    %366 = "arith.constant"() {value = 0 : index} : () -> index
    %367 = "arith.constant"() {value = 0 : index} : () -> index
    %368 = "arith.constant"() {value = 0 : index} : () -> index
    %369 = "arith.constant"() {value = 0 : index} : () -> index
    %370 = "arith.constant"() {value = 0 : index} : () -> index
    %371 = "arith.constant"() {value = 0 : index} : () -> index
    %372 = "arith.constant"() {value = 0 : index} : () -> index
    %373 = "arith.constant"() {value = 0 : index} : () -> index
    %374 = "arith.constant"() {value = 0 : index} : () -> index
    %375 = "arith.constant"() {value = 0 : index} : () -> index
    %376 = "arith.constant"() {value = 0 : index} : () -> index
    %377 = "arith.constant"() {value = 0 : index} : () -> index
    %378 = "arith.constant"() {value = 0 : index} : () -> index
    %379 = "arith.constant"() {value = 0 : index} : () -> index
    %380 = "arith.constant"() {value = 0 : index} : () -> index
    %381 = "arith.constant"() {value = 0 : index} : () -> index
    %382 = "arith.constant"() {value = 0 : index} : () -> index
    %383 = "arith.constant"() {value = 0 : index} : () -> index
    %384 = "arith.constant"() {value = 0 : index} : () -> index
    %385 = "arith.constant"() {value = 0 : index} : () -> index
    %386 = "arith.constant"() {value = 0 : index} : () -> index
    %387 = "arith.constant"() {value = 0 : index} : () -> index
    %388 = "arith.constant"() {value = 0 : index} : () -> index
    %389 = "arith.constant"() {value = 0 : index} : () -> index
    %390 = "arith.constant"() {value = 0 : index} : () -> index
    %391 = "arith.constant"() {value = 0 : index} : () -> index
    %392 = "arith.constant"() {value = 0 : index} : () -> index
    %393 = "arith.constant"() {value = 0 : index} : () -> index
    %394 = "arith.constant"() {value = 0 : index} : () -> index
    %395 = "arith.constant"() {value = 0 : index} : () -> index
    %396 = "arith.constant"() {value = 0 : index} : () -> index
    %397 = "arith.constant"() {value = 0 : index} : () -> index
    %398 = "arith.constant"() {value = 0 : index} : () -> index
    %399 = "arith.constant"() {value = 0 : index} : () -> index
    %400 = "arith.constant"() {value = 0 : index} : () -> index
    %401 = "arith.constant"() {value = 0 : index} : () -> index
    %402 = "arith.constant"() {value = 0 : index} : () -> index
    %403 = "arith.constant"() {value = 0 : index} : () -> index
    %404 = "arith.constant"() {value = 0 : index} : () -> index
    %405 = "arith.constant"() {value = 0 : index} : () -> index
    %406 = "arith.constant"() {value = 0 : index} : () -> index
    %407 = "arith.constant"() {value = 0 : index} : () -> index
    %408 = "arith.constant"() {value = 0 : index} : () -> index
    %409 = "arith.constant"() {value = 0 : index} : () -> index
    %410 = "arith.constant"() {value = 0 : index} : () -> index
    %411 = "arith.constant"() {value = 0 : index} : () -> index
    %412 = "arith.constant"() {value = 0 : index} : () -> index
    %413 = "arith.constant"() {value = 0 : index} : () -> index
    %414 = "arith.constant"() {value = 0 : index} : () -> index
    %415 = "arith.constant"() {value = 0 : index} : () -> index
    %416 = "arith.constant"() {value = 0 : index} : () -> index
    %417 = "arith.constant"() {value = 0 : index} : () -> index
    %418 = "arith.constant"() {value = 0 : index} : () -> index
    %419 = "arith.constant"() {value = 0 : index} : () -> index
    %420 = "arith.constant"() {value = 0 : index} : () -> index
    %421 = "arith.constant"() {value = 0 : index} : () -> index
    %422 = "arith.constant"() {value = 0 : index} : () -> index
    %423 = "arith.constant"() {value = 0 : index} : () -> index
    %424 = "arith.constant"() {value = 0 : index} : () -> index
    %425 = "arith.constant"() {value = 0 : index} : () -> index
    %426 = "arith.constant"() {value = 0 : index} : () -> index
    %427 = "arith.constant"() {value = 0 : index} : () -> index
    %428 = "arith.constant"() {value = 0 : index} : () -> index
    %429 = "arith.constant"() {value = 0 : index} : () -> index
    %430 = "arith.constant"() {value = 0 : index} : () -> index
    %431 = "arith.constant"() {value = 0 : index} : () -> index
    %432 = "arith.constant"() {value = 0 : index} : () -> index
    %433 = "arith.constant"() {value = 0 : index} : () -> index
    %434 = "arith.constant"() {value = 0 : index} : () -> index
    %435 = "arith.constant"() {value = 0 : index} : () -> index
    %436 = "arith.constant"() {value = 0 : index} : () -> index
    %437 = "arith.constant"() {value = 0 : index} : () -> index
    %438 = "arith.constant"() {value = 0 : index} : () -> index
    %439 = "arith.constant"() {value = 0 : index} : () -> index
    %440 = "arith.constant"() {value = 0 : index} : () -> index
    %441 = "arith.constant"() {value = 0 : index} : () -> index
    %442 = "arith.constant"() {value = 0 : index} : () -> index
    %443 = "arith.constant"() {value = 0 : index} : () -> index
    %444 = "arith.constant"() {value = 0 : index} : () -> index
    %445 = "arith.constant"() {value = 0 : index} : () -> index
    %446 = "arith.constant"() {value = 0 : index} : () -> index
    %447 = "arith.constant"() {value = 0 : index} : () -> index
    %448 = "arith.constant"() {value = 0 : index} : () -> index
    %449 = "arith.constant"() {value = 0 : index} : () -> index
    %450 = "arith.constant"() {value = 0 : index} : () -> index
    %451 = "arith.constant"() {value = 0 : index} : () -> index
    %452 = "arith.constant"() {value = 0 : index} : () -> index
    %453 = "arith.constant"() {value = 0 : index} : () -> index
    %454 = "arith.constant"() {value = 0 : index} : () -> index
    %455 = "arith.constant"() {value = 0 : index} : () -> index
    %456 = "arith.constant"() {value = 0 : index} : () -> index
    %457 = "arith.constant"() {value = 0 : index} : () -> index
    %458 = "arith.constant"() {value = 0 : index} : () -> index
    %459 = "arith.constant"() {value = 0 : index} : () -> index
    %460 = "arith.constant"() {value = 0 : index} : () -> index
    %461 = "arith.constant"() {value = 0 : index} : () -> index
    %462 = "arith.constant"() {value = 0 : index} : () -> index
    %463 = "arith.constant"() {value = 0 : index} : () -> index
    %464 = "arith.constant"() {value = 0 : index} : () -> index
    %465 = "arith.constant"() {value = 0 : index} : () -> index
    %466 = "arith.constant"() {value = 0 : index} : () -> index
    %467 = "arith.constant"() {value = 0 : index} : () -> index
    %468 = "arith.constant"() {value = 0 : index} : () -> index
    %469 = "arith.constant"() {value = 0 : index} : () -> index
    %470 = "arith.constant"() {value = 0 : index} : () -> index
    %471 = "arith.constant"() {value = 0 : index} : () -> index
    %472 = "arith.constant"() {value = 0 : index} : () -> index
    %473 = "arith.constant"() {value = 0 : index} : () -> index
    %474 = "arith.constant"() {value = 0 : index} : () -> index
    %475 = "arith.constant"() {value = 0 : index} : () -> index
    %476 = "arith.constant"() {value = 0 : index} : () -> index
    %477 = "arith.constant"() {value = 0 : index} : () -> index
    %478 = "arith.constant"() {value = 0 : index} : () -> index
    %479 = "arith.constant"() {value = 0 : index} : () -> index
    %480 = "arith.constant"() {value = 0 : index} : () -> index
    %481 = "arith.constant"() {value = 0 : index} : () -> index
    %482 = "arith.constant"() {value = 0 : index} : () -> index
    %483 = "arith.constant"() {value = 0 : index} : () -> index
    %484 = "arith.constant"() {value = 0 : index} : () -> index
    %485 = "arith.constant"() {value = 0 : index} : () -> index
    %486 = "arith.constant"() {value = 0 : index} : () -> index
    %487 = "arith.constant"() {value = 0 : index} : () -> index
    %488 = "arith.constant"() {value = 0 : index} : () -> index
    %489 = "arith.constant"() {value = 0 : index} : () -> index
    %490 = "arith.constant"() {value = 0 : index} : () -> index
    %491 = "arith.constant"() {value = 0 : index} : () -> index
    %492 = "arith.constant"() {value = 0 : index} : () -> index
    %493 = "arith.constant"() {value = 0 : index} : () -> index
    %494 = "arith.constant"() {value = 0 : index} : () -> index
    %495 = "arith.constant"() {value = 0 : index} : () -> index
    %496 = "arith.constant"() {value = 0 : index} : () -> index
    %497 = "arith.constant"() {value = 0 : index} : () -> index
    %498 = "arith.constant"() {value = 0 : index} : () -> index
    %499 = "arith.constant"() {value = 0 : index} : () -> index
    %500 = "arith.constant"() {value = 0 : index} : () -> index
    %501 = "arith.constant"() {value = 0 : index} : () -> index
    %502 = "arith.constant"() {value = 0 : index} : () -> index
    %503 = "arith.constant"() {value = 0 : index} : () -> index
    %504 = "arith.constant"() {value = 0 : index} : () -> index
    %505 = "arith.constant"() {value = 0 : index} : () -> index
    %506 = "arith.constant"() {value = 0 : index} : () -> index
    %507 = "arith.constant"() {value = 0 : index} : () -> index
    %508 = "arith.constant"() {value = 0 : index} : () -> index
    %509 = "arith.constant"() {value = 0 : index} : () -> index
    %510 = "arith.constant"() {value = 0 : index} : () -> index
    %511 = "arith.constant"() {value = 0 : index} : () -> index
    %512 = "arith.constant"() {value = 0 : index} : () -> index
    %513 = "arith.constant"() {value = 0 : index} : () -> index
    %514 = "arith.constant"() {value = 0 : index} : () -> index
    %515 = "arith.constant"() {value = 0 : index} : () -> index
    %516 = "arith.constant"() {value = 0 : index} : () -> index
    %517 = "arith.constant"() {value = 0 : index} : () -> index
    %518 = "arith.constant"() {value = 0 : index} : () -> index
    %519 = "arith.constant"() {value = 0 : index} : () -> index
    %520 = "arith.constant"() {value = 0 : index} : () -> index
    %521 = "arith.constant"() {value = 0 : index} : () -> index
    %522 = "arith.constant"() {value = 0 : index} : () -> index
    %523 = "arith.constant"() {value = 0 : index} : () -> index
    %524 = "arith.constant"() {value = 0 : index} : () -> index
    %525 = "arith.constant"() {value = 0 : index} : () -> index
    %526 = "arith.constant"() {value = 0 : index} : () -> index
    %527 = "arith.constant"() {value = 0 : index} : () -> index
    %528 = "arith.constant"() {value = 0 : index} : () -> index
    %529 = "arith.constant"() {value = 0 : index} : () -> index
    %530 = "arith.constant"() {value = 0 : index} : () -> index
    %531 = "arith.constant"() {value = 0 : index} : () -> index
    %532 = "arith.constant"() {value = 0 : index} : () -> index
    %533 = "arith.constant"() {value = 0 : index} : () -> index
    %534 = "arith.constant"() {value = 0 : index} : () -> index
    %535 = "arith.constant"() {value = 0 : index} : () -> index
    %536 = "arith.constant"() {value = 0 : index} : () -> index
    %537 = "arith.constant"() {value = 0 : index} : () -> index
    %538 = "arith.constant"() {value = 0 : index} : () -> index
    %539 = "arith.constant"() {value = 0 : index} : () -> index
    %540 = "arith.constant"() {value = 0 : index} : () -> index
    %541 = "arith.constant"() {value = 0 : index} : () -> index
    %542 = "arith.constant"() {value = 0 : index} : () -> index
    %543 = "arith.constant"() {value = 0 : index} : () -> index
    %544 = "arith.constant"() {value = 0 : index} : () -> index
    %545 = "arith.constant"() {value = 0 : index} : () -> index
    %546 = "arith.constant"() {value = 0 : index} : () -> index
    %547 = "arith.constant"() {value = 0 : index} : () -> index
    %548 = "arith.constant"() {value = 0 : index} : () -> index
    %549 = "arith.constant"() {value = 0 : index} : () -> index
    %550 = "arith.constant"() {value = 0 : index} : () -> index
    %551 = "arith.constant"() {value = 0 : index} : () -> index
    %552 = "arith.constant"() {value = 0 : index} : () -> index
    %553 = "arith.constant"() {value = 0 : index} : () -> index
    %554 = "arith.constant"() {value = 0 : index} : () -> index
    %555 = "arith.constant"() {value = 0 : index} : () -> index
    %556 = "arith.constant"() {value = 0 : index} : () -> index
    %557 = "arith.constant"() {value = 0 : index} : () -> index
    %558 = "arith.constant"() {value = 0 : index} : () -> index
    %559 = "arith.constant"() {value = 0 : index} : () -> index
    %560 = "arith.constant"() {value = 0 : index} : () -> index
    %561 = "arith.constant"() {value = 0 : index} : () -> index
    %562 = "arith.constant"() {value = 0 : index} : () -> index
    %563 = "arith.constant"() {value = 0 : index} : () -> index
    %564 = "arith.constant"() {value = 0 : index} : () -> index
    %565 = "arith.constant"() {value = 0 : index} : () -> index
    %566 = "arith.constant"() {value = 0 : index} : () -> index
    %567 = "arith.constant"() {value = 0 : index} : () -> index
    %568 = "arith.constant"() {value = 0 : index} : () -> index
    %569 = "arith.constant"() {value = 0 : index} : () -> index
    %570 = "arith.constant"() {value = 0 : index} : () -> index
    %571 = "arith.constant"() {value = 0 : index} : () -> index
    %572 = "arith.constant"() {value = 0 : index} : () -> index
    %573 = "arith.constant"() {value = 0 : index} : () -> index
    %574 = "arith.constant"() {value = 0 : index} : () -> index
    %575 = "arith.constant"() {value = 0 : index} : () -> index
    %576 = "arith.constant"() {value = 0 : index} : () -> index
    %577 = "arith.constant"() {value = 0 : index} : () -> index
    %578 = "arith.constant"() {value = 0 : index} : () -> index
    %579 = "arith.constant"() {value = 0 : index} : () -> index
    %580 = "arith.constant"() {value = 0 : index} : () -> index
    %581 = "arith.constant"() {value = 0 : index} : () -> index
    %582 = "arith.constant"() {value = 0 : index} : () -> index
    %583 = "arith.constant"() {value = 0 : index} : () -> index
    %584 = "arith.constant"() {value = 0 : index} : () -> index
    %585 = "arith.constant"() {value = 0 : index} : () -> index
    %586 = "arith.constant"() {value = 0 : index} : () -> index
    %587 = "arith.constant"() {value = 0 : index} : () -> index
    %588 = "arith.constant"() {value = 0 : index} : () -> index
    %589 = "arith.constant"() {value = 0 : index} : () -> index
    %590 = "arith.constant"() {value = 0 : index} : () -> index
    %591 = "arith.constant"() {value = 0 : index} : () -> index
    %592 = "arith.constant"() {value = 0 : index} : () -> index
    %593 = "arith.constant"() {value = 0 : index} : () -> index
    %594 = "arith.constant"() {value = 0 : index} : () -> index
    %595 = "arith.constant"() {value = 0 : index} : () -> index
    %596 = "arith.constant"() {value = 0 : index} : () -> index
    %597 = "arith.constant"() {value = 0 : index} : () -> index
    %598 = "arith.constant"() {value = 0 : index} : () -> index
    %599 = "arith.constant"() {value = 0 : index} : () -> index
    %600 = "arith.constant"() {value = 0 : index} : () -> index
    %601 = "arith.constant"() {value = 0 : index} : () -> index
    %602 = "arith.constant"() {value = 0 : index} : () -> index
    %603 = "arith.constant"() {value = 0 : index} : () -> index
    %604 = "arith.constant"() {value = 0 : index} : () -> index
    %605 = "arith.constant"() {value = 0 : index} : () -> index
    %606 = "arith.constant"() {value = 0 : index} : () -> index
    %607 = "arith.constant"() {value = 0 : index} : () -> index
    %608 = "arith.constant"() {value = 0 : index} : () -> index
    %609 = "arith.constant"() {value = 0 : index} : () -> index
    %610 = "arith.constant"() {value = 0 : index} : () -> index
    %611 = "arith.constant"() {value = 0 : index} : () -> index
    %612 = "arith.constant"() {value = 0 : index} : () -> index
    %613 = "arith.constant"() {value = 0 : index} : () -> index
    %614 = "arith.constant"() {value = 0 : index} : () -> index
    %615 = "arith.constant"() {value = 0 : index} : () -> index
    %616 = "arith.constant"() {value = 0 : index} : () -> index
    %617 = "arith.constant"() {value = 0 : index} : () -> index
    %618 = "arith.constant"() {value = 0 : index} : () -> index
    %619 = "arith.constant"() {value = 0 : index} : () -> index
    %620 = "arith.constant"() {value = 0 : index} : () -> index
    %621 = "arith.constant"() {value = 0 : index} : () -> index
    %622 = "arith.constant"() {value = 0 : index} : () -> index
    %623 = "arith.constant"() {value = 0 : index} : () -> index
    %624 = "arith.constant"() {value = 0 : index} : () -> index
    %625 = "arith.constant"() {value = 0 : index} : () -> index
    %626 = "arith.constant"() {value = 0 : index} : () -> index
    %627 = "arith.constant"() {value = 0 : index} : () -> index
    %628 = "arith.constant"() {value = 0 : index} : () -> index
    %629 = "arith.constant"() {value = 0 : index} : () -> index
    %630 = "arith.constant"() {value = 0 : index} : () -> index
    %631 = "arith.constant"() {value = 0 : index} : () -> index
    %632 = "arith.constant"() {value = 0 : index} : () -> index
    %633 = "arith.constant"() {value = 0 : index} : () -> index
    %634 = "arith.constant"() {value = 0 : index} : () -> index
    %635 = "arith.constant"() {value = 0 : index} : () -> index
    %636 = "arith.constant"() {value = 0 : index} : () -> index
    %637 = "arith.constant"() {value = 0 : index} : () -> index
    %638 = "arith.constant"() {value = 0 : index} : () -> index
    %639 = "arith.constant"() {value = 0 : index} : () -> index
    %640 = "arith.constant"() {value = 0 : index} : () -> index
    %641 = "arith.constant"() {value = 0 : index} : () -> index
    %642 = "arith.constant"() {value = 0 : index} : () -> index
    %643 = "arith.constant"() {value = 0 : index} : () -> index
    %644 = "arith.constant"() {value = 0 : index} : () -> index
    %645 = "arith.constant"() {value = 0 : index} : () -> index
    %646 = "arith.constant"() {value = 0 : index} : () -> index
    %647 = "arith.constant"() {value = 0 : index} : () -> index
    %648 = "arith.constant"() {value = 0 : index} : () -> index
    %649 = "arith.constant"() {value = 0 : index} : () -> index
    %650 = "arith.constant"() {value = 0 : index} : () -> index
    %651 = "arith.constant"() {value = 0 : index} : () -> index
    %652 = "arith.constant"() {value = 0 : index} : () -> index
    %653 = "arith.constant"() {value = 0 : index} : () -> index
    %654 = "arith.constant"() {value = 0 : index} : () -> index
    %655 = "arith.constant"() {value = 0 : index} : () -> index
    %656 = "arith.constant"() {value = 0 : index} : () -> index
    %657 = "arith.constant"() {value = 0 : index} : () -> index
    %658 = "arith.constant"() {value = 0 : index} : () -> index
    %659 = "arith.constant"() {value = 0 : index} : () -> index
    %660 = "arith.constant"() {value = 0 : index} : () -> index
    %661 = "arith.constant"() {value = 0 : index} : () -> index
    %662 = "arith.constant"() {value = 0 : index} : () -> index
    %663 = "arith.constant"() {value = 0 : index} : () -> index
    %664 = "arith.constant"() {value = 0 : index} : () -> index
    %665 = "arith.constant"() {value = 0 : index} : () -> index
    %666 = "arith.constant"() {value = 0 : index} : () -> index
    %667 = "arith.constant"() {value = 0 : index} : () -> index
    %668 = "arith.constant"() {value = 0 : index} : () -> index
    %669 = "arith.constant"() {value = 0 : index} : () -> index
    %670 = "arith.constant"() {value = 0 : index} : () -> index
    %671 = "arith.constant"() {value = 0 : index} : () -> index
    %672 = "arith.constant"() {value = 0 : index} : () -> index
    %673 = "arith.constant"() {value = 0 : index} : () -> index
    %674 = "arith.constant"() {value = 0 : index} : () -> index
    %675 = "arith.constant"() {value = 0 : index} : () -> index
    %676 = "arith.constant"() {value = 0 : index} : () -> index
    %677 = "arith.constant"() {value = 0 : index} : () -> index
    %678 = "arith.constant"() {value = 0 : index} : () -> index
    %679 = "arith.constant"() {value = 0 : index} : () -> index
    %680 = "arith.constant"() {value = 0 : index} : () -> index
    %681 = "arith.constant"() {value = 0 : index} : () -> index
    %682 = "arith.constant"() {value = 0 : index} : () -> index
    %683 = "arith.constant"() {value = 0 : index} : () -> index
    %684 = "arith.constant"() {value = 0 : index} : () -> index
    %685 = "arith.constant"() {value = 0 : index} : () -> index
    %686 = "arith.constant"() {value = 0 : index} : () -> index
    %687 = "arith.constant"() {value = 0 : index} : () -> index
    %688 = "arith.constant"() {value = 0 : index} : () -> index
    %689 = "arith.constant"() {value = 0 : index} : () -> index
    %690 = "arith.constant"() {value = 0 : index} : () -> index
    %691 = "arith.constant"() {value = 0 : index} : () -> index
    %692 = "arith.constant"() {value = 0 : index} : () -> index
    %693 = "arith.constant"() {value = 0 : index} : () -> index
    %694 = "arith.constant"() {value = 0 : index} : () -> index
    %695 = "arith.constant"() {value = 0 : index} : () -> index
    %696 = "arith.constant"() {value = 0 : index} : () -> index
    %697 = "arith.constant"() {value = 0 : index} : () -> index
    %698 = "arith.constant"() {value = 0 : index} : () -> index
    %699 = "arith.constant"() {value = 0 : index} : () -> index
    %700 = "arith.constant"() {value = 0 : index} : () -> index
    %701 = "arith.constant"() {value = 0 : index} : () -> index
    %702 = "arith.constant"() {value = 0 : index} : () -> index
    %703 = "arith.constant"() {value = 0 : index} : () -> index
    %704 = "arith.constant"() {value = 0 : index} : () -> index
    %705 = "arith.constant"() {value = 0 : index} : () -> index
    %706 = "arith.constant"() {value = 0 : index} : () -> index
    %707 = "arith.constant"() {value = 0 : index} : () -> index
    %708 = "arith.constant"() {value = 0 : index} : () -> index
    %709 = "arith.constant"() {value = 0 : index} : () -> index
    %710 = "arith.constant"() {value = 0 : index} : () -> index
    %711 = "arith.constant"() {value = 0 : index} : () -> index
    %712 = "arith.constant"() {value = 0 : index} : () -> index
    %713 = "arith.constant"() {value = 0 : index} : () -> index
    %714 = "arith.constant"() {value = 0 : index} : () -> index
    %715 = "arith.constant"() {value = 0 : index} : () -> index
    %716 = "arith.constant"() {value = 0 : index} : () -> index
    %717 = "arith.constant"() {value = 0 : index} : () -> index
    %718 = "arith.constant"() {value = 0 : index} : () -> index
    %719 = "arith.constant"() {value = 0 : index} : () -> index
    %720 = "arith.constant"() {value = 0 : index} : () -> index
    %721 = "arith.constant"() {value = 0 : index} : () -> index
    %722 = "arith.constant"() {value = 0 : index} : () -> index
    %723 = "arith.constant"() {value = 0 : index} : () -> index
    %724 = "arith.constant"() {value = 0 : index} : () -> index
    %725 = "arith.constant"() {value = 0 : index} : () -> index
    %726 = "arith.constant"() {value = 0 : index} : () -> index
    %727 = "arith.constant"() {value = 0 : index} : () -> index
    %728 = "arith.constant"() {value = 0 : index} : () -> index
    %729 = "arith.constant"() {value = 0 : index} : () -> index
    %730 = "arith.constant"() {value = 0 : index} : () -> index
    %731 = "arith.constant"() {value = 0 : index} : () -> index
    %732 = "memref.alloc"() {name = "SPAD.alloc_c", operand_segment_sizes = dense<0> : vector<2xi32>} : () -> memref<33554432xi32>
    "affine.for"() ({
    ^bb0(%arg2: index):
      %1062 = "arith.constant"() {value = 0 : i32} : () -> i32
      "affine.store"(%1062, %732, %arg2) {map = #map0, to = "SPAD.alloc_c", unsigned} : (i32, memref<33554432xi32>, index) -> ()
      "affine.yield"() : () -> ()
    }) {loop_name = "i0", lower_bound = #map1, op_name = "SPAD.alloc_c", step = 1 : i32, upper_bound = #map2} : () -> ()
    %733 = "memref.alloc"() {name = "minstq.alloc_c", operand_segment_sizes = dense<0> : vector<2xi32>} : () -> memref<16384xi64>
    "affine.for"() ({
    ^bb0(%arg2: index):
      %1062 = "arith.constant"() {value = 0 : i32} : () -> i32
      %1063 = "arith.extsi"(%1062) {unsigned} : (i32) -> i64
      "affine.store"(%1063, %733, %arg2) {map = #map0, to = "minstq.alloc_c", unsigned} : (i64, memref<16384xi64>, index) -> ()
      "affine.yield"() : () -> ()
    }) {loop_name = "i0", lower_bound = #map1, op_name = "minstq.alloc_c", step = 1 : i32, upper_bound = #map3} : () -> ()
    %734 = "memref.alloc"() {name = "flags_msyncc", operand_segment_sizes = dense<0> : vector<2xi32>} : () -> memref<1xi1>
    %735 = "arith.constant"() {value = 0 : i32} : () -> i32
    %736 = "arith.trunci"(%735) {unsigned} : (i32) -> i1
    "affine.store"(%736, %734, %731) {map = #map0, to = "flags_msyncc", unsigned} : (i1, memref<1xi1>, index) -> ()
    %737 = "memref.alloc"() {name = "flags_active", operand_segment_sizes = dense<0> : vector<2xi32>} : () -> memref<1xi1>
    %738 = "arith.constant"() {value = 0 : i32} : () -> i32
    %739 = "arith.trunci"(%738) {unsigned} : (i32) -> i1
    "affine.store"(%739, %737, %730) {map = #map0, to = "flags_active", unsigned} : (i1, memref<1xi1>, index) -> ()
    %740 = "memref.alloc"() {name = "flags_halt", operand_segment_sizes = dense<0> : vector<2xi32>} : () -> memref<1xi1>
    %741 = "arith.constant"() {value = 0 : i32} : () -> i32
    %742 = "arith.trunci"(%741) {unsigned} : (i32) -> i1
    "affine.store"(%742, %740, %729) {map = #map0, to = "flags_halt", unsigned} : (i1, memref<1xi1>, index) -> ()
    %743 = "memref.alloc"() {name = "flags_stall", operand_segment_sizes = dense<0> : vector<2xi32>} : () -> memref<1xi1>
    %744 = "arith.constant"() {value = 0 : i32} : () -> i32
    %745 = "arith.trunci"(%744) {unsigned} : (i32) -> i1
    "affine.store"(%745, %743, %728) {map = #map0, to = "flags_stall", unsigned} : (i1, memref<1xi1>, index) -> ()
    %746 = "memref.alloc"() {name = "flags_stalled", operand_segment_sizes = dense<0> : vector<2xi32>} : () -> memref<1xi1>
    %747 = "arith.constant"() {value = 0 : i32} : () -> i32
    %748 = "arith.trunci"(%747) {unsigned} : (i32) -> i1
    "affine.store"(%748, %746, %727) {map = #map0, to = "flags_stalled", unsigned} : (i1, memref<1xi1>, index) -> ()
    %749 = "memref.alloc"() {name = "flags_break", operand_segment_sizes = dense<0> : vector<2xi32>} : () -> memref<1xi1>
    %750 = "arith.constant"() {value = 0 : i32} : () -> i32
    %751 = "arith.trunci"(%750) {unsigned} : (i32) -> i1
    "affine.store"(%751, %749, %726) {map = #map0, to = "flags_break", unsigned} : (i1, memref<1xi1>, index) -> ()
    %752 = "memref.alloc"() {name = "count_stop", operand_segment_sizes = dense<0> : vector<2xi32>} : () -> memref<1xi1>
    %753 = "arith.constant"() {value = 0 : i32} : () -> i32
    %754 = "arith.trunci"(%753) {unsigned} : (i32) -> i1
    "affine.store"(%754, %752, %725) {map = #map0, to = "count_stop", unsigned} : (i1, memref<1xi1>, index) -> ()
    %755 = "memref.alloc"() {name = "addr_stop", operand_segment_sizes = dense<0> : vector<2xi32>} : () -> memref<1xi1>
    %756 = "arith.constant"() {value = 0 : i32} : () -> i32
    %757 = "arith.trunci"(%756) {unsigned} : (i32) -> i1
    "affine.store"(%757, %755, %724) {map = #map0, to = "addr_stop", unsigned} : (i1, memref<1xi1>, index) -> ()
    %758 = "memref.alloc"() {name = "inst_addr", operand_segment_sizes = dense<0> : vector<2xi32>} : () -> memref<1xi32>
    %759 = "arith.constant"() {value = 0 : i32} : () -> i32
    "affine.store"(%759, %758, %723) {map = #map0, to = "inst_addr", unsigned} : (i32, memref<1xi32>, index) -> ()
    %760 = "memref.alloc"() {name = "inst_naddr", operand_segment_sizes = dense<0> : vector<2xi32>} : () -> memref<1xi32>
    %761 = "arith.constant"() {value = 0 : i32} : () -> i32
    "affine.store"(%761, %760, %722) {map = #map0, to = "inst_naddr", unsigned} : (i32, memref<1xi32>, index) -> ()
    %762 = "memref.alloc"() {name = "latency_count", operand_segment_sizes = dense<0> : vector<2xi32>} : () -> memref<1xi32>
    %763 = "arith.constant"() {value = 0 : i32} : () -> i32
    "affine.store"(%763, %762, %721) {map = #map0, to = "latency_count", unsigned} : (i32, memref<1xi32>, index) -> ()
    %764 = "memref.alloc"() {name = "latstalled", operand_segment_sizes = dense<0> : vector<2xi32>} : () -> memref<1xi1>
    %765 = "arith.constant"() {value = 0 : i32} : () -> i32
    %766 = "arith.trunci"(%765) {unsigned} : (i32) -> i1
    "affine.store"(%766, %764, %720) {map = #map0, to = "latstalled", unsigned} : (i1, memref<1xi1>, index) -> ()
    %767 = "memref.alloc"() {name = "tele_inst_count", operand_segment_sizes = dense<0> : vector<2xi32>} : () -> memref<1xi32>
    %768 = "arith.constant"() {value = 0 : i32} : () -> i32
    "affine.store"(%768, %767, %719) {map = #map0, to = "tele_inst_count", unsigned} : (i32, memref<1xi32>, index) -> ()
    %769 = "memref.alloc"() {name = "tele_stall_count", operand_segment_sizes = dense<0> : vector<2xi32>} : () -> memref<1xi32>
    %770 = "arith.constant"() {value = 0 : i32} : () -> i32
    "affine.store"(%770, %769, %718) {map = #map0, to = "tele_stall_count", unsigned} : (i32, memref<1xi32>, index) -> ()
    %771 = "memref.alloc"() {name = "tele_latstall_count", operand_segment_sizes = dense<0> : vector<2xi32>} : () -> memref<1xi32>
    %772 = "arith.constant"() {value = 0 : i32} : () -> i32
    "affine.store"(%772, %771, %717) {map = #map0, to = "tele_latstall_count", unsigned} : (i32, memref<1xi32>, index) -> ()
    %773 = "memref.alloc"() {name = "xinstq.alloc_c", operand_segment_sizes = dense<0> : vector<2xi32>} : () -> memref<32768xi128>
    "affine.for"() ({
    ^bb0(%arg2: index):
      %1062 = "arith.constant"() {value = 0 : i32} : () -> i32
      %1063 = "arith.extsi"(%1062) {unsigned} : (i32) -> i128
      "affine.store"(%1063, %773, %arg2) {map = #map0, to = "xinstq.alloc_c", unsigned} : (i128, memref<32768xi128>, index) -> ()
      "affine.yield"() : () -> ()
    }) {loop_name = "i0", lower_bound = #map1, op_name = "xinstq.alloc_c", step = 1 : i32, upper_bound = #map4} : () -> ()
    %774 = "memref.alloc"() {name = "xinstq_bundles", operand_segment_sizes = dense<0> : vector<2xi32>} : () -> memref<1xi32>
    %775 = "arith.constant"() {value = 0 : i32} : () -> i32
    "affine.store"(%775, %774, %716) {map = #map0, to = "xinstq_bundles", unsigned} : (i32, memref<1xi32>, index) -> ()
    %776 = "memref.alloc"() {name = "cinstq.alloc_c", operand_segment_sizes = dense<0> : vector<2xi32>} : () -> memref<16384xi64>
    "affine.for"() ({
    ^bb0(%arg2: index):
      %1062 = "arith.constant"() {value = 0 : i32} : () -> i32
      %1063 = "arith.extsi"(%1062) {unsigned} : (i32) -> i64
      "affine.store"(%1063, %776, %arg2) {map = #map0, to = "cinstq.alloc_c", unsigned} : (i64, memref<16384xi64>, index) -> ()
      "affine.yield"() : () -> ()
    }) {loop_name = "i0", lower_bound = #map1, op_name = "cinstq.alloc_c", step = 1 : i32, upper_bound = #map3} : () -> ()
    %777 = "memref.alloc"() {name = "nop_count", operand_segment_sizes = dense<0> : vector<2xi32>} : () -> memref<1xi32>
    %778 = "arith.constant"() {value = 0 : i32} : () -> i32
    "affine.store"(%778, %777, %715) {map = #map0, to = "nop_count", unsigned} : (i32, memref<1xi32>, index) -> ()
    %779 = "memref.alloc"() {name = "csyncm", operand_segment_sizes = dense<0> : vector<2xi32>} : () -> memref<1xi1>
    %780 = "arith.constant"() {value = 0 : i32} : () -> i32
    %781 = "arith.trunci"(%780) {unsigned} : (i32) -> i1
    "affine.store"(%781, %779, %714) {map = #map0, to = "csyncm", unsigned} : (i1, memref<1xi1>, index) -> ()
    %782 = "memref.alloc"() {name = "cstore_cycle", operand_segment_sizes = dense<0> : vector<2xi32>} : () -> memref<1xi3>
    %783 = "arith.constant"() {value = 0 : i32} : () -> i32
    %784 = "arith.trunci"(%783) {unsigned} : (i32) -> i3
    "affine.store"(%784, %782, %713) {map = #map0, to = "cstore_cycle", unsigned} : (i3, memref<1xi3>, index) -> ()
    %785 = "memref.alloc"() {name = "cstore_valid", operand_segment_sizes = dense<0> : vector<2xi32>} : () -> memref<1xi1>
    %786 = "arith.constant"() {value = 0 : i32} : () -> i32
    %787 = "arith.trunci"(%786) {unsigned} : (i32) -> i1
    "affine.store"(%787, %785, %712) {map = #map0, to = "cstore_valid", unsigned} : (i1, memref<1xi1>, index) -> ()
    %788 = "memref.alloc"() {name = "cstore_spadaddr", operand_segment_sizes = dense<0> : vector<2xi32>} : () -> memref<1xi32>
    %789 = "arith.constant"() {value = 0 : i32} : () -> i32
    "affine.store"(%789, %788, %711) {map = #map0, to = "cstore_spadaddr", unsigned} : (i32, memref<1xi32>, index) -> ()
    %790 = "memref.alloc"() {name = "flags_active_21", operand_segment_sizes = dense<0> : vector<2xi32>} : () -> memref<1xi1>
    %791 = "arith.constant"() {value = 0 : i32} : () -> i32
    %792 = "arith.trunci"(%791) {unsigned} : (i32) -> i1
    "affine.store"(%792, %790, %710) {map = #map0, to = "flags_active_21", unsigned} : (i1, memref<1xi1>, index) -> ()
    %793 = "memref.alloc"() {name = "flags_halt_22", operand_segment_sizes = dense<0> : vector<2xi32>} : () -> memref<1xi1>
    %794 = "arith.constant"() {value = 0 : i32} : () -> i32
    %795 = "arith.trunci"(%794) {unsigned} : (i32) -> i1
    "affine.store"(%795, %793, %709) {map = #map0, to = "flags_halt_22", unsigned} : (i1, memref<1xi1>, index) -> ()
    %796 = "memref.alloc"() {name = "flags_stall_23", operand_segment_sizes = dense<0> : vector<2xi32>} : () -> memref<1xi1>
    %797 = "arith.constant"() {value = 0 : i32} : () -> i32
    %798 = "arith.trunci"(%797) {unsigned} : (i32) -> i1
    "affine.store"(%798, %796, %708) {map = #map0, to = "flags_stall_23", unsigned} : (i1, memref<1xi1>, index) -> ()
    %799 = "memref.alloc"() {name = "flags_stalled_24", operand_segment_sizes = dense<0> : vector<2xi32>} : () -> memref<1xi1>
    %800 = "arith.constant"() {value = 0 : i32} : () -> i32
    %801 = "arith.trunci"(%800) {unsigned} : (i32) -> i1
    "affine.store"(%801, %799, %707) {map = #map0, to = "flags_stalled_24", unsigned} : (i1, memref<1xi1>, index) -> ()
    %802 = "memref.alloc"() {name = "flags_break_25", operand_segment_sizes = dense<0> : vector<2xi32>} : () -> memref<1xi1>
    %803 = "arith.constant"() {value = 0 : i32} : () -> i32
    %804 = "arith.trunci"(%803) {unsigned} : (i32) -> i1
    "affine.store"(%804, %802, %706) {map = #map0, to = "flags_break_25", unsigned} : (i1, memref<1xi1>, index) -> ()
    %805 = "memref.alloc"() {name = "count_stop_26", operand_segment_sizes = dense<0> : vector<2xi32>} : () -> memref<1xi1>
    %806 = "arith.constant"() {value = 0 : i32} : () -> i32
    %807 = "arith.trunci"(%806) {unsigned} : (i32) -> i1
    "affine.store"(%807, %805, %705) {map = #map0, to = "count_stop_26", unsigned} : (i1, memref<1xi1>, index) -> ()
    %808 = "memref.alloc"() {name = "addr_stop_27", operand_segment_sizes = dense<0> : vector<2xi32>} : () -> memref<1xi1>
    %809 = "arith.constant"() {value = 0 : i32} : () -> i32
    %810 = "arith.trunci"(%809) {unsigned} : (i32) -> i1
    "affine.store"(%810, %808, %704) {map = #map0, to = "addr_stop_27", unsigned} : (i1, memref<1xi1>, index) -> ()
    %811 = "memref.alloc"() {name = "inst_addr_28", operand_segment_sizes = dense<0> : vector<2xi32>} : () -> memref<1xi32>
    %812 = "arith.constant"() {value = 0 : i32} : () -> i32
    "affine.store"(%812, %811, %703) {map = #map0, to = "inst_addr_28", unsigned} : (i32, memref<1xi32>, index) -> ()
    %813 = "memref.alloc"() {name = "inst_naddr_29", operand_segment_sizes = dense<0> : vector<2xi32>} : () -> memref<1xi32>
    %814 = "arith.constant"() {value = 0 : i32} : () -> i32
    "affine.store"(%814, %813, %702) {map = #map0, to = "inst_naddr_29", unsigned} : (i32, memref<1xi32>, index) -> ()
    %815 = "memref.alloc"() {name = "latency_count_30", operand_segment_sizes = dense<0> : vector<2xi32>} : () -> memref<1xi32>
    %816 = "arith.constant"() {value = 0 : i32} : () -> i32
    "affine.store"(%816, %815, %701) {map = #map0, to = "latency_count_30", unsigned} : (i32, memref<1xi32>, index) -> ()
    %817 = "memref.alloc"() {name = "latstalled_31", operand_segment_sizes = dense<0> : vector<2xi32>} : () -> memref<1xi1>
    %818 = "arith.constant"() {value = 0 : i32} : () -> i32
    %819 = "arith.trunci"(%818) {unsigned} : (i32) -> i1
    "affine.store"(%819, %817, %700) {map = #map0, to = "latstalled_31", unsigned} : (i1, memref<1xi1>, index) -> ()
    %820 = "memref.alloc"() {name = "tele_inst_count_32", operand_segment_sizes = dense<0> : vector<2xi32>} : () -> memref<1xi32>
    %821 = "arith.constant"() {value = 0 : i32} : () -> i32
    "affine.store"(%821, %820, %699) {map = #map0, to = "tele_inst_count_32", unsigned} : (i32, memref<1xi32>, index) -> ()
    %822 = "memref.alloc"() {name = "tele_stall_count_33", operand_segment_sizes = dense<0> : vector<2xi32>} : () -> memref<1xi32>
    %823 = "arith.constant"() {value = 0 : i32} : () -> i32
    "affine.store"(%823, %822, %698) {map = #map0, to = "tele_stall_count_33", unsigned} : (i32, memref<1xi32>, index) -> ()
    %824 = "memref.alloc"() {name = "tele_latstall_count_34", operand_segment_sizes = dense<0> : vector<2xi32>} : () -> memref<1xi32>
    %825 = "arith.constant"() {value = 0 : i32} : () -> i32
    "affine.store"(%825, %824, %697) {map = #map0, to = "tele_latstall_count_34", unsigned} : (i32, memref<1xi32>, index) -> ()
    %826 = "memref.alloc"() {name = "RFfoo.alloc_c", operand_segment_sizes = dense<0> : vector<2xi32>} : () -> memref<4x72x8192xi32>
    "affine.for"() ({
    ^bb0(%arg2: index):
      "affine.for"() ({
      ^bb0(%arg3: index):
        "affine.for"() ({
        ^bb0(%arg4: index):
          %1062 = "arith.constant"() {value = 0 : i32} : () -> i32
          "affine.store"(%1062, %826, %arg2, %arg3, %arg4) {map = #map5, to = "RFfoo.alloc_c", unsigned} : (i32, memref<4x72x8192xi32>, index, index, index) -> ()
          "affine.yield"() : () -> ()
        }) {loop_name = "i2", lower_bound = #map1, step = 1 : i32, upper_bound = #map6} : () -> ()
        "affine.yield"() : () -> ()
      }) {loop_name = "i1", lower_bound = #map1, step = 1 : i32, upper_bound = #map7} : () -> ()
      "affine.yield"() : () -> ()
    }) {loop_name = "i0", lower_bound = #map1, op_name = "RFfoo.alloc_c", step = 1 : i32, upper_bound = #map8} : () -> ()
    %827 = "memref.alloc"() {name = "twpwrs.alloc_c", operand_segment_sizes = dense<0> : vector<2xi32>} : () -> memref<32x64xi32>
    "affine.for"() ({
    ^bb0(%arg2: index):
      "affine.for"() ({
      ^bb0(%arg3: index):
        %1062 = "arith.constant"() {value = 0 : i32} : () -> i32
        "affine.store"(%1062, %827, %arg2, %arg3) {map = #map9, to = "twpwrs.alloc_c", unsigned} : (i32, memref<32x64xi32>, index, index) -> ()
        "affine.yield"() : () -> ()
      }) {loop_name = "i1", lower_bound = #map1, step = 1 : i32, upper_bound = #map10} : () -> ()
      "affine.yield"() : () -> ()
    }) {loop_name = "i0", lower_bound = #map1, op_name = "twpwrs.alloc_c", step = 1 : i32, upper_bound = #map11} : () -> ()
    %828 = "memref.alloc"() {name = "mone.alloc_c", operand_segment_sizes = dense<0> : vector<2xi32>} : () -> memref<64xi32>
    "affine.for"() ({
    ^bb0(%arg2: index):
      %1062 = "arith.constant"() {value = 0 : i32} : () -> i32
      "affine.store"(%1062, %828, %arg2) {map = #map0, to = "mone.alloc_c", unsigned} : (i32, memref<64xi32>, index) -> ()
      "affine.yield"() : () -> ()
    }) {loop_name = "i0", lower_bound = #map1, op_name = "mone.alloc_c", step = 1 : i32, upper_bound = #map10} : () -> ()
    %829 = "memref.alloc"() {name = "nop_count_35", operand_segment_sizes = dense<0> : vector<2xi32>} : () -> memref<1xi32>
    %830 = "arith.constant"() {value = 0 : i32} : () -> i32
    "affine.store"(%830, %829, %696) {map = #map0, to = "nop_count_35", unsigned} : (i32, memref<1xi32>, index) -> ()
    %831 = "memref.alloc"() {name = "flag_ntt", operand_segment_sizes = dense<0> : vector<2xi32>} : () -> memref<1xi1>
    %832 = "arith.constant"() {value = 0 : i32} : () -> i32
    %833 = "arith.trunci"(%832) {unsigned} : (i32) -> i1
    "affine.store"(%833, %831, %695) {map = #map0, to = "flag_ntt", unsigned} : (i1, memref<1xi1>, index) -> ()
    %834 = "memref.alloc"() {name = "flag_intt", operand_segment_sizes = dense<0> : vector<2xi32>} : () -> memref<1xi1>
    %835 = "arith.constant"() {value = 0 : i32} : () -> i32
    %836 = "arith.trunci"(%835) {unsigned} : (i32) -> i1
    "affine.store"(%836, %834, %694) {map = #map0, to = "flag_intt", unsigned} : (i1, memref<1xi1>, index) -> ()
    %837 = "memref.alloc"() {name = "ntt_intt_top_addr", operand_segment_sizes = dense<0> : vector<2xi32>} : () -> memref<1xi9>
    %838 = "arith.constant"() {value = 0 : i32} : () -> i32
    %839 = "arith.trunci"(%838) {unsigned} : (i32) -> i9
    "affine.store"(%839, %837, %693) {map = #map0, to = "ntt_intt_top_addr", unsigned} : (i9, memref<1xi9>, index) -> ()
    %840 = "memref.alloc"() {name = "ntt_intt_bot_addr", operand_segment_sizes = dense<0> : vector<2xi32>} : () -> memref<1xi9>
    %841 = "arith.constant"() {value = 0 : i32} : () -> i32
    %842 = "arith.trunci"(%841) {unsigned} : (i32) -> i9
    "affine.store"(%842, %840, %692) {map = #map0, to = "ntt_intt_bot_addr", unsigned} : (i9, memref<1xi9>, index) -> ()
    %843 = "memref.alloc"() {name = "instq.alloc_c", operand_segment_sizes = dense<0> : vector<2xi32>} : () -> memref<16xi128>
    "affine.for"() ({
    ^bb0(%arg2: index):
      %1062 = "arith.constant"() {value = 0 : i32} : () -> i32
      %1063 = "arith.extsi"(%1062) {unsigned} : (i32) -> i128
      "affine.store"(%1063, %843, %arg2) {map = #map0, to = "instq.alloc_c", unsigned} : (i128, memref<16xi128>, index) -> ()
      "affine.yield"() : () -> ()
    }) {loop_name = "i0", lower_bound = #map1, op_name = "instq.alloc_c", step = 1 : i32, upper_bound = #map12} : () -> ()
    %844 = "memref.alloc"() {name = "nttdataintop.alloc_c", operand_segment_sizes = dense<0> : vector<2xi32>} : () -> memref<8192xi32>
    "affine.for"() ({
    ^bb0(%arg2: index):
      %1062 = "arith.constant"() {value = 0 : i32} : () -> i32
      "affine.store"(%1062, %844, %arg2) {map = #map0, to = "nttdataintop.alloc_c", unsigned} : (i32, memref<8192xi32>, index) -> ()
      "affine.yield"() : () -> ()
    }) {loop_name = "i0", lower_bound = #map1, op_name = "nttdataintop.alloc_c", step = 1 : i32, upper_bound = #map6} : () -> ()
    %845 = "memref.alloc"() {name = "nttdatainbot.alloc_c", operand_segment_sizes = dense<0> : vector<2xi32>} : () -> memref<8192xi32>
    "affine.for"() ({
    ^bb0(%arg2: index):
      %1062 = "arith.constant"() {value = 0 : i32} : () -> i32
      "affine.store"(%1062, %845, %arg2) {map = #map0, to = "nttdatainbot.alloc_c", unsigned} : (i32, memref<8192xi32>, index) -> ()
      "affine.yield"() : () -> ()
    }) {loop_name = "i0", lower_bound = #map1, op_name = "nttdatainbot.alloc_c", step = 1 : i32, upper_bound = #map6} : () -> ()
    %846 = "memref.alloc"() {name = "nttdataouttop.alloc_c", operand_segment_sizes = dense<0> : vector<2xi32>} : () -> memref<8192xi32>
    "affine.for"() ({
    ^bb0(%arg2: index):
      %1062 = "arith.constant"() {value = 0 : i32} : () -> i32
      "affine.store"(%1062, %846, %arg2) {map = #map0, to = "nttdataouttop.alloc_c", unsigned} : (i32, memref<8192xi32>, index) -> ()
      "affine.yield"() : () -> ()
    }) {loop_name = "i0", lower_bound = #map1, op_name = "nttdataouttop.alloc_c", step = 1 : i32, upper_bound = #map6} : () -> ()
    %847 = "memref.alloc"() {name = "nttdataoutbot.alloc_c", operand_segment_sizes = dense<0> : vector<2xi32>} : () -> memref<8192xi32>
    "affine.for"() ({
    ^bb0(%arg2: index):
      %1062 = "arith.constant"() {value = 0 : i32} : () -> i32
      "affine.store"(%1062, %847, %arg2) {map = #map0, to = "nttdataoutbot.alloc_c", unsigned} : (i32, memref<8192xi32>, index) -> ()
      "affine.yield"() : () -> ()
    }) {loop_name = "i0", lower_bound = #map1, op_name = "nttdataoutbot.alloc_c", step = 1 : i32, upper_bound = #map6} : () -> ()
    %848 = "memref.alloc"() {name = "inttdataintop.alloc_c", operand_segment_sizes = dense<0> : vector<2xi32>} : () -> memref<8192xi32>
    "affine.for"() ({
    ^bb0(%arg2: index):
      %1062 = "arith.constant"() {value = 0 : i32} : () -> i32
      "affine.store"(%1062, %848, %arg2) {map = #map0, to = "inttdataintop.alloc_c", unsigned} : (i32, memref<8192xi32>, index) -> ()
      "affine.yield"() : () -> ()
    }) {loop_name = "i0", lower_bound = #map1, op_name = "inttdataintop.alloc_c", step = 1 : i32, upper_bound = #map6} : () -> ()
    %849 = "memref.alloc"() {name = "inttdatainbot.alloc_c", operand_segment_sizes = dense<0> : vector<2xi32>} : () -> memref<8192xi32>
    "affine.for"() ({
    ^bb0(%arg2: index):
      %1062 = "arith.constant"() {value = 0 : i32} : () -> i32
      "affine.store"(%1062, %849, %arg2) {map = #map0, to = "inttdatainbot.alloc_c", unsigned} : (i32, memref<8192xi32>, index) -> ()
      "affine.yield"() : () -> ()
    }) {loop_name = "i0", lower_bound = #map1, op_name = "inttdatainbot.alloc_c", step = 1 : i32, upper_bound = #map6} : () -> ()
    %850 = "memref.alloc"() {name = "inttdataouttop.alloc_c", operand_segment_sizes = dense<0> : vector<2xi32>} : () -> memref<8192xi32>
    "affine.for"() ({
    ^bb0(%arg2: index):
      %1062 = "arith.constant"() {value = 0 : i32} : () -> i32
      "affine.store"(%1062, %850, %arg2) {map = #map0, to = "inttdataouttop.alloc_c", unsigned} : (i32, memref<8192xi32>, index) -> ()
      "affine.yield"() : () -> ()
    }) {loop_name = "i0", lower_bound = #map1, op_name = "inttdataouttop.alloc_c", step = 1 : i32, upper_bound = #map6} : () -> ()
    %851 = "memref.alloc"() {name = "inttdataoutbot.alloc_c", operand_segment_sizes = dense<0> : vector<2xi32>} : () -> memref<8192xi32>
    "affine.for"() ({
    ^bb0(%arg2: index):
      %1062 = "arith.constant"() {value = 0 : i32} : () -> i32
      "affine.store"(%1062, %851, %arg2) {map = #map0, to = "inttdataoutbot.alloc_c", unsigned} : (i32, memref<8192xi32>, index) -> ()
      "affine.yield"() : () -> ()
    }) {loop_name = "i0", lower_bound = #map1, op_name = "inttdataoutbot.alloc_c", step = 1 : i32, upper_bound = #map6} : () -> ()
    %852 = "memref.alloc"() {name = "ntt_ain.alloc_c", operand_segment_sizes = dense<0> : vector<2xi32>} : () -> memref<8192xi32>
    "affine.for"() ({
    ^bb0(%arg2: index):
      %1062 = "arith.constant"() {value = 0 : i32} : () -> i32
      "affine.store"(%1062, %852, %arg2) {map = #map0, to = "ntt_ain.alloc_c", unsigned} : (i32, memref<8192xi32>, index) -> ()
      "affine.yield"() : () -> ()
    }) {loop_name = "i0", lower_bound = #map1, op_name = "ntt_ain.alloc_c", step = 1 : i32, upper_bound = #map6} : () -> ()
    %853 = "memref.alloc"() {name = "ntt_bin.alloc_c", operand_segment_sizes = dense<0> : vector<2xi32>} : () -> memref<8192xi32>
    "affine.for"() ({
    ^bb0(%arg2: index):
      %1062 = "arith.constant"() {value = 0 : i32} : () -> i32
      "affine.store"(%1062, %853, %arg2) {map = #map0, to = "ntt_bin.alloc_c", unsigned} : (i32, memref<8192xi32>, index) -> ()
      "affine.yield"() : () -> ()
    }) {loop_name = "i0", lower_bound = #map1, op_name = "ntt_bin.alloc_c", step = 1 : i32, upper_bound = #map6} : () -> ()
    %854 = "memref.alloc"() {name = "ntt_win.alloc_c", operand_segment_sizes = dense<0> : vector<2xi32>} : () -> memref<8192xi32>
    "affine.for"() ({
    ^bb0(%arg2: index):
      %1062 = "arith.constant"() {value = 0 : i32} : () -> i32
      "affine.store"(%1062, %854, %arg2) {map = #map0, to = "ntt_win.alloc_c", unsigned} : (i32, memref<8192xi32>, index) -> ()
      "affine.yield"() : () -> ()
    }) {loop_name = "i0", lower_bound = #map1, op_name = "ntt_win.alloc_c", step = 1 : i32, upper_bound = #map6} : () -> ()
    %855 = "memref.alloc"() {name = "mone_val", operand_segment_sizes = dense<0> : vector<2xi32>} : () -> memref<1xi32>
    %856 = "arith.constant"() {value = 0 : i32} : () -> i32
    "affine.store"(%856, %855, %691) {map = #map0, to = "mone_val", unsigned} : (i32, memref<1xi32>, index) -> ()
    %857 = "memref.alloc"() {name = "uc_start_delay", operand_segment_sizes = dense<0> : vector<2xi32>} : () -> memref<1xi4>
    %858 = "arith.constant"() {value = 0 : i32} : () -> i32
    %859 = "arith.trunci"(%858) {unsigned} : (i32) -> i4
    "affine.store"(%859, %857, %690) {map = #map0, to = "uc_start_delay", unsigned} : (i4, memref<1xi4>, index) -> ()
    %860 = "memref.alloc"() {name = "flags_active_42", operand_segment_sizes = dense<0> : vector<2xi32>} : () -> memref<1xi1>
    %861 = "arith.constant"() {value = 0 : i32} : () -> i32
    %862 = "arith.trunci"(%861) {unsigned} : (i32) -> i1
    "affine.store"(%862, %860, %689) {map = #map0, to = "flags_active_42", unsigned} : (i1, memref<1xi1>, index) -> ()
    %863 = "memref.alloc"() {name = "flags_halt_43", operand_segment_sizes = dense<0> : vector<2xi32>} : () -> memref<1xi1>
    %864 = "arith.constant"() {value = 0 : i32} : () -> i32
    %865 = "arith.trunci"(%864) {unsigned} : (i32) -> i1
    "affine.store"(%865, %863, %688) {map = #map0, to = "flags_halt_43", unsigned} : (i1, memref<1xi1>, index) -> ()
    %866 = "memref.alloc"() {name = "flags_stall_44", operand_segment_sizes = dense<0> : vector<2xi32>} : () -> memref<1xi1>
    %867 = "arith.constant"() {value = 0 : i32} : () -> i32
    %868 = "arith.trunci"(%867) {unsigned} : (i32) -> i1
    "affine.store"(%868, %866, %687) {map = #map0, to = "flags_stall_44", unsigned} : (i1, memref<1xi1>, index) -> ()
    %869 = "memref.alloc"() {name = "flags_stalled_45", operand_segment_sizes = dense<0> : vector<2xi32>} : () -> memref<1xi1>
    %870 = "arith.constant"() {value = 0 : i32} : () -> i32
    %871 = "arith.trunci"(%870) {unsigned} : (i32) -> i1
    "affine.store"(%871, %869, %686) {map = #map0, to = "flags_stalled_45", unsigned} : (i1, memref<1xi1>, index) -> ()
    %872 = "memref.alloc"() {name = "flags_break_46", operand_segment_sizes = dense<0> : vector<2xi32>} : () -> memref<1xi1>
    %873 = "arith.constant"() {value = 0 : i32} : () -> i32
    %874 = "arith.trunci"(%873) {unsigned} : (i32) -> i1
    "affine.store"(%874, %872, %685) {map = #map0, to = "flags_break_46", unsigned} : (i1, memref<1xi1>, index) -> ()
    %875 = "memref.alloc"() {name = "count_stop_47", operand_segment_sizes = dense<0> : vector<2xi32>} : () -> memref<1xi1>
    %876 = "arith.constant"() {value = 0 : i32} : () -> i32
    %877 = "arith.trunci"(%876) {unsigned} : (i32) -> i1
    "affine.store"(%877, %875, %684) {map = #map0, to = "count_stop_47", unsigned} : (i1, memref<1xi1>, index) -> ()
    %878 = "memref.alloc"() {name = "addr_stop_48", operand_segment_sizes = dense<0> : vector<2xi32>} : () -> memref<1xi1>
    %879 = "arith.constant"() {value = 0 : i32} : () -> i32
    %880 = "arith.trunci"(%879) {unsigned} : (i32) -> i1
    "affine.store"(%880, %878, %683) {map = #map0, to = "addr_stop_48", unsigned} : (i1, memref<1xi1>, index) -> ()
    %881 = "memref.alloc"() {name = "inst_addr_49", operand_segment_sizes = dense<0> : vector<2xi32>} : () -> memref<1xi5>
    %882 = "arith.constant"() {value = 0 : i32} : () -> i32
    %883 = "arith.trunci"(%882) {unsigned} : (i32) -> i5
    "affine.store"(%883, %881, %682) {map = #map0, to = "inst_addr_49", unsigned} : (i5, memref<1xi5>, index) -> ()
    %884 = "memref.alloc"() {name = "inst_naddr_50", operand_segment_sizes = dense<0> : vector<2xi32>} : () -> memref<1xi5>
    %885 = "arith.constant"() {value = 0 : i32} : () -> i32
    %886 = "arith.trunci"(%885) {unsigned} : (i32) -> i5
    "affine.store"(%886, %884, %681) {map = #map0, to = "inst_naddr_50", unsigned} : (i5, memref<1xi5>, index) -> ()
    %887 = "memref.alloc"() {name = "latency_count_51", operand_segment_sizes = dense<0> : vector<2xi32>} : () -> memref<1xi32>
    %888 = "arith.constant"() {value = 0 : i32} : () -> i32
    "affine.store"(%888, %887, %680) {map = #map0, to = "latency_count_51", unsigned} : (i32, memref<1xi32>, index) -> ()
    %889 = "memref.alloc"() {name = "latstalled_52", operand_segment_sizes = dense<0> : vector<2xi32>} : () -> memref<1xi1>
    %890 = "arith.constant"() {value = 0 : i32} : () -> i32
    %891 = "arith.trunci"(%890) {unsigned} : (i32) -> i1
    "affine.store"(%891, %889, %679) {map = #map0, to = "latstalled_52", unsigned} : (i1, memref<1xi1>, index) -> ()
    %892 = "memref.alloc"() {name = "tele_inst_count_53", operand_segment_sizes = dense<0> : vector<2xi32>} : () -> memref<1xi32>
    %893 = "arith.constant"() {value = 0 : i32} : () -> i32
    "affine.store"(%893, %892, %678) {map = #map0, to = "tele_inst_count_53", unsigned} : (i32, memref<1xi32>, index) -> ()
    %894 = "memref.alloc"() {name = "tele_stall_count_54", operand_segment_sizes = dense<0> : vector<2xi32>} : () -> memref<1xi32>
    %895 = "arith.constant"() {value = 0 : i32} : () -> i32
    "affine.store"(%895, %894, %677) {map = #map0, to = "tele_stall_count_54", unsigned} : (i32, memref<1xi32>, index) -> ()
    %896 = "memref.alloc"() {name = "tele_latstall_count_55", operand_segment_sizes = dense<0> : vector<2xi32>} : () -> memref<1xi32>
    %897 = "arith.constant"() {value = 0 : i32} : () -> i32
    "affine.store"(%897, %896, %676) {map = #map0, to = "tele_latstall_count_55", unsigned} : (i32, memref<1xi32>, index) -> ()
    %898 = "memref.alloc"() {name = "flags_active_56", operand_segment_sizes = dense<0> : vector<2xi32>} : () -> memref<1xi1>
    %899 = "arith.constant"() {value = 0 : i32} : () -> i32
    %900 = "arith.trunci"(%899) {unsigned} : (i32) -> i1
    "affine.store"(%900, %898, %675) {map = #map0, to = "flags_active_56", unsigned} : (i1, memref<1xi1>, index) -> ()
    %901 = "memref.alloc"() {name = "flags_halt_57", operand_segment_sizes = dense<0> : vector<2xi32>} : () -> memref<1xi1>
    %902 = "arith.constant"() {value = 0 : i32} : () -> i32
    %903 = "arith.trunci"(%902) {unsigned} : (i32) -> i1
    "affine.store"(%903, %901, %674) {map = #map0, to = "flags_halt_57", unsigned} : (i1, memref<1xi1>, index) -> ()
    %904 = "memref.alloc"() {name = "flags_stall_58", operand_segment_sizes = dense<0> : vector<2xi32>} : () -> memref<1xi1>
    %905 = "arith.constant"() {value = 0 : i32} : () -> i32
    %906 = "arith.trunci"(%905) {unsigned} : (i32) -> i1
    "affine.store"(%906, %904, %673) {map = #map0, to = "flags_stall_58", unsigned} : (i1, memref<1xi1>, index) -> ()
    %907 = "memref.alloc"() {name = "flags_stalled_59", operand_segment_sizes = dense<0> : vector<2xi32>} : () -> memref<1xi1>
    %908 = "arith.constant"() {value = 0 : i32} : () -> i32
    %909 = "arith.trunci"(%908) {unsigned} : (i32) -> i1
    "affine.store"(%909, %907, %672) {map = #map0, to = "flags_stalled_59", unsigned} : (i1, memref<1xi1>, index) -> ()
    %910 = "memref.alloc"() {name = "flags_break_60", operand_segment_sizes = dense<0> : vector<2xi32>} : () -> memref<1xi1>
    %911 = "arith.constant"() {value = 0 : i32} : () -> i32
    %912 = "arith.trunci"(%911) {unsigned} : (i32) -> i1
    "affine.store"(%912, %910, %671) {map = #map0, to = "flags_break_60", unsigned} : (i1, memref<1xi1>, index) -> ()
    %913 = "memref.alloc"() {name = "count_stop_61", operand_segment_sizes = dense<0> : vector<2xi32>} : () -> memref<1xi1>
    %914 = "arith.constant"() {value = 0 : i32} : () -> i32
    %915 = "arith.trunci"(%914) {unsigned} : (i32) -> i1
    "affine.store"(%915, %913, %670) {map = #map0, to = "count_stop_61", unsigned} : (i1, memref<1xi1>, index) -> ()
    %916 = "memref.alloc"() {name = "addr_stop_62", operand_segment_sizes = dense<0> : vector<2xi32>} : () -> memref<1xi1>
    %917 = "arith.constant"() {value = 0 : i32} : () -> i32
    %918 = "arith.trunci"(%917) {unsigned} : (i32) -> i1
    "affine.store"(%918, %916, %669) {map = #map0, to = "addr_stop_62", unsigned} : (i1, memref<1xi1>, index) -> ()
    %919 = "memref.alloc"() {name = "inst_addr_63", operand_segment_sizes = dense<0> : vector<2xi32>} : () -> memref<1xi32>
    %920 = "arith.constant"() {value = 0 : i32} : () -> i32
    "affine.store"(%920, %919, %668) {map = #map0, to = "inst_addr_63", unsigned} : (i32, memref<1xi32>, index) -> ()
    %921 = "memref.alloc"() {name = "inst_naddr_64", operand_segment_sizes = dense<0> : vector<2xi32>} : () -> memref<1xi32>
    %922 = "arith.constant"() {value = 0 : i32} : () -> i32
    "affine.store"(%922, %921, %667) {map = #map0, to = "inst_naddr_64", unsigned} : (i32, memref<1xi32>, index) -> ()
    %923 = "memref.alloc"() {name = "latency_count_65", operand_segment_sizes = dense<0> : vector<2xi32>} : () -> memref<1xi32>
    %924 = "arith.constant"() {value = 0 : i32} : () -> i32
    "affine.store"(%924, %923, %666) {map = #map0, to = "latency_count_65", unsigned} : (i32, memref<1xi32>, index) -> ()
    %925 = "memref.alloc"() {name = "latstalled_66", operand_segment_sizes = dense<0> : vector<2xi32>} : () -> memref<1xi1>
    %926 = "arith.constant"() {value = 0 : i32} : () -> i32
    %927 = "arith.trunci"(%926) {unsigned} : (i32) -> i1
    "affine.store"(%927, %925, %665) {map = #map0, to = "latstalled_66", unsigned} : (i1, memref<1xi1>, index) -> ()
    %928 = "memref.alloc"() {name = "tele_inst_count_67", operand_segment_sizes = dense<0> : vector<2xi32>} : () -> memref<1xi32>
    %929 = "arith.constant"() {value = 0 : i32} : () -> i32
    "affine.store"(%929, %928, %664) {map = #map0, to = "tele_inst_count_67", unsigned} : (i32, memref<1xi32>, index) -> ()
    %930 = "memref.alloc"() {name = "tele_stall_count_68", operand_segment_sizes = dense<0> : vector<2xi32>} : () -> memref<1xi32>
    %931 = "arith.constant"() {value = 0 : i32} : () -> i32
    "affine.store"(%931, %930, %663) {map = #map0, to = "tele_stall_count_68", unsigned} : (i32, memref<1xi32>, index) -> ()
    %932 = "memref.alloc"() {name = "tele_latstall_count_69", operand_segment_sizes = dense<0> : vector<2xi32>} : () -> memref<1xi32>
    %933 = "arith.constant"() {value = 0 : i32} : () -> i32
    "affine.store"(%933, %932, %662) {map = #map0, to = "tele_latstall_count_69", unsigned} : (i32, memref<1xi32>, index) -> ()
    %934 = "arith.constant"() {value = 0 : i32} : () -> i32
    "hcl.print"(%934) {format = "FIX ME : binding minstq as hbm for now ...\0A", signedness = "_"} : (i32) -> ()
    %935 = "arith.constant"() {value = 0 : i32} : () -> i32
    "hcl.print"(%935) {format = "FIX ME : binding cinstq as hbm for now ...\0A", signedness = "_"} : (i32) -> ()
    %936 = "memref.alloc"() {name = "sys_steps", operand_segment_sizes = dense<0> : vector<2xi32>} : () -> memref<1xi32>
    %937 = "arith.constant"() {value = 1 : i32} : () -> i32
    "affine.store"(%937, %936, %661) {map = #map0, to = "sys_steps", unsigned} : (i32, memref<1xi32>, index) -> ()
    %938 = "memref.alloc"() {name = "sys_done", operand_segment_sizes = dense<0> : vector<2xi32>} : () -> memref<1xi1>
    %939 = "arith.constant"() {value = 0 : i32} : () -> i32
    %940 = "arith.trunci"(%939) {unsigned} : (i32) -> i1
    "affine.store"(%940, %938, %660) {map = #map0, to = "sys_done", unsigned} : (i1, memref<1xi1>, index) -> ()
    %941 = "arith.constant"() {value = 0 : i32} : () -> i32
    %942 = "arith.trunci"(%941) {unsigned} : (i32) -> i1
    "affine.store"(%942, %734) {map = #map1, to = "flags_msyncc", unsigned} : (i1, memref<1xi1>) -> ()
    %943 = "arith.constant"() {value = 0 : i32} : () -> i32
    %944 = "arith.trunci"(%943) {unsigned} : (i32) -> i1
    "affine.store"(%944, %737) {map = #map1, to = "flags_active", unsigned} : (i1, memref<1xi1>) -> ()
    %945 = "arith.constant"() {value = 0 : i32} : () -> i32
    %946 = "arith.trunci"(%945) {unsigned} : (i32) -> i1
    "affine.store"(%946, %740) {map = #map1, to = "flags_halt", unsigned} : (i1, memref<1xi1>) -> ()
    %947 = "arith.constant"() {value = 0 : i32} : () -> i32
    %948 = "arith.trunci"(%947) {unsigned} : (i32) -> i1
    "affine.store"(%948, %743) {map = #map1, to = "flags_stall", unsigned} : (i1, memref<1xi1>) -> ()
    %949 = "arith.constant"() {value = 0 : i32} : () -> i32
    %950 = "arith.trunci"(%949) {unsigned} : (i32) -> i1
    "affine.store"(%950, %746) {map = #map1, to = "flags_stalled", unsigned} : (i1, memref<1xi1>) -> ()
    %951 = "arith.constant"() {value = 0 : i32} : () -> i32
    %952 = "arith.trunci"(%951) {unsigned} : (i32) -> i1
    "affine.store"(%952, %749) {map = #map1, to = "flags_break", unsigned} : (i1, memref<1xi1>) -> ()
    %953 = "arith.constant"() {value = 0 : i32} : () -> i32
    %954 = "arith.trunci"(%953) {unsigned} : (i32) -> i1
    "affine.store"(%954, %752) {map = #map1, to = "count_stop", unsigned} : (i1, memref<1xi1>) -> ()
    %955 = "arith.constant"() {value = 0 : i32} : () -> i32
    %956 = "arith.trunci"(%955) {unsigned} : (i32) -> i1
    "affine.store"(%956, %755) {map = #map1, to = "addr_stop", unsigned} : (i1, memref<1xi1>) -> ()
    %957 = "arith.constant"() {value = 0 : i32} : () -> i32
    "affine.store"(%957, %758) {map = #map1, to = "inst_addr", unsigned} : (i32, memref<1xi32>) -> ()
    %958 = "arith.constant"() {value = 0 : i32} : () -> i32
    "affine.store"(%958, %760) {map = #map1, to = "inst_naddr", unsigned} : (i32, memref<1xi32>) -> ()
    %959 = "arith.constant"() {value = 0 : i32} : () -> i32
    "affine.store"(%959, %762) {map = #map1, to = "latency_count", unsigned} : (i32, memref<1xi32>) -> ()
    %960 = "arith.constant"() {value = 0 : i32} : () -> i32
    %961 = "arith.trunci"(%960) {unsigned} : (i32) -> i1
    "affine.store"(%961, %764) {map = #map1, to = "latstalled", unsigned} : (i1, memref<1xi1>) -> ()
    %962 = "arith.constant"() {value = 0 : i32} : () -> i32
    "affine.store"(%962, %767) {map = #map1, to = "tele_inst_count", unsigned} : (i32, memref<1xi32>) -> ()
    %963 = "arith.constant"() {value = 0 : i32} : () -> i32
    "affine.store"(%963, %769) {map = #map1, to = "tele_stall_count", unsigned} : (i32, memref<1xi32>) -> ()
    %964 = "arith.constant"() {value = 0 : i32} : () -> i32
    "affine.store"(%964, %771) {map = #map1, to = "tele_latstall_count", unsigned} : (i32, memref<1xi32>) -> ()
    %965 = "arith.constant"() {value = 0 : i32} : () -> i32
    "affine.store"(%965, %777) {map = #map1, to = "nop_count", unsigned} : (i32, memref<1xi32>) -> ()
    %966 = "arith.constant"() {value = 0 : i32} : () -> i32
    %967 = "arith.trunci"(%966) {unsigned} : (i32) -> i1
    "affine.store"(%967, %779) {map = #map1, to = "csyncm", unsigned} : (i1, memref<1xi1>) -> ()
    %968 = "arith.constant"() {value = 0 : i32} : () -> i32
    %969 = "arith.trunci"(%968) {unsigned} : (i32) -> i3
    "affine.store"(%969, %782) {map = #map1, to = "cstore_cycle", unsigned} : (i3, memref<1xi3>) -> ()
    %970 = "arith.constant"() {value = 0 : i32} : () -> i32
    %971 = "arith.trunci"(%970) {unsigned} : (i32) -> i1
    "affine.store"(%971, %785) {map = #map1, to = "cstore_valid", unsigned} : (i1, memref<1xi1>) -> ()
    %972 = "arith.constant"() {value = 0 : i32} : () -> i32
    "affine.store"(%972, %788) {map = #map1, to = "cstore_spadaddr", unsigned} : (i32, memref<1xi32>) -> ()
    %973 = "arith.constant"() {value = 0 : i32} : () -> i32
    "affine.store"(%973, %774) {map = #map1, to = "xinstq_bundles", unsigned} : (i32, memref<1xi32>) -> ()
    %974 = "arith.constant"() {value = 0 : i32} : () -> i32
    %975 = "arith.trunci"(%974) {unsigned} : (i32) -> i1
    "affine.store"(%975, %790) {map = #map1, to = "flags_active_21", unsigned} : (i1, memref<1xi1>) -> ()
    %976 = "arith.constant"() {value = 0 : i32} : () -> i32
    %977 = "arith.trunci"(%976) {unsigned} : (i32) -> i1
    "affine.store"(%977, %793) {map = #map1, to = "flags_halt_22", unsigned} : (i1, memref<1xi1>) -> ()
    %978 = "arith.constant"() {value = 0 : i32} : () -> i32
    %979 = "arith.trunci"(%978) {unsigned} : (i32) -> i1
    "affine.store"(%979, %796) {map = #map1, to = "flags_stall_23", unsigned} : (i1, memref<1xi1>) -> ()
    %980 = "arith.constant"() {value = 0 : i32} : () -> i32
    %981 = "arith.trunci"(%980) {unsigned} : (i32) -> i1
    "affine.store"(%981, %799) {map = #map1, to = "flags_stalled_24", unsigned} : (i1, memref<1xi1>) -> ()
    %982 = "arith.constant"() {value = 0 : i32} : () -> i32
    %983 = "arith.trunci"(%982) {unsigned} : (i32) -> i1
    "affine.store"(%983, %802) {map = #map1, to = "flags_break_25", unsigned} : (i1, memref<1xi1>) -> ()
    %984 = "arith.constant"() {value = 0 : i32} : () -> i32
    %985 = "arith.trunci"(%984) {unsigned} : (i32) -> i1
    "affine.store"(%985, %805) {map = #map1, to = "count_stop_26", unsigned} : (i1, memref<1xi1>) -> ()
    %986 = "arith.constant"() {value = 0 : i32} : () -> i32
    %987 = "arith.trunci"(%986) {unsigned} : (i32) -> i1
    "affine.store"(%987, %808) {map = #map1, to = "addr_stop_27", unsigned} : (i1, memref<1xi1>) -> ()
    %988 = "arith.constant"() {value = 0 : i32} : () -> i32
    "affine.store"(%988, %811) {map = #map1, to = "inst_addr_28", unsigned} : (i32, memref<1xi32>) -> ()
    %989 = "arith.constant"() {value = 0 : i32} : () -> i32
    "affine.store"(%989, %813) {map = #map1, to = "inst_naddr_29", unsigned} : (i32, memref<1xi32>) -> ()
    %990 = "arith.constant"() {value = 0 : i32} : () -> i32
    "affine.store"(%990, %815) {map = #map1, to = "latency_count_30", unsigned} : (i32, memref<1xi32>) -> ()
    %991 = "arith.constant"() {value = 0 : i32} : () -> i32
    %992 = "arith.trunci"(%991) {unsigned} : (i32) -> i1
    "affine.store"(%992, %817) {map = #map1, to = "latstalled_31", unsigned} : (i1, memref<1xi1>) -> ()
    %993 = "arith.constant"() {value = 0 : i32} : () -> i32
    "affine.store"(%993, %820) {map = #map1, to = "tele_inst_count_32", unsigned} : (i32, memref<1xi32>) -> ()
    %994 = "arith.constant"() {value = 0 : i32} : () -> i32
    "affine.store"(%994, %822) {map = #map1, to = "tele_stall_count_33", unsigned} : (i32, memref<1xi32>) -> ()
    %995 = "arith.constant"() {value = 0 : i32} : () -> i32
    "affine.store"(%995, %824) {map = #map1, to = "tele_latstall_count_34", unsigned} : (i32, memref<1xi32>) -> ()
    %996 = "arith.constant"() {value = 0 : i32} : () -> i32
    "affine.store"(%996, %829) {map = #map1, to = "nop_count_35", unsigned} : (i32, memref<1xi32>) -> ()
    %997 = "arith.constant"() {value = 0 : i32} : () -> i32
    %998 = "arith.trunci"(%997) {unsigned} : (i32) -> i1
    "affine.store"(%998, %831) {map = #map1, to = "flag_ntt", unsigned} : (i1, memref<1xi1>) -> ()
    %999 = "arith.constant"() {value = 0 : i32} : () -> i32
    %1000 = "arith.trunci"(%999) {unsigned} : (i32) -> i1
    "affine.store"(%1000, %834) {map = #map1, to = "flag_intt", unsigned} : (i1, memref<1xi1>) -> ()
    %1001 = "arith.constant"() {value = 0 : i32} : () -> i32
    %1002 = "arith.trunci"(%1001) {unsigned} : (i32) -> i9
    "affine.store"(%1002, %837) {map = #map1, to = "ntt_intt_top_addr", unsigned} : (i9, memref<1xi9>) -> ()
    %1003 = "arith.constant"() {value = 0 : i32} : () -> i32
    %1004 = "arith.trunci"(%1003) {unsigned} : (i32) -> i9
    "affine.store"(%1004, %840) {map = #map1, to = "ntt_intt_bot_addr", unsigned} : (i9, memref<1xi9>) -> ()
    %1005 = "arith.constant"() {value = 0 : i32} : () -> i32
    %1006 = "arith.trunci"(%1005) {unsigned} : (i32) -> i4
    "affine.store"(%1006, %857) {map = #map1, to = "uc_start_delay", unsigned} : (i4, memref<1xi4>) -> ()
    %1007 = "arith.constant"() {value = 0 : i32} : () -> i32
    %1008 = "arith.trunci"(%1007) {unsigned} : (i32) -> i1
    "affine.store"(%1008, %860) {map = #map1, to = "flags_active_42", unsigned} : (i1, memref<1xi1>) -> ()
    %1009 = "arith.constant"() {value = 0 : i32} : () -> i32
    %1010 = "arith.trunci"(%1009) {unsigned} : (i32) -> i1
    "affine.store"(%1010, %863) {map = #map1, to = "flags_halt_43", unsigned} : (i1, memref<1xi1>) -> ()
    %1011 = "arith.constant"() {value = 0 : i32} : () -> i32
    %1012 = "arith.trunci"(%1011) {unsigned} : (i32) -> i1
    "affine.store"(%1012, %866) {map = #map1, to = "flags_stall_44", unsigned} : (i1, memref<1xi1>) -> ()
    %1013 = "arith.constant"() {value = 0 : i32} : () -> i32
    %1014 = "arith.trunci"(%1013) {unsigned} : (i32) -> i1
    "affine.store"(%1014, %869) {map = #map1, to = "flags_stalled_45", unsigned} : (i1, memref<1xi1>) -> ()
    %1015 = "arith.constant"() {value = 0 : i32} : () -> i32
    %1016 = "arith.trunci"(%1015) {unsigned} : (i32) -> i1
    "affine.store"(%1016, %872) {map = #map1, to = "flags_break_46", unsigned} : (i1, memref<1xi1>) -> ()
    %1017 = "arith.constant"() {value = 0 : i32} : () -> i32
    %1018 = "arith.trunci"(%1017) {unsigned} : (i32) -> i1
    "affine.store"(%1018, %875) {map = #map1, to = "count_stop_47", unsigned} : (i1, memref<1xi1>) -> ()
    %1019 = "arith.constant"() {value = 0 : i32} : () -> i32
    %1020 = "arith.trunci"(%1019) {unsigned} : (i32) -> i1
    "affine.store"(%1020, %878) {map = #map1, to = "addr_stop_48", unsigned} : (i1, memref<1xi1>) -> ()
    %1021 = "arith.constant"() {value = 0 : i32} : () -> i32
    %1022 = "arith.trunci"(%1021) {unsigned} : (i32) -> i5
    "affine.store"(%1022, %881) {map = #map1, to = "inst_addr_49", unsigned} : (i5, memref<1xi5>) -> ()
    %1023 = "arith.constant"() {value = 0 : i32} : () -> i32
    %1024 = "arith.trunci"(%1023) {unsigned} : (i32) -> i5
    "affine.store"(%1024, %884) {map = #map1, to = "inst_naddr_50", unsigned} : (i5, memref<1xi5>) -> ()
    %1025 = "arith.constant"() {value = 0 : i32} : () -> i32
    "affine.store"(%1025, %887) {map = #map1, to = "latency_count_51", unsigned} : (i32, memref<1xi32>) -> ()
    %1026 = "arith.constant"() {value = 0 : i32} : () -> i32
    %1027 = "arith.trunci"(%1026) {unsigned} : (i32) -> i1
    "affine.store"(%1027, %889) {map = #map1, to = "latstalled_52", unsigned} : (i1, memref<1xi1>) -> ()
    %1028 = "arith.constant"() {value = 0 : i32} : () -> i32
    "affine.store"(%1028, %892) {map = #map1, to = "tele_inst_count_53", unsigned} : (i32, memref<1xi32>) -> ()
    %1029 = "arith.constant"() {value = 0 : i32} : () -> i32
    "affine.store"(%1029, %894) {map = #map1, to = "tele_stall_count_54", unsigned} : (i32, memref<1xi32>) -> ()
    %1030 = "arith.constant"() {value = 0 : i32} : () -> i32
    "affine.store"(%1030, %896) {map = #map1, to = "tele_latstall_count_55", unsigned} : (i32, memref<1xi32>) -> ()
    %1031 = "arith.constant"() {value = 0 : i32} : () -> i32
    %1032 = "arith.trunci"(%1031) {unsigned} : (i32) -> i1
    "affine.store"(%1032, %898) {map = #map1, to = "flags_active_56", unsigned} : (i1, memref<1xi1>) -> ()
    %1033 = "arith.constant"() {value = 0 : i32} : () -> i32
    %1034 = "arith.trunci"(%1033) {unsigned} : (i32) -> i1
    "affine.store"(%1034, %901) {map = #map1, to = "flags_halt_57", unsigned} : (i1, memref<1xi1>) -> ()
    %1035 = "arith.constant"() {value = 0 : i32} : () -> i32
    %1036 = "arith.trunci"(%1035) {unsigned} : (i32) -> i1
    "affine.store"(%1036, %904) {map = #map1, to = "flags_stall_58", unsigned} : (i1, memref<1xi1>) -> ()
    %1037 = "arith.constant"() {value = 0 : i32} : () -> i32
    %1038 = "arith.trunci"(%1037) {unsigned} : (i32) -> i1
    "affine.store"(%1038, %907) {map = #map1, to = "flags_stalled_59", unsigned} : (i1, memref<1xi1>) -> ()
    %1039 = "arith.constant"() {value = 0 : i32} : () -> i32
    %1040 = "arith.trunci"(%1039) {unsigned} : (i32) -> i1
    "affine.store"(%1040, %910) {map = #map1, to = "flags_break_60", unsigned} : (i1, memref<1xi1>) -> ()
    %1041 = "arith.constant"() {value = 0 : i32} : () -> i32
    %1042 = "arith.trunci"(%1041) {unsigned} : (i32) -> i1
    "affine.store"(%1042, %913) {map = #map1, to = "count_stop_61", unsigned} : (i1, memref<1xi1>) -> ()
    %1043 = "arith.constant"() {value = 0 : i32} : () -> i32
    %1044 = "arith.trunci"(%1043) {unsigned} : (i32) -> i1
    "affine.store"(%1044, %916) {map = #map1, to = "addr_stop_62", unsigned} : (i1, memref<1xi1>) -> ()
    %1045 = "arith.constant"() {value = 0 : i32} : () -> i32
    "affine.store"(%1045, %919) {map = #map1, to = "inst_addr_63", unsigned} : (i32, memref<1xi32>) -> ()
    %1046 = "arith.constant"() {value = 0 : i32} : () -> i32
    "affine.store"(%1046, %921) {map = #map1, to = "inst_naddr_64", unsigned} : (i32, memref<1xi32>) -> ()
    %1047 = "arith.constant"() {value = 0 : i32} : () -> i32
    "affine.store"(%1047, %923) {map = #map1, to = "latency_count_65", unsigned} : (i32, memref<1xi32>) -> ()
    %1048 = "arith.constant"() {value = 0 : i32} : () -> i32
    %1049 = "arith.trunci"(%1048) {unsigned} : (i32) -> i1
    "affine.store"(%1049, %925) {map = #map1, to = "latstalled_66", unsigned} : (i1, memref<1xi1>) -> ()
    %1050 = "arith.constant"() {value = 0 : i32} : () -> i32
    "affine.store"(%1050, %928) {map = #map1, to = "tele_inst_count_67", unsigned} : (i32, memref<1xi32>) -> ()
    %1051 = "arith.constant"() {value = 0 : i32} : () -> i32
    "affine.store"(%1051, %930) {map = #map1, to = "tele_stall_count_68", unsigned} : (i32, memref<1xi32>) -> ()
    %1052 = "arith.constant"() {value = 0 : i32} : () -> i32
    "affine.store"(%1052, %932) {map = #map1, to = "tele_latstall_count_69", unsigned} : (i32, memref<1xi32>) -> ()
    "scf.while"() ({
      %1062 = "affine.load"(%938) {from = "sys_done", map = #map1, unsigned} : (memref<1xi1>) -> i1
      %1063 = "arith.constant"() {value = 0 : i32} : () -> i32
      %1064 = "arith.extui"(%1062) : (i1) -> i32
      %1065 = "arith.cmpi"(%1064, %1063) {predicate = 0 : i64} : (i32, i32) -> i1
      "scf.condition"(%1065) : (i1) -> ()
    }, {
      %1062 = "affine.load"(%831) {from = "flag_ntt", map = #map1, unsigned} : (memref<1xi1>) -> i1
      %1063 = "arith.constant"() {value = 0 : i32} : () -> i32
      %1064 = "arith.extui"(%1062) : (i1) -> i32
      %1065 = "arith.cmpi"(%1064, %1063) {predicate = 1 : i64} : (i32, i32) -> i1
      "scf.if"(%1065) ({
        %1135 = "memref.alloc"() {name = "rfaddr", operand_segment_sizes = dense<0> : vector<2xi32>} : () -> memref<1x!hcl.struct<i7, i2>>
        %1136 = "affine.load"(%837) {from = "ntt_intt_top_addr", map = #map1, unsigned} : (memref<1xi9>) -> i9
        %1137 = "hcl.int_to_struct"(%1136) {unsigned} : (i9) -> !hcl.struct<i7, i2>
        "affine.store"(%1137, %1135, %659) {map = #map0, to = "rfaddr"} : (!hcl.struct<i7, i2>, memref<1x!hcl.struct<i7, i2>>, index) -> ()
        %1138 = "memref.alloc"() {name = "bv", operand_segment_sizes = dense<0> : vector<2xi32>} : () -> memref<1xi3>
        %1139 = "affine.load"(%1135) {from = "rfaddr", map = #map1} : (memref<1x!hcl.struct<i7, i2>>) -> !hcl.struct<i7, i2>
        %1140 = "hcl.struct_get"(%1139) {index = 1 : i64} : (!hcl.struct<i7, i2>) -> i2
        %1141 = "arith.extui"(%1140) {unsigned} : (i2) -> i3
        "affine.store"(%1141, %1138, %658) {map = #map0, to = "bv", unsigned} : (i3, memref<1xi3>, index) -> ()
        %1142 = "memref.alloc"() {name = "rv", operand_segment_sizes = dense<0> : vector<2xi32>} : () -> memref<1xi8>
        %1143 = "hcl.struct_get"(%1139) {index = 0 : i64} : (!hcl.struct<i7, i2>) -> i7
        %1144 = "arith.extui"(%1143) {unsigned} : (i7) -> i8
        "affine.store"(%1144, %1142, %657) {map = #map0, to = "rv", unsigned} : (i8, memref<1xi8>, index) -> ()
        %1145 = "memref.alloc"() {name = "count", operand_segment_sizes = dense<0> : vector<2xi32>} : () -> memref<1xi32>
        %1146 = "arith.constant"() {value = 8192 : i32} : () -> i32
        "affine.store"(%1146, %1145, %656) {map = #map0, to = "count", unsigned} : (i32, memref<1xi32>, index) -> ()
        %1147 = "memref.alloc"() {name = "src_addr", operand_segment_sizes = dense<0> : vector<2xi32>} : () -> memref<1xi32>
        %1148 = "arith.constant"() {value = 0 : i32} : () -> i32
        "affine.store"(%1148, %1147, %655) {map = #map0, to = "src_addr", unsigned} : (i32, memref<1xi32>, index) -> ()
        %1149 = "memref.alloc"() {name = "dst_addr", operand_segment_sizes = dense<0> : vector<2xi32>} : () -> memref<1xi32>
        %1150 = "arith.constant"() {value = 0 : i32} : () -> i32
        "affine.store"(%1150, %1149, %654) {map = #map0, to = "dst_addr", unsigned} : (i32, memref<1xi32>, index) -> ()
        %1151 = "memref.alloc"() {name = "_addr", operand_segment_sizes = dense<0> : vector<2xi32>} : () -> memref<1xi32>
        %1152 = "affine.load"(%1147) {from = "src_addr", map = #map1, unsigned} : (memref<1xi32>) -> i32
        "affine.store"(%1152, %1151, %653) {map = #map0, to = "_addr", unsigned} : (i32, memref<1xi32>, index) -> ()
        %1153 = "memref.alloc"() {name = "assert_cond", operand_segment_sizes = dense<0> : vector<2xi32>} : () -> memref<1xi1>
        %1154 = "affine.load"(%1151) {from = "_addr", map = #map1, unsigned} : (memref<1xi32>) -> i32
        %1155 = "affine.load"(%1145) {from = "count", map = #map1, unsigned} : (memref<1xi32>) -> i32
        %1156 = "arith.extui"(%1154) {unsigned} : (i32) -> i33
        %1157 = "arith.extui"(%1155) {unsigned} : (i32) -> i33
        %1158 = "arith.addi"(%1156, %1157) {unsigned} : (i33, i33) -> i33
        %1159 = "arith.constant"() {value = 8192 : i32} : () -> i32
        %1160 = "arith.extui"(%1158) : (i33) -> i34
        %1161 = "arith.extsi"(%1159) : (i32) -> i34
        %1162 = "arith.cmpi"(%1160, %1161) {predicate = 3 : i64} : (i34, i34) -> i1
        "affine.store"(%1162, %1153, %652) {map = #map0, to = "assert_cond", unsigned} : (i1, memref<1xi1>, index) -> ()
        %1163 = "affine.load"(%1153) {from = "assert_cond", map = #map1, unsigned} : (memref<1xi1>) -> i1
        %1164 = "arith.constant"() {value = 0 : i32} : () -> i32
        %1165 = "arith.extui"(%1163) : (i1) -> i32
        %1166 = "arith.cmpi"(%1165, %1164) {predicate = 0 : i64} : (i32, i32) -> i1
        "scf.if"(%1166) ({
          %1211 = "affine.load"(%1151) {from = "_addr", map = #map1, unsigned} : (memref<1xi32>) -> i32
          %1212 = "affine.load"(%1151) {from = "_addr", map = #map1, unsigned} : (memref<1xi32>) -> i32
          %1213 = "arith.extui"(%1212) {unsigned} : (i32) -> i33
          %1214 = "arith.extui"(%1155) {unsigned} : (i32) -> i33
          %1215 = "arith.addi"(%1213, %1214) {unsigned} : (i33, i33) -> i33
          "hcl.print"(%1211, %1215) {format = "\0A\0AAssertion failed {schedule.py:73,schedule.py:35,soc.py:60,hcl_ext.py:861,hcl_ext.py:851,tile.py:184,tile.py:411,mem.py:172,mem.py:106,hcl_ext.py:723}: nttdataintop Mem.copyto exceeds memory size: addr=%d+size=%d > 8192\0A\0A", signedness = "uu"} : (i32, i33) -> ()
          "scf.while"() ({
            %1216 = "affine.load"(%1153) {from = "assert_cond", map = #map1, unsigned} : (memref<1xi1>) -> i1
            %1217 = "arith.constant"() {value = 0 : i32} : () -> i32
            %1218 = "arith.extui"(%1216) : (i1) -> i32
            %1219 = "arith.cmpi"(%1218, %1217) {predicate = 0 : i64} : (i32, i32) -> i1
            "scf.condition"(%1219) : (i1) -> ()
          }, {
            %1216 = "arith.constant"() {value = 0 : i32} : () -> i32
            %1217 = "arith.trunci"(%1216) {unsigned} : (i32) -> i1
            "affine.store"(%1217, %1153) {map = #map1, to = "assert_cond", unsigned} : (i1, memref<1xi1>) -> ()
            "scf.yield"() : () -> ()
          }) : () -> ()
          "scf.yield"() : () -> ()
        }, {
        }) : (i1) -> ()
        %1167 = "arith.constant"() {value = 0 : i32} : () -> i32
        %1168 = "arith.index_cast"(%1167) {unsigned} : (i32) -> index
        %1169 = "affine.load"(%1145) {from = "count", map = #map1, unsigned} : (memref<1xi32>) -> i32
        %1170 = "arith.index_cast"(%1169) {unsigned} : (i32) -> index
        %1171 = "arith.constant"() {unsigned, value = 1 : index} : () -> index
        "scf.for"(%1168, %1170, %1171) ({
        ^bb0(%arg2: index):
          %1211 = "affine.load"(%1147) {from = "src_addr", map = #map1, unsigned} : (memref<1xi32>) -> i32
          %1212 = "arith.extui"(%1211) {unsigned} : (i32) -> i33
          %1213 = "arith.index_cast"(%arg2) {unsigned} : (index) -> i33
          %1214 = "arith.addi"(%1212, %1213) {unsigned} : (i33, i33) -> i33
          %1215 = "arith.index_cast"(%1214) {unsigned} : (i33) -> index
          %1216 = "memref.load"(%844, %1215) {from = "nttdataintop.alloc_c", unsigned} : (memref<8192xi32>, index) -> i32
          %1217 = "affine.load"(%1138) {from = "bv", map = #map1, unsigned} : (memref<1xi3>) -> i3
          %1218 = "arith.index_cast"(%1217) {unsigned} : (i3) -> index
          %1219 = "affine.load"(%1142) {from = "rv", map = #map1, unsigned} : (memref<1xi8>) -> i8
          %1220 = "arith.index_cast"(%1219) {unsigned} : (i8) -> index
          %1221 = "affine.load"(%1149) {from = "dst_addr", map = #map1, unsigned} : (memref<1xi32>) -> i32
          %1222 = "arith.extui"(%1221) {unsigned} : (i32) -> i33
          %1223 = "arith.index_cast"(%arg2) {unsigned} : (index) -> i33
          %1224 = "arith.addi"(%1222, %1223) {unsigned} : (i33, i33) -> i33
          %1225 = "arith.index_cast"(%1224) {unsigned} : (i33) -> index
          "memref.store"(%1216, %826, %1218, %1220, %1225) {to = "RFfoo.alloc_c", unsigned} : (i32, memref<4x72x8192xi32>, index, index, index) -> ()
          "scf.yield"() : () -> ()
        }) {loop_name = "i", op_name = "copyN"} : (index, index, index) -> ()
        %1172 = "memref.alloc"() {name = "rfaddr_80", operand_segment_sizes = dense<0> : vector<2xi32>} : () -> memref<1x!hcl.struct<i7, i2>>
        %1173 = "affine.load"(%840) {from = "ntt_intt_bot_addr", map = #map1, unsigned} : (memref<1xi9>) -> i9
        %1174 = "hcl.int_to_struct"(%1173) {unsigned} : (i9) -> !hcl.struct<i7, i2>
        "affine.store"(%1174, %1172, %651) {map = #map0, to = "rfaddr_80"} : (!hcl.struct<i7, i2>, memref<1x!hcl.struct<i7, i2>>, index) -> ()
        %1175 = "memref.alloc"() {name = "bv_81", operand_segment_sizes = dense<0> : vector<2xi32>} : () -> memref<1xi3>
        %1176 = "affine.load"(%1172) {from = "rfaddr_80", map = #map1} : (memref<1x!hcl.struct<i7, i2>>) -> !hcl.struct<i7, i2>
        %1177 = "hcl.struct_get"(%1176) {index = 1 : i64} : (!hcl.struct<i7, i2>) -> i2
        %1178 = "arith.extui"(%1177) {unsigned} : (i2) -> i3
        "affine.store"(%1178, %1175, %650) {map = #map0, to = "bv_81", unsigned} : (i3, memref<1xi3>, index) -> ()
        %1179 = "memref.alloc"() {name = "rv_82", operand_segment_sizes = dense<0> : vector<2xi32>} : () -> memref<1xi8>
        %1180 = "hcl.struct_get"(%1176) {index = 0 : i64} : (!hcl.struct<i7, i2>) -> i7
        %1181 = "arith.extui"(%1180) {unsigned} : (i7) -> i8
        "affine.store"(%1181, %1179, %649) {map = #map0, to = "rv_82", unsigned} : (i8, memref<1xi8>, index) -> ()
        %1182 = "memref.alloc"() {name = "count_83", operand_segment_sizes = dense<0> : vector<2xi32>} : () -> memref<1xi32>
        %1183 = "arith.constant"() {value = 8192 : i32} : () -> i32
        "affine.store"(%1183, %1182, %648) {map = #map0, to = "count_83", unsigned} : (i32, memref<1xi32>, index) -> ()
        %1184 = "memref.alloc"() {name = "src_addr_84", operand_segment_sizes = dense<0> : vector<2xi32>} : () -> memref<1xi32>
        %1185 = "arith.constant"() {value = 0 : i32} : () -> i32
        "affine.store"(%1185, %1184, %647) {map = #map0, to = "src_addr_84", unsigned} : (i32, memref<1xi32>, index) -> ()
        %1186 = "memref.alloc"() {name = "dst_addr_85", operand_segment_sizes = dense<0> : vector<2xi32>} : () -> memref<1xi32>
        %1187 = "arith.constant"() {value = 0 : i32} : () -> i32
        "affine.store"(%1187, %1186, %646) {map = #map0, to = "dst_addr_85", unsigned} : (i32, memref<1xi32>, index) -> ()
        %1188 = "memref.alloc"() {name = "_addr_86", operand_segment_sizes = dense<0> : vector<2xi32>} : () -> memref<1xi32>
        %1189 = "affine.load"(%1184) {from = "src_addr_84", map = #map1, unsigned} : (memref<1xi32>) -> i32
        "affine.store"(%1189, %1188, %645) {map = #map0, to = "_addr_86", unsigned} : (i32, memref<1xi32>, index) -> ()
        %1190 = "memref.alloc"() {name = "assert_cond_87", operand_segment_sizes = dense<0> : vector<2xi32>} : () -> memref<1xi1>
        %1191 = "affine.load"(%1188) {from = "_addr_86", map = #map1, unsigned} : (memref<1xi32>) -> i32
        %1192 = "affine.load"(%1182) {from = "count_83", map = #map1, unsigned} : (memref<1xi32>) -> i32
        %1193 = "arith.extui"(%1191) {unsigned} : (i32) -> i33
        %1194 = "arith.extui"(%1192) {unsigned} : (i32) -> i33
        %1195 = "arith.addi"(%1193, %1194) {unsigned} : (i33, i33) -> i33
        %1196 = "arith.constant"() {value = 8192 : i32} : () -> i32
        %1197 = "arith.extui"(%1195) : (i33) -> i34
        %1198 = "arith.extsi"(%1196) : (i32) -> i34
        %1199 = "arith.cmpi"(%1197, %1198) {predicate = 3 : i64} : (i34, i34) -> i1
        "affine.store"(%1199, %1190, %644) {map = #map0, to = "assert_cond_87", unsigned} : (i1, memref<1xi1>, index) -> ()
        %1200 = "affine.load"(%1190) {from = "assert_cond_87", map = #map1, unsigned} : (memref<1xi1>) -> i1
        %1201 = "arith.constant"() {value = 0 : i32} : () -> i32
        %1202 = "arith.extui"(%1200) : (i1) -> i32
        %1203 = "arith.cmpi"(%1202, %1201) {predicate = 0 : i64} : (i32, i32) -> i1
        "scf.if"(%1203) ({
          %1211 = "affine.load"(%1188) {from = "_addr_86", map = #map1, unsigned} : (memref<1xi32>) -> i32
          %1212 = "affine.load"(%1188) {from = "_addr_86", map = #map1, unsigned} : (memref<1xi32>) -> i32
          %1213 = "arith.extui"(%1212) {unsigned} : (i32) -> i33
          %1214 = "arith.extui"(%1192) {unsigned} : (i32) -> i33
          %1215 = "arith.addi"(%1213, %1214) {unsigned} : (i33, i33) -> i33
          "hcl.print"(%1211, %1215) {format = "\0A\0AAssertion failed {schedule.py:73,schedule.py:35,soc.py:60,hcl_ext.py:861,hcl_ext.py:851,tile.py:184,tile.py:413,mem.py:172,mem.py:106,hcl_ext.py:723}: nttdatainbot Mem.copyto exceeds memory size: addr=%d+size=%d > 8192\0A\0A", signedness = "uu"} : (i32, i33) -> ()
          "scf.while"() ({
            %1216 = "affine.load"(%1190) {from = "assert_cond_87", map = #map1, unsigned} : (memref<1xi1>) -> i1
            %1217 = "arith.constant"() {value = 0 : i32} : () -> i32
            %1218 = "arith.extui"(%1216) : (i1) -> i32
            %1219 = "arith.cmpi"(%1218, %1217) {predicate = 0 : i64} : (i32, i32) -> i1
            "scf.condition"(%1219) : (i1) -> ()
          }, {
            %1216 = "arith.constant"() {value = 0 : i32} : () -> i32
            %1217 = "arith.trunci"(%1216) {unsigned} : (i32) -> i1
            "affine.store"(%1217, %1190) {map = #map1, to = "assert_cond_87", unsigned} : (i1, memref<1xi1>) -> ()
            "scf.yield"() : () -> ()
          }) : () -> ()
          "scf.yield"() : () -> ()
        }, {
        }) : (i1) -> ()
        %1204 = "arith.constant"() {value = 0 : i32} : () -> i32
        %1205 = "arith.index_cast"(%1204) {unsigned} : (i32) -> index
        %1206 = "affine.load"(%1182) {from = "count_83", map = #map1, unsigned} : (memref<1xi32>) -> i32
        %1207 = "arith.index_cast"(%1206) {unsigned} : (i32) -> index
        %1208 = "arith.constant"() {unsigned, value = 1 : index} : () -> index
        "scf.for"(%1205, %1207, %1208) ({
        ^bb0(%arg2: index):
          %1211 = "affine.load"(%1184) {from = "src_addr_84", map = #map1, unsigned} : (memref<1xi32>) -> i32
          %1212 = "arith.extui"(%1211) {unsigned} : (i32) -> i33
          %1213 = "arith.index_cast"(%arg2) {unsigned} : (index) -> i33
          %1214 = "arith.addi"(%1212, %1213) {unsigned} : (i33, i33) -> i33
          %1215 = "arith.index_cast"(%1214) {unsigned} : (i33) -> index
          %1216 = "memref.load"(%845, %1215) {from = "nttdatainbot.alloc_c", unsigned} : (memref<8192xi32>, index) -> i32
          %1217 = "affine.load"(%1175) {from = "bv_81", map = #map1, unsigned} : (memref<1xi3>) -> i3
          %1218 = "arith.index_cast"(%1217) {unsigned} : (i3) -> index
          %1219 = "affine.load"(%1179) {from = "rv_82", map = #map1, unsigned} : (memref<1xi8>) -> i8
          %1220 = "arith.index_cast"(%1219) {unsigned} : (i8) -> index
          %1221 = "affine.load"(%1186) {from = "dst_addr_85", map = #map1, unsigned} : (memref<1xi32>) -> i32
          %1222 = "arith.extui"(%1221) {unsigned} : (i32) -> i33
          %1223 = "arith.index_cast"(%arg2) {unsigned} : (index) -> i33
          %1224 = "arith.addi"(%1222, %1223) {unsigned} : (i33, i33) -> i33
          %1225 = "arith.index_cast"(%1224) {unsigned} : (i33) -> index
          "memref.store"(%1216, %826, %1218, %1220, %1225) {to = "RFfoo.alloc_c", unsigned} : (i32, memref<4x72x8192xi32>, index, index, index) -> ()
          "scf.yield"() : () -> ()
        }) {loop_name = "i", op_name = "copyN_22"} : (index, index, index) -> ()
        %1209 = "arith.constant"() {value = 0 : i32} : () -> i32
        %1210 = "arith.trunci"(%1209) {unsigned} : (i32) -> i1
        "affine.store"(%1210, %831) {map = #map1, to = "flag_ntt", unsigned} : (i1, memref<1xi1>) -> ()
        "scf.yield"() : () -> ()
      }, {
      }) : (i1) -> ()
      %1066 = "affine.load"(%834) {from = "flag_intt", map = #map1, unsigned} : (memref<1xi1>) -> i1
      %1067 = "arith.constant"() {value = 0 : i32} : () -> i32
      %1068 = "arith.extui"(%1066) : (i1) -> i32
      %1069 = "arith.cmpi"(%1068, %1067) {predicate = 1 : i64} : (i32, i32) -> i1
      "scf.if"(%1069) ({
        %1135 = "memref.alloc"() {name = "rfaddr_88", operand_segment_sizes = dense<0> : vector<2xi32>} : () -> memref<1x!hcl.struct<i7, i2>>
        %1136 = "affine.load"(%837) {from = "ntt_intt_top_addr", map = #map1, unsigned} : (memref<1xi9>) -> i9
        %1137 = "hcl.int_to_struct"(%1136) {unsigned} : (i9) -> !hcl.struct<i7, i2>
        "affine.store"(%1137, %1135, %643) {map = #map0, to = "rfaddr_88"} : (!hcl.struct<i7, i2>, memref<1x!hcl.struct<i7, i2>>, index) -> ()
        %1138 = "memref.alloc"() {name = "bv_89", operand_segment_sizes = dense<0> : vector<2xi32>} : () -> memref<1xi3>
        %1139 = "affine.load"(%1135) {from = "rfaddr_88", map = #map1} : (memref<1x!hcl.struct<i7, i2>>) -> !hcl.struct<i7, i2>
        %1140 = "hcl.struct_get"(%1139) {index = 1 : i64} : (!hcl.struct<i7, i2>) -> i2
        %1141 = "arith.extui"(%1140) {unsigned} : (i2) -> i3
        "affine.store"(%1141, %1138, %642) {map = #map0, to = "bv_89", unsigned} : (i3, memref<1xi3>, index) -> ()
        %1142 = "memref.alloc"() {name = "rv_90", operand_segment_sizes = dense<0> : vector<2xi32>} : () -> memref<1xi8>
        %1143 = "hcl.struct_get"(%1139) {index = 0 : i64} : (!hcl.struct<i7, i2>) -> i7
        %1144 = "arith.extui"(%1143) {unsigned} : (i7) -> i8
        "affine.store"(%1144, %1142, %641) {map = #map0, to = "rv_90", unsigned} : (i8, memref<1xi8>, index) -> ()
        %1145 = "memref.alloc"() {name = "count_91", operand_segment_sizes = dense<0> : vector<2xi32>} : () -> memref<1xi32>
        %1146 = "arith.constant"() {value = 8192 : i32} : () -> i32
        "affine.store"(%1146, %1145, %640) {map = #map0, to = "count_91", unsigned} : (i32, memref<1xi32>, index) -> ()
        %1147 = "memref.alloc"() {name = "src_addr_92", operand_segment_sizes = dense<0> : vector<2xi32>} : () -> memref<1xi32>
        %1148 = "arith.constant"() {value = 0 : i32} : () -> i32
        "affine.store"(%1148, %1147, %639) {map = #map0, to = "src_addr_92", unsigned} : (i32, memref<1xi32>, index) -> ()
        %1149 = "memref.alloc"() {name = "dst_addr_93", operand_segment_sizes = dense<0> : vector<2xi32>} : () -> memref<1xi32>
        %1150 = "arith.constant"() {value = 0 : i32} : () -> i32
        "affine.store"(%1150, %1149, %638) {map = #map0, to = "dst_addr_93", unsigned} : (i32, memref<1xi32>, index) -> ()
        %1151 = "memref.alloc"() {name = "_addr_94", operand_segment_sizes = dense<0> : vector<2xi32>} : () -> memref<1xi32>
        %1152 = "affine.load"(%1147) {from = "src_addr_92", map = #map1, unsigned} : (memref<1xi32>) -> i32
        "affine.store"(%1152, %1151, %637) {map = #map0, to = "_addr_94", unsigned} : (i32, memref<1xi32>, index) -> ()
        %1153 = "memref.alloc"() {name = "assert_cond_95", operand_segment_sizes = dense<0> : vector<2xi32>} : () -> memref<1xi1>
        %1154 = "affine.load"(%1151) {from = "_addr_94", map = #map1, unsigned} : (memref<1xi32>) -> i32
        %1155 = "affine.load"(%1145) {from = "count_91", map = #map1, unsigned} : (memref<1xi32>) -> i32
        %1156 = "arith.extui"(%1154) {unsigned} : (i32) -> i33
        %1157 = "arith.extui"(%1155) {unsigned} : (i32) -> i33
        %1158 = "arith.addi"(%1156, %1157) {unsigned} : (i33, i33) -> i33
        %1159 = "arith.constant"() {value = 8192 : i32} : () -> i32
        %1160 = "arith.extui"(%1158) : (i33) -> i34
        %1161 = "arith.extsi"(%1159) : (i32) -> i34
        %1162 = "arith.cmpi"(%1160, %1161) {predicate = 3 : i64} : (i34, i34) -> i1
        "affine.store"(%1162, %1153, %636) {map = #map0, to = "assert_cond_95", unsigned} : (i1, memref<1xi1>, index) -> ()
        %1163 = "affine.load"(%1153) {from = "assert_cond_95", map = #map1, unsigned} : (memref<1xi1>) -> i1
        %1164 = "arith.constant"() {value = 0 : i32} : () -> i32
        %1165 = "arith.extui"(%1163) : (i1) -> i32
        %1166 = "arith.cmpi"(%1165, %1164) {predicate = 0 : i64} : (i32, i32) -> i1
        "scf.if"(%1166) ({
          %1211 = "affine.load"(%1151) {from = "_addr_94", map = #map1, unsigned} : (memref<1xi32>) -> i32
          %1212 = "affine.load"(%1151) {from = "_addr_94", map = #map1, unsigned} : (memref<1xi32>) -> i32
          %1213 = "arith.extui"(%1212) {unsigned} : (i32) -> i33
          %1214 = "arith.extui"(%1155) {unsigned} : (i32) -> i33
          %1215 = "arith.addi"(%1213, %1214) {unsigned} : (i33, i33) -> i33
          "hcl.print"(%1211, %1215) {format = "\0A\0AAssertion failed {schedule.py:73,schedule.py:35,soc.py:60,hcl_ext.py:861,hcl_ext.py:851,tile.py:184,tile.py:422,mem.py:172,mem.py:106,hcl_ext.py:723}: inttdataintop Mem.copyto exceeds memory size: addr=%d+size=%d > 8192\0A\0A", signedness = "uu"} : (i32, i33) -> ()
          "scf.while"() ({
            %1216 = "affine.load"(%1153) {from = "assert_cond_95", map = #map1, unsigned} : (memref<1xi1>) -> i1
            %1217 = "arith.constant"() {value = 0 : i32} : () -> i32
            %1218 = "arith.extui"(%1216) : (i1) -> i32
            %1219 = "arith.cmpi"(%1218, %1217) {predicate = 0 : i64} : (i32, i32) -> i1
            "scf.condition"(%1219) : (i1) -> ()
          }, {
            %1216 = "arith.constant"() {value = 0 : i32} : () -> i32
            %1217 = "arith.trunci"(%1216) {unsigned} : (i32) -> i1
            "affine.store"(%1217, %1153) {map = #map1, to = "assert_cond_95", unsigned} : (i1, memref<1xi1>) -> ()
            "scf.yield"() : () -> ()
          }) : () -> ()
          "scf.yield"() : () -> ()
        }, {
        }) : (i1) -> ()
        %1167 = "arith.constant"() {value = 0 : i32} : () -> i32
        %1168 = "arith.index_cast"(%1167) {unsigned} : (i32) -> index
        %1169 = "affine.load"(%1145) {from = "count_91", map = #map1, unsigned} : (memref<1xi32>) -> i32
        %1170 = "arith.index_cast"(%1169) {unsigned} : (i32) -> index
        %1171 = "arith.constant"() {unsigned, value = 1 : index} : () -> index
        "scf.for"(%1168, %1170, %1171) ({
        ^bb0(%arg2: index):
          %1211 = "affine.load"(%1147) {from = "src_addr_92", map = #map1, unsigned} : (memref<1xi32>) -> i32
          %1212 = "arith.extui"(%1211) {unsigned} : (i32) -> i33
          %1213 = "arith.index_cast"(%arg2) {unsigned} : (index) -> i33
          %1214 = "arith.addi"(%1212, %1213) {unsigned} : (i33, i33) -> i33
          %1215 = "arith.index_cast"(%1214) {unsigned} : (i33) -> index
          %1216 = "memref.load"(%848, %1215) {from = "inttdataintop.alloc_c", unsigned} : (memref<8192xi32>, index) -> i32
          %1217 = "affine.load"(%1138) {from = "bv_89", map = #map1, unsigned} : (memref<1xi3>) -> i3
          %1218 = "arith.index_cast"(%1217) {unsigned} : (i3) -> index
          %1219 = "affine.load"(%1142) {from = "rv_90", map = #map1, unsigned} : (memref<1xi8>) -> i8
          %1220 = "arith.index_cast"(%1219) {unsigned} : (i8) -> index
          %1221 = "affine.load"(%1149) {from = "dst_addr_93", map = #map1, unsigned} : (memref<1xi32>) -> i32
          %1222 = "arith.extui"(%1221) {unsigned} : (i32) -> i33
          %1223 = "arith.index_cast"(%arg2) {unsigned} : (index) -> i33
          %1224 = "arith.addi"(%1222, %1223) {unsigned} : (i33, i33) -> i33
          %1225 = "arith.index_cast"(%1224) {unsigned} : (i33) -> index
          "memref.store"(%1216, %826, %1218, %1220, %1225) {to = "RFfoo.alloc_c", unsigned} : (i32, memref<4x72x8192xi32>, index, index, index) -> ()
          "scf.yield"() : () -> ()
        }) {loop_name = "i", op_name = "copyN_23"} : (index, index, index) -> ()
        %1172 = "memref.alloc"() {name = "rfaddr_96", operand_segment_sizes = dense<0> : vector<2xi32>} : () -> memref<1x!hcl.struct<i7, i2>>
        %1173 = "affine.load"(%840) {from = "ntt_intt_bot_addr", map = #map1, unsigned} : (memref<1xi9>) -> i9
        %1174 = "hcl.int_to_struct"(%1173) {unsigned} : (i9) -> !hcl.struct<i7, i2>
        "affine.store"(%1174, %1172, %635) {map = #map0, to = "rfaddr_96"} : (!hcl.struct<i7, i2>, memref<1x!hcl.struct<i7, i2>>, index) -> ()
        %1175 = "memref.alloc"() {name = "bv_97", operand_segment_sizes = dense<0> : vector<2xi32>} : () -> memref<1xi3>
        %1176 = "affine.load"(%1172) {from = "rfaddr_96", map = #map1} : (memref<1x!hcl.struct<i7, i2>>) -> !hcl.struct<i7, i2>
        %1177 = "hcl.struct_get"(%1176) {index = 1 : i64} : (!hcl.struct<i7, i2>) -> i2
        %1178 = "arith.extui"(%1177) {unsigned} : (i2) -> i3
        "affine.store"(%1178, %1175, %634) {map = #map0, to = "bv_97", unsigned} : (i3, memref<1xi3>, index) -> ()
        %1179 = "memref.alloc"() {name = "rv_98", operand_segment_sizes = dense<0> : vector<2xi32>} : () -> memref<1xi8>
        %1180 = "hcl.struct_get"(%1176) {index = 0 : i64} : (!hcl.struct<i7, i2>) -> i7
        %1181 = "arith.extui"(%1180) {unsigned} : (i7) -> i8
        "affine.store"(%1181, %1179, %633) {map = #map0, to = "rv_98", unsigned} : (i8, memref<1xi8>, index) -> ()
        %1182 = "memref.alloc"() {name = "count_99", operand_segment_sizes = dense<0> : vector<2xi32>} : () -> memref<1xi32>
        %1183 = "arith.constant"() {value = 8192 : i32} : () -> i32
        "affine.store"(%1183, %1182, %632) {map = #map0, to = "count_99", unsigned} : (i32, memref<1xi32>, index) -> ()
        %1184 = "memref.alloc"() {name = "src_addr_100", operand_segment_sizes = dense<0> : vector<2xi32>} : () -> memref<1xi32>
        %1185 = "arith.constant"() {value = 0 : i32} : () -> i32
        "affine.store"(%1185, %1184, %631) {map = #map0, to = "src_addr_100", unsigned} : (i32, memref<1xi32>, index) -> ()
        %1186 = "memref.alloc"() {name = "dst_addr_101", operand_segment_sizes = dense<0> : vector<2xi32>} : () -> memref<1xi32>
        %1187 = "arith.constant"() {value = 0 : i32} : () -> i32
        "affine.store"(%1187, %1186, %630) {map = #map0, to = "dst_addr_101", unsigned} : (i32, memref<1xi32>, index) -> ()
        %1188 = "memref.alloc"() {name = "_addr_102", operand_segment_sizes = dense<0> : vector<2xi32>} : () -> memref<1xi32>
        %1189 = "affine.load"(%1184) {from = "src_addr_100", map = #map1, unsigned} : (memref<1xi32>) -> i32
        "affine.store"(%1189, %1188, %629) {map = #map0, to = "_addr_102", unsigned} : (i32, memref<1xi32>, index) -> ()
        %1190 = "memref.alloc"() {name = "assert_cond_103", operand_segment_sizes = dense<0> : vector<2xi32>} : () -> memref<1xi1>
        %1191 = "affine.load"(%1188) {from = "_addr_102", map = #map1, unsigned} : (memref<1xi32>) -> i32
        %1192 = "affine.load"(%1182) {from = "count_99", map = #map1, unsigned} : (memref<1xi32>) -> i32
        %1193 = "arith.extui"(%1191) {unsigned} : (i32) -> i33
        %1194 = "arith.extui"(%1192) {unsigned} : (i32) -> i33
        %1195 = "arith.addi"(%1193, %1194) {unsigned} : (i33, i33) -> i33
        %1196 = "arith.constant"() {value = 8192 : i32} : () -> i32
        %1197 = "arith.extui"(%1195) : (i33) -> i34
        %1198 = "arith.extsi"(%1196) : (i32) -> i34
        %1199 = "arith.cmpi"(%1197, %1198) {predicate = 3 : i64} : (i34, i34) -> i1
        "affine.store"(%1199, %1190, %628) {map = #map0, to = "assert_cond_103", unsigned} : (i1, memref<1xi1>, index) -> ()
        %1200 = "affine.load"(%1190) {from = "assert_cond_103", map = #map1, unsigned} : (memref<1xi1>) -> i1
        %1201 = "arith.constant"() {value = 0 : i32} : () -> i32
        %1202 = "arith.extui"(%1200) : (i1) -> i32
        %1203 = "arith.cmpi"(%1202, %1201) {predicate = 0 : i64} : (i32, i32) -> i1
        "scf.if"(%1203) ({
          %1211 = "affine.load"(%1188) {from = "_addr_102", map = #map1, unsigned} : (memref<1xi32>) -> i32
          %1212 = "affine.load"(%1188) {from = "_addr_102", map = #map1, unsigned} : (memref<1xi32>) -> i32
          %1213 = "arith.extui"(%1212) {unsigned} : (i32) -> i33
          %1214 = "arith.extui"(%1192) {unsigned} : (i32) -> i33
          %1215 = "arith.addi"(%1213, %1214) {unsigned} : (i33, i33) -> i33
          "hcl.print"(%1211, %1215) {format = "\0A\0AAssertion failed {schedule.py:73,schedule.py:35,soc.py:60,hcl_ext.py:861,hcl_ext.py:851,tile.py:184,tile.py:424,mem.py:172,mem.py:106,hcl_ext.py:723}: inttdatainbot Mem.copyto exceeds memory size: addr=%d+size=%d > 8192\0A\0A", signedness = "uu"} : (i32, i33) -> ()
          "scf.while"() ({
            %1216 = "affine.load"(%1190) {from = "assert_cond_103", map = #map1, unsigned} : (memref<1xi1>) -> i1
            %1217 = "arith.constant"() {value = 0 : i32} : () -> i32
            %1218 = "arith.extui"(%1216) : (i1) -> i32
            %1219 = "arith.cmpi"(%1218, %1217) {predicate = 0 : i64} : (i32, i32) -> i1
            "scf.condition"(%1219) : (i1) -> ()
          }, {
            %1216 = "arith.constant"() {value = 0 : i32} : () -> i32
            %1217 = "arith.trunci"(%1216) {unsigned} : (i32) -> i1
            "affine.store"(%1217, %1190) {map = #map1, to = "assert_cond_103", unsigned} : (i1, memref<1xi1>) -> ()
            "scf.yield"() : () -> ()
          }) : () -> ()
          "scf.yield"() : () -> ()
        }, {
        }) : (i1) -> ()
        %1204 = "arith.constant"() {value = 0 : i32} : () -> i32
        %1205 = "arith.index_cast"(%1204) {unsigned} : (i32) -> index
        %1206 = "affine.load"(%1182) {from = "count_99", map = #map1, unsigned} : (memref<1xi32>) -> i32
        %1207 = "arith.index_cast"(%1206) {unsigned} : (i32) -> index
        %1208 = "arith.constant"() {unsigned, value = 1 : index} : () -> index
        "scf.for"(%1205, %1207, %1208) ({
        ^bb0(%arg2: index):
          %1211 = "affine.load"(%1184) {from = "src_addr_100", map = #map1, unsigned} : (memref<1xi32>) -> i32
          %1212 = "arith.extui"(%1211) {unsigned} : (i32) -> i33
          %1213 = "arith.index_cast"(%arg2) {unsigned} : (index) -> i33
          %1214 = "arith.addi"(%1212, %1213) {unsigned} : (i33, i33) -> i33
          %1215 = "arith.index_cast"(%1214) {unsigned} : (i33) -> index
          %1216 = "memref.load"(%849, %1215) {from = "inttdatainbot.alloc_c", unsigned} : (memref<8192xi32>, index) -> i32
          %1217 = "affine.load"(%1175) {from = "bv_97", map = #map1, unsigned} : (memref<1xi3>) -> i3
          %1218 = "arith.index_cast"(%1217) {unsigned} : (i3) -> index
          %1219 = "affine.load"(%1179) {from = "rv_98", map = #map1, unsigned} : (memref<1xi8>) -> i8
          %1220 = "arith.index_cast"(%1219) {unsigned} : (i8) -> index
          %1221 = "affine.load"(%1186) {from = "dst_addr_101", map = #map1, unsigned} : (memref<1xi32>) -> i32
          %1222 = "arith.extui"(%1221) {unsigned} : (i32) -> i33
          %1223 = "arith.index_cast"(%arg2) {unsigned} : (index) -> i33
          %1224 = "arith.addi"(%1222, %1223) {unsigned} : (i33, i33) -> i33
          %1225 = "arith.index_cast"(%1224) {unsigned} : (i33) -> index
          "memref.store"(%1216, %826, %1218, %1220, %1225) {to = "RFfoo.alloc_c", unsigned} : (i32, memref<4x72x8192xi32>, index, index, index) -> ()
          "scf.yield"() : () -> ()
        }) {loop_name = "i", op_name = "copyN_24"} : (index, index, index) -> ()
        %1209 = "arith.constant"() {value = 0 : i32} : () -> i32
        %1210 = "arith.trunci"(%1209) {unsigned} : (i32) -> i1
        "affine.store"(%1210, %834) {map = #map1, to = "flag_intt", unsigned} : (i1, memref<1xi1>) -> ()
        "scf.yield"() : () -> ()
      }, {
      }) : (i1) -> ()
      %1070 = "arith.constant"() {unsigned, value = false} : () -> i1
      %1071 = "affine.load"(%898) {from = "flags_active_56", map = #map1, unsigned} : (memref<1xi1>) -> i1
      %1072 = "arith.ori"(%1070, %1071) {unsigned} : (i1, i1) -> i1
      %1073 = "affine.load"(%901) {from = "flags_halt_57", map = #map1, unsigned} : (memref<1xi1>) -> i1
      %1074 = "arith.ori"(%1072, %1073) {unsigned} : (i1, i1) -> i1
      %1075 = "arith.constant"() {value = 0 : i32} : () -> i32
      %1076 = "arith.extui"(%1074) : (i1) -> i32
      %1077 = "arith.cmpi"(%1076, %1075) {predicate = 0 : i64} : (i32, i32) -> i1
      "scf.if"(%1077) ({
        %1135 = "memref.alloc"() {name = "read_addr", operand_segment_sizes = dense<0> : vector<2xi32>} : () -> memref<1xi32>
        %1136 = "arith.constant"() {value = 0 : i32} : () -> i32
        "affine.store"(%1136, %1135, %627) {map = #map0, to = "read_addr", unsigned} : (i32, memref<1xi32>, index) -> ()
        %1137 = "memref.alloc"() {name = "_addr_105", operand_segment_sizes = dense<0> : vector<2xi32>} : () -> memref<1xi32>
        %1138 = "affine.load"(%1135) {from = "read_addr", map = #map1, unsigned} : (memref<1xi32>) -> i32
        "affine.store"(%1138, %1137, %626) {map = #map0, to = "_addr_105", unsigned} : (i32, memref<1xi32>, index) -> ()
        %1139 = "memref.alloc"() {name = "assert_cond_106", operand_segment_sizes = dense<0> : vector<2xi32>} : () -> memref<1xi1>
        %1140 = "affine.load"(%1137) {from = "_addr_105", map = #map1, unsigned} : (memref<1xi32>) -> i32
        %1141 = "arith.constant"() {value = 1 : i32} : () -> i32
        %1142 = "arith.extui"(%1140) : (i32) -> i34
        %1143 = "arith.extsi"(%1141) : (i32) -> i34
        %1144 = "arith.addi"(%1142, %1143) : (i34, i34) -> i34
        %1145 = "arith.constant"() {value = 10 : i32} : () -> i32
        %1146 = "arith.extsi"(%1145) : (i32) -> i34
        %1147 = "arith.cmpi"(%1144, %1146) {predicate = 3 : i64} : (i34, i34) -> i1
        "affine.store"(%1147, %1139, %625) {map = #map0, to = "assert_cond_106", unsigned} : (i1, memref<1xi1>, index) -> ()
        %1148 = "affine.load"(%1139) {from = "assert_cond_106", map = #map1, unsigned} : (memref<1xi1>) -> i1
        %1149 = "arith.constant"() {value = 0 : i32} : () -> i32
        %1150 = "arith.extui"(%1148) : (i1) -> i32
        %1151 = "arith.cmpi"(%1150, %1149) {predicate = 0 : i64} : (i32, i32) -> i1
        "scf.if"(%1151) ({
          %1191 = "affine.load"(%1137) {from = "_addr_105", map = #map1, unsigned} : (memref<1xi32>) -> i32
          %1192 = "affine.load"(%1137) {from = "_addr_105", map = #map1, unsigned} : (memref<1xi32>) -> i32
          %1193 = "arith.constant"() {value = 1 : i32} : () -> i32
          %1194 = "arith.extui"(%1192) : (i32) -> i34
          %1195 = "arith.extsi"(%1193) : (i32) -> i34
          %1196 = "arith.addi"(%1194, %1195) : (i34, i34) -> i34
          "hcl.print"(%1191, %1196) {format = "\0A\0AAssertion failed {schedule.py:35,soc.py:60,hcl_ext.py:861,hcl_ext.py:851,heracles_soc.py:61,proc.py:91,mem.py:113,mem.py:135,mem.py:106,hcl_ext.py:723}: Sysreg Mem.read exceeds memory size: addr=%d+size=%d > 10\0A\0A", signedness = "u_"} : (i32, i34) -> ()
          "scf.while"() ({
            %1197 = "affine.load"(%1139) {from = "assert_cond_106", map = #map1, unsigned} : (memref<1xi1>) -> i1
            %1198 = "arith.constant"() {value = 0 : i32} : () -> i32
            %1199 = "arith.extui"(%1197) : (i1) -> i32
            %1200 = "arith.cmpi"(%1199, %1198) {predicate = 0 : i64} : (i32, i32) -> i1
            "scf.condition"(%1200) : (i1) -> ()
          }, {
            %1197 = "arith.constant"() {value = 0 : i32} : () -> i32
            %1198 = "arith.trunci"(%1197) {unsigned} : (i32) -> i1
            "affine.store"(%1198, %1139) {map = #map1, to = "assert_cond_106", unsigned} : (i1, memref<1xi1>) -> ()
            "scf.yield"() : () -> ()
          }) : () -> ()
          "scf.yield"() : () -> ()
        }, {
        }) : (i1) -> ()
        %1152 = "memref.alloc"() {name = "Mem.read_c", operand_segment_sizes = dense<0> : vector<2xi32>} : () -> memref<1xi64>
        %1153 = "affine.load"(%1135) {from = "read_addr", map = #map1, unsigned} : (memref<1xi32>) -> i32
        %1154 = "arith.extui"(%1153) {unsigned} : (i32) -> i33
        %1155 = "arith.index_cast"(%624) {unsigned} : (index) -> i33
        %1156 = "arith.addi"(%1154, %1155) {unsigned} : (i33, i33) -> i33
        %1157 = "arith.index_cast"(%1156) {unsigned} : (i33) -> index
        %1158 = "memref.load"(%arg1, %1157) {from = "sysreg", unsigned} : (memref<10xi64>, index) -> i64
        "affine.store"(%1158, %1152, %624) {map = #map0, to = "Mem.read_c", unsigned} : (i64, memref<1xi64>, index) -> ()
        %1159 = "memref.alloc"() {name = "assert_cond_107", operand_segment_sizes = dense<0> : vector<2xi32>} : () -> memref<1xi1>
        %1160 = "affine.load"(%898) {from = "flags_active_56", map = #map1, unsigned} : (memref<1xi1>) -> i1
        %1161 = "arith.constant"() {value = 0 : i32} : () -> i32
        %1162 = "arith.extui"(%1160) : (i1) -> i32
        %1163 = "arith.cmpi"(%1162, %1161) {predicate = 0 : i64} : (i32, i32) -> i1
        "affine.store"(%1163, %1159, %623) {map = #map0, to = "assert_cond_107", unsigned} : (i1, memref<1xi1>, index) -> ()
        %1164 = "affine.load"(%1159) {from = "assert_cond_107", map = #map1, unsigned} : (memref<1xi1>) -> i1
        %1165 = "arith.constant"() {value = 0 : i32} : () -> i32
        %1166 = "arith.extui"(%1164) : (i1) -> i32
        %1167 = "arith.cmpi"(%1166, %1165) {predicate = 0 : i64} : (i32, i32) -> i1
        "scf.if"(%1167) ({
          %1191 = "arith.constant"() {value = 0 : i32} : () -> i32
          "hcl.print"(%1191) {format = "\0A\0AAssertion failed {schedule.py:86,schedule.py:73,schedule.py:35,soc.py:60,hcl_ext.py:861,hcl_ext.py:851,heracles_soc.py:61,proc.py:91,uController.py:263,hcl_ext.py:723}: proc.UC: uController already/still active?\0A\0A", signedness = "_"} : (i32) -> ()
          "scf.while"() ({
            %1192 = "affine.load"(%1159) {from = "assert_cond_107", map = #map1, unsigned} : (memref<1xi1>) -> i1
            %1193 = "arith.constant"() {value = 0 : i32} : () -> i32
            %1194 = "arith.extui"(%1192) : (i1) -> i32
            %1195 = "arith.cmpi"(%1194, %1193) {predicate = 0 : i64} : (i32, i32) -> i1
            "scf.condition"(%1195) : (i1) -> ()
          }, {
            %1192 = "arith.constant"() {value = 0 : i32} : () -> i32
            %1193 = "arith.trunci"(%1192) {unsigned} : (i32) -> i1
            "affine.store"(%1193, %1159) {map = #map1, to = "assert_cond_107", unsigned} : (i1, memref<1xi1>) -> ()
            "scf.yield"() : () -> ()
          }) : () -> ()
          "scf.yield"() : () -> ()
        }, {
        }) : (i1) -> ()
        %1168 = "arith.constant"() {value = 0 : i32} : () -> i32
        %1169 = "arith.trunci"(%1168) {unsigned} : (i32) -> i1
        "affine.store"(%1169, %898) {map = #map1, to = "flags_active_56", unsigned} : (i1, memref<1xi1>) -> ()
        %1170 = "arith.constant"() {value = 0 : i32} : () -> i32
        %1171 = "arith.trunci"(%1170) {unsigned} : (i32) -> i1
        "affine.store"(%1171, %901) {map = #map1, to = "flags_halt_57", unsigned} : (i1, memref<1xi1>) -> ()
        %1172 = "arith.constant"() {value = 0 : i32} : () -> i32
        %1173 = "arith.trunci"(%1172) {unsigned} : (i32) -> i1
        "affine.store"(%1173, %904) {map = #map1, to = "flags_stall_58", unsigned} : (i1, memref<1xi1>) -> ()
        %1174 = "arith.constant"() {value = 0 : i32} : () -> i32
        %1175 = "arith.trunci"(%1174) {unsigned} : (i32) -> i1
        "affine.store"(%1175, %907) {map = #map1, to = "flags_stalled_59", unsigned} : (i1, memref<1xi1>) -> ()
        %1176 = "arith.constant"() {value = 0 : i32} : () -> i32
        %1177 = "arith.trunci"(%1176) {unsigned} : (i32) -> i1
        "affine.store"(%1177, %910) {map = #map1, to = "flags_break_60", unsigned} : (i1, memref<1xi1>) -> ()
        %1178 = "arith.constant"() {value = 0 : i32} : () -> i32
        %1179 = "arith.trunci"(%1178) {unsigned} : (i32) -> i1
        "affine.store"(%1179, %913) {map = #map1, to = "count_stop_61", unsigned} : (i1, memref<1xi1>) -> ()
        %1180 = "arith.constant"() {value = 0 : i32} : () -> i32
        %1181 = "arith.trunci"(%1180) {unsigned} : (i32) -> i1
        "affine.store"(%1181, %916) {map = #map1, to = "addr_stop_62", unsigned} : (i1, memref<1xi1>) -> ()
        %1182 = "arith.constant"() {value = 0 : i32} : () -> i32
        "affine.store"(%1182, %919) {map = #map1, to = "inst_addr_63", unsigned} : (i32, memref<1xi32>) -> ()
        %1183 = "arith.constant"() {value = 0 : i32} : () -> i32
        "affine.store"(%1183, %921) {map = #map1, to = "inst_naddr_64", unsigned} : (i32, memref<1xi32>) -> ()
        %1184 = "arith.constant"() {value = 0 : i32} : () -> i32
        "affine.store"(%1184, %923) {map = #map1, to = "latency_count_65", unsigned} : (i32, memref<1xi32>) -> ()
        %1185 = "arith.constant"() {value = 0 : i32} : () -> i32
        %1186 = "arith.trunci"(%1185) {unsigned} : (i32) -> i1
        "affine.store"(%1186, %925) {map = #map1, to = "latstalled_66", unsigned} : (i1, memref<1xi1>) -> ()
        %1187 = "affine.load"(%1152) {from = "Mem.read_c", map = #map1, unsigned} : (memref<1xi64>) -> i64
        %1188 = "arith.trunci"(%1187) {unsigned} : (i64) -> i32
        "affine.store"(%1188, %919) {map = #map1, to = "inst_addr_63", unsigned} : (i32, memref<1xi32>) -> ()
        %1189 = "arith.constant"() {value = 1 : i32} : () -> i32
        %1190 = "arith.trunci"(%1189) {unsigned} : (i32) -> i1
        "affine.store"(%1190, %898) {map = #map1, to = "flags_active_56", unsigned} : (i1, memref<1xi1>) -> ()
        "scf.yield"() : () -> ()
      }, {
        %1135 = "affine.load"(%898) {from = "flags_active_56", map = #map1, unsigned} : (memref<1xi1>) -> i1
        %1136 = "arith.constant"() {value = 0 : i32} : () -> i32
        %1137 = "arith.extui"(%1135) : (i1) -> i32
        %1138 = "arith.cmpi"(%1137, %1136) {predicate = 0 : i64} : (i32, i32) -> i1
        "scf.if"(%1138) ({
          %1139 = "arith.constant"() {value = 1 : i32} : () -> i32
          %1140 = "arith.trunci"(%1139) {unsigned} : (i32) -> i1
          "affine.store"(%1140, %938) {map = #map1, to = "sys_done", unsigned} : (i1, memref<1xi1>) -> ()
          "scf.yield"() : () -> ()
        }, {
        }) : (i1) -> ()
        "scf.yield"() : () -> ()
      }) : (i1) -> ()
      %1078 = "arith.constant"() {value = 0 : i32} : () -> i32
      %1079 = "arith.trunci"(%1078) {unsigned} : (i32) -> i1
      "affine.store"(%1079, %743) {map = #map1, to = "flags_stall", unsigned} : (i1, memref<1xi1>) -> ()
      %1080 = "arith.constant"() {value = 0 : i32} : () -> i32
      %1081 = "arith.trunci"(%1080) {unsigned} : (i32) -> i1
      "affine.store"(%1081, %749) {map = #map1, to = "flags_break", unsigned} : (i1, memref<1xi1>) -> ()
      %1082 = "arith.constant"() {value = 0 : i32} : () -> i32
      %1083 = "arith.trunci"(%1082) {unsigned} : (i32) -> i1
      "affine.store"(%1083, %752) {map = #map1, to = "count_stop", unsigned} : (i1, memref<1xi1>) -> ()
      %1084 = "arith.constant"() {value = 0 : i32} : () -> i32
      %1085 = "arith.trunci"(%1084) {unsigned} : (i32) -> i1
      "affine.store"(%1085, %755) {map = #map1, to = "addr_stop", unsigned} : (i1, memref<1xi1>) -> ()
      %1086 = "memref.alloc"() {name = "while_cont", operand_segment_sizes = dense<0> : vector<2xi32>} : () -> memref<1xi1>
      %1087 = "arith.constant"() {value = 1 : i32} : () -> i32
      %1088 = "arith.trunci"(%1087) {unsigned} : (i32) -> i1
      "affine.store"(%1088, %1086, %622) {map = #map0, to = "while_cont", unsigned} : (i1, memref<1xi1>, index) -> ()
      "scf.while"() ({
        %1135 = "affine.load"(%1086) {from = "while_cont", map = #map1, unsigned} : (memref<1xi1>) -> i1
        %1136 = "arith.constant"() {value = 0 : i32} : () -> i32
        %1137 = "arith.extui"(%1135) : (i1) -> i32
        %1138 = "arith.cmpi"(%1137, %1136) {predicate = 1 : i64} : (i32, i32) -> i1
        "scf.condition"(%1138) : (i1) -> ()
      }, {
        %1135 = "memref.alloc"() {name = "assert_cond_109", operand_segment_sizes = dense<0> : vector<2xi32>} : () -> memref<1xi1>
        %1136 = "arith.constant"() {unsigned, value = false} : () -> i1
        %1137 = "affine.load"(%764) {from = "latstalled", map = #map1, unsigned} : (memref<1xi1>) -> i1
        %1138 = "arith.constant"() {value = 1 : i32} : () -> i32
        %1139 = "arith.extui"(%1137) : (i1) -> i32
        %1140 = "arith.cmpi"(%1139, %1138) {predicate = 0 : i64} : (i32, i32) -> i1
        %1141 = "arith.ori"(%1136, %1140) {unsigned} : (i1, i1) -> i1
        %1142 = "affine.load"(%762) {from = "latency_count", map = #map1, unsigned} : (memref<1xi32>) -> i32
        %1143 = "arith.constant"() {value = 0 : i32} : () -> i32
        %1144 = "arith.extui"(%1142) : (i32) -> i33
        %1145 = "arith.extsi"(%1143) : (i32) -> i33
        %1146 = "arith.cmpi"(%1144, %1145) {predicate = 0 : i64} : (i33, i33) -> i1
        %1147 = "arith.ori"(%1141, %1146) {unsigned} : (i1, i1) -> i1
        %1148 = "arith.constant"() {value = 0 : i32} : () -> i32
        %1149 = "arith.extui"(%1147) : (i1) -> i32
        %1150 = "arith.cmpi"(%1149, %1148) {predicate = 1 : i64} : (i32, i32) -> i1
        "affine.store"(%1150, %1135, %621) {map = #map0, to = "assert_cond_109", unsigned} : (i1, memref<1xi1>, index) -> ()
        %1151 = "affine.load"(%1135) {from = "assert_cond_109", map = #map1, unsigned} : (memref<1xi1>) -> i1
        %1152 = "arith.constant"() {value = 0 : i32} : () -> i32
        %1153 = "arith.extui"(%1151) : (i1) -> i32
        %1154 = "arith.cmpi"(%1153, %1152) {predicate = 0 : i64} : (i32, i32) -> i1
        "scf.if"(%1154) ({
          %1160 = "arith.constant"() {value = 0 : i32} : () -> i32
          "hcl.print"(%1160) {format = "\0A\0AAssertion failed {hcl_ext.py:401,schedule.py:86,schedule.py:73,schedule.py:35,soc.py:60,hcl_ext.py:861,hcl_ext.py:851,mfetch.py:106,uController.py:153,hcl_ext.py:723}: \0A\0A", signedness = "_"} : (i32) -> ()
          "scf.while"() ({
            %1161 = "affine.load"(%1135) {from = "assert_cond_109", map = #map1, unsigned} : (memref<1xi1>) -> i1
            %1162 = "arith.constant"() {value = 0 : i32} : () -> i32
            %1163 = "arith.extui"(%1161) : (i1) -> i32
            %1164 = "arith.cmpi"(%1163, %1162) {predicate = 0 : i64} : (i32, i32) -> i1
            "scf.condition"(%1164) : (i1) -> ()
          }, {
            %1161 = "arith.constant"() {value = 0 : i32} : () -> i32
            %1162 = "arith.trunci"(%1161) {unsigned} : (i32) -> i1
            "affine.store"(%1162, %1135) {map = #map1, to = "assert_cond_109", unsigned} : (i1, memref<1xi1>) -> ()
            "scf.yield"() : () -> ()
          }) : () -> ()
          "scf.yield"() : () -> ()
        }, {
        }) : (i1) -> ()
        %1155 = "affine.load"(%762) {from = "latency_count", map = #map1, unsigned} : (memref<1xi32>) -> i32
        %1156 = "arith.constant"() {value = 0 : i32} : () -> i32
        %1157 = "arith.extui"(%1155) : (i32) -> i33
        %1158 = "arith.extsi"(%1156) : (i32) -> i33
        %1159 = "arith.cmpi"(%1157, %1158) {predicate = 0 : i64} : (i33, i33) -> i1
        "scf.if"(%1159) ({
          %1160 = "memref.alloc"() {name = "_cur_address", operand_segment_sizes = dense<0> : vector<2xi32>} : () -> memref<1xi32>
          %1161 = "affine.load"(%758) {from = "inst_addr", map = #map1, unsigned} : (memref<1xi32>) -> i32
          "affine.store"(%1161, %1160, %620) {map = #map0, to = "_cur_address", unsigned} : (i32, memref<1xi32>, index) -> ()
          %1162 = "affine.load"(%758) {from = "inst_addr", map = #map1, unsigned} : (memref<1xi32>) -> i32
          %1163 = "arith.constant"() {value = 2 : i32} : () -> i32
          %1164 = "arith.extui"(%1162) : (i32) -> i34
          %1165 = "arith.extsi"(%1163) : (i32) -> i34
          %1166 = "arith.addi"(%1164, %1165) : (i34, i34) -> i34
          %1167 = "arith.trunci"(%1166) {unsigned} : (i34) -> i32
          "affine.store"(%1167, %760) {map = #map1, to = "inst_naddr", unsigned} : (i32, memref<1xi32>) -> ()
          %1168 = "memref.alloc"() {name = "inst", operand_segment_sizes = dense<0> : vector<2xi32>} : () -> memref<1xi64>
          %1169 = "arith.constant"() {value = 0 : i32} : () -> i32
          %1170 = "arith.extsi"(%1169) {unsigned} : (i32) -> i64
          "affine.store"(%1170, %1168, %619) {map = #map0, to = "inst", unsigned} : (i64, memref<1xi64>, index) -> ()
          %1171 = "memref.alloc"() {name = "read_addr_112", operand_segment_sizes = dense<0> : vector<2xi32>} : () -> memref<1xi34>
          %1172 = "affine.load"(%758) {from = "inst_addr", map = #map1, unsigned} : (memref<1xi32>) -> i32
          %1173 = "arith.constant"() {value = 0 : i32} : () -> i32
          %1174 = "arith.extui"(%1172) : (i32) -> i34
          %1175 = "arith.extsi"(%1173) : (i32) -> i34
          %1176 = "arith.addi"(%1174, %1175) : (i34, i34) -> i34
          "affine.store"(%1176, %1171, %618) {map = #map0, to = "read_addr_112"} : (i34, memref<1xi34>, index) -> ()
          %1177 = "memref.alloc"() {name = "_addr_113", operand_segment_sizes = dense<0> : vector<2xi32>} : () -> memref<1xi34>
          %1178 = "affine.load"(%1171) {from = "read_addr_112", map = #map1} : (memref<1xi34>) -> i34
          "affine.store"(%1178, %1177, %617) {map = #map0, to = "_addr_113"} : (i34, memref<1xi34>, index) -> ()
          %1179 = "memref.alloc"() {name = "assert_cond_114", operand_segment_sizes = dense<0> : vector<2xi32>} : () -> memref<1xi1>
          %1180 = "affine.load"(%1177) {from = "_addr_113", map = #map1} : (memref<1xi34>) -> i34
          %1181 = "arith.constant"() {value = 1 : i32} : () -> i32
          %1182 = "arith.extsi"(%1180) : (i34) -> i35
          %1183 = "arith.extsi"(%1181) : (i32) -> i35
          %1184 = "arith.addi"(%1182, %1183) : (i35, i35) -> i35
          %1185 = "arith.constant"() {value = 33554432 : i32} : () -> i32
          %1186 = "arith.extsi"(%1185) : (i32) -> i35
          %1187 = "arith.cmpi"(%1184, %1186) {predicate = 3 : i64} : (i35, i35) -> i1
          "affine.store"(%1187, %1179, %616) {map = #map0, to = "assert_cond_114", unsigned} : (i1, memref<1xi1>, index) -> ()
          %1188 = "affine.load"(%1179) {from = "assert_cond_114", map = #map1, unsigned} : (memref<1xi1>) -> i1
          %1189 = "arith.constant"() {value = 0 : i32} : () -> i32
          %1190 = "arith.extui"(%1188) : (i1) -> i32
          %1191 = "arith.cmpi"(%1190, %1189) {predicate = 0 : i64} : (i32, i32) -> i1
          "scf.if"(%1191) ({
            %1273 = "affine.load"(%1177) {from = "_addr_113", map = #map1} : (memref<1xi34>) -> i34
            %1274 = "affine.load"(%1177) {from = "_addr_113", map = #map1} : (memref<1xi34>) -> i34
            %1275 = "arith.constant"() {value = 1 : i32} : () -> i32
            %1276 = "arith.extsi"(%1274) : (i34) -> i35
            %1277 = "arith.extsi"(%1275) : (i32) -> i35
            %1278 = "arith.addi"(%1276, %1277) : (i35, i35) -> i35
            "hcl.print"(%1273, %1278) {format = "\0A\0AAssertion failed {soc.py:60,hcl_ext.py:861,hcl_ext.py:851,mfetch.py:106,uController.py:157,instruction.py:244,mem.py:113,mem.py:135,mem.py:106,hcl_ext.py:723}: HBM Mem.read exceeds memory size: addr=%d+size=%d > 33554432\0A\0A", signedness = "__"} : (i34, i35) -> ()
            "scf.while"() ({
              %1279 = "affine.load"(%1179) {from = "assert_cond_114", map = #map1, unsigned} : (memref<1xi1>) -> i1
              %1280 = "arith.constant"() {value = 0 : i32} : () -> i32
              %1281 = "arith.extui"(%1279) : (i1) -> i32
              %1282 = "arith.cmpi"(%1281, %1280) {predicate = 0 : i64} : (i32, i32) -> i1
              "scf.condition"(%1282) : (i1) -> ()
            }, {
              %1279 = "arith.constant"() {value = 0 : i32} : () -> i32
              %1280 = "arith.trunci"(%1279) {unsigned} : (i32) -> i1
              "affine.store"(%1280, %1179) {map = #map1, to = "assert_cond_114", unsigned} : (i1, memref<1xi1>) -> ()
              "scf.yield"() : () -> ()
            }) : () -> ()
            "scf.yield"() : () -> ()
          }, {
          }) : (i1) -> ()
          %1192 = "memref.alloc"() {name = "Mem.read_c_26", operand_segment_sizes = dense<0> : vector<2xi32>} : () -> memref<1xi32>
          %1193 = "affine.load"(%1171) {from = "read_addr_112", map = #map1} : (memref<1xi34>) -> i34
          %1194 = "arith.extsi"(%1193) : (i34) -> i35
          %1195 = "arith.index_cast"(%615) : (index) -> i35
          %1196 = "arith.addi"(%1194, %1195) : (i35, i35) -> i35
          %1197 = "arith.index_cast"(%1196) {unsigned} : (i35) -> index
          %1198 = "memref.load"(%arg0, %1197) {from = "hbm", unsigned} : (memref<33554432xi32>, index) -> i32
          "affine.store"(%1198, %1192, %615) {map = #map0, to = "Mem.read_c_26", unsigned} : (i32, memref<1xi32>, index) -> ()
          %1199 = "affine.load"(%1168) {from = "inst", map = #map1, unsigned} : (memref<1xi64>) -> i64
          %1200 = "arith.constant"() {value = 32 : i32} : () -> i32
          %1201 = "arith.extsi"(%1200) {unsigned} : (i32) -> i64
          %1202 = "arith.shli"(%1199, %1201) {unsigned} : (i64, i64) -> i64
          %1203 = "affine.load"(%1192) {from = "Mem.read_c_26", map = #map1, unsigned} : (memref<1xi32>) -> i32
          %1204 = "arith.extui"(%1203) {unsigned} : (i32) -> i64
…
            %1157 = "arith.cmpi"(%1156, %1155) {predicate = 0 : i64} : (i32, i32) -> i1
            "scf.if"(%1157) ({
              %1191 = "affine.load"(%1143) {from = "_addr_668", map = #map1} : (memref<1xi66>) -> i66
              %1192 = "affine.load"(%1143) {from = "_addr_668", map = #map1} : (memref<1xi66>) -> i66
              %1193 = "arith.constant"() {value = 1 : i32} : () -> i32
              %1194 = "arith.extsi"(%1192) : (i66) -> i67
              %1195 = "arith.extsi"(%1193) : (i32) -> i67
              %1196 = "arith.addi"(%1194, %1195) : (i67, i67) -> i67
              "hcl.print"(%1191, %1196) {format = "\0A\0AAssertion failed {cetiles.py:115,cetiles.py:112,operation.py:370,operation.py:322,cetiles.py:112,cetiles.py:110,mem.py:113,mem.py:135,mem.py:106,hcl_ext.py:723}: nttdataoutbot Mem.read exceeds memory size: addr=%d+size=%d > 8192\0A\0A", signedness = "__"} : (i66, i67) -> ()
              "scf.while"() ({
                %1197 = "affine.load"(%1145) {from = "assert_cond_669", map = #map1, unsigned} : (memref<1xi1>) -> i1
                %1198 = "arith.constant"() {value = 0 : i32} : () -> i32
                %1199 = "arith.extui"(%1197) : (i1) -> i32
                %1200 = "arith.cmpi"(%1199, %1198) {predicate = 0 : i64} : (i32, i32) -> i1
                "scf.condition"(%1200) : (i1) -> ()
              }, {
                %1197 = "arith.constant"() {value = 0 : i32} : () -> i32
                %1198 = "arith.trunci"(%1197) {unsigned} : (i32) -> i1
                "affine.store"(%1198, %1145) {map = #map1, to = "assert_cond_669", unsigned} : (i1, memref<1xi1>) -> ()
                "scf.yield"() : () -> ()
              }) : () -> ()
              "scf.yield"() : () -> ()
            }, {
            }) : (i1) -> ()
            %1158 = "memref.alloc"() {name = "Mem.read_c_97", operand_segment_sizes = dense<0> : vector<2xi32>} : () -> memref<1xi32>
            %1159 = "affine.load"(%1135) {from = "read_addr_667", map = #map1} : (memref<1xi66>) -> i66
            %1160 = "arith.extsi"(%1159) : (i66) -> i67
            %1161 = "arith.index_cast"(%32) : (index) -> i67
            %1162 = "arith.addi"(%1160, %1161) : (i67, i67) -> i67
            %1163 = "arith.index_cast"(%1162) {unsigned} : (i67) -> index
            %1164 = "memref.load"(%847, %1163) {from = "nttdataoutbot.alloc_c", unsigned} : (memref<8192xi32>, index) -> i32
            "affine.store"(%1164, %1158, %32) {map = #map0, to = "Mem.read_c_97", unsigned} : (i32, memref<1xi32>, index) -> ()
            %1165 = "memref.alloc"() {name = "write_addr_670", operand_segment_sizes = dense<0> : vector<2xi32>} : () -> memref<1xi66>
            %1166 = "arith.constant"() {value = 4096 : i32} : () -> i32
            %1167 = "arith.extsi"(%1166) : (i32) -> i65
            %1168 = "arith.extsi"(%1170) : (i64) -> i65
            %1169 = "arith.addi"(%1167, %1168) : (i65, i65) -> i65
            %1170 = "arith.extsi"(%1169) : (i65) -> i66
            %1171 = "arith.index_cast"(%arg3) : (index) -> i66
            %1172 = "arith.addi"(%1170, %1171) : (i66, i66) -> i66
            "affine.store"(%1172, %1165, %31) {map = #map0, to = "write_addr_670"} : (i66, memref<1xi66>, index) -> ()
            %1173 = "memref.alloc"() {name = "_addr_671", operand_segment_sizes = dense<0> : vector<2xi32>} : () -> memref<1xi66>
            %1174 = "affine.load"(%1165) {from = "write_addr_670", map = #map1} : (memref<1xi66>) -> i66
            "affine.store"(%1174, %1173, %30) {map = #map0, to = "_addr_671"} : (i66, memref<1xi66>, index) -> ()
            %1175 = "memref.alloc"() {name = "assert_cond_672", operand_segment_sizes = dense<0> : vector<2xi32>} : () -> memref<1xi1>
            %1176 = "affine.load"(%1173) {from = "_addr_671", map = #map1} : (memref<1xi66>) -> i66
            %1177 = "arith.constant"() {value = 1 : i32} : () -> i32
            %1178 = "arith.extsi"(%1176) : (i66) -> i67
            %1179 = "arith.extsi"(%1177) : (i32) -> i67
            %1180 = "arith.addi"(%1178, %1179) : (i67, i67) -> i67
            %1181 = "arith.constant"() {value = 8192 : i32} : () -> i32
            %1182 = "arith.extsi"(%1181) : (i32) -> i67
            %1183 = "arith.cmpi"(%1180, %1182) {predicate = 3 : i64} : (i67, i67) -> i1
            "affine.store"(%1183, %1175, %29) {map = #map0, to = "assert_cond_672", unsigned} : (i1, memref<1xi1>, index) -> ()
            %1184 = "affine.load"(%1175) {from = "assert_cond_672", map = #map1, unsigned} : (memref<1xi1>) -> i1
            %1185 = "arith.constant"() {value = 0 : i32} : () -> i32
            %1186 = "arith.extui"(%1184) : (i1) -> i32
            %1187 = "arith.cmpi"(%1186, %1185) {predicate = 0 : i64} : (i32, i32) -> i1
            "scf.if"(%1187) ({
              %1191 = "affine.load"(%1173) {from = "_addr_671", map = #map1} : (memref<1xi66>) -> i66
              %1192 = "affine.load"(%1173) {from = "_addr_671", map = #map1} : (memref<1xi66>) -> i66
              %1193 = "arith.constant"() {value = 1 : i32} : () -> i32
              %1194 = "arith.extsi"(%1192) : (i66) -> i67
              %1195 = "arith.extsi"(%1193) : (i32) -> i67
              %1196 = "arith.addi"(%1194, %1195) : (i67, i67) -> i67
              "hcl.print"(%1191, %1196) {format = "\0A\0AAssertion failed {cetiles.py:115,cetiles.py:112,operation.py:370,operation.py:322,cetiles.py:112,cetiles.py:110,mem.py:116,mem.py:142,mem.py:106,hcl_ext.py:723}: nttdatainbot Mem.write exceeds memory size: addr=%d+size=%d > 8192\0A\0A", signedness = "__"} : (i66, i67) -> ()
              "scf.while"() ({
                %1197 = "affine.load"(%1175) {from = "assert_cond_672", map = #map1, unsigned} : (memref<1xi1>) -> i1
                %1198 = "arith.constant"() {value = 0 : i32} : () -> i32
                %1199 = "arith.extui"(%1197) : (i1) -> i32
                %1200 = "arith.cmpi"(%1199, %1198) {predicate = 0 : i64} : (i32, i32) -> i1
                "scf.condition"(%1200) : (i1) -> ()
              }, {
                %1197 = "arith.constant"() {value = 0 : i32} : () -> i32
                %1198 = "arith.trunci"(%1197) {unsigned} : (i32) -> i1
                "affine.store"(%1198, %1175) {map = #map1, to = "assert_cond_672", unsigned} : (i1, memref<1xi1>) -> ()
                "scf.yield"() : () -> ()
              }) : () -> ()
              "scf.yield"() : () -> ()
            }, {
            }) : (i1) -> ()
            %1188 = "affine.load"(%1158) {from = "Mem.read_c_97", map = #map1, unsigned} : (memref<1xi32>) -> i32
            %1189 = "affine.load"(%1165) {from = "write_addr_670", map = #map1} : (memref<1xi66>) -> i66
            %1190 = "arith.index_cast"(%1189) {unsigned} : (i66) -> index
            "memref.store"(%1188, %845, %1190) {to = "nttdatainbot.alloc_c", unsigned} : (i32, memref<8192xi32>, index) -> ()
            "affine.yield"() : () -> ()
          }) {loop_name = "j", lower_bound = #map1, op_name = "ot64_96", step = 1 : i32, upper_bound = #map10} : () -> ()
          "affine.yield"() : () -> ()
        }) {loop_name = "i", lower_bound = #map1, op_name = "ntt_out_swizzle_ob", step = 1 : i32, upper_bound = #map10} : () -> ()
        "scf.yield"() : () -> ()
      }, {
        %1135 = "affine.load"(%834) {from = "flag_intt", map = #map1, unsigned} : (memref<1xi1>) -> i1
        %1136 = "arith.constant"() {value = 0 : i32} : () -> i32
        %1137 = "arith.extui"(%1135) : (i1) -> i32
        %1138 = "arith.cmpi"(%1137, %1136) {predicate = 1 : i64} : (i32, i32) -> i1
        "scf.if"(%1138) ({
          "affine.for"() ({
          ^bb0(%arg2: index):
            "affine.for"() ({
            ^bb0(%arg3: index):
              %1139 = "memref.alloc"() {name = "read_addr_673", operand_segment_sizes = dense<0> : vector<2xi32>} : () -> memref<1xi66>
              %1140 = "arith.constant"() {value = 64 : i32} : () -> i32
              %1141 = "arith.index_cast"(%arg2) : (index) -> i64
              %1142 = "arith.extsi"(%1140) : (i32) -> i64
              %1143 = "arith.muli"(%1141, %1142) : (i64, i64) -> i64
              %1144 = "arith.constant"() {value = 0 : i32} : () -> i32
              %1145 = "arith.extsi"(%1143) : (i64) -> i65
              %1146 = "arith.extsi"(%1144) : (i32) -> i65
              %1147 = "arith.addi"(%1145, %1146) : (i65, i65) -> i65
              %1148 = "arith.extsi"(%1147) : (i65) -> i66
              %1149 = "arith.index_cast"(%arg3) : (index) -> i66
              %1150 = "arith.addi"(%1148, %1149) : (i66, i66) -> i66
              "affine.store"(%1150, %1139, %28) {map = #map0, to = "read_addr_673"} : (i66, memref<1xi66>, index) -> ()
              %1151 = "memref.alloc"() {name = "_addr_674", operand_segment_sizes = dense<0> : vector<2xi32>} : () -> memref<1xi66>
              %1152 = "affine.load"(%1139) {from = "read_addr_673", map = #map1} : (memref<1xi66>) -> i66
              "affine.store"(%1152, %1151, %27) {map = #map0, to = "_addr_674"} : (i66, memref<1xi66>, index) -> ()
              %1153 = "memref.alloc"() {name = "assert_cond_675", operand_segment_sizes = dense<0> : vector<2xi32>} : () -> memref<1xi1>
              %1154 = "affine.load"(%1151) {from = "_addr_674", map = #map1} : (memref<1xi66>) -> i66
              %1155 = "arith.constant"() {value = 1 : i32} : () -> i32
              %1156 = "arith.extsi"(%1154) : (i66) -> i67
              %1157 = "arith.extsi"(%1155) : (i32) -> i67
              %1158 = "arith.addi"(%1156, %1157) : (i67, i67) -> i67
              %1159 = "arith.constant"() {value = 8192 : i32} : () -> i32
              %1160 = "arith.extsi"(%1159) : (i32) -> i67
              %1161 = "arith.cmpi"(%1158, %1160) {predicate = 3 : i64} : (i67, i67) -> i1
              "affine.store"(%1161, %1153, %26) {map = #map0, to = "assert_cond_675", unsigned} : (i1, memref<1xi1>, index) -> ()
              %1162 = "affine.load"(%1153) {from = "assert_cond_675", map = #map1, unsigned} : (memref<1xi1>) -> i1
              %1163 = "arith.constant"() {value = 0 : i32} : () -> i32
              %1164 = "arith.extui"(%1162) : (i1) -> i32
              %1165 = "arith.cmpi"(%1164, %1163) {predicate = 0 : i64} : (i32, i32) -> i1
              "scf.if"(%1165) ({
                %1259 = "affine.load"(%1151) {from = "_addr_674", map = #map1} : (memref<1xi66>) -> i66
                %1260 = "affine.load"(%1151) {from = "_addr_674", map = #map1} : (memref<1xi66>) -> i66
                %1261 = "arith.constant"() {value = 1 : i32} : () -> i32
                %1262 = "arith.extsi"(%1260) : (i66) -> i67
                %1263 = "arith.extsi"(%1261) : (i32) -> i67
                %1264 = "arith.addi"(%1262, %1263) : (i67, i67) -> i67
                "hcl.print"(%1259, %1264) {format = "\0A\0AAssertion failed {operation.py:322,cetiles.py:135,operation.py:370,operation.py:322,cetiles.py:135,cetiles.py:133,mem.py:113,mem.py:135,mem.py:106,hcl_ext.py:723}: inttdataouttop Mem.read exceeds memory size: addr=%d+size=%d > 8192\0A\0A", signedness = "__"} : (i66, i67) -> ()
                "scf.while"() ({
                  %1265 = "affine.load"(%1153) {from = "assert_cond_675", map = #map1, unsigned} : (memref<1xi1>) -> i1
                  %1266 = "arith.constant"() {value = 0 : i32} : () -> i32
                  %1267 = "arith.extui"(%1265) : (i1) -> i32
                  %1268 = "arith.cmpi"(%1267, %1266) {predicate = 0 : i64} : (i32, i32) -> i1
                  "scf.condition"(%1268) : (i1) -> ()
                }, {
                  %1265 = "arith.constant"() {value = 0 : i32} : () -> i32
                  %1266 = "arith.trunci"(%1265) {unsigned} : (i32) -> i1
                  "affine.store"(%1266, %1153) {map = #map1, to = "assert_cond_675", unsigned} : (i1, memref<1xi1>) -> ()
                  "scf.yield"() : () -> ()
                }) : () -> ()
                "scf.yield"() : () -> ()
              }, {
              }) : (i1) -> ()
              %1166 = "memref.alloc"() {name = "Mem.read_c_100", operand_segment_sizes = dense<0> : vector<2xi32>} : () -> memref<1xi32>
              %1167 = "affine.load"(%1139) {from = "read_addr_673", map = #map1} : (memref<1xi66>) -> i66
              %1168 = "arith.extsi"(%1167) : (i66) -> i67
              %1169 = "arith.index_cast"(%25) : (index) -> i67
              %1170 = "arith.addi"(%1168, %1169) : (i67, i67) -> i67
              %1171 = "arith.index_cast"(%1170) {unsigned} : (i67) -> index
              %1172 = "memref.load"(%850, %1171) {from = "inttdataouttop.alloc_c", unsigned} : (memref<8192xi32>, index) -> i32
              "affine.store"(%1172, %1166, %25) {map = #map0, to = "Mem.read_c_100", unsigned} : (i32, memref<1xi32>, index) -> ()
              %1173 = "memref.alloc"() {name = "write_addr_676", operand_segment_sizes = dense<0> : vector<2xi32>} : () -> memref<1xi65>
              %1174 = "arith.constant"() {value = 2 : i32} : () -> i32
              %1175 = "arith.extsi"(%1174) : (i32) -> i64
              %1176 = "arith.index_cast"(%arg3) : (index) -> i64
              %1177 = "arith.muli"(%1175, %1176) : (i64, i64) -> i64
              %1178 = "arith.extsi"(%1143) : (i64) -> i65
              %1179 = "arith.extsi"(%1177) : (i64) -> i65
              %1180 = "arith.addi"(%1178, %1179) : (i65, i65) -> i65
              "affine.store"(%1180, %1173, %24) {map = #map0, to = "write_addr_676"} : (i65, memref<1xi65>, index) -> ()
              %1181 = "memref.alloc"() {name = "_addr_677", operand_segment_sizes = dense<0> : vector<2xi32>} : () -> memref<1xi65>
              %1182 = "affine.load"(%1173) {from = "write_addr_676", map = #map1} : (memref<1xi65>) -> i65
              "affine.store"(%1182, %1181, %23) {map = #map0, to = "_addr_677"} : (i65, memref<1xi65>, index) -> ()
              %1183 = "memref.alloc"() {name = "assert_cond_678", operand_segment_sizes = dense<0> : vector<2xi32>} : () -> memref<1xi1>
              %1184 = "affine.load"(%1181) {from = "_addr_677", map = #map1} : (memref<1xi65>) -> i65
              %1185 = "arith.constant"() {value = 1 : i32} : () -> i32
              %1186 = "arith.extsi"(%1184) : (i65) -> i66
              %1187 = "arith.extsi"(%1185) : (i32) -> i66
              %1188 = "arith.addi"(%1186, %1187) : (i66, i66) -> i66
              %1189 = "arith.constant"() {value = 8192 : i32} : () -> i32
              %1190 = "arith.extsi"(%1189) : (i32) -> i66
              %1191 = "arith.cmpi"(%1188, %1190) {predicate = 3 : i64} : (i66, i66) -> i1
              "affine.store"(%1191, %1183, %22) {map = #map0, to = "assert_cond_678", unsigned} : (i1, memref<1xi1>, index) -> ()
              %1192 = "affine.load"(%1183) {from = "assert_cond_678", map = #map1, unsigned} : (memref<1xi1>) -> i1
              %1193 = "arith.constant"() {value = 0 : i32} : () -> i32
              %1194 = "arith.extui"(%1192) : (i1) -> i32
              %1195 = "arith.cmpi"(%1194, %1193) {predicate = 0 : i64} : (i32, i32) -> i1
              "scf.if"(%1195) ({
                %1259 = "affine.load"(%1181) {from = "_addr_677", map = #map1} : (memref<1xi65>) -> i65
                %1260 = "affine.load"(%1181) {from = "_addr_677", map = #map1} : (memref<1xi65>) -> i65
                %1261 = "arith.constant"() {value = 1 : i32} : () -> i32
                %1262 = "arith.extsi"(%1260) : (i65) -> i66
                %1263 = "arith.extsi"(%1261) : (i32) -> i66
                %1264 = "arith.addi"(%1262, %1263) : (i66, i66) -> i66
                "hcl.print"(%1259, %1264) {format = "\0A\0AAssertion failed {operation.py:322,cetiles.py:135,operation.py:370,operation.py:322,cetiles.py:135,cetiles.py:133,mem.py:116,mem.py:142,mem.py:106,hcl_ext.py:723}: inttdataintop Mem.write exceeds memory size: addr=%d+size=%d > 8192\0A\0A", signedness = "__"} : (i65, i66) -> ()
                "scf.while"() ({
                  %1265 = "affine.load"(%1183) {from = "assert_cond_678", map = #map1, unsigned} : (memref<1xi1>) -> i1
                  %1266 = "arith.constant"() {value = 0 : i32} : () -> i32
                  %1267 = "arith.extui"(%1265) : (i1) -> i32
                  %1268 = "arith.cmpi"(%1267, %1266) {predicate = 0 : i64} : (i32, i32) -> i1
                  "scf.condition"(%1268) : (i1) -> ()
                }, {
                  %1265 = "arith.constant"() {value = 0 : i32} : () -> i32
                  %1266 = "arith.trunci"(%1265) {unsigned} : (i32) -> i1
                  "affine.store"(%1266, %1183) {map = #map1, to = "assert_cond_678", unsigned} : (i1, memref<1xi1>) -> ()
                  "scf.yield"() : () -> ()
                }) : () -> ()
                "scf.yield"() : () -> ()
              }, {
              }) : (i1) -> ()
              %1196 = "affine.load"(%1166) {from = "Mem.read_c_100", map = #map1, unsigned} : (memref<1xi32>) -> i32
              %1197 = "affine.load"(%1173) {from = "write_addr_676", map = #map1} : (memref<1xi65>) -> i65
              %1198 = "arith.index_cast"(%1197) {unsigned} : (i65) -> index
              "memref.store"(%1196, %848, %1198) {to = "inttdataintop.alloc_c", unsigned} : (i32, memref<8192xi32>, index) -> ()
              %1199 = "memref.alloc"() {name = "read_addr_679", operand_segment_sizes = dense<0> : vector<2xi32>} : () -> memref<1xi66>
              %1200 = "arith.constant"() {value = 0 : i32} : () -> i32
              %1201 = "arith.extsi"(%1143) : (i64) -> i65
              %1202 = "arith.extsi"(%1200) : (i32) -> i65
              %1203 = "arith.addi"(%1201, %1202) : (i65, i65) -> i65
              %1204 = "arith.extsi"(%1203) : (i65) -> i66
              %1205 = "arith.index_cast"(%arg3) : (index) -> i66
              %1206 = "arith.addi"(%1204, %1205) : (i66, i66) -> i66
              "affine.store"(%1206, %1199, %21) {map = #map0, to = "read_addr_679"} : (i66, memref<1xi66>, index) -> ()
              %1207 = "memref.alloc"() {name = "_addr_680", operand_segment_sizes = dense<0> : vector<2xi32>} : () -> memref<1xi66>
              %1208 = "affine.load"(%1199) {from = "read_addr_679", map = #map1} : (memref<1xi66>) -> i66
              "affine.store"(%1208, %1207, %20) {map = #map0, to = "_addr_680"} : (i66, memref<1xi66>, index) -> ()
              %1209 = "memref.alloc"() {name = "assert_cond_681", operand_segment_sizes = dense<0> : vector<2xi32>} : () -> memref<1xi1>
              %1210 = "affine.load"(%1207) {from = "_addr_680", map = #map1} : (memref<1xi66>) -> i66
              %1211 = "arith.constant"() {value = 1 : i32} : () -> i32
              %1212 = "arith.extsi"(%1210) : (i66) -> i67
              %1213 = "arith.extsi"(%1211) : (i32) -> i67
              %1214 = "arith.addi"(%1212, %1213) : (i67, i67) -> i67
              %1215 = "arith.constant"() {value = 8192 : i32} : () -> i32
              %1216 = "arith.extsi"(%1215) : (i32) -> i67
              %1217 = "arith.cmpi"(%1214, %1216) {predicate = 3 : i64} : (i67, i67) -> i1
              "affine.store"(%1217, %1209, %19) {map = #map0, to = "assert_cond_681", unsigned} : (i1, memref<1xi1>, index) -> ()
              %1218 = "affine.load"(%1209) {from = "assert_cond_681", map = #map1, unsigned} : (memref<1xi1>) -> i1
              %1219 = "arith.constant"() {value = 0 : i32} : () -> i32
              %1220 = "arith.extui"(%1218) : (i1) -> i32
              %1221 = "arith.cmpi"(%1220, %1219) {predicate = 0 : i64} : (i32, i32) -> i1
              "scf.if"(%1221) ({
                %1259 = "affine.load"(%1207) {from = "_addr_680", map = #map1} : (memref<1xi66>) -> i66
                %1260 = "affine.load"(%1207) {from = "_addr_680", map = #map1} : (memref<1xi66>) -> i66
                %1261 = "arith.constant"() {value = 1 : i32} : () -> i32
                %1262 = "arith.extsi"(%1260) : (i66) -> i67
                %1263 = "arith.extsi"(%1261) : (i32) -> i67
                %1264 = "arith.addi"(%1262, %1263) : (i67, i67) -> i67
                "hcl.print"(%1259, %1264) {format = "\0A\0AAssertion failed {operation.py:322,cetiles.py:135,operation.py:370,operation.py:322,cetiles.py:135,cetiles.py:134,mem.py:113,mem.py:135,mem.py:106,hcl_ext.py:723}: inttdataoutbot Mem.read exceeds memory size: addr=%d+size=%d > 8192\0A\0A", signedness = "__"} : (i66, i67) -> ()
                "scf.while"() ({
                  %1265 = "affine.load"(%1209) {from = "assert_cond_681", map = #map1, unsigned} : (memref<1xi1>) -> i1
                  %1266 = "arith.constant"() {value = 0 : i32} : () -> i32
                  %1267 = "arith.extui"(%1265) : (i1) -> i32
                  %1268 = "arith.cmpi"(%1267, %1266) {predicate = 0 : i64} : (i32, i32) -> i1
                  "scf.condition"(%1268) : (i1) -> ()
                }, {
                  %1265 = "arith.constant"() {value = 0 : i32} : () -> i32
                  %1266 = "arith.trunci"(%1265) {unsigned} : (i32) -> i1
                  "affine.store"(%1266, %1209) {map = #map1, to = "assert_cond_681", unsigned} : (i1, memref<1xi1>) -> ()
                  "scf.yield"() : () -> ()
                }) : () -> ()
                "scf.yield"() : () -> ()
              }, {
              }) : (i1) -> ()
              %1222 = "memref.alloc"() {name = "Mem.read_c_101", operand_segment_sizes = dense<0> : vector<2xi32>} : () -> memref<1xi32>
              %1223 = "affine.load"(%1199) {from = "read_addr_679", map = #map1} : (memref<1xi66>) -> i66
              %1224 = "arith.extsi"(%1223) : (i66) -> i67
              %1225 = "arith.index_cast"(%18) : (index) -> i67
              %1226 = "arith.addi"(%1224, %1225) : (i67, i67) -> i67
              %1227 = "arith.index_cast"(%1226) {unsigned} : (i67) -> index
              %1228 = "memref.load"(%851, %1227) {from = "inttdataoutbot.alloc_c", unsigned} : (memref<8192xi32>, index) -> i32
              "affine.store"(%1228, %1222, %18) {map = #map0, to = "Mem.read_c_101", unsigned} : (i32, memref<1xi32>, index) -> ()
              %1229 = "memref.alloc"() {name = "write_addr_682", operand_segment_sizes = dense<0> : vector<2xi32>} : () -> memref<1xi66>
              %1230 = "arith.constant"() {value = 2 : i32} : () -> i32
              %1231 = "arith.extsi"(%1230) : (i32) -> i64
              %1232 = "arith.index_cast"(%arg3) : (index) -> i64
              %1233 = "arith.muli"(%1231, %1232) : (i64, i64) -> i64
              %1234 = "arith.extsi"(%1143) : (i64) -> i65
              %1235 = "arith.extsi"(%1233) : (i64) -> i65
              %1236 = "arith.addi"(%1234, %1235) : (i65, i65) -> i65
              %1237 = "arith.constant"() {value = 1 : i32} : () -> i32
              %1238 = "arith.extsi"(%1236) : (i65) -> i66
              %1239 = "arith.extsi"(%1237) : (i32) -> i66
              %1240 = "arith.addi"(%1238, %1239) : (i66, i66) -> i66
              "affine.store"(%1240, %1229, %17) {map = #map0, to = "write_addr_682"} : (i66, memref<1xi66>, index) -> ()
              %1241 = "memref.alloc"() {name = "_addr_683", operand_segment_sizes = dense<0> : vector<2xi32>} : () -> memref<1xi66>
              %1242 = "affine.load"(%1229) {from = "write_addr_682", map = #map1} : (memref<1xi66>) -> i66
              "affine.store"(%1242, %1241, %16) {map = #map0, to = "_addr_683"} : (i66, memref<1xi66>, index) -> ()
              %1243 = "memref.alloc"() {name = "assert_cond_684", operand_segment_sizes = dense<0> : vector<2xi32>} : () -> memref<1xi1>
              %1244 = "affine.load"(%1241) {from = "_addr_683", map = #map1} : (memref<1xi66>) -> i66
              %1245 = "arith.constant"() {value = 1 : i32} : () -> i32
              %1246 = "arith.extsi"(%1244) : (i66) -> i67
              %1247 = "arith.extsi"(%1245) : (i32) -> i67
              %1248 = "arith.addi"(%1246, %1247) : (i67, i67) -> i67
              %1249 = "arith.constant"() {value = 8192 : i32} : () -> i32
              %1250 = "arith.extsi"(%1249) : (i32) -> i67
              %1251 = "arith.cmpi"(%1248, %1250) {predicate = 3 : i64} : (i67, i67) -> i1
              "affine.store"(%1251, %1243, %15) {map = #map0, to = "assert_cond_684", unsigned} : (i1, memref<1xi1>, index) -> ()
              %1252 = "affine.load"(%1243) {from = "assert_cond_684", map = #map1, unsigned} : (memref<1xi1>) -> i1
              %1253 = "arith.constant"() {value = 0 : i32} : () -> i32
              %1254 = "arith.extui"(%1252) : (i1) -> i32
              %1255 = "arith.cmpi"(%1254, %1253) {predicate = 0 : i64} : (i32, i32) -> i1
              "scf.if"(%1255) ({
                %1259 = "affine.load"(%1241) {from = "_addr_683", map = #map1} : (memref<1xi66>) -> i66
                %1260 = "affine.load"(%1241) {from = "_addr_683", map = #map1} : (memref<1xi66>) -> i66
                %1261 = "arith.constant"() {value = 1 : i32} : () -> i32
                %1262 = "arith.extsi"(%1260) : (i66) -> i67
                %1263 = "arith.extsi"(%1261) : (i32) -> i67
                %1264 = "arith.addi"(%1262, %1263) : (i67, i67) -> i67
                "hcl.print"(%1259, %1264) {format = "\0A\0AAssertion failed {operation.py:322,cetiles.py:135,operation.py:370,operation.py:322,cetiles.py:135,cetiles.py:134,mem.py:116,mem.py:142,mem.py:106,hcl_ext.py:723}: inttdataintop Mem.write exceeds memory size: addr=%d+size=%d > 8192\0A\0A", signedness = "__"} : (i66, i67) -> ()
                "scf.while"() ({
                  %1265 = "affine.load"(%1243) {from = "assert_cond_684", map = #map1, unsigned} : (memref<1xi1>) -> i1
                  %1266 = "arith.constant"() {value = 0 : i32} : () -> i32
                  %1267 = "arith.extui"(%1265) : (i1) -> i32
                  %1268 = "arith.cmpi"(%1267, %1266) {predicate = 0 : i64} : (i32, i32) -> i1
                  "scf.condition"(%1268) : (i1) -> ()
                }, {
                  %1265 = "arith.constant"() {value = 0 : i32} : () -> i32
                  %1266 = "arith.trunci"(%1265) {unsigned} : (i32) -> i1
                  "affine.store"(%1266, %1243) {map = #map1, to = "assert_cond_684", unsigned} : (i1, memref<1xi1>) -> ()
                  "scf.yield"() : () -> ()
                }) : () -> ()
                "scf.yield"() : () -> ()
              }, {
              }) : (i1) -> ()
              %1256 = "affine.load"(%1222) {from = "Mem.read_c_101", map = #map1, unsigned} : (memref<1xi32>) -> i32
              %1257 = "affine.load"(%1229) {from = "write_addr_682", map = #map1} : (memref<1xi66>) -> i66
              %1258 = "arith.index_cast"(%1257) {unsigned} : (i66) -> index
              "memref.store"(%1256, %848, %1258) {to = "inttdataintop.alloc_c", unsigned} : (i32, memref<8192xi32>, index) -> ()
              "affine.yield"() : () -> ()
            }) {loop_name = "j", lower_bound = #map1, op_name = "nttin_even_odd_arf_99", step = 1 : i32, upper_bound = #map11} : () -> ()
            "affine.for"() ({
            ^bb0(%arg3: index):
              %1139 = "memref.alloc"() {name = "read_addr_685", operand_segment_sizes = dense<0> : vector<2xi32>} : () -> memref<1xi66>
              %1140 = "arith.constant"() {value = 32 : i32} : () -> i32
              %1141 = "arith.extsi"(%1143) : (i64) -> i65
              %1142 = "arith.extsi"(%1140) : (i32) -> i65
              %1143 = "arith.addi"(%1141, %1142) : (i65, i65) -> i65
              %1144 = "arith.extsi"(%1143) : (i65) -> i66
              %1145 = "arith.index_cast"(%arg3) : (index) -> i66
              %1146 = "arith.addi"(%1144, %1145) : (i66, i66) -> i66
              "affine.store"(%1146, %1139, %14) {map = #map0, to = "read_addr_685"} : (i66, memref<1xi66>, index) -> ()
              %1147 = "memref.alloc"() {name = "_addr_686", operand_segment_sizes = dense<0> : vector<2xi32>} : () -> memref<1xi66>
              %1148 = "affine.load"(%1139) {from = "read_addr_685", map = #map1} : (memref<1xi66>) -> i66
              "affine.store"(%1148, %1147, %13) {map = #map0, to = "_addr_686"} : (i66, memref<1xi66>, index) -> ()
              %1149 = "memref.alloc"() {name = "assert_cond_687", operand_segment_sizes = dense<0> : vector<2xi32>} : () -> memref<1xi1>
              %1150 = "affine.load"(%1147) {from = "_addr_686", map = #map1} : (memref<1xi66>) -> i66
              %1151 = "arith.constant"() {value = 1 : i32} : () -> i32
              %1152 = "arith.extsi"(%1150) : (i66) -> i67
              %1153 = "arith.extsi"(%1151) : (i32) -> i67
              %1154 = "arith.addi"(%1152, %1153) : (i67, i67) -> i67
              %1155 = "arith.constant"() {value = 8192 : i32} : () -> i32
              %1156 = "arith.extsi"(%1155) : (i32) -> i67
              %1157 = "arith.cmpi"(%1154, %1156) {predicate = 3 : i64} : (i67, i67) -> i1
              "affine.store"(%1157, %1149, %12) {map = #map0, to = "assert_cond_687", unsigned} : (i1, memref<1xi1>, index) -> ()
              %1158 = "affine.load"(%1149) {from = "assert_cond_687", map = #map1, unsigned} : (memref<1xi1>) -> i1
              %1159 = "arith.constant"() {value = 0 : i32} : () -> i32
              %1160 = "arith.extui"(%1158) : (i1) -> i32
              %1161 = "arith.cmpi"(%1160, %1159) {predicate = 0 : i64} : (i32, i32) -> i1
              "scf.if"(%1161) ({
                %1255 = "affine.load"(%1147) {from = "_addr_686", map = #map1} : (memref<1xi66>) -> i66
                %1256 = "affine.load"(%1147) {from = "_addr_686", map = #map1} : (memref<1xi66>) -> i66
                %1257 = "arith.constant"() {value = 1 : i32} : () -> i32
                %1258 = "arith.extsi"(%1256) : (i66) -> i67
                %1259 = "arith.extsi"(%1257) : (i32) -> i67
                %1260 = "arith.addi"(%1258, %1259) : (i67, i67) -> i67
                "hcl.print"(%1255, %1260) {format = "\0A\0AAssertion failed {operation.py:322,cetiles.py:136,operation.py:370,operation.py:322,cetiles.py:136,cetiles.py:133,mem.py:113,mem.py:135,mem.py:106,hcl_ext.py:723}: inttdataouttop Mem.read exceeds memory size: addr=%d+size=%d > 8192\0A\0A", signedness = "__"} : (i66, i67) -> ()
                "scf.while"() ({
                  %1261 = "affine.load"(%1149) {from = "assert_cond_687", map = #map1, unsigned} : (memref<1xi1>) -> i1
                  %1262 = "arith.constant"() {value = 0 : i32} : () -> i32
                  %1263 = "arith.extui"(%1261) : (i1) -> i32
                  %1264 = "arith.cmpi"(%1263, %1262) {predicate = 0 : i64} : (i32, i32) -> i1
                  "scf.condition"(%1264) : (i1) -> ()
                }, {
                  %1261 = "arith.constant"() {value = 0 : i32} : () -> i32
                  %1262 = "arith.trunci"(%1261) {unsigned} : (i32) -> i1
                  "affine.store"(%1262, %1149) {map = #map1, to = "assert_cond_687", unsigned} : (i1, memref<1xi1>) -> ()
                  "scf.yield"() : () -> ()
                }) : () -> ()
                "scf.yield"() : () -> ()
              }, {
              }) : (i1) -> ()
              %1162 = "memref.alloc"() {name = "Mem.read_c_103", operand_segment_sizes = dense<0> : vector<2xi32>} : () -> memref<1xi32>
              %1163 = "affine.load"(%1139) {from = "read_addr_685", map = #map1} : (memref<1xi66>) -> i66
              %1164 = "arith.extsi"(%1163) : (i66) -> i67
              %1165 = "arith.index_cast"(%11) : (index) -> i67
              %1166 = "arith.addi"(%1164, %1165) : (i67, i67) -> i67
              %1167 = "arith.index_cast"(%1166) {unsigned} : (i67) -> index
              %1168 = "memref.load"(%850, %1167) {from = "inttdataouttop.alloc_c", unsigned} : (memref<8192xi32>, index) -> i32
              "affine.store"(%1168, %1162, %11) {map = #map0, to = "Mem.read_c_103", unsigned} : (i32, memref<1xi32>, index) -> ()
              %1169 = "memref.alloc"() {name = "write_addr_688", operand_segment_sizes = dense<0> : vector<2xi32>} : () -> memref<1xi65>
              %1170 = "arith.constant"() {value = 2 : i32} : () -> i32
              %1171 = "arith.extsi"(%1170) : (i32) -> i64
              %1172 = "arith.index_cast"(%arg3) : (index) -> i64
              %1173 = "arith.muli"(%1171, %1172) : (i64, i64) -> i64
              %1174 = "arith.extsi"(%1143) : (i64) -> i65
              %1175 = "arith.extsi"(%1173) : (i64) -> i65
              %1176 = "arith.addi"(%1174, %1175) : (i65, i65) -> i65
              "affine.store"(%1176, %1169, %10) {map = #map0, to = "write_addr_688"} : (i65, memref<1xi65>, index) -> ()
              %1177 = "memref.alloc"() {name = "_addr_689", operand_segment_sizes = dense<0> : vector<2xi32>} : () -> memref<1xi65>
              %1178 = "affine.load"(%1169) {from = "write_addr_688", map = #map1} : (memref<1xi65>) -> i65
              "affine.store"(%1178, %1177, %9) {map = #map0, to = "_addr_689"} : (i65, memref<1xi65>, index) -> ()
              %1179 = "memref.alloc"() {name = "assert_cond_690", operand_segment_sizes = dense<0> : vector<2xi32>} : () -> memref<1xi1>
              %1180 = "affine.load"(%1177) {from = "_addr_689", map = #map1} : (memref<1xi65>) -> i65
              %1181 = "arith.constant"() {value = 1 : i32} : () -> i32
              %1182 = "arith.extsi"(%1180) : (i65) -> i66
              %1183 = "arith.extsi"(%1181) : (i32) -> i66
              %1184 = "arith.addi"(%1182, %1183) : (i66, i66) -> i66
              %1185 = "arith.constant"() {value = 8192 : i32} : () -> i32
              %1186 = "arith.extsi"(%1185) : (i32) -> i66
              %1187 = "arith.cmpi"(%1184, %1186) {predicate = 3 : i64} : (i66, i66) -> i1
              "affine.store"(%1187, %1179, %8) {map = #map0, to = "assert_cond_690", unsigned} : (i1, memref<1xi1>, index) -> ()
              %1188 = "affine.load"(%1179) {from = "assert_cond_690", map = #map1, unsigned} : (memref<1xi1>) -> i1
              %1189 = "arith.constant"() {value = 0 : i32} : () -> i32
              %1190 = "arith.extui"(%1188) : (i1) -> i32
              %1191 = "arith.cmpi"(%1190, %1189) {predicate = 0 : i64} : (i32, i32) -> i1
              "scf.if"(%1191) ({
                %1255 = "affine.load"(%1177) {from = "_addr_689", map = #map1} : (memref<1xi65>) -> i65
                %1256 = "affine.load"(%1177) {from = "_addr_689", map = #map1} : (memref<1xi65>) -> i65
                %1257 = "arith.constant"() {value = 1 : i32} : () -> i32
                %1258 = "arith.extsi"(%1256) : (i65) -> i66
                %1259 = "arith.extsi"(%1257) : (i32) -> i66
                %1260 = "arith.addi"(%1258, %1259) : (i66, i66) -> i66
                "hcl.print"(%1255, %1260) {format = "\0A\0AAssertion failed {operation.py:322,cetiles.py:136,operation.py:370,operation.py:322,cetiles.py:136,cetiles.py:133,mem.py:116,mem.py:142,mem.py:106,hcl_ext.py:723}: inttdatainbot Mem.write exceeds memory size: addr=%d+size=%d > 8192\0A\0A", signedness = "__"} : (i65, i66) -> ()
                "scf.while"() ({
                  %1261 = "affine.load"(%1179) {from = "assert_cond_690", map = #map1, unsigned} : (memref<1xi1>) -> i1
                  %1262 = "arith.constant"() {value = 0 : i32} : () -> i32
                  %1263 = "arith.extui"(%1261) : (i1) -> i32
                  %1264 = "arith.cmpi"(%1263, %1262) {predicate = 0 : i64} : (i32, i32) -> i1
                  "scf.condition"(%1264) : (i1) -> ()
                }, {
                  %1261 = "arith.constant"() {value = 0 : i32} : () -> i32
                  %1262 = "arith.trunci"(%1261) {unsigned} : (i32) -> i1
                  "affine.store"(%1262, %1179) {map = #map1, to = "assert_cond_690", unsigned} : (i1, memref<1xi1>) -> ()
                  "scf.yield"() : () -> ()
                }) : () -> ()
                "scf.yield"() : () -> ()
              }, {
              }) : (i1) -> ()
              %1192 = "affine.load"(%1162) {from = "Mem.read_c_103", map = #map1, unsigned} : (memref<1xi32>) -> i32
              %1193 = "affine.load"(%1169) {from = "write_addr_688", map = #map1} : (memref<1xi65>) -> i65
              %1194 = "arith.index_cast"(%1193) {unsigned} : (i65) -> index
              "memref.store"(%1192, %849, %1194) {to = "inttdatainbot.alloc_c", unsigned} : (i32, memref<8192xi32>, index) -> ()
              %1195 = "memref.alloc"() {name = "read_addr_691", operand_segment_sizes = dense<0> : vector<2xi32>} : () -> memref<1xi66>
              %1196 = "arith.constant"() {value = 32 : i32} : () -> i32
              %1197 = "arith.extsi"(%1143) : (i64) -> i65
              %1198 = "arith.extsi"(%1196) : (i32) -> i65
              %1199 = "arith.addi"(%1197, %1198) : (i65, i65) -> i65
              %1200 = "arith.extsi"(%1199) : (i65) -> i66
              %1201 = "arith.index_cast"(%arg3) : (index) -> i66
              %1202 = "arith.addi"(%1200, %1201) : (i66, i66) -> i66
              "affine.store"(%1202, %1195, %7) {map = #map0, to = "read_addr_691"} : (i66, memref<1xi66>, index) -> ()
              %1203 = "memref.alloc"() {name = "_addr_692", operand_segment_sizes = dense<0> : vector<2xi32>} : () -> memref<1xi66>
              %1204 = "affine.load"(%1195) {from = "read_addr_691", map = #map1} : (memref<1xi66>) -> i66
              "affine.store"(%1204, %1203, %6) {map = #map0, to = "_addr_692"} : (i66, memref<1xi66>, index) -> ()
              %1205 = "memref.alloc"() {name = "assert_cond_693", operand_segment_sizes = dense<0> : vector<2xi32>} : () -> memref<1xi1>
              %1206 = "affine.load"(%1203) {from = "_addr_692", map = #map1} : (memref<1xi66>) -> i66
              %1207 = "arith.constant"() {value = 1 : i32} : () -> i32
              %1208 = "arith.extsi"(%1206) : (i66) -> i67
              %1209 = "arith.extsi"(%1207) : (i32) -> i67
              %1210 = "arith.addi"(%1208, %1209) : (i67, i67) -> i67
              %1211 = "arith.constant"() {value = 8192 : i32} : () -> i32
              %1212 = "arith.extsi"(%1211) : (i32) -> i67
              %1213 = "arith.cmpi"(%1210, %1212) {predicate = 3 : i64} : (i67, i67) -> i1
              "affine.store"(%1213, %1205, %5) {map = #map0, to = "assert_cond_693", unsigned} : (i1, memref<1xi1>, index) -> ()
              %1214 = "affine.load"(%1205) {from = "assert_cond_693", map = #map1, unsigned} : (memref<1xi1>) -> i1
              %1215 = "arith.constant"() {value = 0 : i32} : () -> i32
              %1216 = "arith.extui"(%1214) : (i1) -> i32
              %1217 = "arith.cmpi"(%1216, %1215) {predicate = 0 : i64} : (i32, i32) -> i1
              "scf.if"(%1217) ({
                %1255 = "affine.load"(%1203) {from = "_addr_692", map = #map1} : (memref<1xi66>) -> i66
                %1256 = "affine.load"(%1203) {from = "_addr_692", map = #map1} : (memref<1xi66>) -> i66
                %1257 = "arith.constant"() {value = 1 : i32} : () -> i32
                %1258 = "arith.extsi"(%1256) : (i66) -> i67
                %1259 = "arith.extsi"(%1257) : (i32) -> i67
                %1260 = "arith.addi"(%1258, %1259) : (i67, i67) -> i67
                "hcl.print"(%1255, %1260) {format = "\0A\0AAssertion failed {operation.py:322,cetiles.py:136,operation.py:370,operation.py:322,cetiles.py:136,cetiles.py:134,mem.py:113,mem.py:135,mem.py:106,hcl_ext.py:723}: inttdataoutbot Mem.read exceeds memory size: addr=%d+size=%d > 8192\0A\0A", signedness = "__"} : (i66, i67) -> ()
                "scf.while"() ({
                  %1261 = "affine.load"(%1205) {from = "assert_cond_693", map = #map1, unsigned} : (memref<1xi1>) -> i1
                  %1262 = "arith.constant"() {value = 0 : i32} : () -> i32
                  %1263 = "arith.extui"(%1261) : (i1) -> i32
                  %1264 = "arith.cmpi"(%1263, %1262) {predicate = 0 : i64} : (i32, i32) -> i1
                  "scf.condition"(%1264) : (i1) -> ()
                }, {
                  %1261 = "arith.constant"() {value = 0 : i32} : () -> i32
                  %1262 = "arith.trunci"(%1261) {unsigned} : (i32) -> i1
                  "affine.store"(%1262, %1205) {map = #map1, to = "assert_cond_693", unsigned} : (i1, memref<1xi1>) -> ()
                  "scf.yield"() : () -> ()
                }) : () -> ()
                "scf.yield"() : () -> ()
              }, {
              }) : (i1) -> ()
              %1218 = "memref.alloc"() {name = "Mem.read_c_104", operand_segment_sizes = dense<0> : vector<2xi32>} : () -> memref<1xi32>
              %1219 = "affine.load"(%1195) {from = "read_addr_691", map = #map1} : (memref<1xi66>) -> i66
              %1220 = "arith.extsi"(%1219) : (i66) -> i67
              %1221 = "arith.index_cast"(%4) : (index) -> i67
              %1222 = "arith.addi"(%1220, %1221) : (i67, i67) -> i67
              %1223 = "arith.index_cast"(%1222) {unsigned} : (i67) -> index
              %1224 = "memref.load"(%851, %1223) {from = "inttdataoutbot.alloc_c", unsigned} : (memref<8192xi32>, index) -> i32
              "affine.store"(%1224, %1218, %4) {map = #map0, to = "Mem.read_c_104", unsigned} : (i32, memref<1xi32>, index) -> ()
              %1225 = "memref.alloc"() {name = "write_addr_694", operand_segment_sizes = dense<0> : vector<2xi32>} : () -> memref<1xi66>
              %1226 = "arith.constant"() {value = 2 : i32} : () -> i32
              %1227 = "arith.extsi"(%1226) : (i32) -> i64
              %1228 = "arith.index_cast"(%arg3) : (index) -> i64
              %1229 = "arith.muli"(%1227, %1228) : (i64, i64) -> i64
              %1230 = "arith.extsi"(%1143) : (i64) -> i65
              %1231 = "arith.extsi"(%1229) : (i64) -> i65
              %1232 = "arith.addi"(%1230, %1231) : (i65, i65) -> i65
              %1233 = "arith.constant"() {value = 1 : i32} : () -> i32
              %1234 = "arith.extsi"(%1232) : (i65) -> i66
              %1235 = "arith.extsi"(%1233) : (i32) -> i66
              %1236 = "arith.addi"(%1234, %1235) : (i66, i66) -> i66
              "affine.store"(%1236, %1225, %3) {map = #map0, to = "write_addr_694"} : (i66, memref<1xi66>, index) -> ()
              %1237 = "memref.alloc"() {name = "_addr_695", operand_segment_sizes = dense<0> : vector<2xi32>} : () -> memref<1xi66>
              %1238 = "affine.load"(%1225) {from = "write_addr_694", map = #map1} : (memref<1xi66>) -> i66
              "affine.store"(%1238, %1237, %2) {map = #map0, to = "_addr_695"} : (i66, memref<1xi66>, index) -> ()
              %1239 = "memref.alloc"() {name = "assert_cond_696", operand_segment_sizes = dense<0> : vector<2xi32>} : () -> memref<1xi1>
              %1240 = "affine.load"(%1237) {from = "_addr_695", map = #map1} : (memref<1xi66>) -> i66
              %1241 = "arith.constant"() {value = 1 : i32} : () -> i32
              %1242 = "arith.extsi"(%1240) : (i66) -> i67
              %1243 = "arith.extsi"(%1241) : (i32) -> i67
              %1244 = "arith.addi"(%1242, %1243) : (i67, i67) -> i67
              %1245 = "arith.constant"() {value = 8192 : i32} : () -> i32
              %1246 = "arith.extsi"(%1245) : (i32) -> i67
              %1247 = "arith.cmpi"(%1244, %1246) {predicate = 3 : i64} : (i67, i67) -> i1
              "affine.store"(%1247, %1239, %1) {map = #map0, to = "assert_cond_696", unsigned} : (i1, memref<1xi1>, index) -> ()
              %1248 = "affine.load"(%1239) {from = "assert_cond_696", map = #map1, unsigned} : (memref<1xi1>) -> i1
              %1249 = "arith.constant"() {value = 0 : i32} : () -> i32
              %1250 = "arith.extui"(%1248) : (i1) -> i32
              %1251 = "arith.cmpi"(%1250, %1249) {predicate = 0 : i64} : (i32, i32) -> i1
              "scf.if"(%1251) ({
                %1255 = "affine.load"(%1237) {from = "_addr_695", map = #map1} : (memref<1xi66>) -> i66
                %1256 = "affine.load"(%1237) {from = "_addr_695", map = #map1} : (memref<1xi66>) -> i66
                %1257 = "arith.constant"() {value = 1 : i32} : () -> i32
                %1258 = "arith.extsi"(%1256) : (i66) -> i67
                %1259 = "arith.extsi"(%1257) : (i32) -> i67
                %1260 = "arith.addi"(%1258, %1259) : (i67, i67) -> i67
                "hcl.print"(%1255, %1260) {format = "\0A\0AAssertion failed {operation.py:322,cetiles.py:136,operation.py:370,operation.py:322,cetiles.py:136,cetiles.py:134,mem.py:116,mem.py:142,mem.py:106,hcl_ext.py:723}: inttdatainbot Mem.write exceeds memory size: addr=%d+size=%d > 8192\0A\0A", signedness = "__"} : (i66, i67) -> ()
                "scf.while"() ({
                  %1261 = "affine.load"(%1239) {from = "assert_cond_696", map = #map1, unsigned} : (memref<1xi1>) -> i1
                  %1262 = "arith.constant"() {value = 0 : i32} : () -> i32
                  %1263 = "arith.extui"(%1261) : (i1) -> i32
                  %1264 = "arith.cmpi"(%1263, %1262) {predicate = 0 : i64} : (i32, i32) -> i1
                  "scf.condition"(%1264) : (i1) -> ()
                }, {
                  %1261 = "arith.constant"() {value = 0 : i32} : () -> i32
                  %1262 = "arith.trunci"(%1261) {unsigned} : (i32) -> i1
                  "affine.store"(%1262, %1239) {map = #map1, to = "assert_cond_696", unsigned} : (i1, memref<1xi1>) -> ()
                  "scf.yield"() : () -> ()
                }) : () -> ()
                "scf.yield"() : () -> ()
              }, {
              }) : (i1) -> ()
              %1252 = "affine.load"(%1218) {from = "Mem.read_c_104", map = #map1, unsigned} : (memref<1xi32>) -> i32
              %1253 = "affine.load"(%1225) {from = "write_addr_694", map = #map1} : (memref<1xi66>) -> i66
              %1254 = "arith.index_cast"(%1253) {unsigned} : (i66) -> index
              "memref.store"(%1252, %849, %1254) {to = "inttdatainbot.alloc_c", unsigned} : (i32, memref<8192xi32>, index) -> ()
              "affine.yield"() : () -> ()
            }) {loop_name = "j", lower_bound = #map1, op_name = "nttin_even_odd_brf_102", step = 1 : i32, upper_bound = #map11} : () -> ()
            "affine.yield"() : () -> ()
          }) {loop_name = "i", lower_bound = #map1, op_name = "intt_out_swizzle", step = 1 : i32, upper_bound = #map13} : () -> ()
          "scf.yield"() : () -> ()
        }, {
        }) : (i1) -> ()
        "scf.yield"() : () -> ()
      }) : (i1) -> ()
      %1119 = "affine.load"(%936) {from = "sys_steps", map = #map1, unsigned} : (memref<1xi32>) -> i32
      %1120 = "arith.constant"() {value = 1 : i32} : () -> i32
      %1121 = "arith.extui"(%1119) : (i32) -> i34
      %1122 = "arith.extsi"(%1120) : (i32) -> i34
      %1123 = "arith.addi"(%1121, %1122) : (i34, i34) -> i34
      %1124 = "arith.trunci"(%1123) {unsigned} : (i34) -> i32
      "affine.store"(%1124, %936) {map = #map1, to = "sys_steps", unsigned} : (i32, memref<1xi32>) -> ()
      %1125 = "memref.alloc"() {name = "assert_cond_697", operand_segment_sizes = dense<0> : vector<2xi32>} : () -> memref<1xi1>
      %1126 = "affine.load"(%936) {from = "sys_steps", map = #map1, unsigned} : (memref<1xi32>) -> i32
      %1127 = "arith.constant"() {value = 100000 : i32} : () -> i32
      %1128 = "arith.extui"(%1126) : (i32) -> i33
      %1129 = "arith.extsi"(%1127) : (i32) -> i33
      %1130 = "arith.cmpi"(%1128, %1129) {predicate = 2 : i64} : (i33, i33) -> i1
      "affine.store"(%1130, %1125, %0) {map = #map0, to = "assert_cond_697", unsigned} : (i1, memref<1xi1>, index) -> ()
      %1131 = "affine.load"(%1125) {from = "assert_cond_697", map = #map1, unsigned} : (memref<1xi1>) -> i1
      %1132 = "arith.constant"() {value = 0 : i32} : () -> i32
      %1133 = "arith.extui"(%1131) : (i1) -> i32
      %1134 = "arith.cmpi"(%1133, %1132) {predicate = 0 : i64} : (i32, i32) -> i1
      "scf.if"(%1134) ({
        %1135 = "affine.load"(%936) {from = "sys_steps", map = #map1, unsigned} : (memref<1xi32>) -> i32
        "hcl.print"(%1135) {format = "\0A\0AAssertion failed {top.py:58,soc.py:132,soc.py:62,hcl_ext.py:401,schedule.py:86,schedule.py:73,schedule.py:35,soc.py:60,hcl_ext.py:864,hcl_ext.py:723}: Reached max step=%d ... aborting\0A\0A", signedness = "u"} : (i32) -> ()
        "scf.while"() ({
          %1136 = "affine.load"(%1125) {from = "assert_cond_697", map = #map1, unsigned} : (memref<1xi1>) -> i1
          %1137 = "arith.constant"() {value = 0 : i32} : () -> i32
          %1138 = "arith.extui"(%1136) : (i1) -> i32
          %1139 = "arith.cmpi"(%1138, %1137) {predicate = 0 : i64} : (i32, i32) -> i1
          "scf.condition"(%1139) : (i1) -> ()
        }, {
          %1136 = "arith.constant"() {value = 0 : i32} : () -> i32
          %1137 = "arith.trunci"(%1136) {unsigned} : (i32) -> i1
          "affine.store"(%1137, %1125) {map = #map1, to = "assert_cond_697", unsigned} : (i1, memref<1xi1>) -> ()
          "scf.yield"() : () -> ()
        }) : () -> ()
        "scf.yield"() : () -> ()
      }, {
      }) : (i1) -> ()
      "scf.yield"() : () -> ()
    }) : () -> ()
    %1053 = "affine.load"(%767) {from = "tele_inst_count", map = #map1, unsigned} : (memref<1xi32>) -> i32
    %1054 = "affine.load"(%769) {from = "tele_stall_count", map = #map1, unsigned} : (memref<1xi32>) -> i32
    "hcl.print"(%1053, %1054) {format = "ce0.mf uC instructions=%d stalls=%d\0A", signedness = "uu"} : (i32, i32) -> ()
    %1055 = "affine.load"(%820) {from = "tele_inst_count_32", map = #map1, unsigned} : (memref<1xi32>) -> i32
    %1056 = "affine.load"(%822) {from = "tele_stall_count_33", map = #map1, unsigned} : (memref<1xi32>) -> i32
    "hcl.print"(%1055, %1056) {format = "ce0.cf uC instructions=%d stalls=%d\0A", signedness = "uu"} : (i32, i32) -> ()
    %1057 = "affine.load"(%892) {from = "tele_inst_count_53", map = #map1, unsigned} : (memref<1xi32>) -> i32
    %1058 = "affine.load"(%894) {from = "tele_stall_count_54", map = #map1, unsigned} : (memref<1xi32>) -> i32
    "hcl.print"(%1057, %1058) {format = "ce0.cetiles.Mtile uC instructions=%d stalls=%d\0A", signedness = "uu"} : (i32, i32) -> ()
    %1059 = "affine.load"(%928) {from = "tele_inst_count_67", map = #map1, unsigned} : (memref<1xi32>) -> i32
    %1060 = "affine.load"(%930) {from = "tele_stall_count_68", map = #map1, unsigned} : (memref<1xi32>) -> i32
    "hcl.print"(%1059, %1060) {format = "proc uC instructions=%d stalls=%d\0A", signedness = "uu"} : (i32, i32) -> ()
    %1061 = "affine.load"(%936) {from = "sys_steps", map = #map1, unsigned} : (memref<1xi32>) -> i32
    "hcl.print"(%1061) {format = "Total steps: %d\0A", signedness = "u"} : (i32) -> ()
    "func.return"() : () -> ()
  }) {bit, function_type = (memref<33554432xi32>, memref<10xi64>) -> (), itypes = "uu", otypes = "", sym_name = "top"} : () -> ()
}) : () -> ()