module {
  func.func @top(%arg0: memref<33554432xi32>, %arg1: memref<10xi64>) attributes {bit, itypes = "uu", otypes = ""} {
    %c0 = arith.constant 0 : index
    %0 = memref.alloc() {name = "SPAD.alloc_c"} : memref<33554432xi32>
    affine.for %arg2 = 0 to 33554432 {
      %c0_i32_0 = arith.constant 0 : i32
      affine.store %c0_i32_0, %0[%arg2] {to = "SPAD.alloc_c", unsigned} : memref<33554432xi32>
    } {loop_name = "i0", op_name = "SPAD.alloc_c"}
    %1 = memref.alloc() {name = "minstq.alloc_c"} : memref<16384xi64>
    affine.for %arg2 = 0 to 16384 {
      %c0_i32_0 = arith.constant 0 : i32
      %109 = arith.extsi %c0_i32_0 {unsigned} : i32 to i64
      affine.store %109, %1[%arg2] {to = "minstq.alloc_c", unsigned} : memref<16384xi64>
    } {loop_name = "i0", op_name = "minstq.alloc_c"}
    %2 = memref.alloc() {name = "flags_msyncc"} : memref<1xi1>
    %c0_i32 = arith.constant 0 : i32
    %3 = arith.trunci %c0_i32 {unsigned} : i32 to i1
    affine.store %3, %2[%c0] {to = "flags_msyncc", unsigned} : memref<1xi1>
    %4 = memref.alloc() {name = "flags_active"} : memref<1xi1>
    affine.store %3, %4[%c0] {to = "flags_active", unsigned} : memref<1xi1>
    %5 = memref.alloc() {name = "flags_halt"} : memref<1xi1>
    affine.store %3, %5[%c0] {to = "flags_halt", unsigned} : memref<1xi1>
    %6 = memref.alloc() {name = "flags_stall"} : memref<1xi1>
    affine.store %3, %6[%c0] {to = "flags_stall", unsigned} : memref<1xi1>
    %7 = memref.alloc() {name = "flags_stalled"} : memref<1xi1>
    affine.store %3, %7[%c0] {to = "flags_stalled", unsigned} : memref<1xi1>
    %8 = memref.alloc() {name = "flags_break"} : memref<1xi1>
    affine.store %3, %8[%c0] {to = "flags_break", unsigned} : memref<1xi1>
    %9 = memref.alloc() {name = "count_stop"} : memref<1xi1>
    affine.store %3, %9[%c0] {to = "count_stop", unsigned} : memref<1xi1>
    %10 = memref.alloc() {name = "addr_stop"} : memref<1xi1>
    affine.store %3, %10[%c0] {to = "addr_stop", unsigned} : memref<1xi1>
    %11 = memref.alloc() {name = "inst_addr"} : memref<1xi32>
    affine.store %c0_i32, %11[%c0] {to = "inst_addr", unsigned} : memref<1xi32>
    %12 = memref.alloc() {name = "inst_naddr"} : memref<1xi32>
    affine.store %c0_i32, %12[%c0] {to = "inst_naddr", unsigned} : memref<1xi32>
    %13 = memref.alloc() {name = "latency_count"} : memref<1xi32>
    affine.store %c0_i32, %13[%c0] {to = "latency_count", unsigned} : memref<1xi32>
    %14 = memref.alloc() {name = "latstalled"} : memref<1xi1>
    affine.store %3, %14[%c0] {to = "latstalled", unsigned} : memref<1xi1>
    %15 = memref.alloc() {name = "tele_inst_count"} : memref<1xi32>
    affine.store %c0_i32, %15[%c0] {to = "tele_inst_count", unsigned} : memref<1xi32>
    %16 = memref.alloc() {name = "tele_stall_count"} : memref<1xi32>
    affine.store %c0_i32, %16[%c0] {to = "tele_stall_count", unsigned} : memref<1xi32>
    %17 = memref.alloc() {name = "tele_latstall_count"} : memref<1xi32>
    affine.store %c0_i32, %17[%c0] {to = "tele_latstall_count", unsigned} : memref<1xi32>
    %18 = memref.alloc() {name = "xinstq.alloc_c"} : memref<32768xi128>
    affine.for %arg2 = 0 to 32768 {
      %109 = arith.extsi %c0_i32 {unsigned} : i32 to i128
      affine.store %109, %18[%arg2] {to = "xinstq.alloc_c", unsigned} : memref<32768xi128>
    } {loop_name = "i0", op_name = "xinstq.alloc_c"}
    %19 = memref.alloc() {name = "xinstq_bundles"} : memref<1xi32>
    affine.store %c0_i32, %19[%c0] {to = "xinstq_bundles", unsigned} : memref<1xi32>
    %20 = memref.alloc() {name = "cinstq.alloc_c"} : memref<16384xi64>
    affine.for %arg2 = 0 to 16384 {
      %109 = arith.extsi %c0_i32 {unsigned} : i32 to i64
      affine.store %109, %20[%arg2] {to = "cinstq.alloc_c", unsigned} : memref<16384xi64>
    } {loop_name = "i0", op_name = "cinstq.alloc_c"}
    %21 = memref.alloc() {name = "nop_count"} : memref<1xi32>
    affine.store %c0_i32, %21[%c0] {to = "nop_count", unsigned} : memref<1xi32>
    %22 = memref.alloc() {name = "csyncm"} : memref<1xi1>
    affine.store %3, %22[%c0] {to = "csyncm", unsigned} : memref<1xi1>
    %23 = memref.alloc() {name = "cstore_cycle"} : memref<1xi3>
    %24 = arith.trunci %c0_i32 {unsigned} : i32 to i3
    affine.store %24, %23[%c0] {to = "cstore_cycle", unsigned} : memref<1xi3>
    %25 = memref.alloc() {name = "cstore_valid"} : memref<1xi1>
    affine.store %3, %25[%c0] {to = "cstore_valid", unsigned} : memref<1xi1>
    %26 = memref.alloc() {name = "cstore_spadaddr"} : memref<1xi32>
    affine.store %c0_i32, %26[%c0] {to = "cstore_spadaddr", unsigned} : memref<1xi32>
    %27 = memref.alloc() {name = "flags_active_21"} : memref<1xi1>
    affine.store %3, %27[%c0] {to = "flags_active_21", unsigned} : memref<1xi1>
    %28 = memref.alloc() {name = "flags_halt_22"} : memref<1xi1>
    affine.store %3, %28[%c0] {to = "flags_halt_22", unsigned} : memref<1xi1>
    %29 = memref.alloc() {name = "flags_stall_23"} : memref<1xi1>
    affine.store %3, %29[%c0] {to = "flags_stall_23", unsigned} : memref<1xi1>
    %30 = memref.alloc() {name = "flags_stalled_24"} : memref<1xi1>
    affine.store %3, %30[%c0] {to = "flags_stalled_24", unsigned} : memref<1xi1>
    %31 = memref.alloc() {name = "flags_break_25"} : memref<1xi1>
    affine.store %3, %31[%c0] {to = "flags_break_25", unsigned} : memref<1xi1>
    %32 = memref.alloc() {name = "count_stop_26"} : memref<1xi1>
    affine.store %3, %32[%c0] {to = "count_stop_26", unsigned} : memref<1xi1>
    %33 = memref.alloc() {name = "addr_stop_27"} : memref<1xi1>
    affine.store %3, %33[%c0] {to = "addr_stop_27", unsigned} : memref<1xi1>
    %34 = memref.alloc() {name = "inst_addr_28"} : memref<1xi32>
    affine.store %c0_i32, %34[%c0] {to = "inst_addr_28", unsigned} : memref<1xi32>
    %35 = memref.alloc() {name = "inst_naddr_29"} : memref<1xi32>
    affine.store %c0_i32, %35[%c0] {to = "inst_naddr_29", unsigned} : memref<1xi32>
    %36 = memref.alloc() {name = "latency_count_30"} : memref<1xi32>
    affine.store %c0_i32, %36[%c0] {to = "latency_count_30", unsigned} : memref<1xi32>
    %37 = memref.alloc() {name = "latstalled_31"} : memref<1xi1>
    affine.store %3, %37[%c0] {to = "latstalled_31", unsigned} : memref<1xi1>
    %38 = memref.alloc() {name = "tele_inst_count_32"} : memref<1xi32>
    affine.store %c0_i32, %38[%c0] {to = "tele_inst_count_32", unsigned} : memref<1xi32>
    %39 = memref.alloc() {name = "tele_stall_count_33"} : memref<1xi32>
    affine.store %c0_i32, %39[%c0] {to = "tele_stall_count_33", unsigned} : memref<1xi32>
    %40 = memref.alloc() {name = "tele_latstall_count_34"} : memref<1xi32>
    affine.store %c0_i32, %40[%c0] {to = "tele_latstall_count_34", unsigned} : memref<1xi32>
    %41 = memref.alloc() {name = "RFfoo.alloc_c"} : memref<4x72x8192xi32>
    affine.for %arg2 = 0 to 4 {
      affine.for %arg3 = 0 to 72 {
        affine.for %arg4 = 0 to 8192 {
          affine.store %c0_i32, %41[%arg2, %arg3, %arg4] {to = "RFfoo.alloc_c", unsigned} : memref<4x72x8192xi32>
        } {loop_name = "i2"}
      } {loop_name = "i1"}
    } {loop_name = "i0", op_name = "RFfoo.alloc_c"}
    %42 = memref.alloc() {name = "twpwrs.alloc_c"} : memref<32x64xi32>
    affine.for %arg2 = 0 to 32 {
      affine.for %arg3 = 0 to 64 {
        affine.store %c0_i32, %42[%arg2, %arg3] {to = "twpwrs.alloc_c", unsigned} : memref<32x64xi32>
      } {loop_name = "i1"}
    } {loop_name = "i0", op_name = "twpwrs.alloc_c"}
    %43 = memref.alloc() {name = "mone.alloc_c"} : memref<64xi32>
    affine.for %arg2 = 0 to 64 {
      affine.store %c0_i32, %43[%arg2] {to = "mone.alloc_c", unsigned} : memref<64xi32>
    } {loop_name = "i0", op_name = "mone.alloc_c"}
    %44 = memref.alloc() {name = "nop_count_35"} : memref<1xi32>
    affine.store %c0_i32, %44[%c0] {to = "nop_count_35", unsigned} : memref<1xi32>
    %45 = memref.alloc() {name = "flag_ntt"} : memref<1xi1>
    affine.store %3, %45[%c0] {to = "flag_ntt", unsigned} : memref<1xi1>
    %46 = memref.alloc() {name = "flag_intt"} : memref<1xi1>
    affine.store %3, %46[%c0] {to = "flag_intt", unsigned} : memref<1xi1>
    %47 = memref.alloc() {name = "ntt_intt_top_addr"} : memref<1xi9>
    %48 = arith.trunci %c0_i32 {unsigned} : i32 to i9
    affine.store %48, %47[%c0] {to = "ntt_intt_top_addr", unsigned} : memref<1xi9>
    %49 = memref.alloc() {name = "ntt_intt_bot_addr"} : memref<1xi9>
    affine.store %48, %49[%c0] {to = "ntt_intt_bot_addr", unsigned} : memref<1xi9>
    %50 = memref.alloc() {name = "instq.alloc_c"} : memref<16xi128>
    affine.for %arg2 = 0 to 16 {
      %109 = arith.extsi %c0_i32 {unsigned} : i32 to i128
      affine.store %109, %50[%arg2] {to = "instq.alloc_c", unsigned} : memref<16xi128>
    } {loop_name = "i0", op_name = "instq.alloc_c"}
    %51 = memref.alloc() {name = "nttdataintop.alloc_c"} : memref<8192xi32>
    affine.for %arg2 = 0 to 8192 {
      affine.store %c0_i32, %51[%arg2] {to = "nttdataintop.alloc_c", unsigned} : memref<8192xi32>
    } {loop_name = "i0", op_name = "nttdataintop.alloc_c"}
    %52 = memref.alloc() {name = "nttdatainbot.alloc_c"} : memref<8192xi32>
    affine.for %arg2 = 0 to 8192 {
      affine.store %c0_i32, %52[%arg2] {to = "nttdatainbot.alloc_c", unsigned} : memref<8192xi32>
    } {loop_name = "i0", op_name = "nttdatainbot.alloc_c"}
    %53 = memref.alloc() {name = "nttdataouttop.alloc_c"} : memref<8192xi32>
    affine.for %arg2 = 0 to 8192 {
      affine.store %c0_i32, %53[%arg2] {to = "nttdataouttop.alloc_c", unsigned} : memref<8192xi32>
    } {loop_name = "i0", op_name = "nttdataouttop.alloc_c"}
    %54 = memref.alloc() {name = "nttdataoutbot.alloc_c"} : memref<8192xi32>
    affine.for %arg2 = 0 to 8192 {
      affine.store %c0_i32, %54[%arg2] {to = "nttdataoutbot.alloc_c", unsigned} : memref<8192xi32>
    } {loop_name = "i0", op_name = "nttdataoutbot.alloc_c"}
    %55 = memref.alloc() {name = "inttdataintop.alloc_c"} : memref<8192xi32>
    affine.for %arg2 = 0 to 8192 {
      affine.store %c0_i32, %55[%arg2] {to = "inttdataintop.alloc_c", unsigned} : memref<8192xi32>
    } {loop_name = "i0", op_name = "inttdataintop.alloc_c"}
    %56 = memref.alloc() {name = "inttdatainbot.alloc_c"} : memref<8192xi32>
    affine.for %arg2 = 0 to 8192 {
      affine.store %c0_i32, %56[%arg2] {to = "inttdatainbot.alloc_c", unsigned} : memref<8192xi32>
    } {loop_name = "i0", op_name = "inttdatainbot.alloc_c"}
    %57 = memref.alloc() {name = "inttdataouttop.alloc_c"} : memref<8192xi32>
    affine.for %arg2 = 0 to 8192 {
      affine.store %c0_i32, %57[%arg2] {to = "inttdataouttop.alloc_c", unsigned} : memref<8192xi32>
    } {loop_name = "i0", op_name = "inttdataouttop.alloc_c"}
    %58 = memref.alloc() {name = "inttdataoutbot.alloc_c"} : memref<8192xi32>
    affine.for %arg2 = 0 to 8192 {
      affine.store %c0_i32, %58[%arg2] {to = "inttdataoutbot.alloc_c", unsigned} : memref<8192xi32>
    } {loop_name = "i0", op_name = "inttdataoutbot.alloc_c"}
    %59 = memref.alloc() {name = "ntt_ain.alloc_c"} : memref<8192xi32>
    affine.for %arg2 = 0 to 8192 {
      affine.store %c0_i32, %59[%arg2] {to = "ntt_ain.alloc_c", unsigned} : memref<8192xi32>
    } {loop_name = "i0", op_name = "ntt_ain.alloc_c"}
    %60 = memref.alloc() {name = "ntt_bin.alloc_c"} : memref<8192xi32>
    affine.for %arg2 = 0 to 8192 {
      affine.store %c0_i32, %60[%arg2] {to = "ntt_bin.alloc_c", unsigned} : memref<8192xi32>
    } {loop_name = "i0", op_name = "ntt_bin.alloc_c"}
    %61 = memref.alloc() {name = "ntt_win.alloc_c"} : memref<8192xi32>
    affine.for %arg2 = 0 to 8192 {
      affine.store %c0_i32, %61[%arg2] {to = "ntt_win.alloc_c", unsigned} : memref<8192xi32>
    } {loop_name = "i0", op_name = "ntt_win.alloc_c"}
    %62 = memref.alloc() {name = "mone_val"} : memref<1xi32>
    affine.store %c0_i32, %62[%c0] {to = "mone_val", unsigned} : memref<1xi32>
    %63 = memref.alloc() {name = "uc_start_delay"} : memref<1xi4>
    %64 = arith.trunci %c0_i32 {unsigned} : i32 to i4
    affine.store %64, %63[%c0] {to = "uc_start_delay", unsigned} : memref<1xi4>
    %65 = memref.alloc() {name = "flags_active_42"} : memref<1xi1>
    affine.store %3, %65[%c0] {to = "flags_active_42", unsigned} : memref<1xi1>
    %66 = memref.alloc() {name = "flags_halt_43"} : memref<1xi1>
    affine.store %3, %66[%c0] {to = "flags_halt_43", unsigned} : memref<1xi1>
    %67 = memref.alloc() {name = "flags_stall_44"} : memref<1xi1>
    affine.store %3, %67[%c0] {to = "flags_stall_44", unsigned} : memref<1xi1>
    %68 = memref.alloc() {name = "flags_stalled_45"} : memref<1xi1>
    affine.store %3, %68[%c0] {to = "flags_stalled_45", unsigned} : memref<1xi1>
    %69 = memref.alloc() {name = "flags_break_46"} : memref<1xi1>
    affine.store %3, %69[%c0] {to = "flags_break_46", unsigned} : memref<1xi1>
    %70 = memref.alloc() {name = "count_stop_47"} : memref<1xi1>
    affine.store %3, %70[%c0] {to = "count_stop_47", unsigned} : memref<1xi1>
    %71 = memref.alloc() {name = "addr_stop_48"} : memref<1xi1>
    affine.store %3, %71[%c0] {to = "addr_stop_48", unsigned} : memref<1xi1>
    %72 = memref.alloc() {name = "inst_addr_49"} : memref<1xi5>
    %73 = arith.trunci %c0_i32 {unsigned} : i32 to i5
    affine.store %73, %72[%c0] {to = "inst_addr_49", unsigned} : memref<1xi5>
    %74 = memref.alloc() {name = "inst_naddr_50"} : memref<1xi5>
    affine.store %73, %74[%c0] {to = "inst_naddr_50", unsigned} : memref<1xi5>
    %75 = memref.alloc() {name = "latency_count_51"} : memref<1xi32>
    affine.store %c0_i32, %75[%c0] {to = "latency_count_51", unsigned} : memref<1xi32>
    %76 = memref.alloc() {name = "latstalled_52"} : memref<1xi1>
    affine.store %3, %76[%c0] {to = "latstalled_52", unsigned} : memref<1xi1>
    %77 = memref.alloc() {name = "tele_inst_count_53"} : memref<1xi32>
    affine.store %c0_i32, %77[%c0] {to = "tele_inst_count_53", unsigned} : memref<1xi32>
    %78 = memref.alloc() {name = "tele_stall_count_54"} : memref<1xi32>
    affine.store %c0_i32, %78[%c0] {to = "tele_stall_count_54", unsigned} : memref<1xi32>
    %79 = memref.alloc() {name = "tele_latstall_count_55"} : memref<1xi32>
    affine.store %c0_i32, %79[%c0] {to = "tele_latstall_count_55", unsigned} : memref<1xi32>
    %80 = memref.alloc() {name = "flags_active_56"} : memref<1xi1>
    affine.store %3, %80[%c0] {to = "flags_active_56", unsigned} : memref<1xi1>
    %81 = memref.alloc() {name = "flags_halt_57"} : memref<1xi1>
    affine.store %3, %81[%c0] {to = "flags_halt_57", unsigned} : memref<1xi1>
    %82 = memref.alloc() {name = "flags_stall_58"} : memref<1xi1>
    affine.store %3, %82[%c0] {to = "flags_stall_58", unsigned} : memref<1xi1>
    %83 = memref.alloc() {name = "flags_stalled_59"} : memref<1xi1>
    affine.store %3, %83[%c0] {to = "flags_stalled_59", unsigned} : memref<1xi1>
    %84 = memref.alloc() {name = "flags_break_60"} : memref<1xi1>
    affine.store %3, %84[%c0] {to = "flags_break_60", unsigned} : memref<1xi1>
    %85 = memref.alloc() {name = "count_stop_61"} : memref<1xi1>
    affine.store %3, %85[%c0] {to = "count_stop_61", unsigned} : memref<1xi1>
    %86 = memref.alloc() {name = "addr_stop_62"} : memref<1xi1>
    affine.store %3, %86[%c0] {to = "addr_stop_62", unsigned} : memref<1xi1>
    %87 = memref.alloc() {name = "inst_addr_63"} : memref<1xi32>
    affine.store %c0_i32, %87[%c0] {to = "inst_addr_63", unsigned} : memref<1xi32>
    %88 = memref.alloc() {name = "inst_naddr_64"} : memref<1xi32>
    affine.store %c0_i32, %88[%c0] {to = "inst_naddr_64", unsigned} : memref<1xi32>
    %89 = memref.alloc() {name = "latency_count_65"} : memref<1xi32>
    affine.store %c0_i32, %89[%c0] {to = "latency_count_65", unsigned} : memref<1xi32>
    %90 = memref.alloc() {name = "latstalled_66"} : memref<1xi1>
    affine.store %3, %90[%c0] {to = "latstalled_66", unsigned} : memref<1xi1>
    %91 = memref.alloc() {name = "tele_inst_count_67"} : memref<1xi32>
    affine.store %c0_i32, %91[%c0] {to = "tele_inst_count_67", unsigned} : memref<1xi32>
    %92 = memref.alloc() {name = "tele_stall_count_68"} : memref<1xi32>
    affine.store %c0_i32, %92[%c0] {to = "tele_stall_count_68", unsigned} : memref<1xi32>
    %93 = memref.alloc() {name = "tele_latstall_count_69"} : memref<1xi32>
    affine.store %c0_i32, %93[%c0] {to = "tele_latstall_count_69", unsigned} : memref<1xi32>
    hcl.print(%c0_i32) {format = "FIX ME : binding minstq as hbm for now ...\0A", signedness = "_"} : i32
    hcl.print(%c0_i32) {format = "FIX ME : binding cinstq as hbm for now ...\0A", signedness = "_"} : i32
    %94 = memref.alloc() {name = "sys_steps"} : memref<1xi32>
    %c1_i32 = arith.constant 1 : i32
    affine.store %c1_i32, %94[%c0] {to = "sys_steps", unsigned} : memref<1xi32>
    %95 = memref.alloc() {name = "sys_done"} : memref<1xi1>
    affine.store %3, %95[%c0] {to = "sys_done", unsigned} : memref<1xi1>
    affine.store %3, %2[0] {to = "flags_msyncc", unsigned} : memref<1xi1>
    affine.store %3, %4[0] {to = "flags_active", unsigned} : memref<1xi1>
    affine.store %3, %5[0] {to = "flags_halt", unsigned} : memref<1xi1>
    affine.store %3, %6[0] {to = "flags_stall", unsigned} : memref<1xi1>
    affine.store %3, %7[0] {to = "flags_stalled", unsigned} : memref<1xi1>
    affine.store %3, %8[0] {to = "flags_break", unsigned} : memref<1xi1>
    affine.store %3, %9[0] {to = "count_stop", unsigned} : memref<1xi1>
    affine.store %3, %10[0] {to = "addr_stop", unsigned} : memref<1xi1>
    affine.store %c0_i32, %11[0] {to = "inst_addr", unsigned} : memref<1xi32>
    affine.store %c0_i32, %12[0] {to = "inst_naddr", unsigned} : memref<1xi32>
    affine.store %c0_i32, %13[0] {to = "latency_count", unsigned} : memref<1xi32>
    affine.store %3, %14[0] {to = "latstalled", unsigned} : memref<1xi1>
    affine.store %c0_i32, %15[0] {to = "tele_inst_count", unsigned} : memref<1xi32>
    affine.store %c0_i32, %16[0] {to = "tele_stall_count", unsigned} : memref<1xi32>
    affine.store %c0_i32, %17[0] {to = "tele_latstall_count", unsigned} : memref<1xi32>
    affine.store %c0_i32, %21[0] {to = "nop_count", unsigned} : memref<1xi32>
    affine.store %3, %22[0] {to = "csyncm", unsigned} : memref<1xi1>
    affine.store %24, %23[0] {to = "cstore_cycle", unsigned} : memref<1xi3>
    affine.store %3, %25[0] {to = "cstore_valid", unsigned} : memref<1xi1>
    affine.store %c0_i32, %26[0] {to = "cstore_spadaddr", unsigned} : memref<1xi32>
    affine.store %c0_i32, %19[0] {to = "xinstq_bundles", unsigned} : memref<1xi32>
    affine.store %3, %27[0] {to = "flags_active_21", unsigned} : memref<1xi1>
    affine.store %3, %28[0] {to = "flags_halt_22", unsigned} : memref<1xi1>
    affine.store %3, %29[0] {to = "flags_stall_23", unsigned} : memref<1xi1>
    affine.store %3, %30[0] {to = "flags_stalled_24", unsigned} : memref<1xi1>
    affine.store %3, %31[0] {to = "flags_break_25", unsigned} : memref<1xi1>
    affine.store %3, %32[0] {to = "count_stop_26", unsigned} : memref<1xi1>
    affine.store %3, %33[0] {to = "addr_stop_27", unsigned} : memref<1xi1>
    affine.store %c0_i32, %34[0] {to = "inst_addr_28", unsigned} : memref<1xi32>
    affine.store %c0_i32, %35[0] {to = "inst_naddr_29", unsigned} : memref<1xi32>
    affine.store %c0_i32, %36[0] {to = "latency_count_30", unsigned} : memref<1xi32>
    affine.store %3, %37[0] {to = "latstalled_31", unsigned} : memref<1xi1>
    affine.store %c0_i32, %38[0] {to = "tele_inst_count_32", unsigned} : memref<1xi32>
    affine.store %c0_i32, %39[0] {to = "tele_stall_count_33", unsigned} : memref<1xi32>
    affine.store %c0_i32, %40[0] {to = "tele_latstall_count_34", unsigned} : memref<1xi32>
    affine.store %c0_i32, %44[0] {to = "nop_count_35", unsigned} : memref<1xi32>
    affine.store %3, %45[0] {to = "flag_ntt", unsigned} : memref<1xi1>
    affine.store %3, %46[0] {to = "flag_intt", unsigned} : memref<1xi1>
    affine.store %48, %47[0] {to = "ntt_intt_top_addr", unsigned} : memref<1xi9>
    affine.store %48, %49[0] {to = "ntt_intt_bot_addr", unsigned} : memref<1xi9>
    affine.store %64, %63[0] {to = "uc_start_delay", unsigned} : memref<1xi4>
    affine.store %3, %65[0] {to = "flags_active_42", unsigned} : memref<1xi1>
    affine.store %3, %66[0] {to = "flags_halt_43", unsigned} : memref<1xi1>
    affine.store %3, %67[0] {to = "flags_stall_44", unsigned} : memref<1xi1>
    affine.store %3, %68[0] {to = "flags_stalled_45", unsigned} : memref<1xi1>
    affine.store %3, %69[0] {to = "flags_break_46", unsigned} : memref<1xi1>
    affine.store %3, %70[0] {to = "count_stop_47", unsigned} : memref<1xi1>
    affine.store %3, %71[0] {to = "addr_stop_48", unsigned} : memref<1xi1>
    affine.store %73, %72[0] {to = "inst_addr_49", unsigned} : memref<1xi5>
    affine.store %73, %74[0] {to = "inst_naddr_50", unsigned} : memref<1xi5>
    affine.store %c0_i32, %75[0] {to = "latency_count_51", unsigned} : memref<1xi32>
    affine.store %3, %76[0] {to = "latstalled_52", unsigned} : memref<1xi1>
    affine.store %c0_i32, %77[0] {to = "tele_inst_count_53", unsigned} : memref<1xi32>
    affine.store %c0_i32, %78[0] {to = "tele_stall_count_54", unsigned} : memref<1xi32>
    affine.store %c0_i32, %79[0] {to = "tele_latstall_count_55", unsigned} : memref<1xi32>
    affine.store %3, %80[0] {to = "flags_active_56", unsigned} : memref<1xi1>
    affine.store %3, %81[0] {to = "flags_halt_57", unsigned} : memref<1xi1>
    affine.store %3, %82[0] {to = "flags_stall_58", unsigned} : memref<1xi1>
    affine.store %3, %83[0] {to = "flags_stalled_59", unsigned} : memref<1xi1>
    affine.store %3, %84[0] {to = "flags_break_60", unsigned} : memref<1xi1>
    affine.store %3, %85[0] {to = "count_stop_61", unsigned} : memref<1xi1>
    affine.store %3, %86[0] {to = "addr_stop_62", unsigned} : memref<1xi1>
    affine.store %c0_i32, %87[0] {to = "inst_addr_63", unsigned} : memref<1xi32>
    affine.store %c0_i32, %88[0] {to = "inst_naddr_64", unsigned} : memref<1xi32>
    affine.store %c0_i32, %89[0] {to = "latency_count_65", unsigned} : memref<1xi32>
    affine.store %3, %90[0] {to = "latstalled_66", unsigned} : memref<1xi1>
    affine.store %c0_i32, %91[0] {to = "tele_inst_count_67", unsigned} : memref<1xi32>
    affine.store %c0_i32, %92[0] {to = "tele_stall_count_68", unsigned} : memref<1xi32>
    affine.store %c0_i32, %93[0] {to = "tele_latstall_count_69", unsigned} : memref<1xi32>
    scf.while : () -> () {
      %true = arith.constant {unsigned} true
      %109 = affine.load %95[0] {from = "sys_done", unsigned} : memref<1xi1>
      %110 = arith.extui %109 : i1 to i32
      %111 = arith.cmpi eq, %110, %c0_i32 : i32
      %112 = arith.andi %true, %111 {unsigned} : i1
      %113 = affine.load %94[0] {from = "sys_steps", unsigned} : memref<1xi32>
      %c100000_i32_0 = arith.constant 100000 : i32
      %114 = arith.extui %113 : i32 to i33
      %115 = arith.extsi %c100000_i32_0 : i32 to i33
      %116 = arith.cmpi slt, %114, %115 : i33
      %117 = arith.andi %112, %116 {unsigned} : i1
      scf.condition(%117)
    } do {
      %109 = affine.load %94[0] {from = "sys_steps", unsigned} : memref<1xi32>
      hcl.print(%109) {format = "step=%d ------------------------------------------------------------\0A", signedness = "u"} : i32
      %110 = affine.load %45[0] {from = "flag_ntt", unsigned} : memref<1xi1>
      %111 = arith.extui %110 : i1 to i32
      %112 = arith.cmpi ne, %111, %c0_i32 : i32
      scf.if %112 {
        %133 = memref.alloc() {name = "rfaddr"} : memref<1x!hcl.struct<i7, i2>>
        %134 = affine.load %47[0] {from = "ntt_intt_top_addr", unsigned} : memref<1xi9>
        %135 = hcl.int_to_struct(%134) {unsigned} : i9 -> <i7, i2>
        affine.store %135, %133[%c0] {to = "rfaddr"} : memref<1x!hcl.struct<i7, i2>>
        %136 = memref.alloc() {name = "bv"} : memref<1xi3>
        %137 = affine.load %133[0] {from = "rfaddr"} : memref<1x!hcl.struct<i7, i2>>
        %138 = hcl.struct_get %137[1] : <i7, i2> -> i2
        %139 = arith.extui %138 {unsigned} : i2 to i3
        affine.store %139, %136[%c0] {to = "bv", unsigned} : memref<1xi3>
        %140 = memref.alloc() {name = "rv"} : memref<1xi8>
        %141 = affine.load %133[0] {from = "rfaddr"} : memref<1x!hcl.struct<i7, i2>>
        %142 = hcl.struct_get %141[0] : <i7, i2> -> i7
        %143 = arith.extui %142 {unsigned} : i7 to i8
        affine.store %143, %140[%c0] {to = "rv", unsigned} : memref<1xi8>
        %144 = memref.alloc() {name = "count"} : memref<1xi32>
        %c8192_i32 = arith.constant 8192 : i32
        affine.store %c8192_i32, %144[%c0] {to = "count", unsigned} : memref<1xi32>
        %145 = memref.alloc() {name = "src_addr"} : memref<1xi32>
        affine.store %c0_i32, %145[%c0] {to = "src_addr", unsigned} : memref<1xi32>
        %146 = memref.alloc() {name = "dst_addr"} : memref<1xi32>
        affine.store %c0_i32, %146[%c0] {to = "dst_addr", unsigned} : memref<1xi32>
        %147 = memref.alloc() {name = "_addr"} : memref<1xi32>
        %148 = affine.load %145[0] {from = "src_addr", unsigned} : memref<1xi32>
        affine.store %148, %147[%c0] {to = "_addr", unsigned} : memref<1xi32>
        %149 = memref.alloc() {name = "assert_cond"} : memref<1xi1>
        %150 = affine.load %147[0] {from = "_addr", unsigned} : memref<1xi32>
        %151 = affine.load %144[0] {from = "count", unsigned} : memref<1xi32>
        %152 = arith.extui %150 {unsigned} : i32 to i33
        %153 = arith.extui %151 {unsigned} : i32 to i33
        %154 = arith.addi %152, %153 {unsigned} : i33
        %155 = arith.extui %154 : i33 to i34
        %156 = arith.extsi %c8192_i32 : i32 to i34
        %157 = arith.cmpi sle, %155, %156 : i34
        affine.store %157, %149[%c0] {to = "assert_cond", unsigned} : memref<1xi1>
        %158 = affine.load %149[0] {from = "assert_cond", unsigned} : memref<1xi1>
        %159 = arith.extui %158 : i1 to i32
        %160 = arith.cmpi eq, %159, %c0_i32 : i32
        scf.if %160 {
          %192 = affine.load %147[0] {from = "_addr", unsigned} : memref<1xi32>
          %193 = affine.load %144[0] {from = "count", unsigned} : memref<1xi32>
          %194 = arith.extui %192 {unsigned} : i32 to i33
          %195 = arith.extui %193 {unsigned} : i32 to i33
          %196 = arith.addi %194, %195 {unsigned} : i33
          hcl.print(%192, %196) {format = "\0A\0AAssertion failed {}: nttdataintop Mem.copyto exceeds memory size: addr=%d+size=%d > 8192\0A\0A", signedness = "uu"} : i32, i33
          scf.while : () -> () {
            %197 = affine.load %149[0] {from = "assert_cond", unsigned} : memref<1xi1>
            %198 = arith.extui %197 : i1 to i32
            %199 = arith.cmpi ne, %198, %c1_i32 : i32
            scf.condition(%199)
          } do {
            affine.store %3, %149[0] {to = "assert_cond", unsigned} : memref<1xi1>
            scf.yield
          }
        }
        %c0_0 = arith.constant {unsigned} 0 : index
        %161 = affine.load %144[0] {from = "count", unsigned} : memref<1xi32>
        %162 = arith.index_cast %161 {unsigned} : i32 to index
        %c1 = arith.constant {unsigned} 1 : index
        scf.for %arg2 = %c0_0 to %162 step %c1 {
          %192 = affine.load %145[0] {from = "src_addr", unsigned} : memref<1xi32>
          %193 = arith.extui %192 {unsigned} : i32 to i33
          %194 = arith.index_cast %arg2 {unsigned} : index to i33
          %195 = arith.addi %193, %194 {unsigned} : i33
          %196 = arith.index_cast %195 {unsigned} : i33 to index
          %197 = memref.load %51[%196] {from = "nttdataintop.alloc_c", unsigned} : memref<8192xi32>
          %198 = affine.load %136[0] {from = "bv", unsigned} : memref<1xi3>
          %199 = arith.index_cast %198 {unsigned} : i3 to index
          %200 = affine.load %140[0] {from = "rv", unsigned} : memref<1xi8>
          %201 = arith.index_cast %200 {unsigned} : i8 to index
          %202 = affine.load %146[0] {from = "dst_addr", unsigned} : memref<1xi32>
          %203 = arith.extui %202 {unsigned} : i32 to i33
          %204 = arith.addi %203, %194 {unsigned} : i33
          %205 = arith.index_cast %204 {unsigned} : i33 to index
          memref.store %197, %41[%199, %201, %205] {to = "RFfoo.alloc_c", unsigned} : memref<4x72x8192xi32>
        } {loop_name = "i", op_name = "copyN"}
        %163 = memref.alloc() {name = "rfaddr_80"} : memref<1x!hcl.struct<i7, i2>>
        %164 = affine.load %49[0] {from = "ntt_intt_bot_addr", unsigned} : memref<1xi9>
        %165 = hcl.int_to_struct(%164) {unsigned} : i9 -> <i7, i2>
        affine.store %165, %163[%c0] {to = "rfaddr_80"} : memref<1x!hcl.struct<i7, i2>>
        %166 = memref.alloc() {name = "bv_81"} : memref<1xi3>
        %167 = affine.load %163[0] {from = "rfaddr_80"} : memref<1x!hcl.struct<i7, i2>>
        %168 = hcl.struct_get %167[1] : <i7, i2> -> i2
        %169 = arith.extui %168 {unsigned} : i2 to i3
        affine.store %169, %166[%c0] {to = "bv_81", unsigned} : memref<1xi3>
        %170 = memref.alloc() {name = "rv_82"} : memref<1xi8>
        %171 = affine.load %163[0] {from = "rfaddr_80"} : memref<1x!hcl.struct<i7, i2>>
        %172 = hcl.struct_get %171[0] : <i7, i2> -> i7
        %173 = arith.extui %172 {unsigned} : i7 to i8
        affine.store %173, %170[%c0] {to = "rv_82", unsigned} : memref<1xi8>
        %174 = memref.alloc() {name = "count_83"} : memref<1xi32>
        affine.store %c8192_i32, %174[%c0] {to = "count_83", unsigned} : memref<1xi32>
        %175 = memref.alloc() {name = "src_addr_84"} : memref<1xi32>
        affine.store %c0_i32, %175[%c0] {to = "src_addr_84", unsigned} : memref<1xi32>
        %176 = memref.alloc() {name = "dst_addr_85"} : memref<1xi32>
        affine.store %c0_i32, %176[%c0] {to = "dst_addr_85", unsigned} : memref<1xi32>
        %177 = memref.alloc() {name = "_addr_86"} : memref<1xi32>
        %178 = affine.load %175[0] {from = "src_addr_84", unsigned} : memref<1xi32>
        affine.store %178, %177[%c0] {to = "_addr_86", unsigned} : memref<1xi32>
        %179 = memref.alloc() {name = "assert_cond_87"} : memref<1xi1>
        %180 = affine.load %177[0] {from = "_addr_86", unsigned} : memref<1xi32>
        %181 = affine.load %174[0] {from = "count_83", unsigned} : memref<1xi32>
        %182 = arith.extui %180 {unsigned} : i32 to i33
        %183 = arith.extui %181 {unsigned} : i32 to i33
        %184 = arith.addi %182, %183 {unsigned} : i33
        %185 = arith.extui %184 : i33 to i34
        %186 = arith.cmpi sle, %185, %156 : i34
        affine.store %186, %179[%c0] {to = "assert_cond_87", unsigned} : memref<1xi1>
        %187 = affine.load %179[0] {from = "assert_cond_87", unsigned} : memref<1xi1>
        %188 = arith.extui %187 : i1 to i32
        %189 = arith.cmpi eq, %188, %c0_i32 : i32
        scf.if %189 {
          %192 = affine.load %177[0] {from = "_addr_86", unsigned} : memref<1xi32>
          %193 = affine.load %174[0] {from = "count_83", unsigned} : memref<1xi32>
          %194 = arith.extui %192 {unsigned} : i32 to i33
          %195 = arith.extui %193 {unsigned} : i32 to i33
          %196 = arith.addi %194, %195 {unsigned} : i33
          hcl.print(%192, %196) {format = "\0A\0AAssertion failed {}: nttdatainbot Mem.copyto exceeds memory size: addr=%d+size=%d > 8192\0A\0A", signedness = "uu"} : i32, i33
          scf.while : () -> () {
            %197 = affine.load %179[0] {from = "assert_cond_87", unsigned} : memref<1xi1>
            %198 = arith.extui %197 : i1 to i32
            %199 = arith.cmpi ne, %198, %c1_i32 : i32
            scf.condition(%199)
          } do {
            affine.store %3, %179[0] {to = "assert_cond_87", unsigned} : memref<1xi1>
            scf.yield
          }
        }
        %190 = affine.load %174[0] {from = "count_83", unsigned} : memref<1xi32>
        %191 = arith.index_cast %190 {unsigned} : i32 to index
        scf.for %arg2 = %c0_0 to %191 step %c1 {
          %192 = affine.load %175[0] {from = "src_addr_84", unsigned} : memref<1xi32>
          %193 = arith.extui %192 {unsigned} : i32 to i33
          %194 = arith.index_cast %arg2 {unsigned} : index to i33
          %195 = arith.addi %193, %194 {unsigned} : i33
          %196 = arith.index_cast %195 {unsigned} : i33 to index
          %197 = memref.load %52[%196] {from = "nttdatainbot.alloc_c", unsigned} : memref<8192xi32>
          %198 = affine.load %166[0] {from = "bv_81", unsigned} : memref<1xi3>
          %199 = arith.index_cast %198 {unsigned} : i3 to index
          %200 = affine.load %170[0] {from = "rv_82", unsigned} : memref<1xi8>
          %201 = arith.index_cast %200 {unsigned} : i8 to index
          %202 = affine.load %176[0] {from = "dst_addr_85", unsigned} : memref<1xi32>
          %203 = arith.extui %202 {unsigned} : i32 to i33
          %204 = arith.addi %203, %194 {unsigned} : i33
          %205 = arith.index_cast %204 {unsigned} : i33 to index
          memref.store %197, %41[%199, %201, %205] {to = "RFfoo.alloc_c", unsigned} : memref<4x72x8192xi32>
        } {loop_name = "i", op_name = "copyN_22"}
        affine.store %3, %45[0] {to = "flag_ntt", unsigned} : memref<1xi1>
      }
      %113 = affine.load %46[0] {from = "flag_intt", unsigned} : memref<1xi1>
      %114 = arith.extui %113 : i1 to i32
      %115 = arith.cmpi ne, %114, %c0_i32 : i32
      scf.if %115 {
        %133 = memref.alloc() {name = "rfaddr_88"} : memref<1x!hcl.struct<i7, i2>>
        %134 = affine.load %47[0] {from = "ntt_intt_top_addr", unsigned} : memref<1xi9>
        %135 = hcl.int_to_struct(%134) {unsigned} : i9 -> <i7, i2>
        affine.store %135, %133[%c0] {to = "rfaddr_88"} : memref<1x!hcl.struct<i7, i2>>
        %136 = memref.alloc() {name = "bv_89"} : memref<1xi3>
        %137 = affine.load %133[0] {from = "rfaddr_88"} : memref<1x!hcl.struct<i7, i2>>
        %138 = hcl.struct_get %137[1] : <i7, i2> -> i2
        %139 = arith.extui %138 {unsigned} : i2 to i3
        affine.store %139, %136[%c0] {to = "bv_89", unsigned} : memref<1xi3>
        %140 = memref.alloc() {name = "rv_90"} : memref<1xi8>
        %141 = affine.load %133[0] {from = "rfaddr_88"} : memref<1x!hcl.struct<i7, i2>>
        %142 = hcl.struct_get %141[0] : <i7, i2> -> i7
        %143 = arith.extui %142 {unsigned} : i7 to i8
        affine.store %143, %140[%c0] {to = "rv_90", unsigned} : memref<1xi8>
        %144 = memref.alloc() {name = "count_91"} : memref<1xi32>
        %c8192_i32 = arith.constant 8192 : i32
        affine.store %c8192_i32, %144[%c0] {to = "count_91", unsigned} : memref<1xi32>
        %145 = memref.alloc() {name = "src_addr_92"} : memref<1xi32>
        affine.store %c0_i32, %145[%c0] {to = "src_addr_92", unsigned} : memref<1xi32>
        %146 = memref.alloc() {name = "dst_addr_93"} : memref<1xi32>
        affine.store %c0_i32, %146[%c0] {to = "dst_addr_93", unsigned} : memref<1xi32>
        %147 = memref.alloc() {name = "_addr_94"} : memref<1xi32>
        %148 = affine.load %145[0] {from = "src_addr_92", unsigned} : memref<1xi32>
        affine.store %148, %147[%c0] {to = "_addr_94", unsigned} : memref<1xi32>
        %149 = memref.alloc() {name = "assert_cond_95"} : memref<1xi1>
        %150 = affine.load %147[0] {from = "_addr_94", unsigned} : memref<1xi32>
        %151 = affine.load %144[0] {from = "count_91", unsigned} : memref<1xi32>
        %152 = arith.extui %150 {unsigned} : i32 to i33
        %153 = arith.extui %151 {unsigned} : i32 to i33
        %154 = arith.addi %152, %153 {unsigned} : i33
        %155 = arith.extui %154 : i33 to i34
        %156 = arith.extsi %c8192_i32 : i32 to i34
        %157 = arith.cmpi sle, %155, %156 : i34
        affine.store %157, %149[%c0] {to = "assert_cond_95", unsigned} : memref<1xi1>
        %158 = affine.load %149[0] {from = "assert_cond_95", unsigned} : memref<1xi1>
        %159 = arith.extui %158 : i1 to i32
        %160 = arith.cmpi eq, %159, %c0_i32 : i32
        scf.if %160 {
          %192 = affine.load %147[0] {from = "_addr_94", unsigned} : memref<1xi32>
          %193 = affine.load %144[0] {from = "count_91", unsigned} : memref<1xi32>
          %194 = arith.extui %192 {unsigned} : i32 to i33
          %195 = arith.extui %193 {unsigned} : i32 to i33
          %196 = arith.addi %194, %195 {unsigned} : i33
          hcl.print(%192, %196) {format = "\0A\0AAssertion failed {}: inttdataintop Mem.copyto exceeds memory size: addr=%d+size=%d > 8192\0A\0A", signedness = "uu"} : i32, i33
          scf.while : () -> () {
            %197 = affine.load %149[0] {from = "assert_cond_95", unsigned} : memref<1xi1>
            %198 = arith.extui %197 : i1 to i32
            %199 = arith.cmpi ne, %198, %c1_i32 : i32
            scf.condition(%199)
          } do {
            affine.store %3, %149[0] {to = "assert_cond_95", unsigned} : memref<1xi1>
            scf.yield
          }
        }
        %c0_0 = arith.constant {unsigned} 0 : index
        %161 = affine.load %144[0] {from = "count_91", unsigned} : memref<1xi32>
        %162 = arith.index_cast %161 {unsigned} : i32 to index
        %c1 = arith.constant {unsigned} 1 : index
        scf.for %arg2 = %c0_0 to %162 step %c1 {
          %192 = affine.load %145[0] {from = "src_addr_92", unsigned} : memref<1xi32>
          %193 = arith.extui %192 {unsigned} : i32 to i33
          %194 = arith.index_cast %arg2 {unsigned} : index to i33
          %195 = arith.addi %193, %194 {unsigned} : i33
          %196 = arith.index_cast %195 {unsigned} : i33 to index
          %197 = memref.load %55[%196] {from = "inttdataintop.alloc_c", unsigned} : memref<8192xi32>
          %198 = affine.load %136[0] {from = "bv_89", unsigned} : memref<1xi3>
          %199 = arith.index_cast %198 {unsigned} : i3 to index
          %200 = affine.load %140[0] {from = "rv_90", unsigned} : memref<1xi8>
          %201 = arith.index_cast %200 {unsigned} : i8 to index
          %202 = affine.load %146[0] {from = "dst_addr_93", unsigned} : memref<1xi32>
          %203 = arith.extui %202 {unsigned} : i32 to i33
          %204 = arith.addi %203, %194 {unsigned} : i33
          %205 = arith.index_cast %204 {unsigned} : i33 to index
          memref.store %197, %41[%199, %201, %205] {to = "RFfoo.alloc_c", unsigned} : memref<4x72x8192xi32>
        } {loop_name = "i", op_name = "copyN_23"}
        %163 = memref.alloc() {name = "rfaddr_96"} : memref<1x!hcl.struct<i7, i2>>
        %164 = affine.load %49[0] {from = "ntt_intt_bot_addr", unsigned} : memref<1xi9>
        %165 = hcl.int_to_struct(%164) {unsigned} : i9 -> <i7, i2>
        affine.store %165, %163[%c0] {to = "rfaddr_96"} : memref<1x!hcl.struct<i7, i2>>
        %166 = memref.alloc() {name = "bv_97"} : memref<1xi3>
        %167 = affine.load %163[0] {from = "rfaddr_96"} : memref<1x!hcl.struct<i7, i2>>
        %168 = hcl.struct_get %167[1] : <i7, i2> -> i2
        %169 = arith.extui %168 {unsigned} : i2 to i3
        affine.store %169, %166[%c0] {to = "bv_97", unsigned} : memref<1xi3>
        %170 = memref.alloc() {name = "rv_98"} : memref<1xi8>
        %171 = affine.load %163[0] {from = "rfaddr_96"} : memref<1x!hcl.struct<i7, i2>>
        %172 = hcl.struct_get %171[0] : <i7, i2> -> i7
        %173 = arith.extui %172 {unsigned} : i7 to i8
        affine.store %173, %170[%c0] {to = "rv_98", unsigned} : memref<1xi8>
        %174 = memref.alloc() {name = "count_99"} : memref<1xi32>
        affine.store %c8192_i32, %174[%c0] {to = "count_99", unsigned} : memref<1xi32>
        %175 = memref.alloc() {name = "src_addr_100"} : memref<1xi32>
        affine.store %c0_i32, %175[%c0] {to = "src_addr_100", unsigned} : memref<1xi32>
        %176 = memref.alloc() {name = "dst_addr_101"} : memref<1xi32>
        affine.store %c0_i32, %176[%c0] {to = "dst_addr_101", unsigned} : memref<1xi32>
        %177 = memref.alloc() {name = "_addr_102"} : memref<1xi32>
        %178 = affine.load %175[0] {from = "src_addr_100", unsigned} : memref<1xi32>
        affine.store %178, %177[%c0] {to = "_addr_102", unsigned} : memref<1xi32>
        %179 = memref.alloc() {name = "assert_cond_103"} : memref<1xi1>
        %180 = affine.load %177[0] {from = "_addr_102", unsigned} : memref<1xi32>
        %181 = affine.load %174[0] {from = "count_99", unsigned} : memref<1xi32>
        %182 = arith.extui %180 {unsigned} : i32 to i33
        %183 = arith.extui %181 {unsigned} : i32 to i33
        %184 = arith.addi %182, %183 {unsigned} : i33
        %185 = arith.extui %184 : i33 to i34
        %186 = arith.cmpi sle, %185, %156 : i34
        affine.store %186, %179[%c0] {to = "assert_cond_103", unsigned} : memref<1xi1>
        %187 = affine.load %179[0] {from = "assert_cond_103", unsigned} : memref<1xi1>
        %188 = arith.extui %187 : i1 to i32
        %189 = arith.cmpi eq, %188, %c0_i32 : i32
        scf.if %189 {
          %192 = affine.load %177[0] {from = "_addr_102", unsigned} : memref<1xi32>
          %193 = affine.load %174[0] {from = "count_99", unsigned} : memref<1xi32>
          %194 = arith.extui %192 {unsigned} : i32 to i33
          %195 = arith.extui %193 {unsigned} : i32 to i33
          %196 = arith.addi %194, %195 {unsigned} : i33
          hcl.print(%192, %196) {format = "\0A\0AAssertion failed {}: inttdatainbot Mem.copyto exceeds memory size: addr=%d+size=%d > 8192\0A\0A", signedness = "uu"} : i32, i33
          scf.while : () -> () {
            %197 = affine.load %179[0] {from = "assert_cond_103", unsigned} : memref<1xi1>
            %198 = arith.extui %197 : i1 to i32
            %199 = arith.cmpi ne, %198, %c1_i32 : i32
            scf.condition(%199)
          } do {
            affine.store %3, %179[0] {to = "assert_cond_103", unsigned} : memref<1xi1>
            scf.yield
          }
        }
        %190 = affine.load %174[0] {from = "count_99", unsigned} : memref<1xi32>
        %191 = arith.index_cast %190 {unsigned} : i32 to index
        scf.for %arg2 = %c0_0 to %191 step %c1 {
          %192 = affine.load %175[0] {from = "src_addr_100", unsigned} : memref<1xi32>
          %193 = arith.extui %192 {unsigned} : i32 to i33
          %194 = arith.index_cast %arg2 {unsigned} : index to i33
          %195 = arith.addi %193, %194 {unsigned} : i33
          %196 = arith.index_cast %195 {unsigned} : i33 to index
          %197 = memref.load %56[%196] {from = "inttdatainbot.alloc_c", unsigned} : memref<8192xi32>
          %198 = affine.load %166[0] {from = "bv_97", unsigned} : memref<1xi3>
          %199 = arith.index_cast %198 {unsigned} : i3 to index
          %200 = affine.load %170[0] {from = "rv_98", unsigned} : memref<1xi8>
          %201 = arith.index_cast %200 {unsigned} : i8 to index
          %202 = affine.load %176[0] {from = "dst_addr_101", unsigned} : memref<1xi32>
          %203 = arith.extui %202 {unsigned} : i32 to i33
          %204 = arith.addi %203, %194 {unsigned} : i33
          %205 = arith.index_cast %204 {unsigned} : i33 to index
          memref.store %197, %41[%199, %201, %205] {to = "RFfoo.alloc_c", unsigned} : memref<4x72x8192xi32>
        } {loop_name = "i", op_name = "copyN_24"}
        affine.store %3, %46[0] {to = "flag_intt", unsigned} : memref<1xi1>
      }
      %false = arith.constant {unsigned} false
      %116 = affine.load %80[0] {from = "flags_active_56", unsigned} : memref<1xi1>
      %117 = arith.ori %false, %116 {unsigned} : i1
      %118 = affine.load %81[0] {from = "flags_halt_57", unsigned} : memref<1xi1>
      %119 = arith.ori %117, %118 {unsigned} : i1
      %120 = arith.extui %119 : i1 to i32
      %121 = arith.cmpi eq, %120, %c0_i32 : i32
      scf.if %121 {
        %133 = memref.alloc() {name = "read_addr"} : memref<1xi32>
        affine.store %c0_i32, %133[%c0] {to = "read_addr", unsigned} : memref<1xi32>
        %134 = memref.alloc() {name = "_addr_105"} : memref<1xi32>
        %135 = affine.load %133[0] {from = "read_addr", unsigned} : memref<1xi32>
        affine.store %135, %134[%c0] {to = "_addr_105", unsigned} : memref<1xi32>
        %136 = memref.alloc() {name = "assert_cond_106"} : memref<1xi1>
        %137 = affine.load %134[0] {from = "_addr_105", unsigned} : memref<1xi32>
        %138 = arith.extui %137 : i32 to i34
        %139 = arith.extsi %c1_i32 : i32 to i34
        %140 = arith.addi %138, %139 : i34
        %c10_i32 = arith.constant 10 : i32
        %141 = arith.extsi %c10_i32 : i32 to i34
        %142 = arith.cmpi sle, %140, %141 : i34
        affine.store %142, %136[%c0] {to = "assert_cond_106", unsigned} : memref<1xi1>
        %143 = affine.load %136[0] {from = "assert_cond_106", unsigned} : memref<1xi1>
        %144 = arith.extui %143 : i1 to i32
        %145 = arith.cmpi eq, %144, %c0_i32 : i32
        scf.if %145 {
          %163 = affine.load %134[0] {from = "_addr_105", unsigned} : memref<1xi32>
          %164 = arith.extui %163 : i32 to i34
          %165 = arith.addi %164, %139 : i34
          hcl.print(%163, %165) {format = "\0A\0AAssertion failed {}: Sysreg Mem.read exceeds memory size: addr=%d+size=%d > 10\0A\0A", signedness = "u_"} : i32, i34
          scf.while : () -> () {
            %166 = affine.load %136[0] {from = "assert_cond_106", unsigned} : memref<1xi1>
            %167 = arith.extui %166 : i1 to i32
            %168 = arith.cmpi ne, %167, %c1_i32 : i32
            scf.condition(%168)
          } do {
            affine.store %3, %136[0] {to = "assert_cond_106", unsigned} : memref<1xi1>
            scf.yield
          }
        }
        %146 = memref.alloc() {name = "Mem.read_c"} : memref<1xi64>
        %147 = affine.load %133[0] {from = "read_addr", unsigned} : memref<1xi32>
        %148 = arith.extui %147 {unsigned} : i32 to i33
        %149 = arith.index_cast %c0 {unsigned} : index to i33
        %150 = arith.addi %148, %149 {unsigned} : i33
        %151 = arith.index_cast %150 {unsigned} : i33 to index
        %152 = memref.load %arg1[%151] {from = "sysreg", unsigned} : memref<10xi64>
        affine.store %152, %146[%c0] {to = "Mem.read_c", unsigned} : memref<1xi64>
        %153 = memref.alloc() {name = "assert_cond_107"} : memref<1xi1>
        %154 = affine.load %80[0] {from = "flags_active_56", unsigned} : memref<1xi1>
        %155 = arith.extui %154 : i1 to i32
        %156 = arith.cmpi eq, %155, %c0_i32 : i32
        affine.store %156, %153[%c0] {to = "assert_cond_107", unsigned} : memref<1xi1>
        %157 = affine.load %153[0] {from = "assert_cond_107", unsigned} : memref<1xi1>
        %158 = arith.extui %157 : i1 to i32
        %159 = arith.cmpi eq, %158, %c0_i32 : i32
        scf.if %159 {
          hcl.print(%c0_i32) {format = "\0A\0AAssertion failed {}: proc.UC: uController already/still active?\0A\0A", signedness = "_"} : i32
          scf.while : () -> () {
            %163 = affine.load %153[0] {from = "assert_cond_107", unsigned} : memref<1xi1>
            %164 = arith.extui %163 : i1 to i32
            %165 = arith.cmpi ne, %164, %c1_i32 : i32
            scf.condition(%165)
          } do {
            affine.store %3, %153[0] {to = "assert_cond_107", unsigned} : memref<1xi1>
            scf.yield
          }
        }
        affine.store %3, %80[0] {to = "flags_active_56", unsigned} : memref<1xi1>
        affine.store %3, %81[0] {to = "flags_halt_57", unsigned} : memref<1xi1>
        affine.store %3, %82[0] {to = "flags_stall_58", unsigned} : memref<1xi1>
        affine.store %3, %83[0] {to = "flags_stalled_59", unsigned} : memref<1xi1>
        affine.store %3, %84[0] {to = "flags_break_60", unsigned} : memref<1xi1>
        affine.store %3, %85[0] {to = "count_stop_61", unsigned} : memref<1xi1>
        affine.store %3, %86[0] {to = "addr_stop_62", unsigned} : memref<1xi1>
        affine.store %c0_i32, %87[0] {to = "inst_addr_63", unsigned} : memref<1xi32>
        affine.store %c0_i32, %88[0] {to = "inst_naddr_64", unsigned} : memref<1xi32>
        affine.store %c0_i32, %89[0] {to = "latency_count_65", unsigned} : memref<1xi32>
        affine.store %3, %90[0] {to = "latstalled_66", unsigned} : memref<1xi1>
        %160 = affine.load %146[0] {from = "Mem.read_c", unsigned} : memref<1xi64>
        %161 = arith.trunci %160 {unsigned} : i64 to i32
        affine.store %161, %87[0] {to = "inst_addr_63", unsigned} : memref<1xi32>
        %162 = arith.trunci %c1_i32 {unsigned} : i32 to i1
        affine.store %162, %80[0] {to = "flags_active_56", unsigned} : memref<1xi1>
      } else {
        %133 = affine.load %80[0] {from = "flags_active_56", unsigned} : memref<1xi1>
        %134 = arith.extui %133 : i1 to i32
        %135 = arith.cmpi eq, %134, %c0_i32 : i32
        scf.if %135 {
          %136 = arith.trunci %c1_i32 {unsigned} : i32 to i1
          affine.store %136, %95[0] {to = "sys_done", unsigned} : memref<1xi1>
        }
      }
      affine.store %3, %6[0] {to = "flags_stall", unsigned} : memref<1xi1>
      affine.store %3, %8[0] {to = "flags_break", unsigned} : memref<1xi1>
      affine.store %3, %9[0] {to = "count_stop", unsigned} : memref<1xi1>
      affine.store %3, %10[0] {to = "addr_stop", unsigned} : memref<1xi1>
      scf.while : () -> () {
        %true = arith.constant {unsigned} true
        %133 = affine.load %4[0] {from = "flags_active", unsigned} : memref<1xi1>
        %134 = arith.extui %133 : i1 to i32
        %135 = arith.cmpi ne, %134, %c0_i32 : i32
        %136 = arith.andi %true, %135 {unsigned} : i1
        %137 = affine.load %8[0] {from = "flags_break", unsigned} : memref<1xi1>
        %138 = arith.extui %137 : i1 to i32
        %139 = arith.cmpi eq, %138, %c0_i32 : i32
        %140 = arith.andi %136, %139 {unsigned} : i1
        scf.condition(%140)
      } do {
        %133 = memref.alloc() {name = "assert_cond_108"} : memref<1xi1>
        %134 = affine.load %14[0] {from = "latstalled", unsigned} : memref<1xi1>
        %135 = arith.extui %134 : i1 to i32
        %136 = arith.cmpi eq, %135, %c1_i32 : i32
        %137 = arith.ori %false, %136 {unsigned} : i1
        %138 = affine.load %13[0] {from = "latency_count", unsigned} : memref<1xi32>
        %139 = arith.extui %138 : i32 to i33
        %140 = arith.extsi %c0_i32 : i32 to i33
        %141 = arith.cmpi eq, %139, %140 : i33
        %142 = arith.ori %137, %141 {unsigned} : i1
        %143 = arith.extui %142 : i1 to i32
        %144 = arith.cmpi ne, %143, %c0_i32 : i32
        affine.store %144, %133[%c0] {to = "assert_cond_108", unsigned} : memref<1xi1>
        %145 = affine.load %133[0] {from = "assert_cond_108", unsigned} : memref<1xi1>
        %146 = arith.extui %145 : i1 to i32
        %147 = arith.cmpi eq, %146, %c0_i32 : i32
        scf.if %147 {
          hcl.print(%c0_i32) {format = "\0A\0AAssertion failed {}: \0A\0A", signedness = "_"} : i32
          scf.while : () -> () {
            %151 = affine.load %133[0] {from = "assert_cond_108", unsigned} : memref<1xi1>
            %152 = arith.extui %151 : i1 to i32
            %153 = arith.cmpi ne, %152, %c1_i32 : i32
            scf.condition(%153)
          } do {
            affine.store %3, %133[0] {to = "assert_cond_108", unsigned} : memref<1xi1>
            scf.yield
          }
        }
        %148 = affine.load %13[0] {from = "latency_count", unsigned} : memref<1xi32>
        %149 = arith.extui %148 : i32 to i33
        %150 = arith.cmpi eq, %149, %140 : i33
        scf.if %150 {
          %151 = memref.alloc() {name = "_cur_address"} : memref<1xi32>
          %152 = affine.load %11[0] {from = "inst_addr", unsigned} : memref<1xi32>
          affine.store %152, %151[%c0] {to = "_cur_address", unsigned} : memref<1xi32>
          %153 = affine.load %11[0] {from = "inst_addr", unsigned} : memref<1xi32>
          %c2_i32 = arith.constant 2 : i32
          %154 = arith.extui %153 : i32 to i34
          %155 = arith.extsi %c2_i32 : i32 to i34
          %156 = arith.addi %154, %155 : i34
          %157 = arith.trunci %156 {unsigned} : i34 to i32
          affine.store %157, %12[0] {to = "inst_naddr", unsigned} : memref<1xi32>
          %158 = memref.alloc() {name = "inst"} : memref<1xi64>
          %159 = arith.extsi %c0_i32 {unsigned} : i32 to i64
          affine.store %159, %158[%c0] {to = "inst", unsigned} : memref<1xi64>
          %160 = memref.alloc() {name = "read_addr_111"} : memref<1xi34>
          %161 = affine.load %11[0] {from = "inst_addr", unsigned} : memref<1xi32>
          %162 = arith.extui %161 : i32 to i34
          %163 = arith.extsi %c0_i32 : i32 to i34
          %164 = arith.addi %162, %163 : i34
          affine.store %164, %160[%c0] {to = "read_addr_111"} : memref<1xi34>
          %165 = memref.alloc() {name = "_addr_112"} : memref<1xi34>
          %166 = affine.load %160[0] {from = "read_addr_111"} : memref<1xi34>
          affine.store %166, %165[%c0] {to = "_addr_112"} : memref<1xi34>
          %167 = memref.alloc() {name = "assert_cond_113"} : memref<1xi1>
          %168 = affine.load %165[0] {from = "_addr_112"} : memref<1xi34>
          %169 = arith.extsi %168 : i34 to i35
          %170 = arith.extsi %c1_i32 : i32 to i35
          %171 = arith.addi %169, %170 : i35
          %c33554432_i32 = arith.constant 33554432 : i32
          %172 = arith.extsi %c33554432_i32 : i32 to i35
          %173 = arith.cmpi sle, %171, %172 : i35
          affine.store %173, %167[%c0] {to = "assert_cond_113", unsigned} : memref<1xi1>
          %174 = affine.load %167[0] {from = "assert_cond_113", unsigned} : memref<1xi1>
          %175 = arith.extui %174 : i1 to i32
          %176 = arith.cmpi eq, %175, %c0_i32 : i32
          scf.if %176 {
            %238 = affine.load %165[0] {from = "_addr_112"} : memref<1xi34>
            %239 = arith.extsi %238 : i34 to i35
            %240 = arith.addi %239, %170 : i35
            hcl.print(%238, %240) {format = "\0A\0AAssertion failed {}: HBM Mem.read exceeds memory size: addr=%d+size=%d > 33554432\0A\0A", signedness = "__"} : i34, i35
            scf.while : () -> () {
              %241 = affine.load %167[0] {from = "assert_cond_113", unsigned} : memref<1xi1>
              %242 = arith.extui %241 : i1 to i32
              %243 = arith.cmpi ne, %242, %c1_i32 : i32
              scf.condition(%243)
            } do {
              affine.store %3, %167[0] {to = "assert_cond_113", unsigned} : memref<1xi1>
              scf.yield
            }
          }
          %177 = memref.alloc() {name = "Mem.read_c_26"} : memref<1xi32>
          %178 = affine.load %160[0] {from = "read_addr_111"} : memref<1xi34>
          %179 = arith.extsi %178 : i34 to i35
          %180 = arith.index_cast %c0 : index to i35
          %181 = arith.addi %179, %180 : i35
          %182 = arith.index_cast %181 {unsigned} : i35 to index
          %183 = memref.load %arg0[%182] {from = "hbm", unsigned} : memref<33554432xi32>
          affine.store %183, %177[%c0] {to = "Mem.read_c_26", unsigned} : memref<1xi32>
          %c32_i32 = arith.constant 32 : i32
          %c0_i64 = arith.constant {unsigned} 0 : i64
          %184 = affine.load %177[0] {from = "Mem.read_c_26", unsigned} : memref<1xi32>
          %185 = arith.extui %184 {unsigned} : i32 to i64
          %186 = arith.ori %c0_i64, %185 {unsigned} : i64
          affine.store %186, %158[0] {to = "inst", unsigned} : memref<1xi64>
          %187 = memref.alloc() {name = "read_addr_114"} : memref<1xi34>
          %188 = affine.load %11[0] {from = "inst_addr", unsigned} : memref<1xi32>
          %189 = arith.extui %188 : i32 to i34
          %190 = arith.extsi %c1_i32 : i32 to i34
          %191 = arith.addi %189, %190 : i34
          affine.store %191, %187[%c0] {to = "read_addr_114"} : memref<1xi34>
          %192 = memref.alloc() {name = "_addr_115"} : memref<1xi34>
          %193 = affine.load %187[0] {from = "read_addr_114"} : memref<1xi34>
          affine.store %193, %192[%c0] {to = "_addr_115"} : memref<1xi34>
          %194 = memref.alloc() {name = "assert_cond_116"} : memref<1xi1>
          %195 = affine.load %192[0] {from = "_addr_115"} : memref<1xi34>
          %196 = arith.extsi %195 : i34 to i35
          %197 = arith.addi %196, %170 : i35
          %198 = arith.cmpi sle, %197, %172 : i35
          affine.store %198, %194[%c0] {to = "assert_cond_116", unsigned} : memref<1xi1>
          %199 = affine.load %194[0] {from = "assert_cond_116", unsigned} : memref<1xi1>
          %200 = arith.extui %199 : i1 to i32
          %201 = arith.cmpi eq, %200, %c0_i32 : i32
          scf.if %201 {
            %238 = affine.load %192[0] {from = "_addr_115"} : memref<1xi34>
            %239 = arith.extsi %238 : i34 to i35
            %240 = arith.addi %239, %170 : i35
            hcl.print(%238, %240) {format = "\0A\0AAssertion failed {}: HBM Mem.read exceeds memory size: addr=%d+size=%d > 33554432\0A\0A", signedness = "__"} : i34, i35
            scf.while : () -> () {
              %241 = affine.load %194[0] {from = "assert_cond_116", unsigned} : memref<1xi1>
              %242 = arith.extui %241 : i1 to i32
              %243 = arith.cmpi ne, %242, %c1_i32 : i32
              scf.condition(%243)
            } do {
              affine.store %3, %194[0] {to = "assert_cond_116", unsigned} : memref<1xi1>
              scf.yield
            }
          }
          %202 = memref.alloc() {name = "Mem.read_c_27"} : memref<1xi32>
          %203 = affine.load %187[0] {from = "read_addr_114"} : memref<1xi34>
          %204 = arith.extsi %203 : i34 to i35
          %205 = arith.addi %204, %180 : i35
          %206 = arith.index_cast %205 {unsigned} : i35 to index
          %207 = memref.load %arg0[%206] {from = "hbm", unsigned} : memref<33554432xi32>
          affine.store %207, %202[%c0] {to = "Mem.read_c_27", unsigned} : memref<1xi32>
          %208 = affine.load %202[0] {from = "Mem.read_c_27", unsigned} : memref<1xi32>
          %209 = arith.extui %208 {unsigned} : i32 to i64
          %210 = arith.ori %c0_i64, %209 {unsigned} : i64
          affine.store %210, %158[0] {to = "inst", unsigned} : memref<1xi64>
          hcl.print(%c0_i32) {format = "FETCH ce0.mf.UC inst=0x", signedness = "_"} : i32
          %211 = affine.load %158[0] {from = "inst", unsigned} : memref<1xi64>
          %c32 = arith.constant {unsigned} 32 : index
          %c63 = arith.constant {unsigned} 63 : index
          %212 = hcl.get_slice(%211 : i64, %c63, %c32) -> i32
          hcl.print(%212) {format = "%d:", signedness = "u"} : i32
          %213 = affine.load %158[0] {from = "inst", unsigned} : memref<1xi64>
          %c0_0 = arith.constant {unsigned} 0 : index
          %c31 = arith.constant {unsigned} 31 : index
          %214 = hcl.get_slice(%213 : i64, %c31, %c0_0) -> i32
          hcl.print(%214) {format = "%d:", signedness = "u"} : i32
          hcl.print(%c0_i32) {format = "\0A", signedness = "_"} : i32
          %215 = memref.alloc() {name = "inst_lat"} : memref<1xi32>
          affine.store %c0_i32, %215[%c0] {to = "inst_lat", unsigned} : memref<1xi32>
          %216 = memref.alloc() {name = "decode_inst"} : memref<1xi64>
          %217 = affine.load %158[0] {from = "inst", unsigned} : memref<1xi64>
          affine.store %217, %216[%c0] {to = "decode_inst", unsigned} : memref<1xi64>
          %218 = memref.alloc() {name = "inst_id"} : memref<1xi16>
          %219 = arith.trunci %c0_i32 {unsigned} : i32 to i16
          affine.store %219, %218[%c0] {to = "inst_id", unsigned} : memref<1xi16>
          %220 = memref.alloc() {name = "dec_inst_mload"} : memref<1x!hcl.struct<i3, i11, i21, i29>>
          %221 = affine.load %216[0] {from = "decode_inst", unsigned} : memref<1xi64>
          %222 = hcl.int_to_struct(%221) {unsigned} : i64 -> <i3, i11, i21, i29>
          affine.store %222, %220[%c0] {to = "dec_inst_mload"} : memref<1x!hcl.struct<i3, i11, i21, i29>>
          %true = arith.constant {unsigned} true
          %223 = affine.load %220[0] {from = "dec_inst_mload"} : memref<1x!hcl.struct<i3, i11, i21, i29>>
          %224 = hcl.struct_get %223[0] : <i3, i11, i21, i29> -> i3
          %225 = arith.cmpi eq, %224, %24 {unsigned} : i3
          %226 = arith.andi %true, %225 {unsigned} : i1
          scf.if %226 {
            affine.store %219, %218[0] {to = "inst_id", unsigned} : memref<1xi16>
            affine.store %c1_i32, %215[0] {to = "inst_lat", unsigned} : memref<1xi32>
          } else {
            %238 = memref.alloc() {name = "dec_inst_mstore"} : memref<1x!hcl.struct<i3, i11, i21, i29>>
            %239 = affine.load %216[0] {from = "decode_inst", unsigned} : memref<1xi64>
            %240 = hcl.int_to_struct(%239) {unsigned} : i64 -> <i3, i11, i21, i29>
            affine.store %240, %238[%c0] {to = "dec_inst_mstore"} : memref<1x!hcl.struct<i3, i11, i21, i29>>
            %241 = affine.load %238[0] {from = "dec_inst_mstore"} : memref<1x!hcl.struct<i3, i11, i21, i29>>
            %242 = hcl.struct_get %241[0] : <i3, i11, i21, i29> -> i3
            %243 = arith.trunci %c1_i32 {unsigned} : i32 to i3
            %244 = arith.cmpi eq, %242, %243 {unsigned} : i3
            %245 = arith.andi %true, %244 {unsigned} : i1
            scf.if %245 {
              %246 = arith.trunci %c1_i32 {unsigned} : i32 to i16
              affine.store %246, %218[0] {to = "inst_id", unsigned} : memref<1xi16>
              affine.store %c1_i32, %215[0] {to = "inst_lat", unsigned} : memref<1xi32>
            } else {
              %246 = memref.alloc() {name = "dec_inst_msyncc"} : memref<1x!hcl.struct<i3, i32, i15, i14>>
              %247 = affine.load %216[0] {from = "decode_inst", unsigned} : memref<1xi64>
              %248 = hcl.int_to_struct(%247) {unsigned} : i64 -> <i3, i32, i15, i14>
              affine.store %248, %246[%c0] {to = "dec_inst_msyncc"} : memref<1x!hcl.struct<i3, i32, i15, i14>>
              %249 = affine.load %246[0] {from = "dec_inst_msyncc"} : memref<1x!hcl.struct<i3, i32, i15, i14>>
              %250 = hcl.struct_get %249[0] : <i3, i32, i15, i14> -> i3
              %251 = arith.trunci %c2_i32 {unsigned} : i32 to i3
              %252 = arith.cmpi eq, %250, %251 {unsigned} : i3
              %253 = arith.andi %true, %252 {unsigned} : i1
              scf.if %253 {
                %254 = arith.trunci %c2_i32 {unsigned} : i32 to i16
                affine.store %254, %218[0] {to = "inst_id", unsigned} : memref<1xi16>
                affine.store %c1_i32, %215[0] {to = "inst_lat", unsigned} : memref<1xi32>
              } else {
                %254 = memref.alloc() {name = "dec_inst_mexit"} : memref<1x!hcl.struct<i3, i61>>
                %255 = affine.load %216[0] {from = "decode_inst", unsigned} : memref<1xi64>
                %256 = hcl.int_to_struct(%255) {unsigned} : i64 -> <i3, i61>
                affine.store %256, %254[%c0] {to = "dec_inst_mexit"} : memref<1x!hcl.struct<i3, i61>>
                %257 = affine.load %254[0] {from = "dec_inst_mexit"} : memref<1x!hcl.struct<i3, i61>>
                %258 = hcl.struct_get %257[0] : <i3, i61> -> i3
                %c3_i32 = arith.constant 3 : i32
                %259 = arith.trunci %c3_i32 {unsigned} : i32 to i3
                %260 = arith.cmpi eq, %258, %259 {unsigned} : i3
                %261 = arith.andi %true, %260 {unsigned} : i1
                scf.if %261 {
                  %262 = arith.trunci %c3_i32 {unsigned} : i32 to i16
                  affine.store %262, %218[0] {to = "inst_id", unsigned} : memref<1xi16>
                  affine.store %c1_i32, %215[0] {to = "inst_lat", unsigned} : memref<1xi32>
                } else {
                  %262 = memref.alloc() {name = "assert_cond_124"} : memref<1xi1>
                  affine.store %3, %262[%c0] {to = "assert_cond_124", unsigned} : memref<1xi1>
                  %263 = affine.load %262[0] {from = "assert_cond_124", unsigned} : memref<1xi1>
                  %264 = arith.extui %263 : i1 to i32
                  %265 = arith.cmpi eq, %264, %c0_i32 : i32
                  scf.if %265 {
                    %267 = affine.load %216[0] {from = "decode_inst", unsigned} : memref<1xi64>
                    %268 = affine.load %151[0] {from = "_cur_address", unsigned} : memref<1xi32>
                    hcl.print(%267, %268) {format = "\0A\0AAssertion failed {}: \0A\0Ace0.mf.UC.decode Invalid instruction (%d) at address %d\0A\0A\0A", signedness = "uu"} : i64, i32
                    scf.while : () -> () {
                      %269 = affine.load %262[0] {from = "assert_cond_124", unsigned} : memref<1xi1>
                      %270 = arith.extui %269 : i1 to i32
                      %271 = arith.cmpi ne, %270, %c1_i32 : i32
                      scf.condition(%271)
                    } do {
                      affine.store %3, %262[0] {to = "assert_cond_124", unsigned} : memref<1xi1>
                      scf.yield
                    }
                  }
                  %c4_i32 = arith.constant 4 : i32
                  %266 = arith.trunci %c4_i32 {unsigned} : i32 to i16
                  affine.store %266, %218[0] {to = "inst_id", unsigned} : memref<1xi16>
                }
              }
            }
          }
          %227 = affine.load %215[0] {from = "inst_lat", unsigned} : memref<1xi32>
          %228 = arith.extui %227 : i32 to i33
          %229 = arith.extsi %c1_i32 : i32 to i33
          %230 = arith.cmpi sle, %228, %229 : i33
          %231 = arith.ori %false, %230 {unsigned} : i1
          %232 = affine.load %14[0] {from = "latstalled", unsigned} : memref<1xi1>
          %233 = arith.extui %232 : i1 to i32
          %234 = arith.cmpi eq, %233, %c1_i32 : i32
          %235 = arith.ori %231, %234 {unsigned} : i1
          %236 = arith.extui %235 : i1 to i32
          %237 = arith.cmpi ne, %236, %c0_i32 : i32
          scf.if %237 {
            %238 = memref.alloc() {name = "execute_inst"} : memref<1xi64>
            %239 = affine.load %158[0] {from = "inst", unsigned} : memref<1xi64>
            affine.store %239, %238[%c0] {to = "execute_inst", unsigned} : memref<1xi64>
            %240 = affine.load %218[0] {from = "inst_id", unsigned} : memref<1xi16>
            %241 = arith.extui %240 : i16 to i32
            %242 = arith.cmpi eq, %241, %c0_i32 : i32
            scf.if %242 {
              %249 = memref.alloc() {name = "exe_inst_ce0.mf.UC_mload"} : memref<1x!hcl.struct<i3, i11, i21, i29>>
              %250 = affine.load %238[0] {from = "execute_inst", unsigned} : memref<1xi64>
              %251 = hcl.int_to_struct(%250) {unsigned} : i64 -> <i3, i11, i21, i29>
              affine.store %251, %249[%c0] {to = "exe_inst_ce0.mf.UC_mload"} : memref<1x!hcl.struct<i3, i11, i21, i29>>
              hcl.print(%c0_i32) {format = "                    ce0.mf.UC ", signedness = "_"} : i32
              %252 = affine.load %151[0] {from = "_cur_address", unsigned} : memref<1xi32>
              hcl.print(%252) {format = "ip=%d ", signedness = "u"} : i32
              %253 = affine.load %249[0] {from = "exe_inst_ce0.mf.UC_mload"} : memref<1x!hcl.struct<i3, i11, i21, i29>>
              %254 = hcl.struct_get %253[1] : <i3, i11, i21, i29> -> i11
              %255 = hcl.struct_get %253[2] : <i3, i11, i21, i29> -> i21
              hcl.print(%254, %255) {format = "mload spadaddr=%d hbmaddr=%d", signedness = "uu"} : i11, i21
              hcl.print(%c0_i32) {format = "    \0A", signedness = "_"} : i32
              %256 = memref.alloc() {name = "sa"} : memref<1xi32>
              %257 = affine.load %249[0] {from = "exe_inst_ce0.mf.UC_mload"} : memref<1x!hcl.struct<i3, i11, i21, i29>>
              %258 = hcl.struct_get %257[1] : <i3, i11, i21, i29> -> i11
              %259 = arith.extui %258 {unsigned} : i11 to i32
              affine.store %259, %256[%c0] {to = "sa", unsigned} : memref<1xi32>
              %c0_i32_1 = arith.constant {unsigned} 0 : i32
              affine.store %c0_i32_1, %256[0] {to = "sa", unsigned} : memref<1xi32>
              %260 = memref.alloc() {name = "ha"} : memref<1xi32>
              %261 = affine.load %249[0] {from = "exe_inst_ce0.mf.UC_mload"} : memref<1x!hcl.struct<i3, i11, i21, i29>>
              %262 = hcl.struct_get %261[2] : <i3, i11, i21, i29> -> i21
              %263 = arith.extui %262 {unsigned} : i21 to i32
              affine.store %263, %260[%c0] {to = "ha", unsigned} : memref<1xi32>
              affine.store %c0_i32_1, %260[0] {to = "ha", unsigned} : memref<1xi32>
              %264 = memref.alloc() {name = "count_129"} : memref<1xi32>
              %c8192_i32 = arith.constant 8192 : i32
              affine.store %c8192_i32, %264[%c0] {to = "count_129", unsigned} : memref<1xi32>
              %265 = memref.alloc() {name = "src_addr_130"} : memref<1xi32>
              %266 = affine.load %260[0] {from = "ha", unsigned} : memref<1xi32>
              affine.store %266, %265[%c0] {to = "src_addr_130", unsigned} : memref<1xi32>
              %267 = memref.alloc() {name = "dst_addr_131"} : memref<1xi32>
              %268 = affine.load %256[0] {from = "sa", unsigned} : memref<1xi32>
              affine.store %268, %267[%c0] {to = "dst_addr_131", unsigned} : memref<1xi32>
              %269 = memref.alloc() {name = "_addr_132"} : memref<1xi32>
              %270 = affine.load %265[0] {from = "src_addr_130", unsigned} : memref<1xi32>
              affine.store %270, %269[%c0] {to = "_addr_132", unsigned} : memref<1xi32>
              %271 = memref.alloc() {name = "assert_cond_133"} : memref<1xi1>
              %272 = affine.load %269[0] {from = "_addr_132", unsigned} : memref<1xi32>
              %273 = affine.load %264[0] {from = "count_129", unsigned} : memref<1xi32>
              %274 = arith.extui %272 {unsigned} : i32 to i33
              %275 = arith.extui %273 {unsigned} : i32 to i33
              %276 = arith.addi %274, %275 {unsigned} : i33
              %277 = arith.extui %276 : i33 to i34
              %278 = arith.extsi %c33554432_i32 : i32 to i34
              %279 = arith.cmpi sle, %277, %278 : i34
              affine.store %279, %271[%c0] {to = "assert_cond_133", unsigned} : memref<1xi1>
              %280 = affine.load %271[0] {from = "assert_cond_133", unsigned} : memref<1xi1>
              %281 = arith.extui %280 : i1 to i32
              %282 = arith.cmpi eq, %281, %c0_i32 : i32
              scf.if %282 {
                %285 = affine.load %269[0] {from = "_addr_132", unsigned} : memref<1xi32>
                %286 = affine.load %264[0] {from = "count_129", unsigned} : memref<1xi32>
                %287 = arith.extui %285 {unsigned} : i32 to i33
                %288 = arith.extui %286 {unsigned} : i32 to i33
                %289 = arith.addi %287, %288 {unsigned} : i33
                hcl.print(%285, %289) {format = "\0A\0AAssertion failed {}: HBM Mem.copyto exceeds memory size: addr=%d+size=%d > 33554432\0A\0A", signedness = "uu"} : i32, i33
                scf.while : () -> () {
                  %290 = affine.load %271[0] {from = "assert_cond_133", unsigned} : memref<1xi1>
                  %291 = arith.extui %290 : i1 to i32
                  %292 = arith.cmpi ne, %291, %c1_i32 : i32
                  scf.condition(%292)
                } do {
                  affine.store %3, %271[0] {to = "assert_cond_133", unsigned} : memref<1xi1>
                  scf.yield
                }
              }
              %283 = affine.load %264[0] {from = "count_129", unsigned} : memref<1xi32>
              %284 = arith.index_cast %283 {unsigned} : i32 to index
              %c1 = arith.constant {unsigned} 1 : index
              scf.for %arg2 = %c0_0 to %284 step %c1 {
                %285 = affine.load %265[0] {from = "src_addr_130", unsigned} : memref<1xi32>
                %286 = arith.extui %285 {unsigned} : i32 to i33
                %287 = arith.index_cast %arg2 {unsigned} : index to i33
                %288 = arith.addi %286, %287 {unsigned} : i33
                %289 = arith.index_cast %288 {unsigned} : i33 to index
                %290 = memref.load %arg0[%289] {from = "hbm", unsigned} : memref<33554432xi32>
                %291 = affine.load %267[0] {from = "dst_addr_131", unsigned} : memref<1xi32>
                %292 = arith.extui %291 {unsigned} : i32 to i33
                %293 = arith.addi %292, %287 {unsigned} : i33
                %294 = arith.index_cast %293 {unsigned} : i33 to index
                memref.store %290, %0[%294] {to = "SPAD.alloc_c", unsigned} : memref<33554432xi32>
              } {loop_name = "i", op_name = "copyN_28"}
            } else {
              %249 = affine.load %218[0] {from = "inst_id", unsigned} : memref<1xi16>
              %250 = arith.extui %249 : i16 to i32
              %251 = arith.cmpi eq, %250, %c1_i32 : i32
              scf.if %251 {
                %252 = memref.alloc() {name = "exe_inst_ce0.mf.UC_mstore"} : memref<1x!hcl.struct<i3, i11, i21, i29>>
                %253 = affine.load %238[0] {from = "execute_inst", unsigned} : memref<1xi64>
                %254 = hcl.int_to_struct(%253) {unsigned} : i64 -> <i3, i11, i21, i29>
                affine.store %254, %252[%c0] {to = "exe_inst_ce0.mf.UC_mstore"} : memref<1x!hcl.struct<i3, i11, i21, i29>>
                hcl.print(%c0_i32) {format = "                    ce0.mf.UC ", signedness = "_"} : i32
                %255 = affine.load %151[0] {from = "_cur_address", unsigned} : memref<1xi32>
                hcl.print(%255) {format = "ip=%d ", signedness = "u"} : i32
                %256 = affine.load %252[0] {from = "exe_inst_ce0.mf.UC_mstore"} : memref<1x!hcl.struct<i3, i11, i21, i29>>
                %257 = hcl.struct_get %256[1] : <i3, i11, i21, i29> -> i11
                %258 = hcl.struct_get %256[2] : <i3, i11, i21, i29> -> i21
                hcl.print(%257, %258) {format = "mstore spadaddr=%d hbmaddr=%d", signedness = "uu"} : i11, i21
                hcl.print(%c0_i32) {format = "    \0A", signedness = "_"} : i32
                %259 = memref.alloc() {name = "sa_135"} : memref<1xi32>
                %260 = affine.load %252[0] {from = "exe_inst_ce0.mf.UC_mstore"} : memref<1x!hcl.struct<i3, i11, i21, i29>>
                %261 = hcl.struct_get %260[1] : <i3, i11, i21, i29> -> i11
                %262 = arith.extui %261 {unsigned} : i11 to i32
                affine.store %262, %259[%c0] {to = "sa_135", unsigned} : memref<1xi32>
                %c0_i32_1 = arith.constant {unsigned} 0 : i32
                affine.store %c0_i32_1, %259[0] {to = "sa_135", unsigned} : memref<1xi32>
                %263 = memref.alloc() {name = "ha_136"} : memref<1xi32>
                %264 = affine.load %252[0] {from = "exe_inst_ce0.mf.UC_mstore"} : memref<1x!hcl.struct<i3, i11, i21, i29>>
                %265 = hcl.struct_get %264[2] : <i3, i11, i21, i29> -> i21
                %266 = arith.extui %265 {unsigned} : i21 to i32
                affine.store %266, %263[%c0] {to = "ha_136", unsigned} : memref<1xi32>
                affine.store %c0_i32_1, %263[0] {to = "ha_136", unsigned} : memref<1xi32>
                %267 = memref.alloc() {name = "count_137"} : memref<1xi32>
                %c8192_i32 = arith.constant 8192 : i32
                affine.store %c8192_i32, %267[%c0] {to = "count_137", unsigned} : memref<1xi32>
                %268 = memref.alloc() {name = "src_addr_138"} : memref<1xi32>
                %269 = affine.load %259[0] {from = "sa_135", unsigned} : memref<1xi32>
                affine.store %269, %268[%c0] {to = "src_addr_138", unsigned} : memref<1xi32>
                %270 = memref.alloc() {name = "dst_addr_139"} : memref<1xi32>
                %271 = affine.load %263[0] {from = "ha_136", unsigned} : memref<1xi32>
                affine.store %271, %270[%c0] {to = "dst_addr_139", unsigned} : memref<1xi32>
                %272 = memref.alloc() {name = "_addr_140"} : memref<1xi32>
                %273 = affine.load %268[0] {from = "src_addr_138", unsigned} : memref<1xi32>
                affine.store %273, %272[%c0] {to = "_addr_140", unsigned} : memref<1xi32>
                %274 = memref.alloc() {name = "assert_cond_141"} : memref<1xi1>
                %275 = affine.load %272[0] {from = "_addr_140", unsigned} : memref<1xi32>
                %276 = affine.load %267[0] {from = "count_137", unsigned} : memref<1xi32>
                %277 = arith.extui %275 {unsigned} : i32 to i33
                %278 = arith.extui %276 {unsigned} : i32 to i33
                %279 = arith.addi %277, %278 {unsigned} : i33
                %280 = arith.extui %279 : i33 to i34
                %281 = arith.extsi %c33554432_i32 : i32 to i34
                %282 = arith.cmpi sle, %280, %281 : i34
                affine.store %282, %274[%c0] {to = "assert_cond_141", unsigned} : memref<1xi1>
                %283 = affine.load %274[0] {from = "assert_cond_141", unsigned} : memref<1xi1>
                %284 = arith.extui %283 : i1 to i32
                %285 = arith.cmpi eq, %284, %c0_i32 : i32
                scf.if %285 {
                  %288 = affine.load %272[0] {from = "_addr_140", unsigned} : memref<1xi32>
                  %289 = affine.load %267[0] {from = "count_137", unsigned} : memref<1xi32>
                  %290 = arith.extui %288 {unsigned} : i32 to i33
                  %291 = arith.extui %289 {unsigned} : i32 to i33
                  %292 = arith.addi %290, %291 {unsigned} : i33
                  hcl.print(%288, %292) {format = "\0A\0AAssertion failed {}: SPAD Mem.copyto exceeds memory size: addr=%d+size=%d > 33554432\0A\0A", signedness = "uu"} : i32, i33
                  scf.while : () -> () {
                    %293 = affine.load %274[0] {from = "assert_cond_141", unsigned} : memref<1xi1>
                    %294 = arith.extui %293 : i1 to i32
                    %295 = arith.cmpi ne, %294, %c1_i32 : i32
                    scf.condition(%295)
                  } do {
                    affine.store %3, %274[0] {to = "assert_cond_141", unsigned} : memref<1xi1>
                    scf.yield
                  }
                }
                %286 = affine.load %267[0] {from = "count_137", unsigned} : memref<1xi32>
                %287 = arith.index_cast %286 {unsigned} : i32 to index
                %c1 = arith.constant {unsigned} 1 : index
                scf.for %arg2 = %c0_0 to %287 step %c1 {
                  %288 = affine.load %268[0] {from = "src_addr_138", unsigned} : memref<1xi32>
                  %289 = arith.extui %288 {unsigned} : i32 to i33
                  %290 = arith.index_cast %arg2 {unsigned} : index to i33
                  %291 = arith.addi %289, %290 {unsigned} : i33
                  %292 = arith.index_cast %291 {unsigned} : i33 to index
                  %293 = memref.load %0[%292] {from = "SPAD.alloc_c", unsigned} : memref<33554432xi32>
                  %294 = affine.load %270[0] {from = "dst_addr_139", unsigned} : memref<1xi32>
                  %295 = arith.extui %294 {unsigned} : i32 to i33
                  %296 = arith.addi %295, %290 {unsigned} : i33
                  %297 = arith.index_cast %296 {unsigned} : i33 to index
                  memref.store %293, %arg0[%297] {to = "hbm", unsigned} : memref<33554432xi32>
                } {loop_name = "i", op_name = "copyN_29"}
              } else {
                %252 = affine.load %218[0] {from = "inst_id", unsigned} : memref<1xi16>
                %253 = arith.extui %252 : i16 to i32
                %254 = arith.cmpi eq, %253, %c2_i32 : i32
                scf.if %254 {
                  %255 = memref.alloc() {name = "exe_inst_ce0.mf.UC_msyncc"} : memref<1x!hcl.struct<i3, i32, i15, i14>>
                  %256 = affine.load %238[0] {from = "execute_inst", unsigned} : memref<1xi64>
                  %257 = hcl.int_to_struct(%256) {unsigned} : i64 -> <i3, i32, i15, i14>
                  affine.store %257, %255[%c0] {to = "exe_inst_ce0.mf.UC_msyncc"} : memref<1x!hcl.struct<i3, i32, i15, i14>>
                  %258 = affine.load %38[0] {from = "tele_inst_count_32", unsigned} : memref<1xi32>
                  %259 = affine.load %255[0] {from = "exe_inst_ce0.mf.UC_msyncc"} : memref<1x!hcl.struct<i3, i32, i15, i14>>
                  %260 = hcl.struct_get %259[2] : <i3, i32, i15, i14> -> i15
                  %261 = arith.extui %260 {unsigned} : i15 to i32
                  %262 = arith.cmpi ule, %258, %261 {unsigned} : i32
                  scf.if %262 {
                    %263 = affine.load %7[0] {from = "flags_stalled", unsigned} : memref<1xi1>
                    %264 = arith.extui %263 : i1 to i32
                    %265 = arith.cmpi eq, %264, %c0_i32 : i32
                    scf.if %265 {
                      hcl.print(%c0_i32) {format = "                    ce0.mf.UC ", signedness = "_"} : i32
                      %271 = affine.load %151[0] {from = "_cur_address", unsigned} : memref<1xi32>
                      hcl.print(%271) {format = "ip=%d ", signedness = "u"} : i32
                      %272 = affine.load %255[0] {from = "exe_inst_ce0.mf.UC_msyncc"} : memref<1x!hcl.struct<i3, i32, i15, i14>>
                      %273 = hcl.struct_get %272[2] : <i3, i32, i15, i14> -> i15
                      hcl.print(%273) {format = "msyncc cinstqaddr=%d", signedness = "u"} : i15
                      hcl.print(%c0_i32) {format = "    <stall>\0A", signedness = "_"} : i32
                    }
                    %266 = affine.load %16[0] {from = "tele_stall_count", unsigned} : memref<1xi32>
                    %267 = arith.extui %266 : i32 to i34
                    %268 = arith.addi %267, %190 : i34
                    %269 = arith.trunci %268 {unsigned} : i34 to i32
                    affine.store %269, %16[0] {to = "tele_stall_count", unsigned} : memref<1xi32>
                    %270 = arith.trunci %c1_i32 {unsigned} : i32 to i1
                    affine.store %270, %6[0] {to = "flags_stall", unsigned} : memref<1xi1>
                    affine.store %270, %7[0] {to = "flags_stalled", unsigned} : memref<1xi1>
                    affine.store %270, %8[0] {to = "flags_break", unsigned} : memref<1xi1>
                  } else {
                    hcl.print(%c0_i32) {format = "                    ce0.mf.UC ", signedness = "_"} : i32
                    %263 = affine.load %151[0] {from = "_cur_address", unsigned} : memref<1xi32>
                    hcl.print(%263) {format = "ip=%d ", signedness = "u"} : i32
                    %264 = affine.load %255[0] {from = "exe_inst_ce0.mf.UC_msyncc"} : memref<1x!hcl.struct<i3, i32, i15, i14>>
                    %265 = hcl.struct_get %264[2] : <i3, i32, i15, i14> -> i15
                    hcl.print(%265) {format = "msyncc cinstqaddr=%d", signedness = "u"} : i15
                    hcl.print(%c0_i32) {format = "    \0A", signedness = "_"} : i32
                  }
                } else {
                  %255 = affine.load %218[0] {from = "inst_id", unsigned} : memref<1xi16>
                  %c3_i32 = arith.constant 3 : i32
                  %256 = arith.extui %255 : i16 to i32
                  %257 = arith.cmpi eq, %256, %c3_i32 : i32
                  scf.if %257 {
                    %258 = memref.alloc() {name = "exe_inst_ce0.mf.UC_mexit"} : memref<1x!hcl.struct<i3, i61>>
                    %259 = affine.load %238[0] {from = "execute_inst", unsigned} : memref<1xi64>
                    %260 = hcl.int_to_struct(%259) {unsigned} : i64 -> <i3, i61>
                    affine.store %260, %258[%c0] {to = "exe_inst_ce0.mf.UC_mexit"} : memref<1x!hcl.struct<i3, i61>>
                    hcl.print(%c0_i32) {format = "                    ce0.mf.UC ", signedness = "_"} : i32
                    %261 = affine.load %151[0] {from = "_cur_address", unsigned} : memref<1xi32>
                    hcl.print(%261) {format = "ip=%d ", signedness = "u"} : i32
                    hcl.print(%c0_i32) {format = "mexit", signedness = "_"} : i32
                    hcl.print(%c0_i32) {format = "    \0A", signedness = "_"} : i32
                    %262 = arith.trunci %c1_i32 {unsigned} : i32 to i1
                    affine.store %262, %5[0] {to = "flags_halt", unsigned} : memref<1xi1>
                    affine.store %3, %4[0] {to = "flags_active", unsigned} : memref<1xi1>
                    affine.store %262, %8[0] {to = "flags_break", unsigned} : memref<1xi1>
                  } else {
                    hcl.print(%c0_i32) {format = "Invalid instruction : 0x", signedness = "_"} : i32
                    %258 = affine.load %238[0] {from = "execute_inst", unsigned} : memref<1xi64>
                    %259 = hcl.get_slice(%258 : i64, %c63, %c32) -> i32
                    hcl.print(%259) {format = "%d:", signedness = "u"} : i32
                    %260 = affine.load %238[0] {from = "execute_inst", unsigned} : memref<1xi64>
                    %261 = hcl.get_slice(%260 : i64, %c31, %c0_0) -> i32
                    hcl.print(%261) {format = "%d:", signedness = "u"} : i32
                    hcl.print(%c0_i32) {format = "\0A", signedness = "_"} : i32
                    %262 = memref.alloc() {name = "assert_cond_144"} : memref<1xi1>
                    affine.store %3, %262[%c0] {to = "assert_cond_144", unsigned} : memref<1xi1>
                    %263 = affine.load %262[0] {from = "assert_cond_144", unsigned} : memref<1xi1>
                    %264 = arith.extui %263 : i1 to i32
                    %265 = arith.cmpi eq, %264, %c0_i32 : i32
                    scf.if %265 {
                      hcl.print(%c0_i32) {format = "\0A\0AAssertion failed {}: ce0.mf.UC.decode Invalid instruction\0A\0A", signedness = "_"} : i32
                      scf.while : () -> () {
                        %266 = affine.load %262[0] {from = "assert_cond_144", unsigned} : memref<1xi1>
                        %267 = arith.extui %266 : i1 to i32
                        %268 = arith.cmpi ne, %267, %c1_i32 : i32
                        scf.condition(%268)
                      } do {
                        affine.store %3, %262[0] {to = "assert_cond_144", unsigned} : memref<1xi1>
                        scf.yield
                      }
                    }
                  }
                }
              }
            }
            affine.store %3, %14[0] {to = "latstalled", unsigned} : memref<1xi1>
            %243 = affine.load %215[0] {from = "inst_lat", unsigned} : memref<1xi32>
            %244 = arith.extui %243 : i32 to i33
            %245 = arith.cmpi ne, %244, %140 : i33
            scf.if %245 {
              %249 = arith.trunci %c1_i32 {unsigned} : i32 to i1
              affine.store %249, %8[0] {to = "flags_break", unsigned} : memref<1xi1>
            }
            %246 = affine.load %6[0] {from = "flags_stall", unsigned} : memref<1xi1>
            %247 = arith.extui %246 : i1 to i32
            %248 = arith.cmpi eq, %247, %c0_i32 : i32
            scf.if %248 {
              %249 = affine.load %15[0] {from = "tele_inst_count", unsigned} : memref<1xi32>
              %250 = arith.extui %249 : i32 to i34
              %251 = arith.addi %250, %190 : i34
              %252 = arith.trunci %251 {unsigned} : i34 to i32
              affine.store %252, %15[0] {to = "tele_inst_count", unsigned} : memref<1xi32>
              %253 = affine.load %12[0] {from = "inst_naddr", unsigned} : memref<1xi32>
              affine.store %253, %11[0] {to = "inst_addr", unsigned} : memref<1xi32>
              affine.store %3, %7[0] {to = "flags_stalled", unsigned} : memref<1xi1>
            }
          } else {
            %238 = affine.load %215[0] {from = "inst_lat", unsigned} : memref<1xi32>
            %239 = arith.extui %238 : i32 to i34
            %240 = arith.subi %239, %155 : i34
            %241 = arith.trunci %240 {unsigned} : i34 to i32
            affine.store %241, %13[0] {to = "latency_count", unsigned} : memref<1xi32>
            %242 = affine.load %17[0] {from = "tele_latstall_count", unsigned} : memref<1xi32>
            %243 = arith.extui %242 : i32 to i34
            %244 = arith.addi %243, %190 : i34
            %245 = arith.trunci %244 {unsigned} : i34 to i32
            affine.store %245, %17[0] {to = "tele_latstall_count", unsigned} : memref<1xi32>
            %246 = arith.trunci %c1_i32 {unsigned} : i32 to i1
            affine.store %246, %14[0] {to = "latstalled", unsigned} : memref<1xi1>
            affine.store %246, %8[0] {to = "flags_break", unsigned} : memref<1xi1>
          }
        } else {
          %151 = memref.alloc() {name = "assert_cond_145"} : memref<1xi1>
          %152 = affine.load %14[0] {from = "latstalled", unsigned} : memref<1xi1>
          %153 = arith.extui %152 : i1 to i32
          %154 = arith.cmpi eq, %153, %c1_i32 : i32
          affine.store %154, %151[%c0] {to = "assert_cond_145", unsigned} : memref<1xi1>
          %155 = affine.load %151[0] {from = "assert_cond_145", unsigned} : memref<1xi1>
          %156 = arith.extui %155 : i1 to i32
          %157 = arith.cmpi eq, %156, %c0_i32 : i32
          scf.if %157 {
            hcl.print(%c0_i32) {format = "\0A\0AAssertion failed {}: latency countdown but not latstalled?\0A\0A", signedness = "_"} : i32
            scf.while : () -> () {
              %168 = affine.load %151[0] {from = "assert_cond_145", unsigned} : memref<1xi1>
              %169 = arith.extui %168 : i1 to i32
              %170 = arith.cmpi ne, %169, %c1_i32 : i32
              scf.condition(%170)
            } do {
              affine.store %3, %151[0] {to = "assert_cond_145", unsigned} : memref<1xi1>
              scf.yield
            }
          }
          %158 = affine.load %13[0] {from = "latency_count", unsigned} : memref<1xi32>
          %159 = arith.extui %158 : i32 to i34
          %160 = arith.extsi %c1_i32 : i32 to i34
          %161 = arith.subi %159, %160 : i34
          %162 = arith.trunci %161 {unsigned} : i34 to i32
          affine.store %162, %13[0] {to = "latency_count", unsigned} : memref<1xi32>
          %163 = affine.load %17[0] {from = "tele_latstall_count", unsigned} : memref<1xi32>
          %164 = arith.extui %163 : i32 to i34
          %165 = arith.addi %164, %160 : i34
          %166 = arith.trunci %165 {unsigned} : i34 to i32
          affine.store %166, %17[0] {to = "tele_latstall_count", unsigned} : memref<1xi32>
          %167 = arith.trunci %c1_i32 {unsigned} : i32 to i1
          affine.store %167, %14[0] {to = "latstalled", unsigned} : memref<1xi1>
          affine.store %167, %8[0] {to = "flags_break", unsigned} : memref<1xi1>
        }
        scf.yield
      }
      affine.store %3, %29[0] {to = "flags_stall_23", unsigned} : memref<1xi1>
      affine.store %3, %31[0] {to = "flags_break_25", unsigned} : memref<1xi1>
      affine.store %3, %32[0] {to = "count_stop_26", unsigned} : memref<1xi1>
      affine.store %3, %33[0] {to = "addr_stop_27", unsigned} : memref<1xi1>
      scf.while : () -> () {
        %true = arith.constant {unsigned} true
        %133 = affine.load %27[0] {from = "flags_active_21", unsigned} : memref<1xi1>
        %134 = arith.extui %133 : i1 to i32
        %135 = arith.cmpi ne, %134, %c0_i32 : i32
        %136 = arith.andi %true, %135 {unsigned} : i1
        %137 = affine.load %31[0] {from = "flags_break_25", unsigned} : memref<1xi1>
        %138 = arith.extui %137 : i1 to i32
        %139 = arith.cmpi eq, %138, %c0_i32 : i32
        %140 = arith.andi %136, %139 {unsigned} : i1
        scf.condition(%140)
      } do {
        %133 = memref.alloc() {name = "assert_cond_146"} : memref<1xi1>
        %134 = affine.load %37[0] {from = "latstalled_31", unsigned} : memref<1xi1>
        %135 = arith.extui %134 : i1 to i32
        %136 = arith.cmpi eq, %135, %c1_i32 : i32
        %137 = arith.ori %false, %136 {unsigned} : i1
        %138 = affine.load %36[0] {from = "latency_count_30", unsigned} : memref<1xi32>
        %139 = arith.extui %138 : i32 to i33
        %140 = arith.extsi %c0_i32 : i32 to i33
        %141 = arith.cmpi eq, %139, %140 : i33
        %142 = arith.ori %137, %141 {unsigned} : i1
        %143 = arith.extui %142 : i1 to i32
        %144 = arith.cmpi ne, %143, %c0_i32 : i32
        affine.store %144, %133[%c0] {to = "assert_cond_146", unsigned} : memref<1xi1>
        %145 = affine.load %133[0] {from = "assert_cond_146", unsigned} : memref<1xi1>
        %146 = arith.extui %145 : i1 to i32
        %147 = arith.cmpi eq, %146, %c0_i32 : i32
        scf.if %147 {
          hcl.print(%c0_i32) {format = "\0A\0AAssertion failed {}: \0A\0A", signedness = "_"} : i32
          scf.while : () -> () {
            %151 = affine.load %133[0] {from = "assert_cond_146", unsigned} : memref<1xi1>
            %152 = arith.extui %151 : i1 to i32
            %153 = arith.cmpi ne, %152, %c1_i32 : i32
            scf.condition(%153)
          } do {
            affine.store %3, %133[0] {to = "assert_cond_146", unsigned} : memref<1xi1>
            scf.yield
          }
        }
        %148 = affine.load %36[0] {from = "latency_count_30", unsigned} : memref<1xi32>
        %149 = arith.extui %148 : i32 to i33
        %150 = arith.cmpi eq, %149, %140 : i33
        scf.if %150 {
          %151 = memref.alloc() {name = "_cur_address_147"} : memref<1xi32>
          %152 = affine.load %34[0] {from = "inst_addr_28", unsigned} : memref<1xi32>
          affine.store %152, %151[%c0] {to = "_cur_address_147", unsigned} : memref<1xi32>
          %153 = affine.load %34[0] {from = "inst_addr_28", unsigned} : memref<1xi32>
          %c2_i32 = arith.constant 2 : i32
          %154 = arith.extui %153 : i32 to i34
          %155 = arith.extsi %c2_i32 : i32 to i34
          %156 = arith.addi %154, %155 : i34
          %157 = arith.trunci %156 {unsigned} : i34 to i32
          affine.store %157, %35[0] {to = "inst_naddr_29", unsigned} : memref<1xi32>
          %158 = memref.alloc() {name = "inst_148"} : memref<1xi64>
          %159 = arith.extsi %c0_i32 {unsigned} : i32 to i64
          affine.store %159, %158[%c0] {to = "inst_148", unsigned} : memref<1xi64>
          %160 = memref.alloc() {name = "read_addr_149"} : memref<1xi34>
          %161 = affine.load %34[0] {from = "inst_addr_28", unsigned} : memref<1xi32>
          %162 = arith.extui %161 : i32 to i34
          %163 = arith.extsi %c0_i32 : i32 to i34
          %164 = arith.addi %162, %163 : i34
          affine.store %164, %160[%c0] {to = "read_addr_149"} : memref<1xi34>
          %165 = memref.alloc() {name = "_addr_150"} : memref<1xi34>
          %166 = affine.load %160[0] {from = "read_addr_149"} : memref<1xi34>
          affine.store %166, %165[%c0] {to = "_addr_150"} : memref<1xi34>
          %167 = memref.alloc() {name = "assert_cond_151"} : memref<1xi1>
          %168 = affine.load %165[0] {from = "_addr_150"} : memref<1xi34>
          %169 = arith.extsi %168 : i34 to i35
          %170 = arith.extsi %c1_i32 : i32 to i35
          %171 = arith.addi %169, %170 : i35
          %c33554432_i32 = arith.constant 33554432 : i32
          %172 = arith.extsi %c33554432_i32 : i32 to i35
          %173 = arith.cmpi sle, %171, %172 : i35
          affine.store %173, %167[%c0] {to = "assert_cond_151", unsigned} : memref<1xi1>
          %174 = affine.load %167[0] {from = "assert_cond_151", unsigned} : memref<1xi1>
          %175 = arith.extui %174 : i1 to i32
          %176 = arith.cmpi eq, %175, %c0_i32 : i32
          scf.if %176 {
            %245 = affine.load %165[0] {from = "_addr_150"} : memref<1xi34>
            %246 = arith.extsi %245 : i34 to i35
            %247 = arith.addi %246, %170 : i35
            hcl.print(%245, %247) {format = "\0A\0AAssertion failed {}: HBM Mem.read exceeds memory size: addr=%d+size=%d > 33554432\0A\0A", signedness = "__"} : i34, i35
            scf.while : () -> () {
              %248 = affine.load %167[0] {from = "assert_cond_151", unsigned} : memref<1xi1>
              %249 = arith.extui %248 : i1 to i32
              %250 = arith.cmpi ne, %249, %c1_i32 : i32
              scf.condition(%250)
            } do {
              affine.store %3, %167[0] {to = "assert_cond_151", unsigned} : memref<1xi1>
              scf.yield
            }
          }
          %177 = memref.alloc() {name = "Mem.read_c_30"} : memref<1xi32>
          %178 = affine.load %160[0] {from = "read_addr_149"} : memref<1xi34>
          %179 = arith.extsi %178 : i34 to i35
          %180 = arith.index_cast %c0 : index to i35
          %181 = arith.addi %179, %180 : i35
          %182 = arith.index_cast %181 {unsigned} : i35 to index
          %183 = memref.load %arg0[%182] {from = "hbm", unsigned} : memref<33554432xi32>
          affine.store %183, %177[%c0] {to = "Mem.read_c_30", unsigned} : memref<1xi32>
          %c32_i32 = arith.constant 32 : i32
          %c0_i64 = arith.constant {unsigned} 0 : i64
          %184 = affine.load %177[0] {from = "Mem.read_c_30", unsigned} : memref<1xi32>
          %185 = arith.extui %184 {unsigned} : i32 to i64
          %186 = arith.ori %c0_i64, %185 {unsigned} : i64
          affine.store %186, %158[0] {to = "inst_148", unsigned} : memref<1xi64>
          %187 = memref.alloc() {name = "read_addr_152"} : memref<1xi34>
          %188 = affine.load %34[0] {from = "inst_addr_28", unsigned} : memref<1xi32>
          %189 = arith.extui %188 : i32 to i34
          %190 = arith.extsi %c1_i32 : i32 to i34
          %191 = arith.addi %189, %190 : i34
          affine.store %191, %187[%c0] {to = "read_addr_152"} : memref<1xi34>
          %192 = memref.alloc() {name = "_addr_153"} : memref<1xi34>
          %193 = affine.load %187[0] {from = "read_addr_152"} : memref<1xi34>
          affine.store %193, %192[%c0] {to = "_addr_153"} : memref<1xi34>
          %194 = memref.alloc() {name = "assert_cond_154"} : memref<1xi1>
          %195 = affine.load %192[0] {from = "_addr_153"} : memref<1xi34>
          %196 = arith.extsi %195 : i34 to i35
          %197 = arith.addi %196, %170 : i35
          %198 = arith.cmpi sle, %197, %172 : i35
          affine.store %198, %194[%c0] {to = "assert_cond_154", unsigned} : memref<1xi1>
          %199 = affine.load %194[0] {from = "assert_cond_154", unsigned} : memref<1xi1>
          %200 = arith.extui %199 : i1 to i32
          %201 = arith.cmpi eq, %200, %c0_i32 : i32
          scf.if %201 {
            %245 = affine.load %192[0] {from = "_addr_153"} : memref<1xi34>
            %246 = arith.extsi %245 : i34 to i35
            %247 = arith.addi %246, %170 : i35
            hcl.print(%245, %247) {format = "\0A\0AAssertion failed {}: HBM Mem.read exceeds memory size: addr=%d+size=%d > 33554432\0A\0A", signedness = "__"} : i34, i35
            scf.while : () -> () {
              %248 = affine.load %194[0] {from = "assert_cond_154", unsigned} : memref<1xi1>
              %249 = arith.extui %248 : i1 to i32
              %250 = arith.cmpi ne, %249, %c1_i32 : i32
              scf.condition(%250)
            } do {
              affine.store %3, %194[0] {to = "assert_cond_154", unsigned} : memref<1xi1>
              scf.yield
            }
          }
          %202 = memref.alloc() {name = "Mem.read_c_31"} : memref<1xi32>
          %203 = affine.load %187[0] {from = "read_addr_152"} : memref<1xi34>
          %204 = arith.extsi %203 : i34 to i35
          %205 = arith.addi %204, %180 : i35
          %206 = arith.index_cast %205 {unsigned} : i35 to index
          %207 = memref.load %arg0[%206] {from = "hbm", unsigned} : memref<33554432xi32>
          affine.store %207, %202[%c0] {to = "Mem.read_c_31", unsigned} : memref<1xi32>
          %208 = affine.load %202[0] {from = "Mem.read_c_31", unsigned} : memref<1xi32>
          %209 = arith.extui %208 {unsigned} : i32 to i64
          %210 = arith.ori %c0_i64, %209 {unsigned} : i64
          affine.store %210, %158[0] {to = "inst_148", unsigned} : memref<1xi64>
          hcl.print(%c0_i32) {format = "FETCH ce0.cf.UC inst=0x", signedness = "_"} : i32
          %211 = affine.load %158[0] {from = "inst_148", unsigned} : memref<1xi64>
          %c32 = arith.constant {unsigned} 32 : index
          %c63 = arith.constant {unsigned} 63 : index
          %212 = hcl.get_slice(%211 : i64, %c63, %c32) -> i32
          hcl.print(%212) {format = "%d:", signedness = "u"} : i32
          %213 = affine.load %158[0] {from = "inst_148", unsigned} : memref<1xi64>
          %c0_0 = arith.constant {unsigned} 0 : index
          %c31 = arith.constant {unsigned} 31 : index
          %214 = hcl.get_slice(%213 : i64, %c31, %c0_0) -> i32
          hcl.print(%214) {format = "%d:", signedness = "u"} : i32
          hcl.print(%c0_i32) {format = "\0A", signedness = "_"} : i32
          %215 = memref.alloc() {name = "inst_lat_155"} : memref<1xi32>
          affine.store %c0_i32, %215[%c0] {to = "inst_lat_155", unsigned} : memref<1xi32>
          %216 = memref.alloc() {name = "decode_inst_156"} : memref<1xi64>
          %217 = affine.load %158[0] {from = "inst_148", unsigned} : memref<1xi64>
          affine.store %217, %216[%c0] {to = "decode_inst_156", unsigned} : memref<1xi64>
          %218 = memref.alloc() {name = "inst_id_157"} : memref<1xi16>
          %219 = arith.trunci %c0_i32 {unsigned} : i32 to i16
          affine.store %219, %218[%c0] {to = "inst_id_157", unsigned} : memref<1xi16>
          %220 = memref.alloc() {name = "dec_inst_nop"} : memref<1x!hcl.struct<i9, i2, i2, i3, i1, i11, i36>>
          %221 = affine.load %216[0] {from = "decode_inst_156", unsigned} : memref<1xi64>
          %222 = hcl.int_to_struct(%221) {unsigned} : i64 -> <i9, i2, i2, i3, i1, i11, i36>
          affine.store %222, %220[%c0] {to = "dec_inst_nop"} : memref<1x!hcl.struct<i9, i2, i2, i3, i1, i11, i36>>
          %true = arith.constant {unsigned} true
          %223 = affine.load %220[0] {from = "dec_inst_nop"} : memref<1x!hcl.struct<i9, i2, i2, i3, i1, i11, i36>>
          %224 = hcl.struct_get %223[4] : <i9, i2, i2, i3, i1, i11, i36> -> i1
          %225 = arith.cmpi eq, %224, %3 {unsigned} : i1
          %226 = arith.andi %true, %225 {unsigned} : i1
          %227 = hcl.struct_get %223[3] : <i9, i2, i2, i3, i1, i11, i36> -> i3
          %228 = arith.cmpi eq, %227, %24 {unsigned} : i3
          %229 = arith.andi %226, %228 {unsigned} : i1
          %230 = hcl.struct_get %223[2] : <i9, i2, i2, i3, i1, i11, i36> -> i2
          %c3_i32 = arith.constant 3 : i32
          %231 = arith.trunci %c3_i32 {unsigned} : i32 to i2
          %232 = arith.cmpi eq, %230, %231 {unsigned} : i2
          %233 = arith.andi %229, %232 {unsigned} : i1
          scf.if %233 {
            affine.store %219, %218[0] {to = "inst_id_157", unsigned} : memref<1xi16>
            affine.store %c1_i32, %215[0] {to = "inst_lat_155", unsigned} : memref<1xi32>
          } else {
            %245 = memref.alloc() {name = "dec_inst_ifetch"} : memref<1x!hcl.struct<i9, i2, i2, i3, i1, i11, i36>>
            %246 = affine.load %216[0] {from = "decode_inst_156", unsigned} : memref<1xi64>
            %247 = hcl.int_to_struct(%246) {unsigned} : i64 -> <i9, i2, i2, i3, i1, i11, i36>
            affine.store %247, %245[%c0] {to = "dec_inst_ifetch"} : memref<1x!hcl.struct<i9, i2, i2, i3, i1, i11, i36>>
            %248 = affine.load %245[0] {from = "dec_inst_ifetch"} : memref<1x!hcl.struct<i9, i2, i2, i3, i1, i11, i36>>
            %249 = hcl.struct_get %248[4] : <i9, i2, i2, i3, i1, i11, i36> -> i1
            %250 = arith.trunci %c1_i32 {unsigned} : i32 to i1
            %251 = arith.cmpi eq, %249, %250 {unsigned} : i1
            %252 = arith.andi %true, %251 {unsigned} : i1
            %253 = hcl.struct_get %248[3] : <i9, i2, i2, i3, i1, i11, i36> -> i3
            %254 = arith.cmpi eq, %253, %24 {unsigned} : i3
            %255 = arith.andi %252, %254 {unsigned} : i1
            %256 = hcl.struct_get %248[2] : <i9, i2, i2, i3, i1, i11, i36> -> i2
            %257 = arith.trunci %c1_i32 {unsigned} : i32 to i2
            %258 = arith.cmpi eq, %256, %257 {unsigned} : i2
            %259 = arith.andi %255, %258 {unsigned} : i1
            scf.if %259 {
              %260 = arith.trunci %c1_i32 {unsigned} : i32 to i16
              affine.store %260, %218[0] {to = "inst_id_157", unsigned} : memref<1xi16>
              affine.store %c2_i32, %215[0] {to = "inst_lat_155", unsigned} : memref<1xi32>
            } else {
              %260 = memref.alloc() {name = "dec_inst_bload"} : memref<1x!hcl.struct<i9, i2, i2, i3, i1, i11, i36>>
              %261 = affine.load %216[0] {from = "decode_inst_156", unsigned} : memref<1xi64>
              %262 = hcl.int_to_struct(%261) {unsigned} : i64 -> <i9, i2, i2, i3, i1, i11, i36>
              affine.store %262, %260[%c0] {to = "dec_inst_bload"} : memref<1x!hcl.struct<i9, i2, i2, i3, i1, i11, i36>>
              %263 = affine.load %260[0] {from = "dec_inst_bload"} : memref<1x!hcl.struct<i9, i2, i2, i3, i1, i11, i36>>
              %264 = hcl.struct_get %263[4] : <i9, i2, i2, i3, i1, i11, i36> -> i1
              %265 = arith.cmpi eq, %264, %250 {unsigned} : i1
              %266 = arith.andi %true, %265 {unsigned} : i1
              %267 = hcl.struct_get %263[3] : <i9, i2, i2, i3, i1, i11, i36> -> i3
              %268 = arith.cmpi eq, %267, %24 {unsigned} : i3
              %269 = arith.andi %266, %268 {unsigned} : i1
              %270 = hcl.struct_get %263[2] : <i9, i2, i2, i3, i1, i11, i36> -> i2
              %271 = arith.trunci %c2_i32 {unsigned} : i32 to i2
              %272 = arith.cmpi eq, %270, %271 {unsigned} : i2
              %273 = arith.andi %269, %272 {unsigned} : i1
              scf.if %273 {
                %274 = arith.trunci %c2_i32 {unsigned} : i32 to i16
                affine.store %274, %218[0] {to = "inst_id_157", unsigned} : memref<1xi16>
                %c4_i32 = arith.constant 4 : i32
                affine.store %c4_i32, %215[0] {to = "inst_lat_155", unsigned} : memref<1xi32>
              } else {
                %274 = memref.alloc() {name = "dec_inst_bones"} : memref<1x!hcl.struct<i9, i2, i2, i3, i1, i11, i36>>
                %275 = affine.load %216[0] {from = "decode_inst_156", unsigned} : memref<1xi64>
                %276 = hcl.int_to_struct(%275) {unsigned} : i64 -> <i9, i2, i2, i3, i1, i11, i36>
                affine.store %276, %274[%c0] {to = "dec_inst_bones"} : memref<1x!hcl.struct<i9, i2, i2, i3, i1, i11, i36>>
                %277 = affine.load %274[0] {from = "dec_inst_bones"} : memref<1x!hcl.struct<i9, i2, i2, i3, i1, i11, i36>>
                %278 = hcl.struct_get %277[4] : <i9, i2, i2, i3, i1, i11, i36> -> i1
                %279 = arith.cmpi eq, %278, %250 {unsigned} : i1
                %280 = arith.andi %true, %279 {unsigned} : i1
                %281 = hcl.struct_get %277[3] : <i9, i2, i2, i3, i1, i11, i36> -> i3
                %282 = arith.trunci %c1_i32 {unsigned} : i32 to i3
                %283 = arith.cmpi eq, %281, %282 {unsigned} : i3
                %284 = arith.andi %280, %283 {unsigned} : i1
                %285 = hcl.struct_get %277[2] : <i9, i2, i2, i3, i1, i11, i36> -> i2
                %286 = arith.trunci %c0_i32 {unsigned} : i32 to i2
                %287 = arith.cmpi eq, %285, %286 {unsigned} : i2
                %288 = arith.andi %284, %287 {unsigned} : i1
                scf.if %288 {
                  %289 = arith.trunci %c3_i32 {unsigned} : i32 to i16
                  affine.store %289, %218[0] {to = "inst_id_157", unsigned} : memref<1xi16>
                  %c4_i32 = arith.constant 4 : i32
                  affine.store %c4_i32, %215[0] {to = "inst_lat_155", unsigned} : memref<1xi32>
                } else {
                  %289 = memref.alloc() {name = "dec_inst_cload"} : memref<1x!hcl.struct<i9, i2, i2, i3, i1, i11, i36>>
                  %290 = affine.load %216[0] {from = "decode_inst_156", unsigned} : memref<1xi64>
                  %291 = hcl.int_to_struct(%290) {unsigned} : i64 -> <i9, i2, i2, i3, i1, i11, i36>
                  affine.store %291, %289[%c0] {to = "dec_inst_cload"} : memref<1x!hcl.struct<i9, i2, i2, i3, i1, i11, i36>>
                  %292 = affine.load %289[0] {from = "dec_inst_cload"} : memref<1x!hcl.struct<i9, i2, i2, i3, i1, i11, i36>>
                  %293 = hcl.struct_get %292[4] : <i9, i2, i2, i3, i1, i11, i36> -> i1
                  %294 = arith.cmpi eq, %293, %250 {unsigned} : i1
                  %295 = arith.andi %true, %294 {unsigned} : i1
                  %296 = hcl.struct_get %292[3] : <i9, i2, i2, i3, i1, i11, i36> -> i3
                  %297 = arith.cmpi eq, %296, %24 {unsigned} : i3
                  %298 = arith.andi %295, %297 {unsigned} : i1
                  %299 = hcl.struct_get %292[2] : <i9, i2, i2, i3, i1, i11, i36> -> i2
                  %300 = arith.cmpi eq, %299, %286 {unsigned} : i2
                  %301 = arith.andi %298, %300 {unsigned} : i1
                  scf.if %301 {
                    %c4_i32 = arith.constant 4 : i32
                    %302 = arith.trunci %c4_i32 {unsigned} : i32 to i16
                    affine.store %302, %218[0] {to = "inst_id_157", unsigned} : memref<1xi16>
                    %c5_i32 = arith.constant 5 : i32
                    affine.store %c5_i32, %215[0] {to = "inst_lat_155", unsigned} : memref<1xi32>
                  } else {
                    %302 = memref.alloc() {name = "dec_inst_cstore"} : memref<1x!hcl.struct<i9, i2, i2, i3, i1, i11, i36>>
                    %303 = affine.load %216[0] {from = "decode_inst_156", unsigned} : memref<1xi64>
                    %304 = hcl.int_to_struct(%303) {unsigned} : i64 -> <i9, i2, i2, i3, i1, i11, i36>
                    affine.store %304, %302[%c0] {to = "dec_inst_cstore"} : memref<1x!hcl.struct<i9, i2, i2, i3, i1, i11, i36>>
                    %305 = affine.load %302[0] {from = "dec_inst_cstore"} : memref<1x!hcl.struct<i9, i2, i2, i3, i1, i11, i36>>
                    %306 = hcl.struct_get %305[4] : <i9, i2, i2, i3, i1, i11, i36> -> i1
                    %307 = arith.cmpi eq, %306, %3 {unsigned} : i1
                    %308 = arith.andi %true, %307 {unsigned} : i1
                    %309 = hcl.struct_get %305[3] : <i9, i2, i2, i3, i1, i11, i36> -> i3
                    %310 = arith.cmpi eq, %309, %282 {unsigned} : i3
                    %311 = arith.andi %308, %310 {unsigned} : i1
                    %312 = hcl.struct_get %305[2] : <i9, i2, i2, i3, i1, i11, i36> -> i2
                    %313 = arith.cmpi eq, %312, %231 {unsigned} : i2
                    %314 = arith.andi %311, %313 {unsigned} : i1
                    scf.if %314 {
                      %c5_i32 = arith.constant 5 : i32
                      %315 = arith.trunci %c5_i32 {unsigned} : i32 to i16
                      affine.store %315, %218[0] {to = "inst_id_157", unsigned} : memref<1xi16>
                      affine.store %c1_i32, %215[0] {to = "inst_lat_155", unsigned} : memref<1xi32>
                    } else {
                      %315 = memref.alloc() {name = "dec_inst_cexit"} : memref<1x!hcl.struct<i9, i2, i2, i3, i1, i11, i36>>
                      %316 = affine.load %216[0] {from = "decode_inst_156", unsigned} : memref<1xi64>
                      %317 = hcl.int_to_struct(%316) {unsigned} : i64 -> <i9, i2, i2, i3, i1, i11, i36>
                      affine.store %317, %315[%c0] {to = "dec_inst_cexit"} : memref<1x!hcl.struct<i9, i2, i2, i3, i1, i11, i36>>
                      %318 = affine.load %315[0] {from = "dec_inst_cexit"} : memref<1x!hcl.struct<i9, i2, i2, i3, i1, i11, i36>>
                      %319 = hcl.struct_get %318[4] : <i9, i2, i2, i3, i1, i11, i36> -> i1
                      %320 = arith.cmpi eq, %319, %3 {unsigned} : i1
                      %321 = arith.andi %true, %320 {unsigned} : i1
                      %322 = hcl.struct_get %318[3] : <i9, i2, i2, i3, i1, i11, i36> -> i3
                      %323 = arith.trunci %c3_i32 {unsigned} : i32 to i3
                      %324 = arith.cmpi eq, %322, %323 {unsigned} : i3
                      %325 = arith.andi %321, %324 {unsigned} : i1
                      %326 = hcl.struct_get %318[2] : <i9, i2, i2, i3, i1, i11, i36> -> i2
                      %327 = arith.cmpi eq, %326, %231 {unsigned} : i2
                      %328 = arith.andi %325, %327 {unsigned} : i1
                      scf.if %328 {
                        %c6_i32 = arith.constant 6 : i32
                        %329 = arith.trunci %c6_i32 {unsigned} : i32 to i16
                        affine.store %329, %218[0] {to = "inst_id_157", unsigned} : memref<1xi16>
                        affine.store %c1_i32, %215[0] {to = "inst_lat_155", unsigned} : memref<1xi32>
                      } else {
                        %329 = memref.alloc() {name = "dec_inst_csyncm"} : memref<1x!hcl.struct<i9, i2, i2, i3, i1, i11, i15, i21>>
                        %330 = affine.load %216[0] {from = "decode_inst_156", unsigned} : memref<1xi64>
                        %331 = hcl.int_to_struct(%330) {unsigned} : i64 -> <i9, i2, i2, i3, i1, i11, i15, i21>
                        affine.store %331, %329[%c0] {to = "dec_inst_csyncm"} : memref<1x!hcl.struct<i9, i2, i2, i3, i1, i11, i15, i21>>
                        %332 = affine.load %329[0] {from = "dec_inst_csyncm"} : memref<1x!hcl.struct<i9, i2, i2, i3, i1, i11, i15, i21>>
                        %333 = hcl.struct_get %332[4] : <i9, i2, i2, i3, i1, i11, i15, i21> -> i1
                        %334 = arith.cmpi eq, %333, %3 {unsigned} : i1
                        %335 = arith.andi %true, %334 {unsigned} : i1
                        %336 = hcl.struct_get %332[3] : <i9, i2, i2, i3, i1, i11, i15, i21> -> i3
                        %337 = arith.trunci %c2_i32 {unsigned} : i32 to i3
                        %338 = arith.cmpi eq, %336, %337 {unsigned} : i3
                        %339 = arith.andi %335, %338 {unsigned} : i1
                        %340 = hcl.struct_get %332[2] : <i9, i2, i2, i3, i1, i11, i15, i21> -> i2
                        %341 = arith.cmpi eq, %340, %231 {unsigned} : i2
                        %342 = arith.andi %339, %341 {unsigned} : i1
                        scf.if %342 {
                          %c7_i32 = arith.constant 7 : i32
                          %343 = arith.trunci %c7_i32 {unsigned} : i32 to i16
                          affine.store %343, %218[0] {to = "inst_id_157", unsigned} : memref<1xi16>
                          affine.store %c1_i32, %215[0] {to = "inst_lat_155", unsigned} : memref<1xi32>
                        } else {
                          %343 = memref.alloc() {name = "dec_inst_xinstfetch"} : memref<1x!hcl.struct<i9, i2, i2, i3, i1, i11, i12, i21, i3>>
                          %344 = affine.load %216[0] {from = "decode_inst_156", unsigned} : memref<1xi64>
                          %345 = hcl.int_to_struct(%344) {unsigned} : i64 -> <i9, i2, i2, i3, i1, i11, i12, i21, i3>
                          affine.store %345, %343[%c0] {to = "dec_inst_xinstfetch"} : memref<1x!hcl.struct<i9, i2, i2, i3, i1, i11, i12, i21, i3>>
                          %346 = affine.load %343[0] {from = "dec_inst_xinstfetch"} : memref<1x!hcl.struct<i9, i2, i2, i3, i1, i11, i12, i21, i3>>
                          %347 = hcl.struct_get %346[4] : <i9, i2, i2, i3, i1, i11, i12, i21, i3> -> i1
                          %348 = arith.cmpi eq, %347, %3 {unsigned} : i1
                          %349 = arith.andi %true, %348 {unsigned} : i1
                          %350 = hcl.struct_get %346[3] : <i9, i2, i2, i3, i1, i11, i12, i21, i3> -> i3
                          %c4_i32 = arith.constant 4 : i32
                          %351 = arith.trunci %c4_i32 {unsigned} : i32 to i3
                          %352 = arith.cmpi eq, %350, %351 {unsigned} : i3
                          %353 = arith.andi %349, %352 {unsigned} : i1
                          %354 = hcl.struct_get %346[2] : <i9, i2, i2, i3, i1, i11, i12, i21, i3> -> i2
                          %355 = arith.cmpi eq, %354, %231 {unsigned} : i2
                          %356 = arith.andi %353, %355 {unsigned} : i1
                          scf.if %356 {
                            %c8_i32 = arith.constant 8 : i32
                            %357 = arith.trunci %c8_i32 {unsigned} : i32 to i16
                            affine.store %357, %218[0] {to = "inst_id_157", unsigned} : memref<1xi16>
                            affine.store %c1_i32, %215[0] {to = "inst_lat_155", unsigned} : memref<1xi32>
                          } else {
                            %357 = memref.alloc() {name = "dec_inst_bsync"} : memref<1x!hcl.struct<i9, i2, i2, i3, i1, i47>>
                            %358 = affine.load %216[0] {from = "decode_inst_156", unsigned} : memref<1xi64>
                            %359 = hcl.int_to_struct(%358) {unsigned} : i64 -> <i9, i2, i2, i3, i1, i47>
                            affine.store %359, %357[%c0] {to = "dec_inst_bsync"} : memref<1x!hcl.struct<i9, i2, i2, i3, i1, i47>>
                            %360 = affine.load %357[0] {from = "dec_inst_bsync"} : memref<1x!hcl.struct<i9, i2, i2, i3, i1, i47>>
                            %361 = hcl.struct_get %360[4] : <i9, i2, i2, i3, i1, i47> -> i1
                            %362 = arith.cmpi eq, %361, %3 {unsigned} : i1
                            %363 = arith.andi %true, %362 {unsigned} : i1
                            %364 = hcl.struct_get %360[3] : <i9, i2, i2, i3, i1, i47> -> i3
                            %c5_i32 = arith.constant 5 : i32
                            %365 = arith.trunci %c5_i32 {unsigned} : i32 to i3
                            %366 = arith.cmpi eq, %364, %365 {unsigned} : i3
                            %367 = arith.andi %363, %366 {unsigned} : i1
                            %368 = hcl.struct_get %360[2] : <i9, i2, i2, i3, i1, i47> -> i2
                            %369 = arith.cmpi eq, %368, %231 {unsigned} : i2
                            %370 = arith.andi %367, %369 {unsigned} : i1
                            scf.if %370 {
                              %c9_i32 = arith.constant 9 : i32
                              %371 = arith.trunci %c9_i32 {unsigned} : i32 to i16
                              affine.store %371, %218[0] {to = "inst_id_157", unsigned} : memref<1xi16>
                              affine.store %c1_i32, %215[0] {to = "inst_lat_155", unsigned} : memref<1xi32>
                            } else {
                              %371 = memref.alloc() {name = "assert_cond_168"} : memref<1xi1>
                              affine.store %3, %371[%c0] {to = "assert_cond_168", unsigned} : memref<1xi1>
                              %372 = affine.load %371[0] {from = "assert_cond_168", unsigned} : memref<1xi1>
                              %373 = arith.extui %372 : i1 to i32
                              %374 = arith.cmpi eq, %373, %c0_i32 : i32
                              scf.if %374 {
                                %376 = affine.load %216[0] {from = "decode_inst_156", unsigned} : memref<1xi64>
                                %377 = affine.load %151[0] {from = "_cur_address_147", unsigned} : memref<1xi32>
                                hcl.print(%376, %377) {format = "\0A\0AAssertion failed {}: \0A\0Ace0.cf.UC.decode Invalid instruction (%d) at address %d\0A\0A\0A", signedness = "uu"} : i64, i32
                                scf.while : () -> () {
                                  %378 = affine.load %371[0] {from = "assert_cond_168", unsigned} : memref<1xi1>
                                  %379 = arith.extui %378 : i1 to i32
                                  %380 = arith.cmpi ne, %379, %c1_i32 : i32
                                  scf.condition(%380)
                                } do {
                                  affine.store %3, %371[0] {to = "assert_cond_168", unsigned} : memref<1xi1>
                                  scf.yield
                                }
                              }
                              %c10_i32 = arith.constant 10 : i32
                              %375 = arith.trunci %c10_i32 {unsigned} : i32 to i16
                              affine.store %375, %218[0] {to = "inst_id_157", unsigned} : memref<1xi16>
                            }
                          }
                        }
                      }
                    }
                  }
                }
              }
            }
          }
          %234 = affine.load %215[0] {from = "inst_lat_155", unsigned} : memref<1xi32>
          %235 = arith.extui %234 : i32 to i33
          %236 = arith.extsi %c1_i32 : i32 to i33
          %237 = arith.cmpi sle, %235, %236 : i33
          %238 = arith.ori %false, %237 {unsigned} : i1
          %239 = affine.load %37[0] {from = "latstalled_31", unsigned} : memref<1xi1>
          %240 = arith.extui %239 : i1 to i32
          %241 = arith.cmpi eq, %240, %c1_i32 : i32
          %242 = arith.ori %238, %241 {unsigned} : i1
          %243 = arith.extui %242 : i1 to i32
          %244 = arith.cmpi ne, %243, %c0_i32 : i32
          scf.if %244 {
            %245 = memref.alloc() {name = "execute_inst_169"} : memref<1xi64>
            %246 = affine.load %158[0] {from = "inst_148", unsigned} : memref<1xi64>
            affine.store %246, %245[%c0] {to = "execute_inst_169", unsigned} : memref<1xi64>
            %247 = affine.load %218[0] {from = "inst_id_157", unsigned} : memref<1xi16>
            %248 = arith.extui %247 : i16 to i32
            %249 = arith.cmpi eq, %248, %c0_i32 : i32
            scf.if %249 {
              %256 = memref.alloc() {name = "exe_inst_ce0.cf.UC_nop"} : memref<1x!hcl.struct<i9, i2, i2, i3, i1, i11, i36>>
              %257 = affine.load %245[0] {from = "execute_inst_169", unsigned} : memref<1xi64>
              %258 = hcl.int_to_struct(%257) {unsigned} : i64 -> <i9, i2, i2, i3, i1, i11, i36>
              affine.store %258, %256[%c0] {to = "exe_inst_ce0.cf.UC_nop"} : memref<1x!hcl.struct<i9, i2, i2, i3, i1, i11, i36>>
              %259 = affine.load %21[0] {from = "nop_count", unsigned} : memref<1xi32>
              %260 = affine.load %256[0] {from = "exe_inst_ce0.cf.UC_nop"} : memref<1x!hcl.struct<i9, i2, i2, i3, i1, i11, i36>>
              %261 = hcl.struct_get %260[5] : <i9, i2, i2, i3, i1, i11, i36> -> i11
              %262 = arith.extui %261 {unsigned} : i11 to i32
              %263 = arith.cmpi ult, %259, %262 {unsigned} : i32
              scf.if %263 {
                %264 = affine.load %21[0] {from = "nop_count", unsigned} : memref<1xi32>
                %265 = arith.extui %264 : i32 to i34
                %266 = arith.addi %265, %190 : i34
                %267 = arith.trunci %266 {unsigned} : i34 to i32
                affine.store %267, %21[0] {to = "nop_count", unsigned} : memref<1xi32>
                %268 = affine.load %39[0] {from = "tele_stall_count_33", unsigned} : memref<1xi32>
                %269 = arith.extui %268 : i32 to i34
                %270 = arith.addi %269, %190 : i34
                %271 = arith.trunci %270 {unsigned} : i34 to i32
                affine.store %271, %39[0] {to = "tele_stall_count_33", unsigned} : memref<1xi32>
                %272 = arith.trunci %c1_i32 {unsigned} : i32 to i1
                affine.store %272, %29[0] {to = "flags_stall_23", unsigned} : memref<1xi1>
                affine.store %272, %30[0] {to = "flags_stalled_24", unsigned} : memref<1xi1>
                affine.store %272, %31[0] {to = "flags_break_25", unsigned} : memref<1xi1>
                %273 = affine.load %30[0] {from = "flags_stalled_24", unsigned} : memref<1xi1>
                %274 = arith.extui %273 : i1 to i32
                %275 = arith.cmpi eq, %274, %c0_i32 : i32
                scf.if %275 {
                  hcl.print(%c0_i32) {format = "                                        ce0.cf.UC ", signedness = "_"} : i32
                  %276 = affine.load %151[0] {from = "_cur_address_147", unsigned} : memref<1xi32>
                  hcl.print(%276) {format = "ip=%d ", signedness = "u"} : i32
                  %277 = affine.load %256[0] {from = "exe_inst_ce0.cf.UC_nop"} : memref<1x!hcl.struct<i9, i2, i2, i3, i1, i11, i36>>
                  %278 = hcl.struct_get %277[5] : <i9, i2, i2, i3, i1, i11, i36> -> i11
                  hcl.print(%278) {format = "nop count=%d", signedness = "u"} : i11
                  hcl.print(%c0_i32) {format = "    <stall>\0A", signedness = "_"} : i32
                }
              } else {
                affine.store %c0_i32, %21[0] {to = "nop_count", unsigned} : memref<1xi32>
                %264 = arith.trunci %c1_i32 {unsigned} : i32 to i1
                affine.store %264, %31[0] {to = "flags_break_25", unsigned} : memref<1xi1>
                hcl.print(%c0_i32) {format = "                                        ce0.cf.UC ", signedness = "_"} : i32
                %265 = affine.load %151[0] {from = "_cur_address_147", unsigned} : memref<1xi32>
                hcl.print(%265) {format = "ip=%d ", signedness = "u"} : i32
                %266 = affine.load %256[0] {from = "exe_inst_ce0.cf.UC_nop"} : memref<1x!hcl.struct<i9, i2, i2, i3, i1, i11, i36>>
                %267 = hcl.struct_get %266[5] : <i9, i2, i2, i3, i1, i11, i36> -> i11
                hcl.print(%267) {format = "nop count=%d", signedness = "u"} : i11
                hcl.print(%c0_i32) {format = "    <break>\0A", signedness = "_"} : i32
              }
            } else {
              %256 = affine.load %218[0] {from = "inst_id_157", unsigned} : memref<1xi16>
              %257 = arith.extui %256 : i16 to i32
              %258 = arith.cmpi eq, %257, %c1_i32 : i32
              scf.if %258 {
                %259 = memref.alloc() {name = "exe_inst_ce0.cf.UC_ifetch"} : memref<1x!hcl.struct<i9, i2, i2, i3, i1, i11, i36>>
                %260 = affine.load %245[0] {from = "execute_inst_169", unsigned} : memref<1xi64>
                %261 = hcl.int_to_struct(%260) {unsigned} : i64 -> <i9, i2, i2, i3, i1, i11, i36>
                affine.store %261, %259[%c0] {to = "exe_inst_ce0.cf.UC_ifetch"} : memref<1x!hcl.struct<i9, i2, i2, i3, i1, i11, i36>>
                %262 = memref.alloc() {name = "tiles_active"} : memref<1xi1>
                affine.store %3, %262[%c0] {to = "tiles_active", unsigned} : memref<1xi1>
                %263 = affine.load %65[0] {from = "flags_active_42", unsigned} : memref<1xi1>
                %264 = arith.extui %263 : i1 to i32
                %265 = arith.cmpi ne, %264, %c0_i32 : i32
                scf.if %265 {
                  %269 = arith.trunci %c1_i32 {unsigned} : i32 to i1
                  affine.store %269, %262[0] {to = "tiles_active", unsigned} : memref<1xi1>
                }
                %266 = affine.load %262[0] {from = "tiles_active", unsigned} : memref<1xi1>
                %267 = arith.extui %266 : i1 to i32
                %268 = arith.cmpi ne, %267, %c0_i32 : i32
                scf.if %268 {
                  %269 = affine.load %30[0] {from = "flags_stalled_24", unsigned} : memref<1xi1>
                  %270 = arith.extui %269 : i1 to i32
                  %271 = arith.cmpi eq, %270, %c0_i32 : i32
                  scf.if %271 {
                    hcl.print(%c0_i32) {format = "                                        ce0.cf.UC ", signedness = "_"} : i32
                    %277 = affine.load %151[0] {from = "_cur_address_147", unsigned} : memref<1xi32>
                    hcl.print(%277) {format = "ip=%d ", signedness = "u"} : i32
                    %278 = affine.load %259[0] {from = "exe_inst_ce0.cf.UC_ifetch"} : memref<1x!hcl.struct<i9, i2, i2, i3, i1, i11, i36>>
                    %279 = hcl.struct_get %278[5] : <i9, i2, i2, i3, i1, i11, i36> -> i11
                    hcl.print(%279) {format = "ifetch bundle=%d", signedness = "u"} : i11
                    hcl.print(%c0_i32) {format = "    <stall>\0A", signedness = "_"} : i32
                  }
                  %272 = affine.load %39[0] {from = "tele_stall_count_33", unsigned} : memref<1xi32>
                  %273 = arith.extui %272 : i32 to i34
                  %274 = arith.addi %273, %190 : i34
                  %275 = arith.trunci %274 {unsigned} : i34 to i32
                  affine.store %275, %39[0] {to = "tele_stall_count_33", unsigned} : memref<1xi32>
                  %276 = arith.trunci %c1_i32 {unsigned} : i32 to i1
                  affine.store %276, %29[0] {to = "flags_stall_23", unsigned} : memref<1xi1>
                  affine.store %276, %30[0] {to = "flags_stalled_24", unsigned} : memref<1xi1>
                  affine.store %276, %31[0] {to = "flags_break_25", unsigned} : memref<1xi1>
                } else {
                  hcl.print(%c0_i32) {format = "                                        ce0.cf.UC ", signedness = "_"} : i32
                  %269 = affine.load %151[0] {from = "_cur_address_147", unsigned} : memref<1xi32>
                  hcl.print(%269) {format = "ip=%d ", signedness = "u"} : i32
                  %270 = affine.load %259[0] {from = "exe_inst_ce0.cf.UC_ifetch"} : memref<1x!hcl.struct<i9, i2, i2, i3, i1, i11, i36>>
                  %271 = hcl.struct_get %270[5] : <i9, i2, i2, i3, i1, i11, i36> -> i11
                  hcl.print(%271) {format = "ifetch bundle=%d", signedness = "u"} : i11
                  hcl.print(%c0_i32) {format = "    \0A", signedness = "_"} : i32
                  %c128_i32 = arith.constant 128 : i32
                  %c8_i32 = arith.constant 8 : i32
                  hcl.print(%c128_i32, %c8_i32) {format = "Mem.dump xinstq bitwidth=%d count=%d : IFETCH CFETCH XINTQ\0A", signedness = "__"} : i32, i32
                  affine.for %arg2 = 0 to 8 {
                    hcl.print(%c0_i32) {format = "  ", signedness = "_"} : i32
                    %296 = affine.load %259[0] {from = "exe_inst_ce0.cf.UC_ifetch"} : memref<1x!hcl.struct<i9, i2, i2, i3, i1, i11, i36>>
                    %297 = hcl.struct_get %296[5] : <i9, i2, i2, i3, i1, i11, i36> -> i11
                    %c16_i32_1 = arith.constant 16 : i32
                    %298 = arith.extui %297 : i11 to i43
                    %299 = arith.extsi %c16_i32_1 : i32 to i43
                    %300 = arith.muli %298, %299 : i43
                    %301 = arith.extsi %300 : i43 to i44
                    %302 = arith.index_cast %arg2 : index to i44
                    %303 = arith.addi %301, %302 : i44
                    hcl.print(%303) {format = "[%d] ", signedness = "_"} : i44
                    hcl.print(%c0_i32) {format = "0x", signedness = "_"} : i32
                    %304 = affine.load %259[0] {from = "exe_inst_ce0.cf.UC_ifetch"} : memref<1x!hcl.struct<i9, i2, i2, i3, i1, i11, i36>>
                    %305 = hcl.struct_get %304[5] : <i9, i2, i2, i3, i1, i11, i36> -> i11
                    %306 = arith.extui %305 : i11 to i43
                    %307 = arith.muli %306, %299 : i43
                    %308 = arith.extsi %307 : i43 to i44
                    %309 = arith.addi %308, %302 : i44
                    %310 = arith.index_cast %309 {unsigned} : i44 to index
                    %311 = memref.load %18[%310] {from = "xinstq.alloc_c", unsigned} : memref<32768xi128>
                    %c96 = arith.constant {unsigned} 96 : index
                    %c127 = arith.constant {unsigned} 127 : index
                    %312 = hcl.get_slice(%311 : i128, %c127, %c96) -> i32
                    hcl.print(%312) {format = "%d:", signedness = "u"} : i32
                    %313 = affine.load %259[0] {from = "exe_inst_ce0.cf.UC_ifetch"} : memref<1x!hcl.struct<i9, i2, i2, i3, i1, i11, i36>>
                    %314 = hcl.struct_get %313[5] : <i9, i2, i2, i3, i1, i11, i36> -> i11
                    %315 = arith.extui %314 : i11 to i43
                    %316 = arith.muli %315, %299 : i43
                    %317 = arith.extsi %316 : i43 to i44
                    %318 = arith.addi %317, %302 : i44
                    %319 = arith.index_cast %318 {unsigned} : i44 to index
                    %320 = memref.load %18[%319] {from = "xinstq.alloc_c", unsigned} : memref<32768xi128>
                    %c64 = arith.constant {unsigned} 64 : index
                    %c95 = arith.constant {unsigned} 95 : index
                    %321 = hcl.get_slice(%320 : i128, %c95, %c64) -> i32
                    hcl.print(%321) {format = "%d:", signedness = "u"} : i32
                    %322 = affine.load %259[0] {from = "exe_inst_ce0.cf.UC_ifetch"} : memref<1x!hcl.struct<i9, i2, i2, i3, i1, i11, i36>>
                    %323 = hcl.struct_get %322[5] : <i9, i2, i2, i3, i1, i11, i36> -> i11
                    %324 = arith.extui %323 : i11 to i43
                    %325 = arith.muli %324, %299 : i43
                    %326 = arith.extsi %325 : i43 to i44
                    %327 = arith.addi %326, %302 : i44
                    %328 = arith.index_cast %327 {unsigned} : i44 to index
                    %329 = memref.load %18[%328] {from = "xinstq.alloc_c", unsigned} : memref<32768xi128>
                    %330 = hcl.get_slice(%329 : i128, %c63, %c32) -> i32
                    hcl.print(%330) {format = "%d:", signedness = "u"} : i32
                    %331 = affine.load %259[0] {from = "exe_inst_ce0.cf.UC_ifetch"} : memref<1x!hcl.struct<i9, i2, i2, i3, i1, i11, i36>>
                    %332 = hcl.struct_get %331[5] : <i9, i2, i2, i3, i1, i11, i36> -> i11
                    %333 = arith.extui %332 : i11 to i43
                    %334 = arith.muli %333, %299 : i43
                    %335 = arith.extsi %334 : i43 to i44
                    %336 = arith.addi %335, %302 : i44
                    %337 = arith.index_cast %336 {unsigned} : i44 to index
                    %338 = memref.load %18[%337] {from = "xinstq.alloc_c", unsigned} : memref<32768xi128>
                    %339 = hcl.get_slice(%338 : i128, %c31, %c0_0) -> i32
                    hcl.print(%339) {format = "%d:", signedness = "u"} : i32
                    hcl.print(%c0_i32) {format = "\0A", signedness = "_"} : i32
                  } {loop_name = "_i", op_name = "pr"}
                  hcl.print(%c128_i32, %c8_i32) {format = "Mem.dump instq bitwidth=%d count=%d : IFETCH TILE INSTQ BEFORE\0A", signedness = "__"} : i32, i32
                  affine.for %arg2 = 0 to 8 {
                    hcl.print(%c0_i32) {format = "  ", signedness = "_"} : i32
                    %296 = arith.index_cast %arg2 : index to i34
                    %297 = arith.addi %163, %296 : i34
                    hcl.print(%297) {format = "[%d] ", signedness = "_"} : i34
                    hcl.print(%c0_i32) {format = "0x", signedness = "_"} : i32
                    %298 = affine.load %50[%arg2] {from = "instq.alloc_c", unsigned} : memref<16xi128>
                    %c96 = arith.constant {unsigned} 96 : index
                    %c127 = arith.constant {unsigned} 127 : index
                    %299 = hcl.get_slice(%298 : i128, %c127, %c96) -> i32
                    hcl.print(%299) {format = "%d:", signedness = "u"} : i32
                    %300 = affine.load %50[%arg2] {from = "instq.alloc_c", unsigned} : memref<16xi128>
                    %c64 = arith.constant {unsigned} 64 : index
                    %c95 = arith.constant {unsigned} 95 : index
                    %301 = hcl.get_slice(%300 : i128, %c95, %c64) -> i32
                    hcl.print(%301) {format = "%d:", signedness = "u"} : i32
                    %302 = affine.load %50[%arg2] {from = "instq.alloc_c", unsigned} : memref<16xi128>
                    %303 = hcl.get_slice(%302 : i128, %c63, %c32) -> i32
                    hcl.print(%303) {format = "%d:", signedness = "u"} : i32
                    %304 = affine.load %50[%arg2] {from = "instq.alloc_c", unsigned} : memref<16xi128>
                    %305 = hcl.get_slice(%304 : i128, %c31, %c0_0) -> i32
                    hcl.print(%305) {format = "%d:", signedness = "u"} : i32
                    hcl.print(%c0_i32) {format = "\0A", signedness = "_"} : i32
                  } {loop_name = "_i", op_name = "pr_33"}
                  %272 = memref.alloc() {name = "count_173"} : memref<1xi32>
                  %c16_i32 = arith.constant 16 : i32
                  affine.store %c16_i32, %272[%c0] {to = "count_173", unsigned} : memref<1xi32>
                  %273 = memref.alloc() {name = "src_addr_174"} : memref<1xi43>
                  %274 = affine.load %259[0] {from = "exe_inst_ce0.cf.UC_ifetch"} : memref<1x!hcl.struct<i9, i2, i2, i3, i1, i11, i36>>
                  %275 = hcl.struct_get %274[5] : <i9, i2, i2, i3, i1, i11, i36> -> i11
                  %276 = arith.extui %275 : i11 to i43
                  %277 = arith.extsi %c16_i32 : i32 to i43
                  %278 = arith.muli %276, %277 : i43
                  affine.store %278, %273[%c0] {to = "src_addr_174"} : memref<1xi43>
                  %279 = memref.alloc() {name = "dst_addr_175"} : memref<1xi32>
                  affine.store %c0_i32, %279[%c0] {to = "dst_addr_175", unsigned} : memref<1xi32>
                  %280 = memref.alloc() {name = "_addr_176"} : memref<1xi43>
                  %281 = affine.load %273[0] {from = "src_addr_174"} : memref<1xi43>
                  affine.store %281, %280[%c0] {to = "_addr_176"} : memref<1xi43>
                  %282 = memref.alloc() {name = "assert_cond_177"} : memref<1xi1>
                  %283 = affine.load %280[0] {from = "_addr_176"} : memref<1xi43>
                  %284 = affine.load %272[0] {from = "count_173", unsigned} : memref<1xi32>
                  %285 = arith.extsi %283 : i43 to i44
                  %286 = arith.extui %284 : i32 to i44
                  %287 = arith.addi %285, %286 : i44
                  %c32768_i32 = arith.constant 32768 : i32
                  %288 = arith.extsi %c32768_i32 : i32 to i44
                  %289 = arith.cmpi sle, %287, %288 : i44
                  affine.store %289, %282[%c0] {to = "assert_cond_177", unsigned} : memref<1xi1>
                  %290 = affine.load %282[0] {from = "assert_cond_177", unsigned} : memref<1xi1>
                  %291 = arith.extui %290 : i1 to i32
                  %292 = arith.cmpi eq, %291, %c0_i32 : i32
                  scf.if %292 {
                    %296 = affine.load %280[0] {from = "_addr_176"} : memref<1xi43>
                    %297 = affine.load %272[0] {from = "count_173", unsigned} : memref<1xi32>
                    %298 = arith.extsi %296 : i43 to i44
                    %299 = arith.extui %297 : i32 to i44
                    %300 = arith.addi %298, %299 : i44
                    hcl.print(%296, %300) {format = "\0A\0AAssertion failed {}: xinstq Mem.copyto exceeds memory size: addr=%d+size=%d > 32768\0A\0A", signedness = "__"} : i43, i44
                    scf.while : () -> () {
                      %301 = affine.load %282[0] {from = "assert_cond_177", unsigned} : memref<1xi1>
                      %302 = arith.extui %301 : i1 to i32
                      %303 = arith.cmpi ne, %302, %c1_i32 : i32
                      scf.condition(%303)
                    } do {
                      affine.store %3, %282[0] {to = "assert_cond_177", unsigned} : memref<1xi1>
                      scf.yield
                    }
                  }
                  %293 = affine.load %272[0] {from = "count_173", unsigned} : memref<1xi32>
                  %294 = arith.index_cast %293 {unsigned} : i32 to index
                  %c1 = arith.constant {unsigned} 1 : index
                  scf.for %arg2 = %c0_0 to %294 step %c1 {
                    %296 = affine.load %273[0] {from = "src_addr_174"} : memref<1xi43>
                    %297 = arith.extsi %296 : i43 to i44
                    %298 = arith.index_cast %arg2 : index to i44
                    %299 = arith.addi %297, %298 : i44
                    %300 = arith.index_cast %299 {unsigned} : i44 to index
                    %301 = memref.load %18[%300] {from = "xinstq.alloc_c", unsigned} : memref<32768xi128>
                    %302 = affine.load %279[0] {from = "dst_addr_175", unsigned} : memref<1xi32>
                    %303 = arith.extui %302 {unsigned} : i32 to i33
                    %304 = arith.index_cast %arg2 {unsigned} : index to i33
                    %305 = arith.addi %303, %304 {unsigned} : i33
                    %306 = arith.index_cast %305 {unsigned} : i33 to index
                    memref.store %301, %50[%306] {to = "instq.alloc_c", unsigned} : memref<16xi128>
                  } {loop_name = "i", op_name = "copyN_34"}
                  hcl.print(%c128_i32, %c8_i32) {format = "Mem.dump instq bitwidth=%d count=%d : IFETCH TILE INSTQ AFTER\0A", signedness = "__"} : i32, i32
                  affine.for %arg2 = 0 to 8 {
                    hcl.print(%c0_i32) {format = "  ", signedness = "_"} : i32
                    %296 = arith.index_cast %arg2 : index to i34
                    %297 = arith.addi %163, %296 : i34
                    hcl.print(%297) {format = "[%d] ", signedness = "_"} : i34
                    hcl.print(%c0_i32) {format = "0x", signedness = "_"} : i32
                    %298 = affine.load %50[%arg2] {from = "instq.alloc_c", unsigned} : memref<16xi128>
                    %c96 = arith.constant {unsigned} 96 : index
                    %c127 = arith.constant {unsigned} 127 : index
                    %299 = hcl.get_slice(%298 : i128, %c127, %c96) -> i32
                    hcl.print(%299) {format = "%d:", signedness = "u"} : i32
                    %300 = affine.load %50[%arg2] {from = "instq.alloc_c", unsigned} : memref<16xi128>
                    %c64 = arith.constant {unsigned} 64 : index
                    %c95 = arith.constant {unsigned} 95 : index
                    %301 = hcl.get_slice(%300 : i128, %c95, %c64) -> i32
                    hcl.print(%301) {format = "%d:", signedness = "u"} : i32
                    %302 = affine.load %50[%arg2] {from = "instq.alloc_c", unsigned} : memref<16xi128>
                    %303 = hcl.get_slice(%302 : i128, %c63, %c32) -> i32
                    hcl.print(%303) {format = "%d:", signedness = "u"} : i32
                    %304 = affine.load %50[%arg2] {from = "instq.alloc_c", unsigned} : memref<16xi128>
                    %305 = hcl.get_slice(%304 : i128, %c31, %c0_0) -> i32
                    hcl.print(%305) {format = "%d:", signedness = "u"} : i32
                    hcl.print(%c0_i32) {format = "\0A", signedness = "_"} : i32
                  } {loop_name = "_i", op_name = "pr_35"}
                  %c5_i32 = arith.constant 5 : i32
                  %295 = arith.trunci %c5_i32 {unsigned} : i32 to i4
                  affine.store %295, %63[0] {to = "uc_start_delay", unsigned} : memref<1xi4>
                }
              } else {
                %259 = affine.load %218[0] {from = "inst_id_157", unsigned} : memref<1xi16>
                %260 = arith.extui %259 : i16 to i32
                %261 = arith.cmpi eq, %260, %c2_i32 : i32
                scf.if %261 {
                  %262 = memref.alloc() {name = "exe_inst_ce0.cf.UC_bload"} : memref<1x!hcl.struct<i9, i2, i2, i3, i1, i11, i36>>
                  %263 = affine.load %245[0] {from = "execute_inst_169", unsigned} : memref<1xi64>
                  %264 = hcl.int_to_struct(%263) {unsigned} : i64 -> <i9, i2, i2, i3, i1, i11, i36>
                  affine.store %264, %262[%c0] {to = "exe_inst_ce0.cf.UC_bload"} : memref<1x!hcl.struct<i9, i2, i2, i3, i1, i11, i36>>
                  hcl.print(%c0_i32) {format = "                                        ce0.cf.UC ", signedness = "_"} : i32
                  %265 = affine.load %151[0] {from = "_cur_address_147", unsigned} : memref<1xi32>
                  hcl.print(%265) {format = "ip=%d ", signedness = "u"} : i32
                  %266 = affine.load %262[0] {from = "exe_inst_ce0.cf.UC_bload"} : memref<1x!hcl.struct<i9, i2, i2, i3, i1, i11, i36>>
                  %267 = hcl.struct_get %266[0] : <i9, i2, i2, i3, i1, i11, i36> -> i9
                  %268 = hcl.struct_get %266[1] : <i9, i2, i2, i3, i1, i11, i36> -> i2
                  %269 = hcl.struct_get %266[5] : <i9, i2, i2, i3, i1, i11, i36> -> i11
                  hcl.print(%267, %268, %269) {format = "bload rfaddr=%d colnum=%d spadaddr=%d", signedness = "uuu"} : i9, i2, i11
                  hcl.print(%c0_i32) {format = "    \0A", signedness = "_"} : i32
                  %270 = memref.alloc() {name = "sa_179"} : memref<1xi32>
                  %271 = affine.load %262[0] {from = "exe_inst_ce0.cf.UC_bload"} : memref<1x!hcl.struct<i9, i2, i2, i3, i1, i11, i36>>
                  %272 = hcl.struct_get %271[5] : <i9, i2, i2, i3, i1, i11, i36> -> i11
                  %273 = arith.extui %272 {unsigned} : i11 to i32
                  affine.store %273, %270[%c0] {to = "sa_179", unsigned} : memref<1xi32>
                  %c0_i32_1 = arith.constant {unsigned} 0 : i32
                  affine.store %c0_i32_1, %270[0] {to = "sa_179", unsigned} : memref<1xi32>
                  %274 = memref.alloc() {name = "count_180"} : memref<1xi32>
                  %c64_i32 = arith.constant 64 : i32
                  affine.store %c64_i32, %274[%c0] {to = "count_180", unsigned} : memref<1xi32>
                  %275 = memref.alloc() {name = "src_addr_181"} : memref<1xi35>
                  %276 = affine.load %270[0] {from = "sa_179", unsigned} : memref<1xi32>
                  %277 = affine.load %262[0] {from = "exe_inst_ce0.cf.UC_bload"} : memref<1x!hcl.struct<i9, i2, i2, i3, i1, i11, i36>>
                  %278 = hcl.struct_get %277[1] : <i9, i2, i2, i3, i1, i11, i36> -> i2
                  %c512_i32 = arith.constant 512 : i32
                  %279 = arith.extui %278 : i2 to i34
                  %280 = arith.extsi %c512_i32 : i32 to i34
                  %281 = arith.muli %279, %280 : i34
                  %282 = arith.extui %276 : i32 to i35
                  %283 = arith.extsi %281 : i34 to i35
                  %284 = arith.addi %282, %283 : i35
                  affine.store %284, %275[%c0] {to = "src_addr_181"} : memref<1xi35>
                  %285 = memref.alloc() {name = "dst_addr_182"} : memref<1xi32>
                  affine.store %c0_i32, %285[%c0] {to = "dst_addr_182", unsigned} : memref<1xi32>
                  %286 = memref.alloc() {name = "_addr_183"} : memref<1xi35>
                  %287 = affine.load %275[0] {from = "src_addr_181"} : memref<1xi35>
                  affine.store %287, %286[%c0] {to = "_addr_183"} : memref<1xi35>
                  %288 = memref.alloc() {name = "assert_cond_184"} : memref<1xi1>
                  %289 = affine.load %286[0] {from = "_addr_183"} : memref<1xi35>
                  %290 = affine.load %274[0] {from = "count_180", unsigned} : memref<1xi32>
                  %291 = arith.extsi %289 : i35 to i36
                  %292 = arith.extui %290 : i32 to i36
                  %293 = arith.addi %291, %292 : i36
                  %294 = arith.extsi %c33554432_i32 : i32 to i36
                  %295 = arith.cmpi sle, %293, %294 : i36
                  affine.store %295, %288[%c0] {to = "assert_cond_184", unsigned} : memref<1xi1>
                  %296 = affine.load %288[0] {from = "assert_cond_184", unsigned} : memref<1xi1>
                  %297 = arith.extui %296 : i1 to i32
                  %298 = arith.cmpi eq, %297, %c0_i32 : i32
                  scf.if %298 {
                    %301 = affine.load %286[0] {from = "_addr_183"} : memref<1xi35>
                    %302 = affine.load %274[0] {from = "count_180", unsigned} : memref<1xi32>
                    %303 = arith.extsi %301 : i35 to i36
                    %304 = arith.extui %302 : i32 to i36
                    %305 = arith.addi %303, %304 : i36
                    hcl.print(%301, %305) {format = "\0A\0AAssertion failed {}: SPAD Mem.copyto exceeds memory size: addr=%d+size=%d > 33554432\0A\0A", signedness = "__"} : i35, i36
                    scf.while : () -> () {
                      %306 = affine.load %288[0] {from = "assert_cond_184", unsigned} : memref<1xi1>
                      %307 = arith.extui %306 : i1 to i32
                      %308 = arith.cmpi ne, %307, %c1_i32 : i32
                      scf.condition(%308)
                    } do {
                      affine.store %3, %288[0] {to = "assert_cond_184", unsigned} : memref<1xi1>
                      scf.yield
                    }
                  }
                  %299 = affine.load %274[0] {from = "count_180", unsigned} : memref<1xi32>
                  %300 = arith.index_cast %299 {unsigned} : i32 to index
                  %c1 = arith.constant {unsigned} 1 : index
                  scf.for %arg2 = %c0_0 to %300 step %c1 {
                    %301 = affine.load %275[0] {from = "src_addr_181"} : memref<1xi35>
                    %302 = arith.extsi %301 : i35 to i36
                    %303 = arith.index_cast %arg2 : index to i36
                    %304 = arith.addi %302, %303 : i36
                    %305 = arith.index_cast %304 {unsigned} : i36 to index
                    %306 = memref.load %0[%305] {from = "SPAD.alloc_c", unsigned} : memref<33554432xi32>
                    %307 = affine.load %262[0] {from = "exe_inst_ce0.cf.UC_bload"} : memref<1x!hcl.struct<i9, i2, i2, i3, i1, i11, i36>>
                    %308 = hcl.struct_get %307[0] : <i9, i2, i2, i3, i1, i11, i36> -> i9
                    %309 = arith.index_cast %308 {unsigned} : i9 to index
                    %310 = affine.load %285[0] {from = "dst_addr_182", unsigned} : memref<1xi32>
                    %311 = arith.extui %310 {unsigned} : i32 to i33
                    %312 = arith.index_cast %arg2 {unsigned} : index to i33
                    %313 = arith.addi %311, %312 {unsigned} : i33
                    %314 = arith.index_cast %313 {unsigned} : i33 to index
                    memref.store %306, %42[%309, %314] {to = "twpwrs.alloc_c", unsigned} : memref<32x64xi32>
                  } {loop_name = "i", op_name = "copyN_36"}
                } else {
                  %262 = affine.load %218[0] {from = "inst_id_157", unsigned} : memref<1xi16>
                  %263 = arith.extui %262 : i16 to i32
                  %264 = arith.cmpi eq, %263, %c3_i32 : i32
                  scf.if %264 {
                    %265 = memref.alloc() {name = "exe_inst_ce0.cf.UC_bones"} : memref<1x!hcl.struct<i9, i2, i2, i3, i1, i11, i36>>
                    %266 = affine.load %245[0] {from = "execute_inst_169", unsigned} : memref<1xi64>
                    %267 = hcl.int_to_struct(%266) {unsigned} : i64 -> <i9, i2, i2, i3, i1, i11, i36>
                    affine.store %267, %265[%c0] {to = "exe_inst_ce0.cf.UC_bones"} : memref<1x!hcl.struct<i9, i2, i2, i3, i1, i11, i36>>
                    hcl.print(%c0_i32) {format = "                                        ce0.cf.UC ", signedness = "_"} : i32
…
              affine.store %252, %91[0] {to = "tele_inst_count_67", unsigned} : memref<1xi32>
              %253 = affine.load %88[0] {from = "inst_naddr_64", unsigned} : memref<1xi32>
              affine.store %253, %87[0] {to = "inst_addr_63", unsigned} : memref<1xi32>
              affine.store %3, %83[0] {to = "flags_stalled_59", unsigned} : memref<1xi1>
            }
          } else {
            %238 = affine.load %215[0] {from = "inst_lat_622", unsigned} : memref<1xi32>
            %239 = arith.extui %238 : i32 to i34
            %240 = arith.subi %239, %155 : i34
            %241 = arith.trunci %240 {unsigned} : i34 to i32
            affine.store %241, %89[0] {to = "latency_count_65", unsigned} : memref<1xi32>
            %242 = affine.load %93[0] {from = "tele_latstall_count_69", unsigned} : memref<1xi32>
            %243 = arith.extui %242 : i32 to i34
            %244 = arith.addi %243, %190 : i34
            %245 = arith.trunci %244 {unsigned} : i34 to i32
            affine.store %245, %93[0] {to = "tele_latstall_count_69", unsigned} : memref<1xi32>
            %246 = arith.trunci %c1_i32 {unsigned} : i32 to i1
            affine.store %246, %90[0] {to = "latstalled_66", unsigned} : memref<1xi1>
            affine.store %246, %84[0] {to = "flags_break_60", unsigned} : memref<1xi1>
          }
        } else {
          %151 = memref.alloc() {name = "assert_cond_644"} : memref<1xi1>
          %152 = affine.load %90[0] {from = "latstalled_66", unsigned} : memref<1xi1>
          %153 = arith.extui %152 : i1 to i32
          %154 = arith.cmpi eq, %153, %c1_i32 : i32
          affine.store %154, %151[%c0] {to = "assert_cond_644", unsigned} : memref<1xi1>
          %155 = affine.load %151[0] {from = "assert_cond_644", unsigned} : memref<1xi1>
          %156 = arith.extui %155 : i1 to i32
          %157 = arith.cmpi eq, %156, %c0_i32 : i32
          scf.if %157 {
            hcl.print(%c0_i32) {format = "\0A\0AAssertion failed {}: latency countdown but not latstalled?\0A\0A", signedness = "_"} : i32
            scf.while : () -> () {
              %168 = affine.load %151[0] {from = "assert_cond_644", unsigned} : memref<1xi1>
              %169 = arith.extui %168 : i1 to i32
              %170 = arith.cmpi ne, %169, %c1_i32 : i32
              scf.condition(%170)
            } do {
              affine.store %3, %151[0] {to = "assert_cond_644", unsigned} : memref<1xi1>
              scf.yield
            }
          }
          %158 = affine.load %89[0] {from = "latency_count_65", unsigned} : memref<1xi32>
          %159 = arith.extui %158 : i32 to i34
          %160 = arith.extsi %c1_i32 : i32 to i34
          %161 = arith.subi %159, %160 : i34
          %162 = arith.trunci %161 {unsigned} : i34 to i32
          affine.store %162, %89[0] {to = "latency_count_65", unsigned} : memref<1xi32>
          %163 = affine.load %93[0] {from = "tele_latstall_count_69", unsigned} : memref<1xi32>
          %164 = arith.extui %163 : i32 to i34
          %165 = arith.addi %164, %160 : i34
          %166 = arith.trunci %165 {unsigned} : i34 to i32
          affine.store %166, %93[0] {to = "tele_latstall_count_69", unsigned} : memref<1xi32>
          %167 = arith.trunci %c1_i32 {unsigned} : i32 to i1
          affine.store %167, %90[0] {to = "latstalled_66", unsigned} : memref<1xi1>
          affine.store %167, %84[0] {to = "flags_break_60", unsigned} : memref<1xi1>
        }
        scf.yield
      }
      %125 = affine.load %45[0] {from = "flag_ntt", unsigned} : memref<1xi1>
      %126 = arith.extui %125 : i1 to i32
      %127 = arith.cmpi ne, %126, %c0_i32 : i32
      scf.if %127 {
        affine.for %arg2 = 0 to 64 {
          affine.for %arg3 = 0 to 64 {
            %133 = memref.alloc() {name = "read_addr_645"} : memref<1xi65>
            %c128_i32 = arith.constant 128 : i32
            %134 = arith.index_cast %arg2 : index to i64
            %135 = arith.extsi %c128_i32 : i32 to i64
            %136 = arith.muli %134, %135 : i64
            %137 = arith.extsi %136 : i64 to i65
            %138 = arith.index_cast %arg3 : index to i65
            %139 = arith.addi %137, %138 : i65
            affine.store %139, %133[%c0] {to = "read_addr_645"} : memref<1xi65>
            %140 = memref.alloc() {name = "_addr_646"} : memref<1xi65>
            %141 = affine.load %133[0] {from = "read_addr_645"} : memref<1xi65>
            affine.store %141, %140[%c0] {to = "_addr_646"} : memref<1xi65>
            %142 = memref.alloc() {name = "assert_cond_647"} : memref<1xi1>
            %143 = affine.load %140[0] {from = "_addr_646"} : memref<1xi65>
            %144 = arith.extsi %143 : i65 to i66
            %145 = arith.extsi %c1_i32 : i32 to i66
            %146 = arith.addi %144, %145 : i66
            %c8192_i32 = arith.constant 8192 : i32
            %147 = arith.extsi %c8192_i32 : i32 to i66
            %148 = arith.cmpi sle, %146, %147 : i66
            affine.store %148, %142[%c0] {to = "assert_cond_647", unsigned} : memref<1xi1>
            %149 = affine.load %142[0] {from = "assert_cond_647", unsigned} : memref<1xi1>
            %150 = arith.extui %149 : i1 to i32
            %151 = arith.cmpi eq, %150, %c0_i32 : i32
            scf.if %151 {
              %183 = affine.load %140[0] {from = "_addr_646"} : memref<1xi65>
              %184 = arith.extsi %183 : i65 to i66
              %185 = arith.addi %184, %145 : i66
              hcl.print(%183, %185) {format = "\0A\0AAssertion failed {}: nttdataouttop Mem.read exceeds memory size: addr=%d+size=%d > 8192\0A\0A", signedness = "__"} : i65, i66
              scf.while : () -> () {
                %186 = affine.load %142[0] {from = "assert_cond_647", unsigned} : memref<1xi1>
                %187 = arith.extui %186 : i1 to i32
                %188 = arith.cmpi ne, %187, %c1_i32 : i32
                scf.condition(%188)
              } do {
                affine.store %3, %142[0] {to = "assert_cond_647", unsigned} : memref<1xi1>
                scf.yield
              }
            }
            %152 = memref.alloc() {name = "Mem.read_c_93"} : memref<1xi32>
            %153 = affine.load %133[0] {from = "read_addr_645"} : memref<1xi65>
            %154 = arith.extsi %153 : i65 to i66
            %155 = arith.index_cast %c0 : index to i66
            %156 = arith.addi %154, %155 : i66
            %157 = arith.index_cast %156 {unsigned} : i66 to index
            %158 = memref.load %53[%157] {from = "nttdataouttop.alloc_c", unsigned} : memref<8192xi32>
            affine.store %158, %152[%c0] {to = "Mem.read_c_93", unsigned} : memref<1xi32>
            %159 = memref.alloc() {name = "write_addr_648"} : memref<1xi66>
            %c64_i32 = arith.constant 64 : i32
            %160 = arith.extsi %c64_i32 : i32 to i64
            %161 = arith.muli %134, %160 : i64
            %162 = arith.extsi %c0_i32 : i32 to i65
            %163 = arith.extsi %161 : i64 to i65
            %164 = arith.addi %162, %163 : i65
            %165 = arith.extsi %164 : i65 to i66
            %166 = arith.index_cast %arg3 : index to i66
            %167 = arith.addi %165, %166 : i66
            affine.store %167, %159[%c0] {to = "write_addr_648"} : memref<1xi66>
            %168 = memref.alloc() {name = "_addr_649"} : memref<1xi66>
            %169 = affine.load %159[0] {from = "write_addr_648"} : memref<1xi66>
            affine.store %169, %168[%c0] {to = "_addr_649"} : memref<1xi66>
            %170 = memref.alloc() {name = "assert_cond_650"} : memref<1xi1>
            %171 = affine.load %168[0] {from = "_addr_649"} : memref<1xi66>
            %172 = arith.extsi %171 : i66 to i67
            %173 = arith.extsi %c1_i32 : i32 to i67
            %174 = arith.addi %172, %173 : i67
            %175 = arith.extsi %c8192_i32 : i32 to i67
            %176 = arith.cmpi sle, %174, %175 : i67
            affine.store %176, %170[%c0] {to = "assert_cond_650", unsigned} : memref<1xi1>
            %177 = affine.load %170[0] {from = "assert_cond_650", unsigned} : memref<1xi1>
            %178 = arith.extui %177 : i1 to i32
            %179 = arith.cmpi eq, %178, %c0_i32 : i32
            scf.if %179 {
              %183 = affine.load %168[0] {from = "_addr_649"} : memref<1xi66>
              %184 = arith.extsi %183 : i66 to i67
              %185 = arith.addi %184, %173 : i67
              hcl.print(%183, %185) {format = "\0A\0AAssertion failed {}: nttdataintop Mem.write exceeds memory size: addr=%d+size=%d > 8192\0A\0A", signedness = "__"} : i66, i67
              scf.while : () -> () {
                %186 = affine.load %170[0] {from = "assert_cond_650", unsigned} : memref<1xi1>
                %187 = arith.extui %186 : i1 to i32
                %188 = arith.cmpi ne, %187, %c1_i32 : i32
                scf.condition(%188)
              } do {
                affine.store %3, %170[0] {to = "assert_cond_650", unsigned} : memref<1xi1>
                scf.yield
              }
            }
            %180 = affine.load %152[0] {from = "Mem.read_c_93", unsigned} : memref<1xi32>
            %181 = affine.load %159[0] {from = "write_addr_648"} : memref<1xi66>
            %182 = arith.index_cast %181 {unsigned} : i66 to index
            memref.store %180, %51[%182] {to = "nttdataintop.alloc_c", unsigned} : memref<8192xi32>
          } {loop_name = "j", op_name = "ot64"}
          affine.for %arg3 = 0 to 64 {
            %133 = memref.alloc() {name = "read_addr_651"} : memref<1xi66>
            %c128_i32 = arith.constant 128 : i32
            %134 = arith.index_cast %arg2 : index to i64
            %135 = arith.extsi %c128_i32 : i32 to i64
            %136 = arith.muli %134, %135 : i64
            %c64_i32 = arith.constant 64 : i32
            %137 = arith.extsi %136 : i64 to i65
            %138 = arith.extsi %c64_i32 : i32 to i65
            %139 = arith.addi %137, %138 : i65
            %140 = arith.extsi %139 : i65 to i66
            %141 = arith.index_cast %arg3 : index to i66
            %142 = arith.addi %140, %141 : i66
            affine.store %142, %133[%c0] {to = "read_addr_651"} : memref<1xi66>
            %143 = memref.alloc() {name = "_addr_652"} : memref<1xi66>
            %144 = affine.load %133[0] {from = "read_addr_651"} : memref<1xi66>
            affine.store %144, %143[%c0] {to = "_addr_652"} : memref<1xi66>
            %145 = memref.alloc() {name = "assert_cond_653"} : memref<1xi1>
            %146 = affine.load %143[0] {from = "_addr_652"} : memref<1xi66>
            %147 = arith.extsi %146 : i66 to i67
            %148 = arith.extsi %c1_i32 : i32 to i67
            %149 = arith.addi %147, %148 : i67
            %c8192_i32 = arith.constant 8192 : i32
            %150 = arith.extsi %c8192_i32 : i32 to i67
            %151 = arith.cmpi sle, %149, %150 : i67
            affine.store %151, %145[%c0] {to = "assert_cond_653", unsigned} : memref<1xi1>
            %152 = affine.load %145[0] {from = "assert_cond_653", unsigned} : memref<1xi1>
            %153 = arith.extui %152 : i1 to i32
            %154 = arith.cmpi eq, %153, %c0_i32 : i32
            scf.if %154 {
              %183 = affine.load %143[0] {from = "_addr_652"} : memref<1xi66>
              %184 = arith.extsi %183 : i66 to i67
              %185 = arith.addi %184, %148 : i67
              hcl.print(%183, %185) {format = "\0A\0AAssertion failed {}: nttdataouttop Mem.read exceeds memory size: addr=%d+size=%d > 8192\0A\0A", signedness = "__"} : i66, i67
              scf.while : () -> () {
                %186 = affine.load %145[0] {from = "assert_cond_653", unsigned} : memref<1xi1>
                %187 = arith.extui %186 : i1 to i32
                %188 = arith.cmpi ne, %187, %c1_i32 : i32
                scf.condition(%188)
              } do {
                affine.store %3, %145[0] {to = "assert_cond_653", unsigned} : memref<1xi1>
                scf.yield
              }
            }
            %155 = memref.alloc() {name = "Mem.read_c_95"} : memref<1xi32>
            %156 = affine.load %133[0] {from = "read_addr_651"} : memref<1xi66>
            %157 = arith.extsi %156 : i66 to i67
            %158 = arith.index_cast %c0 : index to i67
            %159 = arith.addi %157, %158 : i67
            %160 = arith.index_cast %159 {unsigned} : i67 to index
            %161 = memref.load %53[%160] {from = "nttdataouttop.alloc_c", unsigned} : memref<8192xi32>
            affine.store %161, %155[%c0] {to = "Mem.read_c_95", unsigned} : memref<1xi32>
            %162 = memref.alloc() {name = "write_addr_654"} : memref<1xi66>
            %163 = arith.extsi %c64_i32 : i32 to i64
            %164 = arith.muli %134, %163 : i64
            %165 = arith.extsi %c0_i32 : i32 to i65
            %166 = arith.extsi %164 : i64 to i65
            %167 = arith.addi %165, %166 : i65
            %168 = arith.extsi %167 : i65 to i66
            %169 = arith.addi %168, %141 : i66
            affine.store %169, %162[%c0] {to = "write_addr_654"} : memref<1xi66>
            %170 = memref.alloc() {name = "_addr_655"} : memref<1xi66>
            %171 = affine.load %162[0] {from = "write_addr_654"} : memref<1xi66>
            affine.store %171, %170[%c0] {to = "_addr_655"} : memref<1xi66>
            %172 = memref.alloc() {name = "assert_cond_656"} : memref<1xi1>
            %173 = affine.load %170[0] {from = "_addr_655"} : memref<1xi66>
            %174 = arith.extsi %173 : i66 to i67
            %175 = arith.addi %174, %148 : i67
            %176 = arith.cmpi sle, %175, %150 : i67
            affine.store %176, %172[%c0] {to = "assert_cond_656", unsigned} : memref<1xi1>
            %177 = affine.load %172[0] {from = "assert_cond_656", unsigned} : memref<1xi1>
            %178 = arith.extui %177 : i1 to i32
            %179 = arith.cmpi eq, %178, %c0_i32 : i32
            scf.if %179 {
              %183 = affine.load %170[0] {from = "_addr_655"} : memref<1xi66>
              %184 = arith.extsi %183 : i66 to i67
              %185 = arith.addi %184, %148 : i67
              hcl.print(%183, %185) {format = "\0A\0AAssertion failed {}: nttdatainbot Mem.write exceeds memory size: addr=%d+size=%d > 8192\0A\0A", signedness = "__"} : i66, i67
              scf.while : () -> () {
                %186 = affine.load %172[0] {from = "assert_cond_656", unsigned} : memref<1xi1>
                %187 = arith.extui %186 : i1 to i32
                %188 = arith.cmpi ne, %187, %c1_i32 : i32
                scf.condition(%188)
              } do {
                affine.store %3, %172[0] {to = "assert_cond_656", unsigned} : memref<1xi1>
                scf.yield
              }
            }
            %180 = affine.load %155[0] {from = "Mem.read_c_95", unsigned} : memref<1xi32>
            %181 = affine.load %162[0] {from = "write_addr_654"} : memref<1xi66>
            %182 = arith.index_cast %181 {unsigned} : i66 to index
            memref.store %180, %52[%182] {to = "nttdatainbot.alloc_c", unsigned} : memref<8192xi32>
          } {loop_name = "j", op_name = "ot64_94"}
        } {loop_name = "i", op_name = "ntt_out_swizzle_ot"}
        affine.for %arg2 = 0 to 64 {
          affine.for %arg3 = 0 to 64 {
            %133 = memref.alloc() {name = "read_addr_657"} : memref<1xi65>
            %c128_i32 = arith.constant 128 : i32
            %134 = arith.index_cast %arg2 : index to i64
            %135 = arith.extsi %c128_i32 : i32 to i64
            %136 = arith.muli %134, %135 : i64
            %137 = arith.extsi %136 : i64 to i65
            %138 = arith.index_cast %arg3 : index to i65
            %139 = arith.addi %137, %138 : i65
            affine.store %139, %133[%c0] {to = "read_addr_657"} : memref<1xi65>
            %140 = memref.alloc() {name = "_addr_658"} : memref<1xi65>
            %141 = affine.load %133[0] {from = "read_addr_657"} : memref<1xi65>
            affine.store %141, %140[%c0] {to = "_addr_658"} : memref<1xi65>
            %142 = memref.alloc() {name = "assert_cond_659"} : memref<1xi1>
            %143 = affine.load %140[0] {from = "_addr_658"} : memref<1xi65>
            %144 = arith.extsi %143 : i65 to i66
            %145 = arith.extsi %c1_i32 : i32 to i66
            %146 = arith.addi %144, %145 : i66
            %c8192_i32 = arith.constant 8192 : i32
            %147 = arith.extsi %c8192_i32 : i32 to i66
            %148 = arith.cmpi sle, %146, %147 : i66
            affine.store %148, %142[%c0] {to = "assert_cond_659", unsigned} : memref<1xi1>
            %149 = affine.load %142[0] {from = "assert_cond_659", unsigned} : memref<1xi1>
            %150 = arith.extui %149 : i1 to i32
            %151 = arith.cmpi eq, %150, %c0_i32 : i32
            scf.if %151 {
              %183 = affine.load %140[0] {from = "_addr_658"} : memref<1xi65>
              %184 = arith.extsi %183 : i65 to i66
              %185 = arith.addi %184, %145 : i66
              hcl.print(%183, %185) {format = "\0A\0AAssertion failed {}: nttdataoutbot Mem.read exceeds memory size: addr=%d+size=%d > 8192\0A\0A", signedness = "__"} : i65, i66
              scf.while : () -> () {
                %186 = affine.load %142[0] {from = "assert_cond_659", unsigned} : memref<1xi1>
                %187 = arith.extui %186 : i1 to i32
                %188 = arith.cmpi ne, %187, %c1_i32 : i32
                scf.condition(%188)
              } do {
                affine.store %3, %142[0] {to = "assert_cond_659", unsigned} : memref<1xi1>
                scf.yield
              }
            }
            %152 = memref.alloc() {name = "Mem.read_c_98"} : memref<1xi32>
            %153 = affine.load %133[0] {from = "read_addr_657"} : memref<1xi65>
            %154 = arith.extsi %153 : i65 to i66
            %155 = arith.index_cast %c0 : index to i66
            %156 = arith.addi %154, %155 : i66
            %157 = arith.index_cast %156 {unsigned} : i66 to index
            %158 = memref.load %54[%157] {from = "nttdataoutbot.alloc_c", unsigned} : memref<8192xi32>
            affine.store %158, %152[%c0] {to = "Mem.read_c_98", unsigned} : memref<1xi32>
            %159 = memref.alloc() {name = "write_addr_660"} : memref<1xi66>
            %c4096_i32 = arith.constant 4096 : i32
            %c64_i32 = arith.constant 64 : i32
            %160 = arith.extsi %c64_i32 : i32 to i64
            %161 = arith.muli %134, %160 : i64
            %162 = arith.extsi %c4096_i32 : i32 to i65
            %163 = arith.extsi %161 : i64 to i65
            %164 = arith.addi %162, %163 : i65
            %165 = arith.extsi %164 : i65 to i66
            %166 = arith.index_cast %arg3 : index to i66
            %167 = arith.addi %165, %166 : i66
            affine.store %167, %159[%c0] {to = "write_addr_660"} : memref<1xi66>
            %168 = memref.alloc() {name = "_addr_661"} : memref<1xi66>
            %169 = affine.load %159[0] {from = "write_addr_660"} : memref<1xi66>
            affine.store %169, %168[%c0] {to = "_addr_661"} : memref<1xi66>
            %170 = memref.alloc() {name = "assert_cond_662"} : memref<1xi1>
            %171 = affine.load %168[0] {from = "_addr_661"} : memref<1xi66>
            %172 = arith.extsi %171 : i66 to i67
            %173 = arith.extsi %c1_i32 : i32 to i67
            %174 = arith.addi %172, %173 : i67
            %175 = arith.extsi %c8192_i32 : i32 to i67
            %176 = arith.cmpi sle, %174, %175 : i67
            affine.store %176, %170[%c0] {to = "assert_cond_662", unsigned} : memref<1xi1>
            %177 = affine.load %170[0] {from = "assert_cond_662", unsigned} : memref<1xi1>
            %178 = arith.extui %177 : i1 to i32
            %179 = arith.cmpi eq, %178, %c0_i32 : i32
            scf.if %179 {
              %183 = affine.load %168[0] {from = "_addr_661"} : memref<1xi66>
              %184 = arith.extsi %183 : i66 to i67
              %185 = arith.addi %184, %173 : i67
              hcl.print(%183, %185) {format = "\0A\0AAssertion failed {}: nttdataintop Mem.write exceeds memory size: addr=%d+size=%d > 8192\0A\0A", signedness = "__"} : i66, i67
              scf.while : () -> () {
                %186 = affine.load %170[0] {from = "assert_cond_662", unsigned} : memref<1xi1>
                %187 = arith.extui %186 : i1 to i32
                %188 = arith.cmpi ne, %187, %c1_i32 : i32
                scf.condition(%188)
              } do {
                affine.store %3, %170[0] {to = "assert_cond_662", unsigned} : memref<1xi1>
                scf.yield
              }
            }
            %180 = affine.load %152[0] {from = "Mem.read_c_98", unsigned} : memref<1xi32>
            %181 = affine.load %159[0] {from = "write_addr_660"} : memref<1xi66>
            %182 = arith.index_cast %181 {unsigned} : i66 to index
            memref.store %180, %51[%182] {to = "nttdataintop.alloc_c", unsigned} : memref<8192xi32>
          } {loop_name = "j", op_name = "ot64_97"}
          affine.for %arg3 = 0 to 64 {
            %133 = memref.alloc() {name = "read_addr_663"} : memref<1xi66>
            %c128_i32 = arith.constant 128 : i32
            %134 = arith.index_cast %arg2 : index to i64
            %135 = arith.extsi %c128_i32 : i32 to i64
            %136 = arith.muli %134, %135 : i64
            %c64_i32 = arith.constant 64 : i32
            %137 = arith.extsi %136 : i64 to i65
            %138 = arith.extsi %c64_i32 : i32 to i65
            %139 = arith.addi %137, %138 : i65
            %140 = arith.extsi %139 : i65 to i66
            %141 = arith.index_cast %arg3 : index to i66
            %142 = arith.addi %140, %141 : i66
            affine.store %142, %133[%c0] {to = "read_addr_663"} : memref<1xi66>
            %143 = memref.alloc() {name = "_addr_664"} : memref<1xi66>
            %144 = affine.load %133[0] {from = "read_addr_663"} : memref<1xi66>
            affine.store %144, %143[%c0] {to = "_addr_664"} : memref<1xi66>
            %145 = memref.alloc() {name = "assert_cond_665"} : memref<1xi1>
            %146 = affine.load %143[0] {from = "_addr_664"} : memref<1xi66>
            %147 = arith.extsi %146 : i66 to i67
            %148 = arith.extsi %c1_i32 : i32 to i67
            %149 = arith.addi %147, %148 : i67
            %c8192_i32 = arith.constant 8192 : i32
            %150 = arith.extsi %c8192_i32 : i32 to i67
            %151 = arith.cmpi sle, %149, %150 : i67
            affine.store %151, %145[%c0] {to = "assert_cond_665", unsigned} : memref<1xi1>
            %152 = affine.load %145[0] {from = "assert_cond_665", unsigned} : memref<1xi1>
            %153 = arith.extui %152 : i1 to i32
            %154 = arith.cmpi eq, %153, %c0_i32 : i32
            scf.if %154 {
              %183 = affine.load %143[0] {from = "_addr_664"} : memref<1xi66>
              %184 = arith.extsi %183 : i66 to i67
              %185 = arith.addi %184, %148 : i67
              hcl.print(%183, %185) {format = "\0A\0AAssertion failed {}: nttdataoutbot Mem.read exceeds memory size: addr=%d+size=%d > 8192\0A\0A", signedness = "__"} : i66, i67
              scf.while : () -> () {
                %186 = affine.load %145[0] {from = "assert_cond_665", unsigned} : memref<1xi1>
                %187 = arith.extui %186 : i1 to i32
                %188 = arith.cmpi ne, %187, %c1_i32 : i32
                scf.condition(%188)
              } do {
                affine.store %3, %145[0] {to = "assert_cond_665", unsigned} : memref<1xi1>
                scf.yield
              }
            }
            %155 = memref.alloc() {name = "Mem.read_c_100"} : memref<1xi32>
            %156 = affine.load %133[0] {from = "read_addr_663"} : memref<1xi66>
            %157 = arith.extsi %156 : i66 to i67
            %158 = arith.index_cast %c0 : index to i67
            %159 = arith.addi %157, %158 : i67
            %160 = arith.index_cast %159 {unsigned} : i67 to index
            %161 = memref.load %54[%160] {from = "nttdataoutbot.alloc_c", unsigned} : memref<8192xi32>
            affine.store %161, %155[%c0] {to = "Mem.read_c_100", unsigned} : memref<1xi32>
            %162 = memref.alloc() {name = "write_addr_666"} : memref<1xi66>
            %c4096_i32 = arith.constant 4096 : i32
            %163 = arith.extsi %c64_i32 : i32 to i64
            %164 = arith.muli %134, %163 : i64
            %165 = arith.extsi %c4096_i32 : i32 to i65
            %166 = arith.extsi %164 : i64 to i65
            %167 = arith.addi %165, %166 : i65
            %168 = arith.extsi %167 : i65 to i66
            %169 = arith.addi %168, %141 : i66
            affine.store %169, %162[%c0] {to = "write_addr_666"} : memref<1xi66>
            %170 = memref.alloc() {name = "_addr_667"} : memref<1xi66>
            %171 = affine.load %162[0] {from = "write_addr_666"} : memref<1xi66>
            affine.store %171, %170[%c0] {to = "_addr_667"} : memref<1xi66>
            %172 = memref.alloc() {name = "assert_cond_668"} : memref<1xi1>
            %173 = affine.load %170[0] {from = "_addr_667"} : memref<1xi66>
            %174 = arith.extsi %173 : i66 to i67
            %175 = arith.addi %174, %148 : i67
            %176 = arith.cmpi sle, %175, %150 : i67
            affine.store %176, %172[%c0] {to = "assert_cond_668", unsigned} : memref<1xi1>
            %177 = affine.load %172[0] {from = "assert_cond_668", unsigned} : memref<1xi1>
            %178 = arith.extui %177 : i1 to i32
            %179 = arith.cmpi eq, %178, %c0_i32 : i32
            scf.if %179 {
              %183 = affine.load %170[0] {from = "_addr_667"} : memref<1xi66>
              %184 = arith.extsi %183 : i66 to i67
              %185 = arith.addi %184, %148 : i67
              hcl.print(%183, %185) {format = "\0A\0AAssertion failed {}: nttdatainbot Mem.write exceeds memory size: addr=%d+size=%d > 8192\0A\0A", signedness = "__"} : i66, i67
              scf.while : () -> () {
                %186 = affine.load %172[0] {from = "assert_cond_668", unsigned} : memref<1xi1>
                %187 = arith.extui %186 : i1 to i32
                %188 = arith.cmpi ne, %187, %c1_i32 : i32
                scf.condition(%188)
              } do {
                affine.store %3, %172[0] {to = "assert_cond_668", unsigned} : memref<1xi1>
                scf.yield
              }
            }
            %180 = affine.load %155[0] {from = "Mem.read_c_100", unsigned} : memref<1xi32>
            %181 = affine.load %162[0] {from = "write_addr_666"} : memref<1xi66>
            %182 = arith.index_cast %181 {unsigned} : i66 to index
            memref.store %180, %52[%182] {to = "nttdatainbot.alloc_c", unsigned} : memref<8192xi32>
          } {loop_name = "j", op_name = "ot64_99"}
        } {loop_name = "i", op_name = "ntt_out_swizzle_ob"}
      } else {
        %133 = affine.load %46[0] {from = "flag_intt", unsigned} : memref<1xi1>
        %134 = arith.extui %133 : i1 to i32
        %135 = arith.cmpi ne, %134, %c0_i32 : i32
        scf.if %135 {
          affine.for %arg2 = 0 to 128 {
            affine.for %arg3 = 0 to 32 {
              %136 = memref.alloc() {name = "read_addr_669"} : memref<1xi66>
              %c64_i32 = arith.constant 64 : i32
              %137 = arith.index_cast %arg2 : index to i64
              %138 = arith.extsi %c64_i32 : i32 to i64
              %139 = arith.muli %137, %138 : i64
              %140 = arith.extsi %139 : i64 to i65
              %141 = arith.extsi %c0_i32 : i32 to i65
              %142 = arith.addi %140, %141 : i65
              %143 = arith.extsi %142 : i65 to i66
              %144 = arith.index_cast %arg3 : index to i66
              %145 = arith.addi %143, %144 : i66
              affine.store %145, %136[%c0] {to = "read_addr_669"} : memref<1xi66>
              %146 = memref.alloc() {name = "_addr_670"} : memref<1xi66>
              %147 = affine.load %136[0] {from = "read_addr_669"} : memref<1xi66>
              affine.store %147, %146[%c0] {to = "_addr_670"} : memref<1xi66>
              %148 = memref.alloc() {name = "assert_cond_671"} : memref<1xi1>
              %149 = affine.load %146[0] {from = "_addr_670"} : memref<1xi66>
              %150 = arith.extsi %149 : i66 to i67
              %151 = arith.extsi %c1_i32 : i32 to i67
              %152 = arith.addi %150, %151 : i67
              %c8192_i32 = arith.constant 8192 : i32
              %153 = arith.extsi %c8192_i32 : i32 to i67
              %154 = arith.cmpi sle, %152, %153 : i67
              affine.store %154, %148[%c0] {to = "assert_cond_671", unsigned} : memref<1xi1>
              %155 = affine.load %148[0] {from = "assert_cond_671", unsigned} : memref<1xi1>
              %156 = arith.extui %155 : i1 to i32
              %157 = arith.cmpi eq, %156, %c0_i32 : i32
              scf.if %157 {
                %219 = affine.load %146[0] {from = "_addr_670"} : memref<1xi66>
                %220 = arith.extsi %219 : i66 to i67
                %221 = arith.addi %220, %151 : i67
                hcl.print(%219, %221) {format = "\0A\0AAssertion failed {}: inttdataouttop Mem.read exceeds memory size: addr=%d+size=%d > 8192\0A\0A", signedness = "__"} : i66, i67
                scf.while : () -> () {
                  %222 = affine.load %148[0] {from = "assert_cond_671", unsigned} : memref<1xi1>
                  %223 = arith.extui %222 : i1 to i32
                  %224 = arith.cmpi ne, %223, %c1_i32 : i32
                  scf.condition(%224)
                } do {
                  affine.store %3, %148[0] {to = "assert_cond_671", unsigned} : memref<1xi1>
                  scf.yield
                }
              }
              %158 = memref.alloc() {name = "Mem.read_c_103"} : memref<1xi32>
              %159 = affine.load %136[0] {from = "read_addr_669"} : memref<1xi66>
              %160 = arith.extsi %159 : i66 to i67
              %161 = arith.index_cast %c0 : index to i67
              %162 = arith.addi %160, %161 : i67
              %163 = arith.index_cast %162 {unsigned} : i67 to index
              %164 = memref.load %57[%163] {from = "inttdataouttop.alloc_c", unsigned} : memref<8192xi32>
              affine.store %164, %158[%c0] {to = "Mem.read_c_103", unsigned} : memref<1xi32>
              %165 = memref.alloc() {name = "write_addr_672"} : memref<1xi65>
              %c2_i32 = arith.constant 2 : i32
              %166 = arith.extsi %c2_i32 : i32 to i64
              %167 = arith.index_cast %arg3 : index to i64
              %168 = arith.muli %166, %167 : i64
              %169 = arith.extsi %168 : i64 to i65
              %170 = arith.addi %140, %169 : i65
              affine.store %170, %165[%c0] {to = "write_addr_672"} : memref<1xi65>
              %171 = memref.alloc() {name = "_addr_673"} : memref<1xi65>
              %172 = affine.load %165[0] {from = "write_addr_672"} : memref<1xi65>
              affine.store %172, %171[%c0] {to = "_addr_673"} : memref<1xi65>
              %173 = memref.alloc() {name = "assert_cond_674"} : memref<1xi1>
              %174 = affine.load %171[0] {from = "_addr_673"} : memref<1xi65>
              %175 = arith.extsi %174 : i65 to i66
              %176 = arith.extsi %c1_i32 : i32 to i66
              %177 = arith.addi %175, %176 : i66
              %178 = arith.extsi %c8192_i32 : i32 to i66
              %179 = arith.cmpi sle, %177, %178 : i66
              affine.store %179, %173[%c0] {to = "assert_cond_674", unsigned} : memref<1xi1>
              %180 = affine.load %173[0] {from = "assert_cond_674", unsigned} : memref<1xi1>
              %181 = arith.extui %180 : i1 to i32
              %182 = arith.cmpi eq, %181, %c0_i32 : i32
              scf.if %182 {
                %219 = affine.load %171[0] {from = "_addr_673"} : memref<1xi65>
                %220 = arith.extsi %219 : i65 to i66
                %221 = arith.addi %220, %176 : i66
                hcl.print(%219, %221) {format = "\0A\0AAssertion failed {}: inttdataintop Mem.write exceeds memory size: addr=%d+size=%d > 8192\0A\0A", signedness = "__"} : i65, i66
                scf.while : () -> () {
                  %222 = affine.load %173[0] {from = "assert_cond_674", unsigned} : memref<1xi1>
                  %223 = arith.extui %222 : i1 to i32
                  %224 = arith.cmpi ne, %223, %c1_i32 : i32
                  scf.condition(%224)
                } do {
                  affine.store %3, %173[0] {to = "assert_cond_674", unsigned} : memref<1xi1>
                  scf.yield
                }
              }
              %183 = affine.load %158[0] {from = "Mem.read_c_103", unsigned} : memref<1xi32>
              %184 = affine.load %165[0] {from = "write_addr_672"} : memref<1xi65>
              %185 = arith.index_cast %184 {unsigned} : i65 to index
              memref.store %183, %55[%185] {to = "inttdataintop.alloc_c", unsigned} : memref<8192xi32>
              %186 = memref.alloc() {name = "read_addr_675"} : memref<1xi66>
              affine.store %145, %186[%c0] {to = "read_addr_675"} : memref<1xi66>
              %187 = memref.alloc() {name = "_addr_676"} : memref<1xi66>
              %188 = affine.load %186[0] {from = "read_addr_675"} : memref<1xi66>
              affine.store %188, %187[%c0] {to = "_addr_676"} : memref<1xi66>
              %189 = memref.alloc() {name = "assert_cond_677"} : memref<1xi1>
              %190 = affine.load %187[0] {from = "_addr_676"} : memref<1xi66>
              %191 = arith.extsi %190 : i66 to i67
              %192 = arith.addi %191, %151 : i67
              %193 = arith.cmpi sle, %192, %153 : i67
              affine.store %193, %189[%c0] {to = "assert_cond_677", unsigned} : memref<1xi1>
              %194 = affine.load %189[0] {from = "assert_cond_677", unsigned} : memref<1xi1>
              %195 = arith.extui %194 : i1 to i32
              %196 = arith.cmpi eq, %195, %c0_i32 : i32
              scf.if %196 {
                %219 = affine.load %187[0] {from = "_addr_676"} : memref<1xi66>
                %220 = arith.extsi %219 : i66 to i67
                %221 = arith.addi %220, %151 : i67
                hcl.print(%219, %221) {format = "\0A\0AAssertion failed {}: inttdataoutbot Mem.read exceeds memory size: addr=%d+size=%d > 8192\0A\0A", signedness = "__"} : i66, i67
                scf.while : () -> () {
                  %222 = affine.load %189[0] {from = "assert_cond_677", unsigned} : memref<1xi1>
                  %223 = arith.extui %222 : i1 to i32
                  %224 = arith.cmpi ne, %223, %c1_i32 : i32
                  scf.condition(%224)
                } do {
                  affine.store %3, %189[0] {to = "assert_cond_677", unsigned} : memref<1xi1>
                  scf.yield
                }
              }
              %197 = memref.alloc() {name = "Mem.read_c_104"} : memref<1xi32>
              %198 = affine.load %186[0] {from = "read_addr_675"} : memref<1xi66>
              %199 = arith.extsi %198 : i66 to i67
              %200 = arith.addi %199, %161 : i67
              %201 = arith.index_cast %200 {unsigned} : i67 to index
              %202 = memref.load %58[%201] {from = "inttdataoutbot.alloc_c", unsigned} : memref<8192xi32>
              affine.store %202, %197[%c0] {to = "Mem.read_c_104", unsigned} : memref<1xi32>
              %203 = memref.alloc() {name = "write_addr_678"} : memref<1xi66>
              %204 = arith.extsi %170 : i65 to i66
              %205 = arith.addi %204, %176 : i66
              affine.store %205, %203[%c0] {to = "write_addr_678"} : memref<1xi66>
              %206 = memref.alloc() {name = "_addr_679"} : memref<1xi66>
              %207 = affine.load %203[0] {from = "write_addr_678"} : memref<1xi66>
              affine.store %207, %206[%c0] {to = "_addr_679"} : memref<1xi66>
              %208 = memref.alloc() {name = "assert_cond_680"} : memref<1xi1>
              %209 = affine.load %206[0] {from = "_addr_679"} : memref<1xi66>
              %210 = arith.extsi %209 : i66 to i67
              %211 = arith.addi %210, %151 : i67
              %212 = arith.cmpi sle, %211, %153 : i67
              affine.store %212, %208[%c0] {to = "assert_cond_680", unsigned} : memref<1xi1>
              %213 = affine.load %208[0] {from = "assert_cond_680", unsigned} : memref<1xi1>
              %214 = arith.extui %213 : i1 to i32
              %215 = arith.cmpi eq, %214, %c0_i32 : i32
              scf.if %215 {
                %219 = affine.load %206[0] {from = "_addr_679"} : memref<1xi66>
                %220 = arith.extsi %219 : i66 to i67
                %221 = arith.addi %220, %151 : i67
                hcl.print(%219, %221) {format = "\0A\0AAssertion failed {}: inttdataintop Mem.write exceeds memory size: addr=%d+size=%d > 8192\0A\0A", signedness = "__"} : i66, i67
                scf.while : () -> () {
                  %222 = affine.load %208[0] {from = "assert_cond_680", unsigned} : memref<1xi1>
                  %223 = arith.extui %222 : i1 to i32
                  %224 = arith.cmpi ne, %223, %c1_i32 : i32
                  scf.condition(%224)
                } do {
                  affine.store %3, %208[0] {to = "assert_cond_680", unsigned} : memref<1xi1>
                  scf.yield
                }
              }
              %216 = affine.load %197[0] {from = "Mem.read_c_104", unsigned} : memref<1xi32>
              %217 = affine.load %203[0] {from = "write_addr_678"} : memref<1xi66>
              %218 = arith.index_cast %217 {unsigned} : i66 to index
              memref.store %216, %55[%218] {to = "inttdataintop.alloc_c", unsigned} : memref<8192xi32>
            } {loop_name = "j", op_name = "nttin_even_odd_arf_102"}
            affine.for %arg3 = 0 to 32 {
              %136 = memref.alloc() {name = "read_addr_681"} : memref<1xi66>
              %c64_i32 = arith.constant 64 : i32
              %137 = arith.index_cast %arg2 : index to i64
              %138 = arith.extsi %c64_i32 : i32 to i64
              %139 = arith.muli %137, %138 : i64
              %c32_i32 = arith.constant 32 : i32
              %140 = arith.extsi %139 : i64 to i65
              %141 = arith.extsi %c32_i32 : i32 to i65
              %142 = arith.addi %140, %141 : i65
              %143 = arith.extsi %142 : i65 to i66
              %144 = arith.index_cast %arg3 : index to i66
              %145 = arith.addi %143, %144 : i66
              affine.store %145, %136[%c0] {to = "read_addr_681"} : memref<1xi66>
              %146 = memref.alloc() {name = "_addr_682"} : memref<1xi66>
              %147 = affine.load %136[0] {from = "read_addr_681"} : memref<1xi66>
              affine.store %147, %146[%c0] {to = "_addr_682"} : memref<1xi66>
              %148 = memref.alloc() {name = "assert_cond_683"} : memref<1xi1>
              %149 = affine.load %146[0] {from = "_addr_682"} : memref<1xi66>
              %150 = arith.extsi %149 : i66 to i67
              %151 = arith.extsi %c1_i32 : i32 to i67
              %152 = arith.addi %150, %151 : i67
              %c8192_i32 = arith.constant 8192 : i32
              %153 = arith.extsi %c8192_i32 : i32 to i67
              %154 = arith.cmpi sle, %152, %153 : i67
              affine.store %154, %148[%c0] {to = "assert_cond_683", unsigned} : memref<1xi1>
              %155 = affine.load %148[0] {from = "assert_cond_683", unsigned} : memref<1xi1>
              %156 = arith.extui %155 : i1 to i32
              %157 = arith.cmpi eq, %156, %c0_i32 : i32
              scf.if %157 {
                %219 = affine.load %146[0] {from = "_addr_682"} : memref<1xi66>
                %220 = arith.extsi %219 : i66 to i67
                %221 = arith.addi %220, %151 : i67
                hcl.print(%219, %221) {format = "\0A\0AAssertion failed {}: inttdataouttop Mem.read exceeds memory size: addr=%d+size=%d > 8192\0A\0A", signedness = "__"} : i66, i67
                scf.while : () -> () {
                  %222 = affine.load %148[0] {from = "assert_cond_683", unsigned} : memref<1xi1>
                  %223 = arith.extui %222 : i1 to i32
                  %224 = arith.cmpi ne, %223, %c1_i32 : i32
                  scf.condition(%224)
                } do {
                  affine.store %3, %148[0] {to = "assert_cond_683", unsigned} : memref<1xi1>
                  scf.yield
                }
              }
              %158 = memref.alloc() {name = "Mem.read_c_106"} : memref<1xi32>
              %159 = affine.load %136[0] {from = "read_addr_681"} : memref<1xi66>
              %160 = arith.extsi %159 : i66 to i67
              %161 = arith.index_cast %c0 : index to i67
              %162 = arith.addi %160, %161 : i67
              %163 = arith.index_cast %162 {unsigned} : i67 to index
              %164 = memref.load %57[%163] {from = "inttdataouttop.alloc_c", unsigned} : memref<8192xi32>
              affine.store %164, %158[%c0] {to = "Mem.read_c_106", unsigned} : memref<1xi32>
              %165 = memref.alloc() {name = "write_addr_684"} : memref<1xi65>
              %c2_i32 = arith.constant 2 : i32
              %166 = arith.extsi %c2_i32 : i32 to i64
              %167 = arith.index_cast %arg3 : index to i64
              %168 = arith.muli %166, %167 : i64
              %169 = arith.extsi %168 : i64 to i65
              %170 = arith.addi %140, %169 : i65
              affine.store %170, %165[%c0] {to = "write_addr_684"} : memref<1xi65>
              %171 = memref.alloc() {name = "_addr_685"} : memref<1xi65>
              %172 = affine.load %165[0] {from = "write_addr_684"} : memref<1xi65>
              affine.store %172, %171[%c0] {to = "_addr_685"} : memref<1xi65>
              %173 = memref.alloc() {name = "assert_cond_686"} : memref<1xi1>
              %174 = affine.load %171[0] {from = "_addr_685"} : memref<1xi65>
              %175 = arith.extsi %174 : i65 to i66
              %176 = arith.extsi %c1_i32 : i32 to i66
              %177 = arith.addi %175, %176 : i66
              %178 = arith.extsi %c8192_i32 : i32 to i66
              %179 = arith.cmpi sle, %177, %178 : i66
              affine.store %179, %173[%c0] {to = "assert_cond_686", unsigned} : memref<1xi1>
              %180 = affine.load %173[0] {from = "assert_cond_686", unsigned} : memref<1xi1>
              %181 = arith.extui %180 : i1 to i32
              %182 = arith.cmpi eq, %181, %c0_i32 : i32
              scf.if %182 {
                %219 = affine.load %171[0] {from = "_addr_685"} : memref<1xi65>
                %220 = arith.extsi %219 : i65 to i66
                %221 = arith.addi %220, %176 : i66
                hcl.print(%219, %221) {format = "\0A\0AAssertion failed {}: inttdatainbot Mem.write exceeds memory size: addr=%d+size=%d > 8192\0A\0A", signedness = "__"} : i65, i66
                scf.while : () -> () {
                  %222 = affine.load %173[0] {from = "assert_cond_686", unsigned} : memref<1xi1>
                  %223 = arith.extui %222 : i1 to i32
                  %224 = arith.cmpi ne, %223, %c1_i32 : i32
                  scf.condition(%224)
                } do {
                  affine.store %3, %173[0] {to = "assert_cond_686", unsigned} : memref<1xi1>
                  scf.yield
                }
              }
              %183 = affine.load %158[0] {from = "Mem.read_c_106", unsigned} : memref<1xi32>
              %184 = affine.load %165[0] {from = "write_addr_684"} : memref<1xi65>
              %185 = arith.index_cast %184 {unsigned} : i65 to index
              memref.store %183, %56[%185] {to = "inttdatainbot.alloc_c", unsigned} : memref<8192xi32>
              %186 = memref.alloc() {name = "read_addr_687"} : memref<1xi66>
              affine.store %145, %186[%c0] {to = "read_addr_687"} : memref<1xi66>
              %187 = memref.alloc() {name = "_addr_688"} : memref<1xi66>
              %188 = affine.load %186[0] {from = "read_addr_687"} : memref<1xi66>
              affine.store %188, %187[%c0] {to = "_addr_688"} : memref<1xi66>
              %189 = memref.alloc() {name = "assert_cond_689"} : memref<1xi1>
              %190 = affine.load %187[0] {from = "_addr_688"} : memref<1xi66>
              %191 = arith.extsi %190 : i66 to i67
              %192 = arith.addi %191, %151 : i67
              %193 = arith.cmpi sle, %192, %153 : i67
              affine.store %193, %189[%c0] {to = "assert_cond_689", unsigned} : memref<1xi1>
              %194 = affine.load %189[0] {from = "assert_cond_689", unsigned} : memref<1xi1>
              %195 = arith.extui %194 : i1 to i32
              %196 = arith.cmpi eq, %195, %c0_i32 : i32
              scf.if %196 {
                %219 = affine.load %187[0] {from = "_addr_688"} : memref<1xi66>
                %220 = arith.extsi %219 : i66 to i67
                %221 = arith.addi %220, %151 : i67
                hcl.print(%219, %221) {format = "\0A\0AAssertion failed {}: inttdataoutbot Mem.read exceeds memory size: addr=%d+size=%d > 8192\0A\0A", signedness = "__"} : i66, i67
                scf.while : () -> () {
                  %222 = affine.load %189[0] {from = "assert_cond_689", unsigned} : memref<1xi1>
                  %223 = arith.extui %222 : i1 to i32
                  %224 = arith.cmpi ne, %223, %c1_i32 : i32
                  scf.condition(%224)
                } do {
                  affine.store %3, %189[0] {to = "assert_cond_689", unsigned} : memref<1xi1>
                  scf.yield
                }
              }
              %197 = memref.alloc() {name = "Mem.read_c_107"} : memref<1xi32>
              %198 = affine.load %186[0] {from = "read_addr_687"} : memref<1xi66>
              %199 = arith.extsi %198 : i66 to i67
              %200 = arith.addi %199, %161 : i67
              %201 = arith.index_cast %200 {unsigned} : i67 to index
              %202 = memref.load %58[%201] {from = "inttdataoutbot.alloc_c", unsigned} : memref<8192xi32>
              affine.store %202, %197[%c0] {to = "Mem.read_c_107", unsigned} : memref<1xi32>
              %203 = memref.alloc() {name = "write_addr_690"} : memref<1xi66>
              %204 = arith.extsi %170 : i65 to i66
              %205 = arith.addi %204, %176 : i66
              affine.store %205, %203[%c0] {to = "write_addr_690"} : memref<1xi66>
              %206 = memref.alloc() {name = "_addr_691"} : memref<1xi66>
              %207 = affine.load %203[0] {from = "write_addr_690"} : memref<1xi66>
              affine.store %207, %206[%c0] {to = "_addr_691"} : memref<1xi66>
              %208 = memref.alloc() {name = "assert_cond_692"} : memref<1xi1>
              %209 = affine.load %206[0] {from = "_addr_691"} : memref<1xi66>
              %210 = arith.extsi %209 : i66 to i67
              %211 = arith.addi %210, %151 : i67
              %212 = arith.cmpi sle, %211, %153 : i67
              affine.store %212, %208[%c0] {to = "assert_cond_692", unsigned} : memref<1xi1>
              %213 = affine.load %208[0] {from = "assert_cond_692", unsigned} : memref<1xi1>
              %214 = arith.extui %213 : i1 to i32
              %215 = arith.cmpi eq, %214, %c0_i32 : i32
              scf.if %215 {
                %219 = affine.load %206[0] {from = "_addr_691"} : memref<1xi66>
                %220 = arith.extsi %219 : i66 to i67
                %221 = arith.addi %220, %151 : i67
                hcl.print(%219, %221) {format = "\0A\0AAssertion failed {}: inttdatainbot Mem.write exceeds memory size: addr=%d+size=%d > 8192\0A\0A", signedness = "__"} : i66, i67
                scf.while : () -> () {
                  %222 = affine.load %208[0] {from = "assert_cond_692", unsigned} : memref<1xi1>
                  %223 = arith.extui %222 : i1 to i32
                  %224 = arith.cmpi ne, %223, %c1_i32 : i32
                  scf.condition(%224)
                } do {
                  affine.store %3, %208[0] {to = "assert_cond_692", unsigned} : memref<1xi1>
                  scf.yield
                }
              }
              %216 = affine.load %197[0] {from = "Mem.read_c_107", unsigned} : memref<1xi32>
              %217 = affine.load %203[0] {from = "write_addr_690"} : memref<1xi66>
              %218 = arith.index_cast %217 {unsigned} : i66 to index
              memref.store %216, %56[%218] {to = "inttdatainbot.alloc_c", unsigned} : memref<8192xi32>
            } {loop_name = "j", op_name = "nttin_even_odd_brf_105"}
          } {loop_name = "i", op_name = "intt_out_swizzle"}
        }
      }
      %128 = affine.load %94[0] {from = "sys_steps", unsigned} : memref<1xi32>
      %129 = arith.extui %128 : i32 to i34
      %130 = arith.extsi %c1_i32 : i32 to i34
      %131 = arith.addi %129, %130 : i34
      %132 = arith.trunci %131 {unsigned} : i34 to i32
      affine.store %132, %94[0] {to = "sys_steps", unsigned} : memref<1xi32>
      scf.yield
    }
    %96 = affine.load %15[0] {from = "tele_inst_count", unsigned} : memref<1xi32>
    %97 = affine.load %16[0] {from = "tele_stall_count", unsigned} : memref<1xi32>
    hcl.print(%96, %97) {format = "ce0.mf uC instructions=%d stalls=%d\0A", signedness = "uu"} : i32, i32
    %98 = affine.load %38[0] {from = "tele_inst_count_32", unsigned} : memref<1xi32>
    %99 = affine.load %39[0] {from = "tele_stall_count_33", unsigned} : memref<1xi32>
    hcl.print(%98, %99) {format = "ce0.cf uC instructions=%d stalls=%d\0A", signedness = "uu"} : i32, i32
    %100 = affine.load %77[0] {from = "tele_inst_count_53", unsigned} : memref<1xi32>
    %101 = affine.load %78[0] {from = "tele_stall_count_54", unsigned} : memref<1xi32>
    hcl.print(%100, %101) {format = "ce0.cetiles.Mtile uC instructions=%d stalls=%d\0A", signedness = "uu"} : i32, i32
    %102 = affine.load %91[0] {from = "tele_inst_count_67", unsigned} : memref<1xi32>
    %103 = affine.load %92[0] {from = "tele_stall_count_68", unsigned} : memref<1xi32>
    hcl.print(%102, %103) {format = "proc uC instructions=%d stalls=%d\0A", signedness = "uu"} : i32, i32
    %104 = affine.load %94[0] {from = "sys_steps", unsigned} : memref<1xi32>
    %c100000_i32 = arith.constant 100000 : i32
    %105 = arith.extui %104 : i32 to i33
    %106 = arith.extsi %c100000_i32 : i32 to i33
    %107 = arith.cmpi sge, %105, %106 : i33
    scf.if %107 {
      hcl.print(%c0_i32) {format = "Reached max step ... aborting\0A", signedness = "_"} : i32
    }
    %108 = affine.load %94[0] {from = "sys_steps", unsigned} : memref<1xi32>
    hcl.print(%108) {format = "Total steps: %d\0A", signedness = "u"} : i32
    return
  }
}
